trained_models/birnn_ode_decay/final_model.pt (torch_old, 68364 bytes, 49 tensors)

embed_dp.weight f4 [1292, 7]
000000 00 00 00 00 00 00 00 00 00 00 00 00 00 00 00 00
       0.0 0.0 0.0 0.0
000010 00 00 00 00 00 00 00 00 00 00 00 00 e3 50 62 bf
       0.0 0.0 0.0 -0.88404673
000020 67 98 2e bf d0 ef d3 bf 70 52 b4 3e 89 9c 25 40
       -0.682013 -1.655756 0.35219145 2.5876791
000030 28 44 90 3f b0 47 72 3f 94 a3 60 3f c0 ba f1 be
       1.12708 0.94640636 0.877496 -0.4721279
000040 07 05 18 40 c5 e6 9e 3f 2f 2f ab 3c f7 bf 89 be
       2.3753068 1.2414175 0.020896522 -0.2690427
000050 4d 11 03 3f 96 52 28 3f 14 f6 89 be 42 7b 24 be
       0.51198274 0.65751016 -0.26945555 -0.16062644
000060 dc a6 73 3e 27 91 46 be 4e 2b a5 3e ae 3c b2 3e
       0.2379412 -0.19391309 0.322596 0.3481192
000070 79 8f b6 be 28 76 5a be c8 67 79 bf e2 fa 22 3e
       -0.35656336 -0.21334136 -0.9742398 0.15916017
000080 36 24 47 3f 3d 38 8b be e8 6b c9 bf 8d 82 f4 3f
       0.7778963 -0.27191344 -1.5736055 1.9102341
000090 d0 48 32 bf 1a ec 13 3f 92 cb e2 bd d9 bf 7f 40
       -0.69642353 0.5778214 -0.11073984 3.9960845
0000a0 a4 22 be bf 7f 40 b9 3f 6a 49 cd 3f 2b 72 3f c0
       -1.4854321 1.4472808 1.6038029 -2.9913433
0000b0 16 66 8a 3f 7e 16 ac 3e 4e f2 1c 40 a4 61 af be
       1.0812404 0.3361091 2.452289 -0.3425418
0000c0 ac 01 b6 be 5e bd 5c 40 dd 0b c1 bf 2c c0 ac 3f
       -0.3554815 3.449058 -1.5081745 1.3496146
0000d0 65 d1 e6 3f e6 80 a6 3f 38 72 21 bf b6 d7 3e 3f
       1.8032652 1.3008087 -0.6306491 0.745479
0000e0 bc 1f fe be 75 d0 05 c0 f9 13 1e 3f 15 99 94 3f
       -0.49633586 -2.0908482 0.61749226 1.1609217
0000f0 07 dc 20 3f 56 5a 7d 3d 7d de ca bd 22 df bb 3f
       0.62835735 0.06185373 -0.099057175 1.467747
000100 05 37 c2 3e 98 3d 2d 3e 99 d6 2f c0 e6 91 91 3f
       0.37932602 0.16918027 -2.747473 1.137265
000110 1c e6 9d 3e ce 33 b3 3f 41 98 a0 bd 48 4f 39 bf
       0.30839622 1.4000185 -0.0784154 -0.723866
000120 50 28 b5 be 02 23 9f 3f fc 7f 86 bf 48 a9 ae 3f
       -0.35382318 1.2432559 -1.0507808 1.364541
000130 d7 04 9a 3f 68 c6 81 bf 27 f7 4f 3e 59 c7 c8 3e
       1.2032727 -1.0138674 0.20309125 0.3921459
000140 53 57 4a bf a3 50 6d 3f 8c b8 ad be 7a 62 32 3f
       -0.79039496 0.92701167 -0.3392986 0.69681513
000150 25 57 3a bf 4a 40 4e bf af 01 bd 3f e0 1d 1c 3f
       -0.7278922 -0.8056685 1.4766139 0.60983086
000160 27 36 94 3f 34 d5 af 3f 27 58 1e be af 9c 9d be
       1.1579026 1.373694 -0.15463315 -0.30783603
000170 1d d2 fe ba 46 c1 86 bf 4b 3f c6 bb 80 8c dd 3f
       -0.0019441281 -1.0527732 -0.0060500256 1.7308502
000180 a9 cc 14 be 6a a2 4d be 42 ec c4 be 96 20 49 bf
       -0.14531197 -0.20081487 -0.384615 -0.7856535
000190 ba 96 43 3f ec 87 f9 3d 95 37 f0 be 14 ad 42 3f
       0.76401865 0.12184128 -0.46917406 0.76045346
0001a0 0b a0 63 bf 76 f1 d1 be 2d af 92 3f 13 61 dc 3f
       -0.8891608 -0.41004533 1.145971 1.7217125
0001b0 5c d0 a1 be 06 ea f6 bf da 1b 57 bf 09 ed 86 3e
       -0.31604278 -1.9290168 -0.84026873 0.26352718
0001c0 27 43 72 bf 1a 3d f7 3f 5b ca 72 3e ce d4 d2 be
       -0.94633716 1.9315522 0.23710005 -0.41177982
0001d0 1e 78 00 3f fc d6 c2 3f 9c d7 23 bf 95 d9 0b c0
       0.50183284 1.5221858 -0.6400087 -2.1851552
0001e0 79 2d 2d 3c 1d 74 af be 51 e7 b5 3f 32 a1 85 bf
       0.010569924 -0.34268275 1.4211217 -1.0439818
0001f0 e6 4b 2c 3f c9 30 87 bd a4 98 09 3f 4d 2e ed 3e
       0.6730331 -0.06601102 0.53748536 0.46324387
000200 2d 37 df 3e 5b 19 0a c0 33 e5 89 bf 16 f0 76 bf
       0.43596783 -2.1577976 -1.0773071 -0.9646009
000210 ca 6c ce 3d b3 d5 df 3f d2 57 86 3f bb 68 05 c0
       0.100793436 1.7487091 1.0495551 -2.0845172
000220 5c 60 85 bf e0 7a 25 3f f2 71 8c 3f 17 2d a6 3f
       -1.0420032 0.6464062 1.0972273 1.298251
000230 51 0a e0 3d fa 58 66 bf f2 00 cb 3d 63 84 0f 3f
       0.10939468 -0.8997952 0.0991229 0.5606138
000240 b5 6f dd 3e 5e 54 d8 3d 61 88 ed be 6f b7 08 3e
       0.43249288 0.10562967 -0.4639311 0.13351224
000250 94 e0 34 be cb ea 1d 3f b5 c6 bc 3e 3c 9c 09 bf
       -0.17663795 0.6168639 0.3687035 -0.5375402
000260 01 a8 26 bf 3e 63 07 3e 9e 12 af 3f d0 94 20 bf
       -0.65100104 0.13221452 1.3677557 -0.6272707
000270 0d 47 be 3d f2 e6 cb bd da b7 7d 3f 7d a1 c5 be
       0.092908956 -0.09956159 0.9910866 -0.38599768
000280 6d 77 d5 be 3f 90 7d 3f 8c 6d 9f be 64 1b 18 3f
       -0.41692677 0.9904823 -0.31138265 0.59416795
000290 db 04 ef bf af 76 c4 be b5 9b 14 3f 7d 03 bd bd
       -1.8673357 -0.38371798 0.5805009 -0.09229181
0002a0 02 51 d8 3e 81 e0 d0 3e 3e 54 8f bf af 32 a5 bf
       0.42249304 0.40796283 -1.1197584 -1.2906092
0002b0 27 ec 1d 3e ef cc 0c 40 c0 b8 78 bf 85 ad ad 3d
       0.15422116 2.2000082 -0.97156906 0.08480362
0002c0 c5 ec 58 40 35 cc 3b bf ee 5d 3c bf 7c 42 f4 bf
       3.3894513 -0.7335847 -0.73580825 -1.908279
0002d0 cc 91 f8 3e dc 81 e9 be 31 b5 ed 3f c5 bf 00 3f
       0.48548734 -0.45606887 1.857092 0.5029262
0002e0 61 4c 89 3f b9 e0 32 40 96 77 b6 3e 46 67 87 3f
       1.0726434 2.794966 0.35638112 1.0578392
0002f0 81 c8 b8 bd 2b 4c 73 3e 31 28 11 bf 18 e2 9a 3f
       -0.09022618 0.23759525 -0.5670195 1.2100248
000300 e8 ef 99 3f 42 fa ca be 95 65 a0 3d 84 f5 84 3f
       1.2026339 -0.39644057 0.07831875 1.0387425
000310 8c 46 15 be 7b 33 a2 3e e5 d9 49 3f b0 45 4d bf
       -0.14577693 0.316799 0.78848106 -0.8018446
000320 83 f7 6e bf 7e 92 63 bf d3 ad 16 be 1d f4 17 3f
       -0.9334642 -0.88895404 -0.14714746 0.5935686
000330 2a 14 9c bf 59 e2 96 3f 35 13 83 bf 86 60 24 bf
       -1.2193654 1.1787826 -1.0240237 -0.64209783
000340 2b 28 78 bf 3e b0 0e 3f 84 6b 14 bf 6c cd 52 3f
       -0.9693629 0.55737674 -0.57976556 0.823447
000350 4f 18 10 bf 21 75 87 3f 7a 3e aa bf 46 0f f9 bd
       -0.5628709 1.058262 -1.3300316 -0.12161116
000360 6c 25 15 3e 44 d9 98 3e 2b e9 ea bd 42 1a f8 3e
       0.14565057 0.2985326 -0.114702545 0.48457533
000370 a5 d9 5c 3e 62 55 37 bf fd dc fd bd c2 3d e3 3c
       0.215674 -0.7161466 -0.12395666 0.02773941
000380 79 65 1e 40 da e5 19 bd 8a 19 03 40 94 51 ba 3d
       2.4749434 -0.03757272 2.0484338 0.09097591
000390 2b b5 bf bf b3 33 0d bf 78 eb ca 3e 59 f3 c5 3e
       -1.4977163 -0.5515701 0.39632773 0.38662222
0003a0 65 11 b9 be 18 32 90 bf a9 cd 0a be 7b 51 c6 3d
       -0.36146083 -1.1265287 -0.13555016 0.0968351
0003b0 61 29 b8 3f 6d 46 4b bf af b4 a0 bd 69 6e b7 bd
       1.4387628 -0.79404336 -0.07846963 -0.08956606
0003c0 41 da d1 bd ee 91 65 be 94 7e 7f 3f 7c e0 44 3f
       -0.10246707 -0.22418949 0.9980252 0.76905036
0003d0 75 22 72 3e 39 eb d8 be 5c 0b 80 3c 76 26 d3 bd
       0.23645957 -0.4236696 0.015630417 -0.1031007
0003e0 b6 96 13 bf fd 00 37 3f ea 2e a9 bf 8a 73 c0 3f
       -0.5765184 0.71485883 -1.3217442 1.503526
0003f0 b9 3c 31 3f 1f 64 42 bf 23 68 39 bf 3e 9a 9c bf
       0.6923328 -0.7593402 -0.72424525 -1.2234571

embed_cp.weight f4 [620, 6]
000000 00 00 00 00 00 00 00 00 00 00 00 00 00 00 00 00
       0.0 0.0 0.0 0.0
000010 00 00 00 00 00 00 00 00 5c be 0d bf 83 32 c6 bf
       0.0 0.0 -0.5536859 -1.5484165
000020 6c 10 87 3f 40 fb af be e7 e5 ae 3f 98 78 06 be
       1.0551887 -0.34371376 1.3663911 -0.1313194
000030 21 2d 56 3e f9 62 94 3f 4b 9b b1 3e 6b 0e 78 be
       0.20915653 1.1592704 0.34688792 -0.2422425
000040 e3 2e cb 3f e8 83 1e be 8e e0 77 bf 32 a5 4c 3d
       1.5873684 -0.15480006 -0.9682702 0.04996223
000050 99 3b bc 3e 52 5d a5 bf 3b 2d 1d 3f 5c e6 be be
       0.3676422 -1.2919104 0.6139714 -0.37285125
000060 47 f9 8d bf f7 61 f5 3f 5f c7 fe 3e d6 c1 08 bf
       -1.1091698 1.9170521 0.49761483 -0.5342077
000070 99 4f 70 bf 60 6c 0b 3e b1 bd 3c be 21 e4 4a bb
       -0.93871456 0.1361556 -0.18431737 -0.003095873
000080 75 5a 5b be 6d 8b 52 3e e7 a3 84 bf fc d5 2a 3f
       -0.21421225 0.20560999 -1.0362519 0.66732764
000090 6c 46 08 3e 2e 81 b6 bd 9b 5f e7 3f 82 26 ad 3f
       0.13308114 -0.08911358 1.8076051 1.3527377
0000a0 20 e4 bf 3e be c9 f3 be 70 9a 3c bf f8 b3 e0 3e
       0.37478733 -0.47614855 -0.7367315 0.43887305
0000b0 7f 49 21 bf b7 b2 f5 3e 8e d6 bc 3f 8a 6f a4 bf
       -0.6300277 0.4798791 1.4752977 -1.2846539
0000c0 fb b9 6f 3f 2a 84 d2 3e 8e 46 53 bf 12 86 ef bf
       0.9364316 0.41116458 -0.8252953 -1.871279
0000d0 54 92 04 3f 11 9c 10 3f 39 c7 88 bf f6 a5 af bf
       0.5178578 0.5648814 -1.0685798 -1.3722522
0000e0 37 8f 0f 3f 97 a4 81 bf f6 07 0f 3e b9 ff 4c 3f
       0.56077904 -1.0128354 0.1396788 0.800777
0000f0 45 07 78 bf 21 59 ab bf 48 6f 81 3d 9a da b5 bf
       -0.9688609 -1.3386575 0.06320053 -1.4207337
000100 49 bf cc bf 62 3b 02 40 32 79 34 3f 65 20 46 be
       -1.5995876 2.0348744 0.7049743 -0.19348295
000110 01 14 41 3f b2 6a 5b bf 81 be 80 3e 12 84 0a 3e
       0.7542115 -0.8570968 0.25145343 0.13526943
000120 f3 2c 5c be 41 b9 47 bf d4 b9 ab 3f 88 05 c5 3d
       -0.21501522 -0.7801705 1.3416085 0.096201956
000130 98 a6 d6 be a3 9e 94 3e 44 c3 17 bd 7d 1b 56 bf
       -0.41923976 0.2902728 -0.037051454 -0.83635694
000140 57 b4 0e 3f 4f b6 0f 3f 59 05 e7 3f 70 b5 94 be
       0.55743927 0.56137556 1.8048507 -0.29044676
000150 44 22 e0 3e a8 5c 5f bf f0 92 a6 be 94 56 7d be
       0.43776143 -0.8725076 -0.3253398 -0.24740058
000160 2c 4c f0 bf 1a 80 4d 3f f5 b6 3c 40 84 da d6 3f
       -1.8773246 0.8027359 2.9486668 1.6785436
000170 76 70 8c 3e 54 e1 ac be 90 b7 d0 bf c6 ce 8a 3f
       0.2742955 -0.33765662 -1.6306019 1.0844352
000180 61 0a 55 3f 7b 8a 7b 3e d0 2a 38 3d ad 04 1d c0
       0.8321896 0.24564545 0.044962704 -2.4534104
000190 c9 6c 5f 3f c1 37 3d 3f e7 ff cb 3f 65 a1 85 3e
       0.8727537 0.739132 1.593747 0.26099697
0001a0 70 d7 69 3e 9b f1 ab be 05 26 a1 bf e5 75 fc 3f
       0.22836089 -0.33582768 -1.2589728 1.9723479
0001b0 26 65 e8 bd ed b2 cb be c2 15 e4 3d 12 42 81 bf
       -0.113474175 -0.39784947 0.111369625 -1.0098288
0001c0 2c 8d 22 bf 35 78 02 3f a8 aa bd be 55 8e 5c be
       -0.6349666 0.5096467 -0.37044263 -0.2153867
0001d0 96 bd a5 3f 49 a2 4a 3e ca a2 45 3f 84 32 c3 be
       1.2948482 0.1978847 0.7720152 -0.38124478
0001e0 80 96 5a 3f 73 98 86 bf 4c 82 dc be 5d f1 d8 be
       0.85385895 -1.0515274 -0.4306816 -0.42371646
0001f0 2c 98 69 bf f1 4b 3e 3e 0e 8b 1b be 5f e7 5a 3f
       -0.9124782 0.18583657 -0.15189764 0.85509294
000200 00 20 8f be ac 3c 9c bf 77 3e 71 be 6f df 70 3f
       -0.27954102 -1.2206016 -0.23558985 0.9409093
000210 c5 d7 c4 3f 56 3d a1 bf fa 80 9d 3f b1 2d 63 3e
       1.5378348 -1.2596843 1.2304986 0.22185399
000220 cc 66 a2 3e 44 83 62 bf e3 e3 33 bf 71 04 1a 3f
       0.31719053 -0.88481545 -0.702696 0.6016303
000230 97 a5 a6 3e 55 a8 f2 bf cd d1 3e bf c2 9c 73 3f
       0.3254821 -1.8957621 -0.7453888 0.9516107
000240 2a 63 7c 3c 49 80 6f be a1 dc d1 3f 0e 79 5f 3f
       0.015404502 -0.2338878 1.6395456 0.8729409
000250 0f a1 e4 bf 8a 05 50 be c9 69 02 3e 90 36 14 3f
       -1.7861651 -0.20314613 0.12735666 0.57895756
000260 5d 1e 94 bf 10 2f 6c 3f b4 22 1b be 8f 05 ca be
       -1.1571766 0.9225931 -0.15149957 -0.39457366
000270 d7 0f d4 bf 32 84 6a bf bd a6 4c 3f fd 63 21 bf
       -1.6567334 -0.91607964 0.7994192 -0.63043195
000280 3b 3d 74 be 8d ee 5c 3f 0f be 25 bf d0 ce 38 3f
       -0.23851483 0.863015 -0.6474313 0.7219057
000290 cf 8d a9 3e 0e bd 3d c0 01 bc 49 bf 1c cb 0b 3f
       0.33116004 -2.964664 -0.78802496 0.54606795
0002a0 42 89 96 3f ce d4 10 40 60 a8 a4 3f 87 58 9b be
       1.1760638 2.2629886 1.2863884 -0.30340979
0002b0 4c 81 84 3f 42 81 94 3f 23 7c f8 3e 4a d3 26 3f
       1.0351958 1.1601946 0.4853221 0.6516615
0002c0 5f 2d 90 bf 32 e1 96 be ea 57 a1 bc 3f 01 7f bf
       -1.1263846 -0.29468685 -0.019695241 -0.99611276
0002d0 e9 04 8b 3e 45 7a 94 3e 67 72 21 3e 3b 6e ba 3e
       0.27152184 0.28999534 0.15766297 0.36412224
0002e0 95 d8 68 3f 69 ec 26 3e cf 96 2e bf e2 35 7b 3e
       0.9095548 0.16301121 -0.68198866 0.24532273
0002f0 bb 98 be be 80 77 8b 3e 38 6f 4c bb 4e 4d 38 3e
       -0.372259 0.2723961 -0.0031194221 0.1799824
000300 8a f2 23 be 7f 12 8d bf 2b dc 52 bf ec cc 95 3f
       -0.1601049 -1.102127 -0.823672 1.1703162
000310 ea 47 10 3e ff 49 4a bf 1b d7 15 bf 55 70 dc 3d
       0.14089933 -0.7901916 -0.5853135 0.10763613
000320 80 46 62 be 1b e9 85 3f 4e 51 b1 bd 17 23 18 be
       -0.22097206 1.0461763 -0.08658086 -0.14857136
000330 3c 6d b2 3e b1 6e c2 3e 73 11 3e bf 25 f0 82 bd
       0.34848964 0.37975076 -0.74245375 -0.0639346
000340 86 40 97 be 77 1f 9d bf cb 21 14 bf da d7 4e bf
       -0.29541415 -1.2275227 -0.57864064 -0.80798113
000350 68 94 34 3e 3d 76 e1 3e 02 27 47 3f 61 d8 b2 bf
       0.17634737 0.4403552 0.77793896 -1.3972284
000360 ae f6 a3 bd 5b 74 e8 3e 77 e9 8d be d9 49 96 3c
       -0.08006035 0.45401272 -0.27717182 0.01834576
000370 fc 9b 84 3f c1 e0 99 bf 1f ea c5 3f 58 f0 65 bc
       1.0360103 -1.2021714 1.5462073 -0.014034353
000380 0d b7 1d 3f 02 cd ba bf 55 57 af bd a0 c9 c3 3e
       0.6160744 -1.4593813 -0.08561579 0.38239765
000390 5a 86 34 3f d8 a2 af 3e 45 69 b3 bf ce 24 8d bd
       0.70517504 0.34303927 -1.4016501 -0.068917856
0003a0 ec cf 69 3f aa 5f 22 bf 69 a5 95 3e 20 ee a5 be
       0.9133289 -0.6342722 0.2922776 -0.32408237
0003b0 b4 09 a2 be 3e 39 b9 bc 65 99 c4 be 3b ff 8e bf
       -0.31648028 -0.022610303 -0.3839828 -1.117164
0003c0 dc 76 c6 3d 0c cd a1 3f df e2 a2 3f c5 74 17 bf
       0.096906394 1.26407 1.2725486 -0.5916255
0003d0 9d b6 fb be 6d 13 88 bf 93 da f4 bc 27 05 6f 3f
       -0.4916276 -1.0630928 -0.02988938 0.93367237
0003e0 b7 96 11 3f 27 d5 51 3f 23 2c c2 3e ab fb 53 bf
       0.568706 0.8196587 0.379243 -0.8280589
0003f0 9b 5f 09 bf 33 79 76 3f bf 99 e4 be 2b e2 66 3e
       -0.5366151 0.96278685 -0.4464855 0.22547214

gru_dp_fw.decays f4 [7]
000000 18 cb 5e 04 00 00 00 00 20 cb 5e 04 00 00 00 00
       2.618923e-36 0.0 2.6189245e-36 0.0
000010 40 cb 5e 04 00 00 00 00 01 00 00 00
       2.6189302e-36 0.0 1e-45

gru_dp_fw.gru_cell.weight_ih f4 [21, 7]
000000 90 c4 a0 3c 3e 0b 77 3e b9 98 99 3e 22 d0 27 3e
       0.019624978 0.24125382 0.2999933 0.1638799
000010 4c 72 9f bd ea cb 51 be cf 1f 61 be d7 26 7f be
       -0.07785472 -0.20487943 -0.2198479 -0.2491716
000020 85 93 a1 3e c3 ef 9c 3e e8 b9 12 3d 20 79 dd bc
       0.3155786 0.30651674 0.035821825 -0.027035296
000030 ec a0 b1 bd 78 10 31 bd 62 f3 33 be 72 dd 2c 3e
       -0.086732715 -0.043228596 -0.17573312 0.1688135
000040 a6 58 a8 be 16 68 3b 3e d2 8c 6c 3e f8 d3 72 be
       -0.32880133 0.18301424 0.23100594 -0.23713672
000050 bb 82 4f be e0 b7 e1 3c a4 77 89 be 24 2b ba 3d
       -0.20264713 0.027553499 -0.2684909 0.0909026
000060 30 dc 71 bd bc 7c d3 3d ab 64 bd 3e 72 d8 64 3e
       -0.059047878 0.103265256 0.36990866 0.22348192
000070 84 3e db 3d 7f cf b7 be 54 ef d8 bd ef bc 15 be
       0.10705283 -0.35900494 -0.10592523 -0.14622854
000080 80 9b 88 bb 80 c6 be bc 3b 25 6b be 08 7f 25 3d
       -0.0041689277 -0.023288012 -0.22963421 0.04040435
000090 d0 c4 f9 3c 4e 91 47 3e 68 ab 47 3d 7e 5e 7d be
       0.030489355 0.19489023 0.04874745 -0.24743077
0000a0 a8 e6 7c bd 81 48 9d 3e 82 62 4d be e7 88 1a be
       -0.06174341 0.3071938 -0.20057109 -0.15091287
0000b0 ca ed 1c 3e 00 92 fb 3c 93 56 aa be d9 d8 9f be
       0.15325084 0.030709267 -0.33269176 -0.3122013
0000c0 58 75 63 3d aa eb 7f 3e 18 18 2d bd c0 5f 11 be
       0.05553183 0.24992242 -0.042259306 -0.14196682
0000d0 31 7c b3 3e 9e 8a 53 be 09 eb 42 be 78 14 b7 3d
       0.35055688 -0.20658347 -0.19034971 0.08939451
0000e0 69 08 99 3e de e4 9f be 7f d1 bf 3e 38 3f af be
       0.2988923 -0.312293 0.3746452 -0.3422792
0000f0 cc 67 0f be 09 fa a4 3e 30 15 8e be 7c 79 ba 3d
       -0.14004439 0.32222012 -0.2775054 0.091052026
000100 14 49 e1 3d 54 78 c0 be 40 88 18 bd 52 dd 6d 3e
       0.11000267 -0.37591803 -0.037239313 0.23228958
000110 07 34 96 be 82 a3 24 3e 40 c7 c7 bc c7 f3 9c 3e
       -0.2933657 0.16077998 -0.024387002 0.30654737
000120 d5 e9 8a 3e c0 44 cd 3d 8a 17 3f be 40 a9 5e 3c
       0.27131525 0.10022879 -0.18661323 0.013590157
000130 8e 1f 14 3e e3 36 91 3e ab 18 bd 3e 3c da e5 bd
       0.14465162 0.28362188 0.36932883 -0.112232655
000140 49 10 03 be 1c c2 3d be c6 23 35 be ca d2 77 3e
       -0.12799181 -0.18531078 -0.17689428 0.24201503
000150 e6 7b 05 be 08 6c 31 3d ef c4 aa be 78 0c a0 be
       -0.13035545 0.043315917 -0.33353373 -0.31259513
000160 6f c0 b2 3e 52 8b 42 3e b9 3f ad 3e 80 b7 20 bc
       0.3491244 0.18998459 0.3383768 -0.009809375
000170 bd 77 94 3e 65 39 b1 3e 04 a3 ea 3d 90 bc e1 bc
       0.28997603 0.346141 0.11456874 -0.027555734
000180 3c 4d e1 bd 4b a8 b4 be fa 42 10 3e d0 68 84 3c
       -0.110010594 -0.35284647 0.1408805 0.01616326
000190 39 24 ae be 98 52 2e be 62 72 09 3e f4 27 94 3d
       -0.3401201 -0.17023695 0.1342254 0.07234183
0001a0 ee 4e 81 be ab 2f 20 be 8e 44 23 3e f5 b3 ae 3e
       -0.2525553 -0.15643184 0.1594412 0.3412167
0001b0 fc c0 f8 bd 36 8b 46 3e 47 09 aa 3e c2 c3 78 3e
       -0.12146184 0.19389042 0.33210203 0.24293426
0001c0 f0 e2 c8 3d fc 95 b9 bd fa 47 49 3e c8 07 d0 3d
       0.0980891 -0.090618104 0.19656363 0.10157734
0001d0 60 72 ed 3d 66 15 8e be ea e8 80 be 0c 0e b4 be
       0.11594081 -0.277507 -0.251777 -0.35166967
0001e0 fe 69 8c be 00 29 3b 3b 96 c1 69 3e 50 06 99 be
       -0.27424616 0.0028558373 0.22827753 -0.2988763
0001f0 6e 64 a0 be 5e 15 af be 8e d1 27 be 48 83 ac be
       -0.31326622 -0.3419599 -0.16388533 -0.3369391
000200 58 31 05 bd 16 b4 3d be f6 dc 77 3e f0 30 bf 3d
       -0.03251776 -0.18525729 0.24205384 0.09335506
000210 98 b0 94 3d 60 77 6a 3c ac ad bd be ff 9e aa be
       0.07260245 0.014310688 -0.37046564 -0.3332443
000220 9a 27 75 3e 75 2e 82 be c8 46 a0 bd c9 a1 b1 3e
       0.23940888 -0.2542607 -0.078260005 0.34693745
000230 3d f0 0d be 30 0e 8b be 48 42 ea 3d e5 5b 79 be
       -0.13861175 -0.27159262 0.114384234 -0.24351461
000240 78 e1 90 3d 54 f1 20 be b8 bc f6 3d
       0.07074255 -0.1571706 0.12047714

gru_dp_fw.gru_cell.weight_hh f4 [21, 7]
000000 a1 3d 9a be 85 c2 bf 3e 47 9c 6d be 91 0a 92 3e
       -0.30125144 0.37453094 -0.23204146 0.28523687
000010 e3 41 94 3e f5 94 b2 3e e0 8b 45 3e 83 12 47 be
       0.28956518 0.3487927 0.1929164 -0.19440655
000020 74 17 18 3f a1 be 68 be 65 aa 95 be 9d 0f 90 bd
       0.59410787 -0.22728969 -0.29231563 -0.07034228
000030 8a fd fe bd 9d 91 de 3d e6 2d df 3d b7 e8 7f be
       -0.124507025 0.10867617 0.10897426 -0.24991117
000040 60 d6 09 bf fb 01 8a 3d 1a e3 7c bd ba 16 24 be
       -0.53842735 0.06738659 -0.06174002 -0.16024294
000050 38 70 e2 bd c4 2b 3e be c4 44 b0 3e 53 2b 22 3e
       -0.1105656 -0.18571383 0.34427464 0.1583684
000060 fa 5d ab be 48 65 ae 3d b1 59 d8 bc 9a 16 a5 3a
       -0.33470136 0.085154116 -0.026409956 0.0012595237
000070 a3 92 b6 3d db fa f6 bb be 37 a9 3e d1 14 9e be
       0.089146875 -0.0075372285 0.3305034 -0.30875257
000080 39 b8 0e bf 71 9a 6b 3e c2 2d 83 bd 9d a5 e7 3c
       -0.5574985 0.23008133 -0.06405212 0.028277213
000090 b4 b3 0f be bf 5e e7 be 39 ca 06 3e 98 10 c6 be
       -0.14033395 -0.45189473 0.1316308 -0.38684535
0000a0 9c 81 8e bd 07 42 e0 bd 19 cf 6e 3e f7 06 d6 3d
       -0.06958315 -0.10950094 0.23321189 0.10450547
0000b0 91 27 97 3e 1c 84 c1 be f4 0c 3c 3d c0 e8 3c 3b
       0.29522374 -0.37796104 0.04591079 0.0028825253
0000c0 43 ac 20 3e b1 64 97 3e 3f 75 77 3e 59 57 bb bd
       0.15690713 0.2956901 0.2416582 -0.091475196
0000d0 54 40 8d 3c fb 7f 89 bc 96 14 01 be 06 84 53 be
       0.017242588 -0.016784659 -0.12605509 -0.20655832
0000e0 36 7b f0 3d de c8 ae 3e 7c 0e ae be 6d e8 87 bd
       0.117422506 0.34137625 -0.33995426 -0.066361286
0000f0 04 f4 50 bd b6 eb b5 be df ff 4f bd 36 5e 74 3e
       -0.05101396 -0.35531396 -0.050781127 0.23864064
000100 8e 06 9e 3e 83 f3 c0 be 9b b2 27 3e 20 e5 5f be
       0.30864376 -0.37685785 0.16376726 -0.21864748
000110 7f 90 15 3e 4b 43 e8 bd 37 40 26 be 40 f8 96 3d
       0.14605902 -0.1134096 -0.16235434 0.07371569
000120 2a a3 44 3e b2 20 12 3e d1 a3 2f 3e d1 8a dc bd
       0.19202867 0.14270285 0.17152335 -0.10768665
000130 4a 0f 00 be e9 c2 21 3e 89 0c 34 be ce 77 49 3e
       -0.12505832 0.15797009 -0.17582907 0.19674608
000140 50 f5 d7 3d 72 4b a0 3e a1 54 7d bd 39 21 38 3e
       0.105448365 0.3130756 -0.061848287 0.17981423
000150 2f 86 4a be 6f 00 4e 3e 02 07 a6 be 84 14 2e be
       -0.1977775 0.20117353 -0.32427222 -0.17000014
000160 7c da b5 be fd d6 fe 3d 3a a6 06 3e 2c 40 22 be
       -0.35518253 0.124433495 0.13149348 -0.15844792
000170 d7 88 f1 bd 3a 92 9a be 66 1b 4c 3e e6 43 07 3e
       -0.11793678 -0.30189687 0.19932327 0.13209495
000180 33 86 b8 bd 3d 2c 1c 3e ea 64 29 bf b8 ca f3 bd
       -0.090099715 0.1525125 -0.6616961 -0.119039
000190 10 a0 00 bf df 47 91 be 7a dc d0 3c 99 3c 57 3e
       -0.50244236 -0.28375146 0.025495756 0.2101921
0001a0 22 8a 8c bd 44 a5 9a bc fa ef f5 be 33 80 d2 be
       -0.06862284 -0.018877633 -0.4803465 -0.41113433
0001b0 06 b8 bd bd b5 2c f2 3d ab 01 3e 3e 9a 7d d8 bc
       -0.09263615 0.118249334 0.18555324 -0.026427079
0001c0 92 01 a3 3e 49 3b d1 3d 0c 05 04 bf ec 48 79 3e
       0.31837136 0.10216386 -0.515702 0.24344224
0001d0 90 65 93 be ec 76 77 be d7 54 ae 3e e7 94 c2 bd
       -0.28788424 -0.24166459 0.34049103 -0.09501057
0001e0 bc 33 5e be b6 e7 13 be a8 38 02 be ad b5 8f 3d
       -0.21699423 -0.1444386 -0.12716925 0.07017074
0001f0 35 9a 5d 3e e4 dd 2d be 3f d3 03 be 15 e8 07 3d
       0.21640857 -0.16979176 -0.12873553 0.033180315
000200 b5 6d df 3e 5d 17 7d bc 0a e1 3c bf 51 49 8f be
       0.43638387 -0.015447465 -0.7378088 -0.27985623
000210 40 03 90 bd e5 69 e3 bd 95 20 92 3e ec 36 45 3e
       -0.0703187 -0.11104182 0.28540483 0.19259232
000220 85 bc 8c be 3c 2d 12 3d 05 8a 89 be ec a1 ec 3d
       -0.2748758 0.03568767 -0.26863113 0.11554322
000230 88 7e 95 be 6c cc 0c 3e f1 5a cf 3e dd e3 ac be
       -0.29198098 0.13749856 0.4049907 -0.33767596
000240 ac 89 d2 3d 6a 32 08 be c8 4a f7 be
       0.10280165 -0.13300481 -0.4829924

gru_dp_fw.gru_cell.bias_ih f4 [21]
000000 40 85 a7 3e d4 b1 9e be 3b c6 d3 3e f9 13 18 3d
       0.3271885 -0.30995047 0.41362175 0.037128422
000010 fa 8f 02 bf a4 3c a3 3d 02 5f 17 bd a2 04 97 3e
       -0.5100094 0.07970551 -0.03695584 0.29495722
000020 da 39 37 bd 3b b1 ab be 9e f0 b2 be 8f c3 60 bb
       -0.044732906 -0.33533654 -0.349492 -0.003429625
000030 b9 3b 92 3e 87 87 25 3e e6 54 51 bd da aa f6 bc
       0.2856119 0.16164981 -0.051106356 -0.030110765
000040 18 f0 eb bd d9 05 ee 3c 59 3e f0 bc cb 58 4f 3e
       -0.115204036 0.029055523 -0.029326605 0.20248716
000050 17 25 bc 3b
       0.005741726

gru_dp_fw.gru_cell.bias_hh f4 [21]
000000 a0 be 4a be 3f 3c d7 be 7d 5e 38 be 11 25 15 bf
       -0.1979928 -0.42038152 -0.18004794 -0.58259684
000010 9b e4 d6 be 17 c2 0a 3d 21 70 32 be 08 1a bf be
       -0.41971287 0.033876505 -0.17425586 -0.37324548
000020 06 aa b7 3e fc 02 95 3e 62 25 af 3d 2a 0e 89 3c
       0.35871905 0.2910384 0.08552052 0.016730387
000030 6f b2 66 3e cc 84 88 3e e5 07 31 3e 06 cb 6a be
       0.22529005 0.26663816 0.17288168 -0.2292901
000040 c0 14 8f 3e 00 4e a8 bc d2 1a 9d 3d 19 68 bc be
       0.27945518 -0.020545006 0.07671131 -0.3679817
000050 95 f8 51 3e
       0.20504983

gru_dp_fw.ode_net.odeblock.odefunc.fc1.weight f4 [7, 7]
000000 ae 0d 4e 3e 10 72 a7 bc ae 2d 9b be 0f 7f aa 3e
       0.20122406 -0.020440131 -0.30308288 0.33300063
000010 0f 0c 46 be 40 c7 c9 3d 08 e5 9d bd 2c 34 9e be
       -0.19340537 0.09852457 -0.077097 -0.3089918
000020 49 90 11 be d5 0e 9b 3e a9 c7 ab 3e 04 9b 8e be
       -0.14215197 0.30284753 0.33550766 -0.27852643
000030 e8 3d 6f be 40 c5 bc be 70 23 b2 be 34 a5 18 be
       -0.23363459 -0.3686924 -0.34792662 -0.1490677
000040 33 5e a5 be 9e 62 18 3e 9c 6b 98 3d e2 33 69 3e
       -0.3229843 0.1488137 0.074424 0.22773698
000050 34 96 bc be fb 3d 84 3e 72 38 65 3e 25 67 a4 3e
       -0.36833346 0.25828537 0.22384813 0.32109943
000060 28 9f 43 bd 5c 47 c3 bd b6 fe be be 94 1b ba be
       -0.047759205 -0.09535095 -0.37303704 -0.36349165
000070 78 6a 0d bd a6 14 0b 3e e0 00 b9 be e8 44 36 be
       -0.034525365 0.13582096 -0.3613348 -0.17799723
000080 07 86 9c be 83 3d b5 be 99 2d a9 3e 5a b4 66 3e
       -0.30571005 -0.35398492 0.330426 0.22529736
000090 c0 4c 66 3c 49 f5 21 be 87 6c af 3e 64 1c ce bd
       0.014056385 -0.15816225 0.34262487 -0.10064009
0000a0 58 85 b9 be d8 61 5a bd 9d 8e a2 3e c5 b4 ba 3e
       -0.36234546 -0.053315967 0.3174943 0.3646604
0000b0 8a a4 67 3e 04 ba fb 3d 8e f9 18 3e 72 9d 1c 3e
       0.2262136 0.12291339 0.14938948 0.15294436
0000c0 d2 8c a9 be
       -0.3311525

gru_dp_fw.ode_net.odeblock.odefunc.fc1.bias f4 [7]
000000 04 b0 a8 3d 89 9b ab 3e b6 80 07 3e d0 f2 78 3d
       0.08236697 0.335171 0.13232693 0.06077844
000010 7f 33 8e 3e 73 ec 80 3e 6e 5c bc be
       0.27773663 0.25180396 -0.36789268

gru_dp_fw.ode_net.odeblock.odefunc.fc2.weight f4 [7, 7]
000000 6b e8 a9 3e 9e b1 75 3e 2e 4d 37 3e 4c 42 b0 bd
       0.33185133 0.23993537 0.17900535 -0.08606395
000010 00 1f 36 bc fd 1a 60 be c3 bc a8 3e 40 13 58 3d
       -0.011115789 -0.21885295 0.32956514 0.052752733
000020 e0 c1 6c 3d 8b 4b 9c be ba ef 2d 3e 05 95 92 be
       0.05780208 -0.30526385 0.1698598 -0.28629318
000030 60 1f 58 bd 7c cd d3 bd 98 66 31 3d 39 58 a8 3e
       -0.052764297 -0.103419274 0.04331073 0.3287981
000040 ae 7f 7b 3e 89 e4 9a be 63 30 aa 3e 42 7c 27 3e
       0.24560425 -0.30252483 0.3324004 0.16355994
000050 18 c3 c4 bd af a8 95 3e 8f 3c 74 be c2 3a 14 3e
       -0.09607524 0.29230258 -0.23851226 0.1447554
000060 26 da b9 be c4 09 ea 3d 49 1e 84 3e 17 2a 84 3e
       -0.36299247 0.11427644 0.25804356 0.25813362
000070 f6 63 8c be c7 20 43 be f0 62 74 3d 90 83 ed bd
       -0.27420014 -0.19055472 0.059664667 -0.11597359
000080 30 2b 75 3d 14 53 28 be d7 c7 a3 3e b6 bb 90 be
       0.05985564 -0.16437942 0.31988403 -0.28268212
000090 d8 84 ec 3d 45 a8 b8 3e 6b 11 a9 3e 0c 71 a2 bd
       0.115487754 0.3606588 0.330211 -0.07931718
0000a0 97 47 70 be f3 59 bd be d4 95 df bd 71 e3 ac 3e
       -0.2346481 -0.36982688 -0.10917249 0.33767274
0000b0 42 6c 06 be 4b e1 8c 3e c0 1c 92 3c 60 d2 23 bc
       -0.13127235 0.27515635 0.017835975 -0.009998888
0000c0 1d e7 95 3e
       0.29277888

gru_dp_fw.ode_net.odeblock.odefunc.fc2.bias f4 [7]
000000 a3 9c 98 3e e0 4e 43 bc 90 bd 42 3d 6e 21 1c 3e
       0.29807004 -0.011920661 0.047544062 0.15247127
000010 cb 7f 93 3e 68 7b 56 be cd b3 89 be
       0.28808436 -0.20945513 -0.2689499

gru_dp_fw.ode_net.odeblock.odefunc.fc3.weight f4 [7, 7]
000000 aa 1d 40 3e 9c 9b 05 be d3 7b a0 3e 03 fd a5 3e
       0.18761316 -0.13047642 0.3134447 0.32419595
000010 e8 f9 66 be ca 74 2a 3e 07 e6 3d be ea 40 2d be
       -0.22556269 0.16646114 -0.1854478 -0.16919294
000020 ac 1d ff 3d 18 22 8f bd 24 9b ec 3d 58 3c ec bd
       0.12456831 -0.06988925 0.11553028 -0.11534947
000030 7f e4 a3 3e e4 e1 d7 bd 0c a3 6f be d9 b5 62 be
       0.32010266 -0.10541132 -0.23402041 -0.22139682
000040 80 7f fa 3c 00 14 b3 b9 80 6f 5f 3d e7 5f ab 3e
       0.030578375 -0.00034156442 0.054549694 0.33471605
000050 60 02 46 be 78 f4 00 3d 6f a6 24 be d5 f3 98 3e
       -0.19336843 0.031483144 -0.16079114 0.2987353
000060 cb 71 b6 3e 41 fe 54 be 61 77 45 be 4c ce 4d be
       0.35633692 -0.20800115 -0.1928382 -0.20098227
000070 38 32 12 be f6 73 7f 3e 78 aa 0e bd d3 a1 aa 3e
       -0.1427697 0.2494658 -0.03483054 0.33326587
000080 a2 b1 6f 3e 53 66 77 be 40 5e 41 3d e0 70 0c bc
       0.23407605 -0.24160127 0.047209024 -0.008571833
000090 dc c1 d5 bd 33 7f b6 3e e0 bf 06 bc 17 e4 8b 3e
       -0.10437366 0.3564392 -0.0082244575 0.27322456
0000a0 28 f7 9c bd 16 a1 af be 65 1a af 3e 55 57 a9 be
       -0.07664329 -0.34302586 0.34199825 -0.33074442
0000b0 70 64 13 3d c0 5c 6c bc 8a 80 1e be 60 20 22 bd
       0.035984457 -0.01442641 -0.15478721 -0.039581656
0000c0 59 44 b8 3e
       0.35989645

gru_dp_fw.ode_net.odeblock.odefunc.fc3.bias f4 [7]
000000 da 70 44 3e 72 6e 37 be a0 f7 de 3d f0 21 fb bc
       0.19183674 -0.17913225 0.108870745 -0.030655831
000010 9d 86 4a be d7 99 a7 3e 80 55 86 be
       -0.19777913 0.32734558 -0.26237106

gru_cp_fw.decays f4 [6]
000000 00 00 00 00 00 00 00 00 00 00 00 00 00 00 00 00
       0.0 0.0 0.0 0.0
000010 00 00 00 00 00 00 00 00
       0.0 0.0

gru_cp_fw.gru_cell.weight_ih f4 [18, 6]
000000 cb 21 82 3e c0 c9 37 3d ce 2a 29 3f 78 a9 e9 be
       0.25416407 0.04487014 0.6608094 -0.45637107
000010 0e e6 07 3f 42 79 84 3e e3 72 11 bd 77 14 07 3d
       0.5308541 0.25873762 -0.035509955 0.0329785
000020 71 fa 72 3f 2d 7f aa be ea 1c 10 3f 29 ef 83 be
       0.94913393 -0.33300152 0.5629412 -0.25768402
000030 d0 f8 02 3e 13 fc 4e 3e 8a b6 55 be 55 09 ae 3c
       0.12790227 0.20213346 -0.20870414 0.021244684
000040 3e 19 51 be 28 e5 0b bf b1 d0 f1 3d 67 ab 89 3e
       -0.20419785 -0.5464654 0.11807383 0.26888582
000050 4c 37 5a bf d1 6b 23 3d 6a de 46 be 97 a6 1c 3e
       -0.85240626 0.039897744 -0.19420782 0.15297924
000060 75 17 ed 3e 4f 0c 1c be d5 55 47 3f 2e 12 bd 3e
       0.4630696 -0.1523907 0.77865344 0.36927933
000070 1f 53 8f 3e f7 bd 81 be 3e eb cd 3e cb 4a ec bd
       0.27993104 -0.25340244 0.40218538 -0.11537703
000080 ba 6c 96 3e 1d 47 8f 3e 46 0b e0 3e 40 b5 14 bf
       0.29379827 0.27983943 0.437586 -0.58089066
000090 3d a2 00 bf 51 c4 91 be c9 06 c9 3d 76 9d 2d 3e
       -0.50247556 -0.2847009 0.09815747 0.16954598
0000a0 44 4c 0c 3f 09 ed 32 bf 04 20 54 bf 6e f0 f2 3e
       0.5480387 -0.69892937 -0.8286135 0.47449058
0000b0 5d ad 13 bf 6c f7 e5 be e2 2c f9 3d fb 5d a7 be
       -0.57686406 -0.4491533 0.12166764 -0.3268889
0000c0 84 ea 4a 3e ae e8 53 bf 4e f1 a5 3d 4b ea e1 3d
       0.19816023 -0.82776916 0.08102666 0.11031016
0000d0 f1 0c 1e 3d cf 59 ab 3e 3b 5e 97 be 53 05 99 3e
       0.03858656 0.33466956 -0.2956408 0.29886875
0000e0 91 58 20 bd cb 4e 3c 3d 19 19 34 be 45 61 db bc
       -0.039146964 0.04597358 -0.17587699 -0.02677978
0000f0 82 ad dc 3d 82 4b 89 3e b5 c1 b6 3d 94 36 99 3e
       0.107752815 0.2681542 0.089236654 0.29924452
000100 cc bd 0a bf 1a 29 67 3e 98 aa 7c 3f 59 85 e9 bc
       -0.5419586 0.22574273 0.98697805 -0.028505968
000110 de b5 99 bd d6 5a 7e 3e 27 85 d9 be 33 70 13 3e
       -0.075053915 0.24839339 -0.424844 0.1439827
000120 c9 3d 1d be c7 2e be be 78 86 09 bf a1 f3 ec 3c
       -0.153556 -0.37145063 -0.5372081 0.028924765
000130 5c 62 77 3d 15 de 81 3d d5 58 a1 be 6f c0 d3 3d
       0.060396537 0.06341187 -0.31513086 0.10339438
000140 52 98 87 bf 01 bd 6b 3d 8d 98 3a bd 82 75 3e 3e
       -1.059336 0.057553295 -0.04555564 0.18599513
000150 93 25 10 3d 7d c7 23 bf ff 64 a6 be 45 3a 2d be
       0.035192084 -0.6397627 -0.3249893 -0.1691676
000160 23 af 5e bd 10 9d d5 3e 02 14 c8 be fa 9b 69 bc
       -0.054366242 0.41721392 -0.39077765 -0.014258379
000170 9a c4 84 be a6 37 9a 3e e1 49 19 bf f5 aa 93 be
       -0.25931245 0.3012058 -0.59878355 -0.28841367
000180 94 18 3c 3e c0 37 f3 bd 32 e1 25 3f d2 a5 e9 bd
       0.18368751 -0.11875868 0.64796746 -0.11408581
000190 04 db dc 3e fc c1 63 be 95 bf 1b 3e 40 2a 5a be
       0.43135846 -0.22241968 0.15209801 -0.2130518
0001a0 4d f6 70 bf ed b6 82 bc 92 15 81 be 2c 28 b9 3e
       -0.94125825 -0.015956366 -0.2521177 0.3616346

gru_cp_fw.gru_cell.weight_hh f4 [18, 6]
000000 7d aa 93 be 61 fe 66 bd 2e c6 42 bf 33 3e fb be
       -0.2884101 -0.05639494 -0.7608365 -0.49070892
000010 02 92 56 3e c7 0f 9a 3d 47 55 0f bf 1a 5c 1c be
       0.20954135 0.075225405 -0.559895 -0.15269509
000020 66 6e 08 bf 09 95 07 bf c3 9e e4 3e db 6c cb bd
       -0.53293455 -0.52961785 0.44652376 -0.09932872
000030 be 28 fe bd d4 66 0a 3f 0e 04 94 be a0 fb e4 bc
       -0.12410115 0.54063153 -0.28909343 -0.027952015
000040 d5 8d 18 bf db 82 54 bd 91 89 67 3e f4 c6 b9 3e
       -0.5959142 -0.051882606 0.22611071 0.36284602
000050 3f f8 ee be 2e fc c8 be 70 ae 61 3e 18 c0 2d ba
       -0.46673772 -0.39254898 0.22039199 -0.00066280505
000060 b4 9d b0 be 2f 19 58 be c0 af a2 be 3c f8 62 be
       -0.34495318 -0.21103357 -0.31774712 -0.22165006
000070 59 08 a8 3e 29 b8 03 3e 34 6e 02 bf 07 b0 b3 be
       0.3281887 0.1286322 -0.50949407 -0.35095236
000080 6a 8c d2 be b9 48 57 bf 35 d6 35 3e 1e 17 5d bd
       -0.41122752 -0.8409534 0.17757495 -0.053977124
000090 9b 57 ab be 3a 78 11 bf 77 ae cb be 25 e1 e8 3e
       -0.33465275 -0.56824076 -0.39781544 0.45484272
0000a0 86 b0 a2 bd b9 c1 23 be df 54 98 be 9c fd 32 bf
       -0.079438254 -0.15991868 -0.29752252 -0.6991823
0000b0 cc 2d de bd 99 3d 7f bd 86 40 3b 3d 72 e5 bd 3a
       -0.10848579 -0.062314603 0.04571583 0.0014487936
0000c0 65 36 9e bf 46 16 36 bf d7 3a 11 bf c2 ee 25 be
       -1.236035 -0.71127737 -0.5673041 -0.1620436
0000d0 ca 1d e0 3e 87 82 6f be 2e a0 56 3e 96 9b ee bd
       0.43772727 -0.23389636 0.20959541 -0.116507694
0000e0 9e b8 a7 3d 2b 1e ab 3c 91 39 8d be 57 9a 78 bd
       0.0818951 0.020888409 -0.27582982 -0.060694065
0000f0 62 5d 88 be 83 12 9f 3c 8c f0 e0 3e 58 c8 d1 bd
       -0.26633745 0.019418007 0.43933523 -0.10243291
000100 cd 4d ca 3e 1f ac 8c be 1a ac 1a bd 1e eb d3 bc
       0.39512482 -0.27475068 -0.037761785 -0.025868949
000110 b9 b5 ac be e8 1a dc bd 16 f3 a0 bd a5 74 06 be
       -0.33732393 -0.107473195 -0.07858865 -0.13130434
000120 bb fc 8e 3e b1 da 83 3d 5b dd 1a 3f ea 84 1e 3e
       0.27927193 0.064381965 0.6049401 0.1548039
000130 26 2c cb bb fb 4f 69 be cf 63 84 3e ea 75 09 bd
       -0.0062003313 -0.22784416 0.25857398 -0.033559717
000140 f7 ce bf 3e 0c 87 01 3e 22 60 4b be c3 6e 12 be
       0.3746259 0.12649173 -0.1986089 -0.14300065
000150 9c b6 fe 3d b8 bc aa be 25 37 54 3e 3a fd 44 be
       0.12437174 -0.33347106 0.20724161 -0.19237223
000160 1c fd 12 3f 6e 54 b0 3e 6c b6 99 3e fc f1 23 3f
       0.57417464 0.34439415 0.3002199 0.64041114
000170 c2 ff 39 bd e7 6a b2 bd 01 8e b4 3e d0 68 b1 3d
       -0.045409925 -0.08711796 0.3526459 0.086625695
000180 f6 2c 47 bf 35 c5 e4 bd e0 ef bc be 2e 0e 51 3d
       -0.7780298 -0.11170427 -0.3690176 0.051038913
000190 fc 88 5c 3e 00 fa 63 3d 56 0e 14 3f db 51 7b 3e
       0.2153663 0.05565834 0.57834375 0.24542944
0001a0 e1 ae 65 bd 62 b6 c7 3e 83 57 4d be 57 f9 81 be
       -0.05607498 0.39006335 -0.20052914 -0.25385544

gru_cp_fw.gru_cell.bias_ih f4 [18]
000000 06 5b 1f bf 5b 11 ed be 6a 49 f6 3d 28 30 47 bf
       -0.62248266 -0.46302304 0.12025721 -0.77807856
000010 d9 5b 5f be ad ea c1 be 07 9a 0b 3f dd 73 3e 3e
       -0.21812381 -0.37874356 0.545319 0.18598886
000020 5d f7 03 3f b0 f2 82 3d 76 d4 c5 be 32 99 a9 3e
       0.5154932 0.06393945 -0.38638657 0.3312469
000030 60 15 e2 3a a3 23 a6 3c 13 2a 81 3e 8f 6d 5b 3d
       0.0017248802 0.020280665 0.25227413 0.05357128
000040 f0 4b 46 3d 09 ed d4 bd
       0.048412263 -0.10396773

gru_cp_fw.gru_cell.bias_hh f4 [18]
000000 2a 7c 98 be 0e a5 5a 3a 50 27 5c bd f6 16 52 be
       -0.2978223 0.0008340635 -0.05374843 -0.20516571
000010 db 37 c7 bd d2 3e 01 bf 10 2a 80 3e 57 0b 07 3f
       -0.097274505 -0.5048648 0.2503209 0.5275168
000020 74 be 52 3f 79 eb 9f be c7 97 8d 3e 8c f1 02 3e
       0.8232186 -0.3123434 0.2765486 0.12787455
000030 31 21 22 be 88 1d 01 3e 23 69 93 be c2 75 06 3e
       -0.15832974 0.12608922 -0.2879115 0.13130859
000040 9a 31 a2 3c 8b 19 47 3e
       0.019799042 0.19443338

gru_cp_fw.ode_net.odeblock.odefunc.fc1.weight f4 [6, 6]
000000 aa ca 14 bf d9 37 1d 3c 1c cf 6c 3e 46 e7 9a be
       -0.5812174 0.009595835 0.23125881 -0.30254573
000010 05 ad 84 3e 6d f1 dd be c9 61 83 bd 48 64 31 be
       0.25913253 -0.43348256 -0.064151354 -0.1732341
000020 f9 9f 7e 3e 1e 34 9a be 29 e3 a0 be 8b 14 db 3e
       0.24865712 -0.30117887 -0.3142331 0.4278911
000030 a6 ed 62 be e4 d4 aa be 0c 5c b1 3e 40 2e 95 be
       -0.22160968 -0.33365548 0.3464054 -0.29136848
000040 99 44 38 3f bd b8 9f be 01 8b e8 be cd 86 89 3d
       0.7197967 -0.31195632 -0.45418552 0.06715164
000050 17 25 05 3d 3d 29 88 3d 10 13 01 3f 28 eb 52 be
       0.032506075 0.066484906 0.5041971 -0.20597517
000060 31 1e d6 be d1 42 e1 bd d1 13 81 bd 16 da f5 bd
       -0.4181991 -0.10999072 -0.06302608 -0.12004487
000070 87 07 89 3e 46 fb d1 be 72 5d b1 be 7c 30 81 3e
       0.26763555 -0.4101202 -0.34641606 0.25232303
000080 94 7c ab 3e 59 3a 3d bf bf 56 e6 3d e4 9c cb bd
       0.33493483 -0.73917156 0.11247014 -0.09942034

gru_cp_fw.ode_net.odeblock.odefunc.fc1.bias f4 [6]
000000 36 d8 0d 3f a4 85 3c be ba f3 cd 3e fd 22 14 3f
       0.55408037 -0.18410355 0.4022501 0.5786589
000010 b7 a1 b5 3d 5e 8d da 3d
       0.08868735 0.10671495

gru_cp_fw.ode_net.odeblock.odefunc.fc2.weight f4 [6, 6]
000000 76 c6 35 3f 3b 0c 84 bd fc 72 40 bd 66 49 fe 3e
       0.7100595 -0.06447645 -0.046984658 0.49665374
000010 78 62 ff 3d 22 48 b4 3e a4 0e 21 3e 06 e2 aa 3e
       0.12469953 0.35211283 0.15728241 0.33375567
000020 12 53 c1 3d fe be f2 3c b6 2f 92 3e 7d 31 47 3e
       0.094396725 0.029632088 0.28552026 0.19452472
000030 66 29 2d 3f 35 f5 71 3c 0c bd f7 3e 50 62 92 3e
       0.67641294 0.014767935 0.4838642 0.2859063
000040 48 60 2c 3f 57 a7 a9 3d e7 74 27 3e b3 c7 3c 3f
       0.67334414 0.08283871 0.16353188 0.73742217
000050 2b c7 00 3f c6 08 12 3f 07 a4 e6 3e a0 bd 01 3e
       0.50303906 0.5704464 0.45047018 0.12669992
000060 41 3d c8 3e 0c c3 95 3d 9b a1 d8 3e 51 47 1f bd
       0.39109233 0.07312593 0.42310795 -0.038886372
000070 24 4d 00 3f 85 a8 14 3f 39 94 d7 3e 04 a0 1a 3d
       0.5011771 0.5806964 0.42105272 0.03775026
000080 89 e8 11 3f 3c aa 1e 3f 93 74 01 3f e2 6a 4b 3f
       0.56995445 0.6197851 0.50568503 0.79459965

gru_cp_fw.ode_net.odeblock.odefunc.fc2.bias f4 [6]
000000 b6 9c 84 3e 78 a0 a5 3e 1d 59 3b 3e c5 c0 b3 3e
       0.2590081 0.3234899 0.18295713 0.3510801
000010 31 8e f4 3e 2c 1b 56 3f
       0.47764733 0.8363521

gru_cp_fw.ode_net.odeblock.odefunc.fc3.weight f4 [6, 6]
000000 9a a1 3a be 75 db ac 3e b5 26 85 3e de f3 97 3e
       -0.18225709 0.33761182 0.26006094 0.29678243
000010 4d 3b 2f 3e 96 2d a7 be 01 c4 34 bf a5 1b 14 bf
       0.17112465 -0.32651967 -0.7061158 -0.5785468
000020 b7 b4 41 bf 5f 1b 80 bf 24 97 74 bf 39 33 6d bf
       -0.75666374 -1.0008353 -0.9554312 -0.92656285
000030 13 48 11 bf 85 9b 9d 3d 90 ea 42 bd 41 2b 19 bf
       -0.567506 0.076956786 -0.047586977 -0.59831625
000040 c6 62 ee be 31 02 b2 bd 56 d5 89 be ed bd a3 be
       -0.46559733 -0.08691824 -0.26920575 -0.3198084
000050 26 d6 0b bf 25 28 f9 be 57 20 06 bf 28 56 09 bf
       -0.5462364 -0.4866344 -0.52393097 -0.5364709
000060 9d 52 d3 3d d5 ee 19 3f 17 af 20 3f 13 c7 ef 3e
       0.103184916 0.60130054 0.62767166 0.4683157
000070 08 c5 c6 ba b4 ca b4 3e f5 9d cc be 04 49 0b bf
       -0.0015164921 0.353109 -0.39964262 -0.5440829
000080 82 3d c4 be d7 2e 14 3e f2 3b 14 be 1d 0a a9 bd
       -0.38328177 0.14470993 -0.14475992 -0.08253882

gru_cp_fw.ode_net.odeblock.odefunc.fc3.bias f4 [6]
000000 78 01 e3 be b2 5c bf be d5 df b6 be bd 07 11 be
       -0.44337058 -0.37375408 -0.35717645 -0.14163108
000010 4f 36 b8 3e 56 18 0d 3e
       0.35978934 0.13778815

gru_dp_bw.decays f4 [7]
000000 00 00 00 00 00 00 00 00 00 00 00 00 00 00 00 00
       0.0 0.0 0.0 0.0
000010 00 00 00 00 00 00 00 00 00 00 00 00
       0.0 0.0 0.0

gru_dp_bw.gru_cell.weight_ih f4 [21, 7]
000000 01 3c 22 bd c3 e2 02 bf 65 b8 18 3f 10 54 76 be
       -0.039608005 -0.5112726 0.59656364 -0.24055505
000010 ec 5c 04 3f 00 01 89 bf a5 1a a4 be 3b e7 90 3e
       0.5170429 -1.070343 -0.32051578 0.28301415
000020 7d 62 f5 bd 42 9a 1d 3f 17 22 ec bd cc 7a 21 be
       -0.11981676 0.61563504 -0.115299396 -0.157695
000030 4a 9d 1c bf 99 e6 89 bd a5 55 fc 3d c9 5d 00 3f
       -0.61177504 -0.06733436 0.12321023 0.50143105
000040 d8 88 8f bd 53 f1 8d 3d 2e 72 46 be 77 66 b4 3e
       -0.07008523 0.069307946 -0.19379494 0.35234424
000050 0a ec 9d 3c c7 c1 b0 3d a7 c2 23 bd 2e 5b 2a bf
       0.019277591 0.0863071 -0.039980557 -0.6654538
000060 c6 9e 26 3e 0d 0f a9 bd 2f 77 55 bd 9f f8 a1 be
       0.16271505 -0.08254824 -0.052115615 -0.31634995
000070 e8 44 27 3f d1 bb a3 be ea a6 70 3e 1a 20 cb bd
       0.6533952 -0.3197923 0.23501173 -0.09918232
000080 d0 bd b2 be ca ed a7 be 60 ae 25 3e 03 d9 36 3e
       -0.3491044 -0.32798606 0.161798 0.17856221
000090 57 a5 03 bf 64 19 de be 71 b9 a2 bd 93 d7 df be
       -0.51424164 -0.43378747 -0.079455264 -0.43719158
0000a0 ab 28 43 3d 26 35 40 be b9 39 38 3e d1 7a 03 bf
       0.047646206 -0.18770275 0.1799077 -0.5135928
0000b0 13 5f 1c bf d9 94 7b be f9 fd e1 3e b6 05 21 bf
       -0.6108257 -0.245685 0.44139078 -0.6289934
0000c0 ee b8 34 3f 04 da b8 bd b5 3d 5c be 63 1f 81 3e
       0.7059468 -0.09025958 -0.21507914 0.2521926
0000d0 f6 a5 fc bc db 55 07 3d 36 cc a1 3e c2 a8 d9 bb
       -0.030840855 0.033040863 0.31601113 -0.006642432
0000e0 8a 5f f6 3c 5b ed 4a 3e 83 a5 44 bd 8c f9 a9 be
       0.030074853 0.19817106 -0.048009407 -0.33198202
0000f0 ef 60 96 be 34 4b fe 3d 3d d9 97 3e 6f 7c 63 be
       -0.2937083 0.124166876 0.29657927 -0.22215436
000100 be 45 bc bc 14 0d 52 bd ce 08 1a 3e bf 8c e4 bd
       -0.022982474 -0.051282004 0.15042421 -0.11159658
000110 9a 2f ae bb 0f c0 2a 3d aa 04 14 be 7f 8e 45 3d
       -0.005315733 0.041687068 -0.14454904 0.048231598
000120 a2 d1 ae be f0 94 e5 be b7 2a 92 3e d5 64 7c be
       -0.34144312 -0.44840193 0.28548214 -0.2464784
000130 30 1a 93 be 00 65 b5 be 70 ef 30 be 8c 58 aa bc
       -0.28730917 -0.3542862 -0.17278838 -0.020794176
000140 5f 04 23 3f 4b 5c 72 be 56 bb 87 be 69 97 a1 bb
       0.63678545 -0.2366802 -0.26510113 -0.0049313796
000150 5e 69 70 bd 9c b3 9c 3d 17 86 29 3e 4f 1b 69 bc
       -0.058694236 0.07651445 0.16555057 -0.014227702
000160 f1 50 3d be 35 db 8d be 57 ce 90 be 53 fe 10 3e
       -0.18487908 -0.27706304 -0.28282425 0.14159517
000170 0e 57 3c be 47 cc 1e be 6d f3 8b bd 3a b1 74 bd
       -0.18392584 -0.15507613 -0.06833539 -0.05973933
000180 3a 02 87 be 3f 7d a9 3e e6 40 7d be 39 27 96 3c
       -0.26368886 0.33103368 -0.24731788 0.01832925
000190 41 b7 bf be 0b ba 13 3e 56 ff 8b 3e da 40 ce be
       -0.374445 0.14426439 0.27343243 -0.40283853
0001a0 3c c9 0d 3d 92 ab 8b 3d 9e 7d ef bd c1 0e d1 3b
       0.03461574 0.06819834 -0.116938815 0.0063799326
0001b0 08 81 0f 3e b2 41 00 3e b0 87 c4 bd 26 fd a5 bc
       0.14014065 0.12525061 -0.09596193 -0.020262312
0001c0 58 05 4e be 78 75 6c be 4d b5 58 3a 41 c3 a6 3d
       -0.20119226 -0.23091686 0.0008266762 0.081427105
0001d0 52 5e 9c bd f1 9c 99 bd 31 10 56 be 7b c9 1d 3e
       -0.07635178 -0.07500637 -0.20904614 0.1540889
0001e0 95 25 07 be 74 ae b6 bc ad c9 58 3e aa b9 25 be
       -0.1319793 -0.022299983 0.21170683 -0.16184106
0001f0 65 b4 2a 3d 95 58 2e be da f5 10 bd db 45 fd 3c
       0.041675944 -0.17025979 -0.035390712 0.030917099
000200 21 e0 bc 3c 2d 8d 13 3d 02 e8 e1 bd 36 3f c0 bc
       0.023056092 0.036023308 -0.1103058 -0.023467641
000210 65 8b 5e be ab 2b d2 bd f8 fd a0 be 5c 3e 54 be
       -0.21732862 -0.10262235 -0.31443763 -0.20726913
000220 ed ad 2f bd f7 5a 03 3e 08 8d bb 3e 00 c3 68 3e
       -0.042890478 0.12827669 0.36631036 0.22730637
000230 9c f0 25 3e 33 53 e3 3e 06 2c 36 3e 07 4e a1 bd
       0.16205066 0.44399413 0.17790231 -0.07876211
000240 88 ad 24 3e 0a 3d d5 3e 40 d6 27 bf
       0.16081822 0.41648132 -0.65561295

gru_dp_bw.gru_cell.weight_hh f4 [21, 7]
000000 6a 8e 51 be 59 2c 88 be a2 ae c7 be 51 78 98 bd
       -0.20464483 -0.26596335 -0.39000422 -0.074448235
000010 e3 71 ad 3e 3a 16 1e bf 44 28 43 bf c7 b9 56 3e
       0.3387595 -0.61752665 -0.76233315 0.20969306
000020 87 2b a8 bd ce 92 fa 3d 04 ef de be 9d bf bf bd
       -0.08211427 0.12235032 -0.4354173 -0.09362719
000030 cf ef e7 3e f1 14 e5 bd 84 a9 03 3e b8 7c f1 be
       0.45300147 -0.11185635 0.12857634 -0.47165465
000040 6f 07 a4 be f5 a7 8e be 96 77 82 be 7a 80 3b bf
       -0.3203692 -0.27862516 -0.25481862 -0.73242915
000050 48 3e 1b bf af 3d 5d 3e b6 ba a4 3d 73 c1 9f be
       -0.6064191 0.21605562 0.08043425 -0.31202278
000060 49 42 06 be 70 8f 22 bf 93 bf cf 3d b7 52 cf be
       -0.13111223 -0.6350012 0.10143962 -0.40492794
000070 4a 3e 0f 3e ee 39 89 3e 7a 02 88 3e ae 94 39 be
       0.13988605 0.2680201 0.2656439 -0.18123123
000080 9a 79 a6 bd db a6 a4 be cf 24 10 be 1a b4 f6 be
       -0.081286624 -0.3215855 -0.14076541 -0.48184282
000090 47 da 60 bd 37 af 32 bf ff 33 0d be f8 d1 4b 3d
       -0.054895665 -0.69798607 -0.13789366 0.04976079
0000a0 69 4a 57 be 9f 0e 5a be e8 ac 00 3e ff d9 91 3e
       -0.21024479 -0.2129464 0.12565958 0.2848663
0000b0 60 19 92 be 71 cd 5a bf 8b ab 72 be ba dc b5 be
       -0.28534985 -0.8546973 -0.23698251 -0.35519964
0000c0 e4 28 02 bf c0 b8 8f 3c 34 15 80 3e 4f 41 4e 3d
       -0.50843644 0.01754415 0.25016177 0.050355252
0000d0 93 57 01 3e 98 10 3a be b0 d0 7b 3d 75 dd ad 3e
       0.12631063 -0.18170393 0.061478317 0.3395802
0000e0 7b f9 2b bf ec 62 be 3e 94 ef 62 3e 60 5c 95 3c
       -0.6717755 0.37184846 0.22161704 0.018232524
0000f0 80 34 2b 3f 75 18 e3 bd a5 47 83 3e c7 76 a5 3e
       0.66876984 -0.11088649 0.25640598 0.32317182
000100 06 b0 d7 3e a8 64 07 3d a3 72 aa 3e ac 9f 8b 3e
       0.42126483 0.033054978 0.33290586 0.27270257
000110 26 ee 34 be 6f b1 7d 3e 1c 56 be bd b8 a1 b4 3e
       -0.17668971 0.24774717 -0.09293768 0.35279632
000120 36 44 85 be 9b 07 9f 3c 48 a2 d2 bb a7 62 53 bd
       -0.26028603 0.019412806 -0.006428037 -0.051607754
000130 80 88 a8 3e 34 e7 39 bf 30 9a a1 3d cd d7 42 3e
       0.3291664 -0.7261841 0.07890737 0.19027634
000140 fd c1 27 3d db 13 76 be 00 57 62 bd ae b0 26 3c
       0.040956486 -0.24031012 -0.05525875 0.01017396
000150 4b 96 85 3a d0 4c a5 bc d1 04 9b 3e 2e 83 0d be
       0.0010191886 -0.020178229 0.30277112 -0.13819572
000160 42 71 d4 bd f3 98 53 3d b2 39 bb 3e 5e f8 18 3e
       -0.10373165 0.051659536 0.36567456 0.14938495
000170 32 cb 06 bf 1d c6 48 bf af 0b 68 be 42 88 21 3e
       -0.526538 -0.78427297 -0.22660707 0.15774634
000180 80 83 42 be bc f8 d3 bd 2a 75 31 3f 1b 46 d7 3e
       -0.18995476 -0.10350177 0.69319403 0.42045674
000190 78 5b 98 3d 51 e9 d5 bd 52 d2 97 be 2d a5 2f 3f
       0.07439321 -0.10444892 -0.2965265 0.68611413
0001a0 ef 41 fb 3e df 9b 0d bf d2 25 a3 be 1f d8 37 be
       0.4907374 -0.55315965 -0.31864792 -0.17953537
0001b0 d9 7e 03 3f 29 3e a5 be f4 30 1d bf b6 1f 58 be
       0.5136543 -0.32273987 -0.6140282 -0.21105847
0001c0 b4 3b 48 3f c0 52 5d 3e c1 86 22 3e 40 63 7c be
       0.782161 0.21613598 0.15871717 -0.24647236
0001d0 d2 af 60 be 33 62 76 3e 06 9f 40 3f de 30 f0 be
       -0.2194207 0.24060898 0.7524265 -0.46912283
0001e0 0a 4d 86 bd 0f 4f 23 bf bf e5 dd 3e 56 61 fe 3e
       -0.06557663 -0.6379251 0.43339345 0.49683636
0001f0 1e 42 05 bf d0 4a 21 bf f4 12 53 3e f8 df a3 be
       -0.5205401 -0.6300478 0.20612699 -0.32006812
000200 17 f7 7d 3e d8 9c 43 bf 6e 58 f9 3d 56 b8 0b 3f
       0.24801289 -0.764112 0.1217507 0.5457815
000210 da 0f 89 3e e5 41 1f 3f 9b 8d 0e 3f b5 cb 91 3d
       0.26769906 0.6220992 0.5568482 0.07118932
000220 45 86 c8 be 05 18 76 3d b5 ee 83 3e 68 21 0f 3f
       -0.3916494 0.0600815 0.25768057 0.5591035
000230 d7 de 73 3f 16 de e5 3e db 98 09 bd 87 c3 dc bd
       0.952619 0.44896 -0.03359304 -0.107794814
000240 47 73 45 bc 50 04 51 3f b4 3f a0 3e
       -0.01205141 0.81647205 0.31298602

gru_dp_bw.gru_cell.bias_ih f4 [21]
000000 d8 07 d5 3e e8 c3 a9 3d ab 4d 03 3f e5 68 43 3e
       0.41607547 0.08289319 0.51290387 0.19082983
000010 b2 b0 dc 3e 15 00 95 bc 3d 64 a0 3e b0 99 24 3f
       0.43103558 -0.018188516 0.31326476 0.6429701
000020 b4 d7 5b 3e d0 b7 10 3f 7f cd 2c 3f 21 7f 3c be
       0.21469003 0.56530476 0.6750106 -0.18407871
000030 1e ff 5f 3f 04 ec cd 3e c2 de 8d 3e 2e 31 95 bb
       0.8749865 0.40219128 0.27709013 -0.004552982
000040 55 3b 41 3e 39 ad 60 be ae 7f 44 3e a0 6a b3 3d
       0.1887029 -0.21941079 0.19189331 0.087605715
000050 23 bc aa bd
       -0.083366655

gru_dp_bw.gru_cell.bias_hh f4 [21]
000000 53 39 0e 3e fc 6d 66 3e bf 73 10 3f 25 bc 20 3f
       0.13889055 0.22502893 0.56426615 0.62787086
000010 8f 40 a9 bd fb 96 2c 3e ec 56 f7 3e a1 4e 6b 3f
       -0.08264267 0.1685447 0.48308504 0.91916853
000020 e3 f8 bd 3e 3c 09 ad 3e 7d 44 ff 3e ca 0d 3c bc
       0.37103948 0.33796108 0.4985694 -0.011477897
000030 5a 96 2a 3f 6d 3f 6f 3f 59 5c ca be 22 91 9f be
       0.6663567 0.93456155 -0.3952358 -0.31165415
000040 3b fb 5f bd fd 67 60 be eb 9b 61 3d 2a 30 29 be
       -0.05468295 -0.21914668 0.055080336 -0.1652228
000050 2e c4 94 3c
       0.018159952

gru_dp_bw.ode_net.odeblock.odefunc.fc1.weight f4 [7, 7]
000000 0b a8 8c 3c 0d 66 27 3e d8 01 cc 3c 2d 80 18 3e
       0.017169973 0.16347523 0.024903223 0.14892645
000010 e8 af 95 be db 22 0c be c8 a8 77 bf f2 33 3d bf
       -0.29235768 -0.13685171 -0.96741915 -0.7390739
000020 51 24 6a be 7d a2 b5 bd d9 18 8c 3e 3d f6 1d 3f
       -0.22865416 -0.08868883 0.27362707 0.61703855
000030 0c 65 21 bf 88 b7 5c bf 5e 77 d4 3d cd 5e 37 be
       -0.6304481 -0.86217546 0.1037433 -0.17907257
000040 00 77 a3 be 8e ce 0b 3e e5 3c b1 be ad aa 55 3d
       -0.31926727 0.13653013 -0.3461677 0.052164722
000050 0f 67 4d bf e6 5f 78 3d 24 c0 3b bf d9 fa 6d be
       -0.8023538 0.06063833 -0.7334006 -0.23240222
000060 be 72 06 3f ca 69 3e 3f bf 2a fe be cd a8 53 bf
       0.5251883 0.7438017 -0.49641988 -0.82679445
000070 46 91 d4 be 4a 75 8f be 6f 6a c4 bc 47 76 18 3f
       -0.41517085 -0.28019172 -0.023976533 0.59555477
000080 ea b1 25 3e 92 3f 6d bc 0c a9 47 bf 8f b9 e5 be
       0.1618115 -0.014480488 -0.7799232 -0.44868132
000090 d0 e8 94 3d 2e e0 1b be b7 e0 bc 3c 76 c6 5c 3e
       0.07270968 -0.15222237 0.023056371 0.21560082
0000a0 bf a5 2c bb bc 45 25 bf a9 9d c9 bc c7 f3 95 be
       -0.002634391 -0.6455953 -0.024611311 -0.2928755
0000b0 f7 a4 80 3d e8 78 a4 3e 47 79 3d be be eb f5 3c
       0.062814645 0.32123494 -0.18503295 0.030019637
0000c0 b1 ec 8c bf
       -1.1009732

gru_dp_bw.ode_net.odeblock.odefunc.fc1.bias f4 [7]
000000 95 8c 95 3f 17 b1 0c 3f 12 08 46 3f 2a 6c 28 3f
       1.1683527 0.5495772 0.77356064 0.65790045
000010 f5 1f 1a 3f d9 93 49 3f 0f 74 bf 3e
       0.6020501 0.7874122 0.37393233

gru_dp_bw.ode_net.odeblock.odefunc.fc2.weight f4 [7, 7]
000000 cc 88 5c 3f 6d 26 92 be e8 1d 4f 3f 96 ef 9d 3c
       0.86146235 -0.28544942 0.8090501 0.019279283
000010 4b 08 26 bc eb b0 b1 3e d4 d0 1e 3f 4b 82 48 3f
       -0.010133813 0.3470529 0.62037396 0.7832381
000020 df 7a 1f 3f e1 fc 2b 3f c8 e3 4d 3f 79 9a 1e 3f
       0.6229686 0.6718274 0.8042569 0.61954457
000030 8d 74 f1 3e 3c 56 c7 3e 89 f5 dc 3e 81 61 13 3f
       0.47159234 0.3893298 0.43156078 0.57570654
000040 43 bf 17 3f 65 2c 5c 3d 47 e5 69 3e 54 77 2c 3f
       0.5927622 0.053753275 0.22841369 0.6736958
000050 3f 37 d3 3e 34 68 71 3f 1c 00 62 be d0 2d 4f 3f
       0.41253087 0.94299626 -0.22070354 0.8092928
000060 9b a2 0b be 19 32 2b be 01 3e ba 3e 1e b6 5f 3f
       -0.13636248 -0.1671833 0.3637543 0.87387264
000070 fb 80 ec 3d e6 94 4b 3f 87 2c 9f 3d 02 eb 92 3e
       0.115480386 0.79524076 0.07772165 0.28694922
000080 d1 6e 10 3f 4d f4 21 3f 1d 7c 3f 3f c0 09 5d 3f
       0.5641909 0.632634 0.74798757 0.86343
000090 03 43 44 be 8c 43 3e 3f e2 74 08 bf 1a a5 93 3e
       -0.19166188 0.7432182 -0.5330335 0.288369
0000a0 53 ed 0c 3f ec ea 1a 3f 8b 4e 57 3f 0e 60 13 3f
       0.5504963 0.6051471 0.8410422 0.5756844
0000b0 57 c2 81 3e 45 f3 e7 3e 79 c7 7d 3e d3 e7 fd 3e
       0.25343582 0.45302787 0.24783124 0.4959093
0000c0 d4 6c 0a 3f
       0.5407231

gru_dp_bw.ode_net.odeblock.odefunc.fc2.bias f4 [7]
000000 3d e9 71 3f e8 be 1f 3f e4 33 1c 3f 57 55 84 3f
       0.9449652 0.62400675 0.6101668 1.0338544
000010 74 53 4e 3f 21 05 6c 3f d3 d4 e4 3e
       0.8059609 0.92195326 0.44693622
