trained_models/birnn_time_decay/final_model.pt (torch_old, 60280 bytes, 25 tensors)

embed_dp.weight f4 [1292, 7]
000000 00 00 00 00 00 00 00 00 00 00 00 00 00 00 00 00
       0.0 0.0 0.0 0.0
000010 00 00 00 00 00 00 00 00 00 00 00 00 93 0b 5a 3f
       0.0 0.0 0.0 0.8517391
000020 ef 9e 04 40 82 83 51 3e 0f ca c7 bf 1f e4 e2 3f
       2.0722005 0.20460322 -1.5608538 1.7725867
000030 8e 3d 51 bf 03 9e 00 c0 8e 4e 0e 3f 88 f1 d5 bd
       -0.8173455 -2.0096443 0.55588615 -0.10446459
000040 6a 04 19 3e 37 01 1c 3e 5f c8 a0 bf 80 11 c4 be
       0.1494309 0.15234838 -1.2561148 -0.382946
000050 11 2f 40 bf 01 af 90 3e 6d 0c b2 bd b1 a4 b9 be
       -0.7507182 0.28258517 -0.08693776 -0.36258462
000060 f0 b6 0c 3f 37 cc 20 3e 7d 19 4f 3e b5 87 1c be
       0.5496664 0.15702902 0.20224567 -0.15286143
000070 b0 49 70 3f 7e 41 d3 3f b5 5d 32 bf ef c5 2f 3e
       0.9386244 1.6504362 -0.69674236 0.1716535
000080 c7 78 b2 bf 0d 26 5d 3d d1 b5 d1 3e 27 47 0b 3e
       -1.3943108 0.053991366 0.40959027 0.13601361
000090 9b c4 b5 be 70 73 78 3f 4c 46 64 3f 01 1e 12 3e
       -0.3550156 0.97051144 0.89169765 0.14269258
0000a0 c8 d5 6e 3f f7 f8 df 3e f2 03 b3 3d 97 fa 7e be
       0.93294954 0.43744633 0.08740987 -0.2490028
0000b0 32 98 32 bf 9e 5c 94 bf 3c b7 88 3f 4b 87 20 3f
       -0.6976348 -1.1590765 1.0680919 0.6270644
0000c0 c6 cf c0 bf b8 82 13 bf c0 a1 3e 3e 56 62 6b bd
       -1.5063407 -0.57621336 0.1861639 -0.057466827
0000d0 ea b6 f2 3f b7 d6 17 be 36 7e 8f 3f 58 15 26 be
       1.8962071 -0.14828001 1.1210392 -0.1621908
0000e0 2c cc 3e 3f 3e fe ae 3f 9c 3b 58 3f a1 ac ae 3f
       0.7453029 1.3671339 0.84465957 1.3646432
0000f0 9b af 39 bf 1b f6 b9 be 4f 47 2b bf 76 09 d4 be
       -0.7253358 -0.36320576 -0.66905683 -0.41413468
000100 f1 cb f1 bd 7a 3d 19 bf ed cb 27 3e 87 58 d1 be
       -0.11806477 -0.5985943 0.16386385 -0.40887854
000110 31 50 31 3f 87 3a 37 3e 93 65 36 bf 8d b8 4e 3f
       0.6926299 0.1789342 -0.7124874 0.8075035
000120 de bb cd 3d 41 d7 1a bf d3 31 f2 bf e4 fa 31 3f
       0.100455984 -0.604847 -1.8921455 0.69523454
000130 df 4a 16 3f 9c aa f9 be 86 1a e6 3e 5e 7f 23 c0
       0.58707994 -0.48762977 0.4494211 -2.5546489
000140 0d 1c 0b 40 c3 49 51 3f cd 37 4c 3f 51 df ef bd
       2.173587 0.81753176 0.79772645 -0.11712516
000150 8f 1d 5b 3e 0c 78 1d bf 51 6e 89 be 0c 3d 94 be
       0.21397994 -0.615113 -0.26841977 -0.28952825
000160 17 7b 4e bf a7 c3 28 bf d1 dd 85 3e 62 1f c0 3c
       -0.8065657 -0.6592354 0.26145795 0.023452464
000170 6e d4 ba bf 6e df 22 be fa 49 66 be cd a0 c9 3e
       -1.4596078 -0.15905544 -0.22489157 0.39380494
000180 8d b3 98 3f cb d5 a3 3e d3 4e b4 3f 31 85 c3 3e
       1.1929795 0.3199905 1.4086555 0.38187554
000190 80 f9 dc 3e 22 a2 96 3f 96 f6 76 be 2f 40 82 be
       0.43159103 1.1768229 -0.24117503 -0.25439593
0001a0 04 51 29 bf cc b5 61 3e 8f 01 f5 3e 9b 68 88 be
       -0.66139245 0.22042006 0.47852752 -0.26642308
0001b0 4d 08 97 be c9 15 a1 bd 87 09 fd 3b 4c 6d 4f bf
       -0.2949852 -0.07865483 0.007722083 -0.8102615
0001c0 19 5a 3f 3d ea f9 9c bf 1d 02 ab be ca 77 87 bc
       0.046716783 -1.2263768 -0.3340005 -0.016536612
0001d0 c8 8c 09 be fd 1c f8 3f a6 cb cf be 79 8f 0b bf
       -0.1343261 1.9383847 -0.4058506 -0.54515797
0001e0 87 f2 8c 3f eb 88 f4 3e 37 be c1 3e ad 9e 87 bf
       1.1011513 0.4776071 0.37840435 -1.0595299
0001f0 e3 b4 a5 3f bf 70 f3 3e 87 8a 9c 3c dc eb 2e bf
       1.2945827 0.47546956 0.019109024 -0.6832864
000200 d4 03 01 3f 25 38 03 3f 7d e4 90 3d d7 14 0b 3e
       0.50396466 0.51257545 0.07074831 0.13582169
000210 e0 a8 1d bf 4b 63 bd 3d 6b a7 a9 bd 8f e2 02 40
       -0.6158581 0.09247454 -0.082838856 2.045078
000220 a1 03 8c 3e e6 60 f0 3f 47 7a db 3f 8d 5f 30 3f
       0.2734652 1.8779571 1.7146691 0.688958
000230 97 9d 4a bf 10 11 3a bf 50 94 85 3e 96 5a 74 3f
       -0.79146713 -0.72682285 0.26089716 0.95450723
000240 06 f6 07 bf b4 28 ee 3f 7e 93 7a bf 42 90 c9 bd
       -0.53109777 1.8606172 -0.97881305 -0.09841968
000250 5c 3f 67 be 74 7a 0f 3e 8e 08 a2 3f 72 e6 71 bf
       -0.22582763 0.14011556 1.2658861 -0.94492257
000260 b0 6e b0 3d 0f d5 0f be 9f f7 ef 3e 04 f5 0c 3f
       0.08614862 -0.14046119 0.46868607 0.55061364
000270 04 90 73 bd 31 db ba 3f 07 1d 91 3f d1 0f 2e 3e
       -0.059463516 1.4598142 1.1336983 0.16998221
000280 32 22 89 bd a0 39 8d 3f ae 64 17 3f 3a da 9c 3f
       -0.06695975 1.1033211 0.59138 1.2254097
000290 c3 dc e7 bf 26 23 57 3f 59 f6 42 3f a9 b7 d8 3e
       -1.8114246 0.8403801 0.76157147 0.42327622
0002a0 bc 3e 4a bf ee 30 bd 3f 2d 97 ec 3e db 41 e0 3d
       -0.79001975 1.4780557 0.46209088 0.10950061
0002b0 9e 07 0f c0 50 35 c1 bf ec dd 7e 3f 33 5e d4 bf
       -2.23484 -1.5094395 0.99557376 -1.6591247
0002c0 ba 24 b5 be bd 51 c8 3f 91 d9 1d 3e 1a c8 df bf
       -0.35379583 1.5649945 0.15415026 -1.7482941
0002d0 36 bd 2e 3d be 96 29 bf 0a 3d 0a c0 d5 30 39 40
       0.042660914 -0.6624564 -2.1599755 2.8936055
0002e0 89 cf 6b 3f 03 29 51 3f 19 56 f5 bf 25 f8 16 bf
       0.9211355 0.81703204 -1.91669 -0.5897239
0002f0 df a6 d1 3f 88 b8 be be a0 5b 25 3f 60 e3 aa 3d
       1.637905 -0.3725016 0.64592934 0.083441496
000300 e3 4f b9 bf 3e 9b c6 3e 1e 36 25 3f 61 26 a7 3e
       -1.4477504 0.38790315 0.645357 0.32646468
000310 14 d6 48 be 85 bc 3d be 48 bd db 3d 8a 0b e1 3e
       -0.19612914 -0.18528946 0.10729462 0.43954116
000320 c1 60 47 bb df d2 c2 3e 21 8f 71 be f2 75 15 40
       -0.003042266 0.38051507 -0.23589756 2.3353238
000330 67 2f af bf 8d dd 0b bf e6 c4 1e 3e 6f b0 53 3e
       -1.3686341 -0.54634935 0.15504798 0.20672773
000340 6c 76 23 3f 36 a8 14 bf 08 6f bf be e8 1c 48 be
       0.6385257 -0.5806917 -0.37389398 -0.19542277
000350 38 3e 1c 3f 49 e8 c7 be 21 3a 9e be 4e 41 4f 3e
       0.6103244 -0.39044407 -0.30903724 0.20239756
000360 90 ec 25 bf 09 de 10 3e 53 56 80 3f eb ae 43 3e
       -0.6481409 0.141472 1.0026344 0.19109695
000370 8a 07 92 bf ad ac 3e bf 76 63 41 3e c0 cd c2 bf
       -1.1408551 -0.7448223 0.18885598 -1.521904
000380 ba f8 c5 be 44 57 9e 3f 9a e9 0d bf 7c 8f 0d 40
       -0.38666326 1.2370381 -0.5543457 2.2118826
000390 8e 44 03 3e fb 21 35 3f c1 12 1d be c9 91 8f 3d
       0.1281912 0.70754975 -0.15339185 0.07010228
0003a0 7d 43 af bd 36 a8 6b 3f 9f 6d 21 3f 28 83 eb 3e
       -0.08557794 0.92053545 0.63057894 0.45998502
0003b0 45 cb 50 bf ae 43 08 c0 8a 02 7f bf 64 88 ba bf
       -0.81560165 -2.1291308 -0.9961325 -1.4572873
0003c0 55 bd 8f bf 11 8c 5f be 4c 15 a5 3f f4 a0 10 bf
       -1.1229655 -0.21830775 1.2897124 -0.56495595
0003d0 97 5a 92 3e db 18 a9 bf 6a 15 8d bf 4a c0 97 3d
       0.2858474 -1.321071 -1.102216 0.07409723
0003e0 35 38 fe 3e 68 9f e4 3e 74 06 95 3f d3 d0 24 bf
       0.49652258 0.44652867 1.1642594 -0.6438114
0003f0 76 02 f2 3e 32 5b 70 b9 33 52 99 3d df 12 e7 be
       0.47267503 -0.00022922156 0.074863814 -0.45131585

embed_cp.weight f4 [620, 6]
000000 00 00 00 00 00 00 00 00 00 00 00 00 00 00 00 00
       0.0 0.0 0.0 0.0
000010 00 00 00 00 00 00 00 00 2a 50 08 3e e1 e4 47 3f
       0.0 0.0 0.1331183 0.78083616
000020 05 ef 31 3f e0 7d 53 be 94 04 83 3f bc dd ab 3e
       0.6950534 -0.20653486 1.0235772 0.33567607
000030 e5 98 2b bf f2 ce 89 be 3e ef 64 3f 3c c7 cd 3e
       -0.67030174 -0.269157 0.89427555 0.40191066
000040 bd b7 44 3d 86 0e 59 be 1e 27 a0 3e 96 19 a3 3f
       0.04802679 -0.21196947 0.31279844 1.2742183
000050 9f 5a 3b bf e6 9c 88 bf 4e ff 62 bf aa db ba bf
       -0.7318515 -1.0672882 -0.88670814 -1.4598286
000060 11 55 39 3f 77 b7 b9 3f 81 e9 b8 3e 58 81 35 be
       0.72395426 1.4509114 0.3611565 -0.17725122
000070 55 e0 07 bf 41 14 91 bf b4 f1 96 3f 7b 08 39 bf
       -0.5307668 -1.1334306 1.1792512 -0.72278565
000080 cf b7 12 bf 64 6b 94 3f ae 3f 07 c0 ea f1 9f 3e
       -0.5731172 1.1595273 -2.1132617 0.31239253
000090 9b f1 ba be fd bf f1 3e b7 f5 c9 bf d3 53 6e 3f
       -0.36512455 0.47216788 -1.5778111 0.93096656
0000a0 1f f7 84 be 0f 87 73 bf 01 cc 40 bf e0 cc 6b bf
       -0.25969788 -0.9512796 -0.75311285 -0.9210949
0000b0 3e a0 11 3e cb 71 6e bf 79 94 60 3f 4d a6 d0 be
       0.14221284 -0.93142384 0.8772655 -0.40751877
0000c0 f3 03 ec 3d 99 87 79 3e 30 2a eb be 21 85 d1 3f
       0.11524191 0.24368133 -0.45930624 1.6368753
0000d0 76 d1 ca bf ae 0b c4 bf 73 5f 93 3f e8 d9 8e 3d
       -1.5845172 -1.5316064 1.1513504 0.06975156
0000e0 93 9f d4 3d 31 e4 fe be ae cd 34 bf 48 19 e9 bf
       0.10381999 -0.4978347 -0.7062634 -1.821084
0000f0 5a 34 39 40 4e 31 95 bd 64 d9 a5 be d7 f3 8e 3f
       2.8938203 -0.07284795 -0.32392418 1.1168164
000100 2f 03 8b bf c1 d8 a2 3f 76 97 53 3f 85 9f 32 bf
       -1.0860347 1.2722398 0.82652986 -0.6977466
000110 21 ed 81 bd 2b 04 9c be c7 a5 8d bf 3e 57 40 3e
       -0.06344057 -0.3047193 -1.1066216 0.1878328
000120 fc c9 1a bf ae 79 48 bf e8 11 43 bf 76 cc 4b bb
       -0.60464454 -0.7831067 -0.761992 -0.003109721
000130 9d 3a c9 3e 40 b1 52 c0 ed ca 34 bf f2 4e 16 bf
       0.3930253 -3.2920685 -0.7062214 -0.5871421
000140 4a 11 2e 40 c9 cf d6 3f 7d 85 b9 3f e0 80 fc bf
       2.7198052 1.6782161 1.4493862 -1.972683
000150 4a 1e ce 3e e8 58 9c 3e bb 04 54 bf bb 00 02 3f
       0.40257484 0.3053658 -0.8281972 0.50782365
000160 e3 89 15 bf 1c 01 a7 be af b8 a8 3f 9d d5 9f 3f
       -0.58413523 -0.32618034 1.3181361 1.2487065
000170 5e ed 59 3e 42 64 cd 3f df 73 8a bf f5 9e 84 3e
       0.21281955 1.6046221 -1.0816611 0.25902525
000180 e9 9c ad 3f c8 3a ce 3f 36 8d 90 3d 72 f3 80 3f
       1.356351 1.6111689 0.07058184 1.0074294
000190 8a da f7 be 39 50 3e 3f c4 3a 03 40 cd 1f 23 3f
       -0.4840892 0.7434116 2.0504618 0.637204
0001a0 58 2c 56 bd ef c0 89 3f 9e 44 a4 bf b5 87 da 3f
       -0.052288383 1.0762004 -1.283344 1.7072664
0001b0 80 0a 37 3e a1 23 27 3f 5c 17 aa be 80 b2 47 3f
       0.17875099 0.6528874 -0.33220947 0.78006744
0001c0 7c 82 37 bf 94 1d 95 3f 63 3e 49 bf 2a ec 5d 3e
       -0.7168348 1.1649652 -0.7861082 0.2167212
0001d0 a2 82 d0 3f 4e 0b 54 bf 1f 10 1e bf 2a 60 aa be
       1.6289866 -0.8282975 -0.6174335 -0.33276492
0001e0 a3 99 b2 3f 31 f8 b0 bf 2f 65 8a bf a3 25 df 3e
       1.3953136 -1.3825742 -1.0812129 0.43583402
0001f0 89 80 39 3e cc 22 f9 3e 22 c5 40 3f 1a f2 48 3f
       0.18115439 0.4865936 0.753008 0.7849442
000200 72 6c 07 be 39 b1 73 3f c7 da b1 bf ad a2 15 bf
       -0.13224962 0.95192295 -1.389489 -0.5845135
000210 db 82 a1 bf aa 2e 71 bf a1 af b1 3e 69 80 39 bf
       -1.2618059 -0.9421183 0.34704307 -0.72461563
000220 69 73 a4 3f 17 37 a9 bf 7e fb 24 3d eb c9 89 3f
       1.284772 -1.3219937 0.040278904 1.0764745
000230 71 1c 92 3d 5b cd 9e 3f 71 bd 65 bf 48 d8 da bf
       0.07134331 1.240642 -0.8974219 -1.7097254
000240 27 d7 66 bf b6 a5 79 3f 2a 0b 59 be 15 5c ca be
       -0.90172046 0.9751848 -0.21195665 -0.39523378
000250 d4 2d 9c bd 3a d1 0f 3c b3 13 b6 3d 14 c8 2d c0
       -0.076259285 0.008777911 0.08890476 -2.7153368
000260 4e 5c 03 c0 2b 70 6c bf ad 5a 32 be f1 14 ab bf
       -2.0525088 -0.92358655 -0.17417403 -1.3365766
000270 c0 67 d6 3f 4a cf aa bc 80 82 d4 3d e3 1a b3 3e
       1.6750412 -0.020850796 0.103764534 0.3498145
000280 7f b4 83 bf ef 3e e4 3f 8e 7f 34 be 09 2d c9 3f
       -1.0289458 1.7831706 -0.17626783 1.5716869
000290 59 f1 87 bf 27 ef 7a bf 6d fa 12 bf 26 29 90 bf
       -1.0620528 -0.9802117 -0.5741337 -1.1262558
0002a0 d5 9b aa bf d7 0c 1c 3e 53 7a ee 3e c9 e0 47 be
       -1.3328806 0.15239273 0.465777 -0.19519342
0002b0 f0 54 cc 3f 72 42 76 3f 28 e4 23 3e 55 a2 75 3e
       1.5963421 0.9619514 0.16005003 0.23987706
0002c0 06 19 52 be 1f 3c 88 3e 55 49 e1 3d 80 11 b6 bd
       -0.20517358 0.2660837 0.11000315 -0.088900566
0002d0 7f ae c2 3f 4c 49 41 be ef 6c 9b be 9c ad 5f 3f
       1.5209502 -0.18875617 -0.30356547 0.8737428
0002e0 ac 55 6f bc fd d1 5b 3f 74 a7 33 be 36 de 0c bf
       -0.014607828 0.8586729 -0.17544347 -0.55026567
0002f0 49 da 2e 3e ad fc 8e bf 1c 34 36 bf 2c 08 26 3f
       0.17075457 -1.117086 -0.7117326 0.6485622
000300 12 a7 ce be 88 db 15 c0 25 d6 ad 3f 61 96 d4 be
       -0.4036184 -2.3415241 1.3580977 -0.4152098
000310 e0 d7 a8 3e be 82 05 bf a2 87 ed 3c f7 82 84 bf
       0.329772 -0.5215262 0.028995339 -1.0352467
000320 76 99 b8 3e 06 6e e5 bf 0a 72 3f bf 42 8b eb 3e
       0.3605458 -1.7924201 -0.74783385 0.46004683
000330 49 d5 82 bd f2 60 02 bf 50 14 de be 1e ce 83 bf
       -0.06388337 -0.50929177 -0.43374872 -1.0297277
000340 59 2e 60 3f 64 cb 51 3f 81 90 26 bf 32 01 82 bf
       0.8757072 0.81950974 -0.65064245 -1.0156615
000350 fe 08 1e bf 12 f1 2e bf 8c e2 d5 3e a0 f5 27 3e
       -0.6173247 -0.68336594 0.41774404 0.16402292
000360 c2 f5 d9 be 74 3e ae 3e 58 89 c4 3e 14 ff 50 be
       -0.4257031 0.34032023 0.38386035 -0.20409805
000370 7e ec e8 3e 7e e0 18 3f 3c 63 de 3f a9 43 45 3e
       0.4549293 0.5971755 1.7374034 0.19264092
000380 07 22 80 3f 3c 7e af bf 55 94 11 3e 2e f7 d5 be
       1.0010384 -1.3710399 0.1421674 -0.41790146
000390 c6 b3 57 be 26 7f 0e bf a1 77 0f 40 37 81 cc be
       -0.21064672 -0.55662763 2.2416766 -0.39942333
0003a0 ef 8a bb 3e 5f d4 a8 be 9b 7e 97 be 83 e6 c4 bf
       0.36629435 -0.32974526 -0.2958878 -1.5382847
0003b0 a0 83 cf bf ea c6 ea 3f a9 e7 0d 3f e6 37 16 be
       -1.6212044 1.8341954 0.5543161 -0.14669761
0003c0 13 b2 51 bf 65 a8 35 3f 39 c8 1d 3f dc 57 0d 3f
       -0.81912345 0.70960075 0.6163364 0.5521219
0003d0 f3 e6 f4 be 17 0e 1a 3f 5f ce 60 3f cd 9d fa bc
       -0.4783245 0.6017775 0.878149 -0.030592823
0003e0 64 94 44 bf 77 7d a9 3e 86 47 98 3f 24 e0 a6 bc
       -0.76788926 0.33103535 1.1896827 -0.02037055
0003f0 d7 15 9d 3f da 68 d1 3f 9f e4 4d 3e 6d e8 25 3f
       1.227229 1.6360123 0.20106743 0.6480778

gru_dp_fw.decays f4 [7]
000000 82 c5 c3 15 88 4e e8 8f 91 0d 28 92 27 1b 43 8a
       7.9071485e-26 -2.2907215e-29 -5.3028175e-28 -9.394015e-33
000010 40 19 72 91 0e e7 88 93 ac 00 5e 85
       -1.9098215e-28 -3.4559064e-27 -1.0438513e-35

gru_dp_fw.gru_cell.weight_ih f4 [21, 7]
000000 c4 c0 b7 bd 49 07 0d be e5 48 10 be 53 0a b0 3e
       -0.08972314 -0.1377231 -0.14090307 0.34382877
000010 b4 95 88 be ee 88 21 3e ea 0d 09 3e 14 cd 27 be
       -0.26676714 0.15774891 0.13384214 -0.16386825
000020 22 1d 35 3e b0 cb 10 bd c0 03 ce bd 70 b8 83 be
       0.17686895 -0.0353505 -0.10059309 -0.25726652
000030 20 99 69 3c fc 74 79 be 8c 13 d8 3d 51 99 7b be
       0.014257699 -0.24361032 0.10550603 -0.24570204
000040 43 5d 81 3e 94 9a 95 bd e5 de 9b 3e 88 cc 34 3d
       0.25266466 -0.07304874 0.30443493 0.04414037
000050 28 9c 81 3d 54 2c ab 3d a4 52 1e be 9b b3 88 be
       0.063286126 0.08358064 -0.15461212 -0.26699528
000060 43 e4 99 3e de 6e 36 3e be bb 01 3e fe 37 6b 3e
       0.30056962 0.1781573 0.12669274 0.22970578
000070 3b cf af be b1 7a 9b 3e 70 f5 f3 3d dc 42 ff 3d
       -0.34337792 0.30367044 0.11912048 0.12463924
000080 42 a1 1b be f4 c7 85 3d f2 7c 15 3e a6 60 6f 3e
       -0.15198234 0.06532279 0.14598444 0.23376712
000090 4a 5f 5a 3e 84 2f e8 bd a7 48 49 be d0 84 ae bc
       0.21325412 -0.11337188 -0.19656621 -0.021303564
0000a0 75 19 8e 3e 12 98 32 be 8e 3e 62 3e c0 8a eb 3c
       0.27753797 -0.17440823 0.22094175 0.028752685
0000b0 e8 b6 82 be 13 99 52 be ee a0 5b 3e 23 a1 82 3e
       -0.2553017 -0.20566206 0.21448109 0.25513563
0000c0 42 dc 40 3e be 1f 76 3e 20 44 1a bc 73 5e 8c 3e
       0.18834022 0.24035546 -0.009415656 0.2741581
0000d0 73 c4 86 be 18 a9 62 3d bc 93 b6 be 64 4a fb 3d
       -0.26321754 0.05533704 -0.35659587 0.12270048
0000e0 64 a6 cb bd f0 a3 45 bd 38 3e a7 be fc 57 83 be
       -0.09943846 -0.048252046 -0.32664657 -0.25653064
0000f0 e4 80 9d bd ca 91 9c be e0 07 f5 bd 36 23 98 be
       -0.076905996 -0.30579978 -0.11964393 -0.29714364
000100 48 68 bb bd 58 26 13 bd cb da b8 be 65 71 81 3e
       -0.091507494 -0.03592524 -0.36104426 0.25281826
000110 25 51 9b 3e 3f 82 82 3e d8 2d 79 be 02 95 38 3e
       0.30335346 0.25489995 -0.24333894 0.18025592
000120 fa df 32 be 07 56 96 3e 79 be 76 be 00 36 42 bc
       -0.17468253 0.2936251 -0.24096097 -0.011853695
000130 0b da 8d 3e ed 27 be 3e be e3 5e 3e e8 6e 01 be
       0.27705416 0.37139836 0.21766564 -0.12639964
000140 d3 c0 ab 3e 42 d0 1a 3e 88 bd aa 3d 41 66 93 3e
       0.3354555 0.15118507 0.083369315 0.2878895
000150 ae c5 47 3e 22 9a 2c 3e 04 a8 82 bd 43 91 8d 3e
       0.19509003 0.16855672 -0.06379703 0.27649888
000160 d6 13 7f be 1e ea a9 be 54 d8 ad 3d 0e 8f 97 be
       -0.2490991 -0.3318643 0.08488527 -0.2960133
000170 00 4b 98 bb bf 0f 8e be 9f 7a 14 be 98 05 01 bd
       -0.0046476126 -0.27746388 -0.14499901 -0.031499475
000180 0e 3c 66 3e c2 02 01 be b1 7d 86 3e 72 d9 46 3e
       0.22483847 -0.12598708 0.2626777 0.19418886
000190 92 28 95 be 13 99 a0 be 7c 02 79 be e0 42 21 3d
       -0.29132515 -0.31366786 -0.24317354 0.039370418
0001a0 64 1b 8f 3d a6 15 ab be 16 54 11 3e 48 fd 66 bd
       0.06987646 -0.33414954 0.14192232 -0.05639389
0001b0 cc d1 80 bd c5 88 88 3e e8 7b 81 be dc 97 84 bd
       -0.062900156 0.26666847 -0.25289845 -0.064742774
0001c0 00 50 f1 bc 6e 98 b5 be ed 8a 9c 3e 21 c5 bf 3e
       -0.029457092 -0.35467857 0.30574742 0.37455085
0001d0 fe e7 42 3e ac b0 f0 3d 47 eb a5 3e 97 b1 a9 3e
       0.1903381 0.117524475 0.32406065 0.33143303
0001e0 e8 15 d4 bd 3d c0 9d 3e 56 8a 00 3e 4c d6 93 be
       -0.10355741 0.3081073 0.12552771 -0.28874433
0001f0 44 95 fa bd 24 fc d9 3d 64 d4 3f be ad c2 ae 3e
       -0.122355014 0.10643795 -0.18733364 0.341329
000200 09 86 8a 3e 1c 33 fe 3d 26 c7 2c 3e 33 66 ae 3e
       0.27055386 0.12412092 0.16872844 0.34062347
000210 8b 74 80 3e ff 41 b1 be 39 17 b4 3e 14 d5 57 be
       0.25088915 -0.34620664 0.35173967 -0.21077377
000220 00 ef ff 3b b1 a7 96 3e 9b ba 96 3e 18 b9 21 be
       0.0078104734 0.29424813 0.29439244 -0.15793264
000230 bf 2b 22 be 19 4c a2 be 62 a0 04 3e ac d5 a9 bd
       -0.15837 -0.31698683 0.12951806 -0.08292708
000240 29 35 8f 3e cb 34 11 be d2 d2 28 3e
       0.27970245 -0.14180295 0.16486672

gru_dp_fw.gru_cell.weight_hh f4 [21, 7]
000000 70 9d 4d 3e fe f2 3d be 10 5a 56 3d e3 05 b1 be
       0.20079589 -0.18549725 0.052331984 -0.34574804
000010 fb e6 b3 bd 72 31 40 be 42 77 1c 3e 91 22 01 3d
       -0.087842904 -0.18768862 0.15279868 0.031527106
000020 60 27 bf be 64 9d e3 3e 91 d6 95 be e8 25 30 3e
       -0.37334728 0.44456017 -0.29265264 0.1720196
000030 bf 66 1b bf 5f e5 ae 3e b2 7d 3d 3d 69 af 9b be
       -0.60703653 0.3415937 0.04626245 -0.30407265
000040 1c fe b2 3d 80 27 82 bc 2f 31 0a bf 93 09 68 be
       0.08739874 -0.015887976 -0.539813 -0.22659902
000050 67 96 ea 3e 9f c3 8b 3d 73 e0 0d 3e 1e bc 18 be
       0.45817873 0.06824421 0.13855152 -0.14915511
000060 70 01 e4 be 23 69 f6 3d d3 51 3c be e5 52 b0 be
       -0.44532347 0.12031772 -0.18390588 -0.34438244
000070 ee 62 ff be 52 38 21 3e 44 f7 4b bd ca a9 25 3f
       -0.49880165 0.1574414 -0.049796358 0.647122
000080 c5 ab 9b 3e d0 7d d2 3d d3 2f 7d 3d a7 bc 13 3d
       0.30404487 0.10277903 0.061813187 0.036068585
000090 b0 c5 6a bd dc a9 d4 bd b3 2e a5 be ee 65 88 be
       -0.057317436 -0.103839606 -0.3226219 -0.26640266
0000a0 a5 25 77 be 97 d7 4f 3b f1 99 b7 3d ce 37 89 be
       -0.24135454 0.0031714195 0.08964909 -0.26800388
0000b0 dc b4 bd 3e ef 97 db 3b 0a 07 70 bd 40 22 8d 3e
       0.37052047 0.0067014615 -0.058600463 0.27565193
0000c0 3b 92 fb 3d f4 b0 de 3d 1f 9c 04 3e 22 2c b6 be
       0.122837506 0.10873595 0.1295018 -0.35580546
0000d0 f2 2b eb 3d b1 1b ed bd 56 b4 41 3d 46 1e 95 be
       0.11482991 -0.11577547 0.047291122 -0.2912466
0000e0 db 29 08 bd fb 23 b3 3d 2c a1 45 be 61 b7 ad 3d
       -0.03324304 0.08747097 -0.19299763 0.084822424
0000f0 76 af 54 3e dc 88 aa 3e b8 e8 84 3e d4 e4 a3 be
       0.20770058 0.3330754 0.259588 -0.3201052
000100 28 ed 59 3e 05 81 17 3e 5d 95 48 bd 83 99 60 be
       0.21281874 0.14795311 -0.04897057 -0.2193356
000110 a1 5e f6 3d 01 02 8e be 70 1b 91 3c 90 70 09 be
       0.12029768 -0.27735904 0.017713279 -0.13421845
000120 f0 20 1e 3e d5 67 a7 be be 9b ad 3e d8 34 92 3e
       0.15442252 -0.32696405 0.33907884 0.28555942
000130 bb aa f8 3d bd ee 95 3c 37 7c 45 3e 03 a4 b1 bd
       0.12141939 0.018302316 0.19285665 -0.08673861
000140 ff 23 c0 3a d5 58 82 3d e1 02 8e 3e 8e 87 dd bc
       0.0014659165 0.063645996 0.2773657 -0.027042177
000150 2e b6 b9 3e f4 1b 26 3d 6e b2 b7 be 35 6f c6 3d
       0.36271805 0.040554002 -0.3587832 0.0968918
000160 14 3b be 3e fb 1c 41 3e 1c 43 30 3e c2 26 ba be
       0.37154448 0.18858711 0.172131 -0.36357695
000170 94 da c8 3c ef 20 b3 3d af 67 30 3e 38 6f 55 3d
       0.024518289 0.08746516 0.17227052 0.05210802
000180 ac ad 74 3e b9 af 99 bc 92 71 b4 be 9b c6 d2 bd
       0.23894376 -0.018760549 -0.35242897 -0.10291787
000190 96 90 4d 3d d5 22 eb bd 4f 7c 21 bd 52 e9 c5 3d
       0.050186716 -0.11481253 -0.03942519 0.09663643
0001a0 c6 81 d1 be 27 22 4f 3c 84 97 ef be 69 5f 99 be
       -0.40919322 0.01264242 -0.46795285 -0.29955605
0001b0 91 97 7a be d8 a9 41 be 20 d5 3e 3c af 8d dd bd
       -0.2447188 -0.18912446 0.011647493 -0.108180396
0001c0 17 1c 21 be 0c 1c 6c 3e 7d 7b ab 3b fa 61 7f be
       -0.15733372 0.23057574 0.005233227 -0.24939719
0001d0 ab 1a 3f 3e 95 0a b0 be 30 65 3e 3e ff b2 77 be
       0.18662517 -0.34383073 0.18593287 -0.24189375
0001e0 bb f9 8a 3e 8c ba 2a be 3b 0e 02 be c7 ac 38 3e
       0.27143654 -0.16672724 -0.12700741 0.1803466
0001f0 4b c3 8d be ef f1 c2 3d 19 1e d9 3d 63 f4 85 3e
       -0.2768806 0.095188014 0.10601444 0.26163015
000200 55 4a 62 be b8 49 9b be a1 c0 df be 6d dd 58 3e
       -0.22098668 -0.3032968 -0.43701652 0.21178217
000210 12 97 10 3c 43 7d 7a be 39 d0 99 be 90 0d 97 be
       0.0088250805 -0.24461846 -0.30041674 -0.29502535
000220 cf 0e 80 bc f4 4d c0 be 4b 52 37 be 92 da 9a bb
       -0.015632061 -0.37559474 -0.17902486 -0.0047257626
000230 e3 f2 1d 3e 40 4d 81 3e f4 25 54 3e 1b 4b d5 3e
       0.15424685 0.2525425 0.20717603 0.41658863
000240 46 ce cf 3d 60 f3 98 3d 60 2e 69 3d
       0.101467654 0.07468295 0.056928992

gru_dp_fw.gru_cell.bias_ih f4 [21]
000000 fe 33 f2 be 7c bd f7 be 6f 10 20 bc 4b 09 44 be
       -0.47305292 -0.48386753 -0.009769543 -0.1914417
000010 1e d9 51 3e ed ba 3c 3d a1 1e b9 bd e2 dc 29 bc
       0.2049298 0.046076704 -0.09039045 -0.010367604
000020 40 91 92 3e d1 b0 03 3e 05 0d 8d be dc ce 82 3e
       0.28626442 0.12860419 -0.27548996 0.25548446
000030 46 23 7c 3e f0 e9 1e 3e 4c 98 54 3d e1 43 9a 3d
       0.24622831 0.15518928 0.051903054 0.07532478
000040 db ce 57 3d ef ba e4 bd 92 a2 2d 3e 4d b3 c1 bd
       0.052687507 -0.11168467 0.16956547 -0.09458027
000050 e0 e5 14 be
       -0.14540815

gru_dp_fw.gru_cell.bias_hh f4 [21]
000000 e4 a0 a9 be f1 25 4d be 2c db 01 be 05 12 88 3a
       -0.33130562 -0.20034005 -0.12681264 0.0010381347
000010 30 ce 7f be a8 61 72 be ef 35 00 3e fa 4f 9d be
       -0.24980998 -0.23670065 0.12520574 -0.3072508
000020 66 91 92 3e 11 6a 3f 3e 2f a7 ad be 15 2f 53 be
       0.28626555 0.18692805 -0.33916613 -0.20623429
000030 40 ba c4 bd 80 a3 ef 3d 5a 71 32 be c0 dd a5 bb
       -0.09605837 0.11701107 -0.17426053 -0.005061835
000040 a5 29 0c bd 6b 34 6a 3e ca c1 4f be 68 38 89 3e
       -0.034219403 0.22871558 -0.20288768 0.26800847
000050 ab 6a 06 3e
       0.13126628

gru_cp_fw.decays f4 [6]
000000 1f c3 5a bb 3a 23 77 b8 e5 97 51 b9 fa 15 0a b9
       -0.0033380461 -5.8922196e-05 -0.00019988378 -0.00013168892
000010 2f 5a c3 b5 df 91 86 b6
       -1.4554879e-06 -4.010493e-06

gru_cp_fw.gru_cell.weight_ih f4 [18, 6]
000000 88 63 28 bd 1c a4 bf bc 11 68 ea be 59 48 51 3e
       -0.041110545 -0.023393683 -0.4578252 0.20437755
000010 5a de 8d 3e fe 00 82 bd d7 f0 3f 3f be 58 f3 3e
       0.27708703 -0.063478455 0.7497687 0.47528642
000020 99 d4 18 bf 95 ed 8b bd 41 e5 62 3f ca 91 95 3f
       -0.596994 -0.068324246 0.88631064 1.1685116
000030 3c 86 da 3d e5 75 53 3e fb 46 0c be 8f 87 f1 bc
       0.106701344 0.20650442 -0.13698952 -0.029483585
000040 38 3e b6 3e a6 60 0c 3f 93 d2 23 3e 5a 72 a3 3c
       0.35594344 0.54834974 0.15998296 0.019951988
000050 53 f5 40 bf 8c 92 9a be b5 ab 2a 3f 92 52 dd 3e
       -0.75374335 -0.3018993 0.66668254 0.4322706
000060 b5 40 f9 3d a2 d7 bb 3e b3 74 40 3e e4 11 50 bc
       0.12170545 0.36687952 0.18794517 -0.012699578
000070 58 1b 00 be 66 b0 f3 bd 0c 44 a2 be 5a f3 94 be
       -0.12510431 -0.1189888 -0.3169254 -0.29091913
000080 58 aa 4b 3b 29 72 1c be af d9 83 3d c6 bb 00 be
       0.0031076875 -0.15277924 0.06438004 -0.1257163
000090 7d 8f fe be f2 0b c0 be 71 d0 8e 3d 00 3c 36 3e
       -0.49718848 -0.37509114 0.06973351 0.17796326
0000a0 38 9f 43 bf ab 24 05 bf e5 4b 67 3f 1c 12 58 3f
       -0.76414824 -0.52009076 0.9035018 0.8440263
0000b0 10 01 25 bf 86 ad 78 bd 96 8a df bd 82 a6 3e 3f
       -0.64454746 -0.06071236 -0.10915105 0.7447282
0000c0 6f 0c 73 be a4 87 eb bb 15 c0 9c be 87 2d 46 bf
       -0.23735212 -0.0071878005 -0.30615297 -0.7741322
0000d0 c2 b0 90 3e 2f c4 bb bd 9c b9 2e be 8b 5c 7c be
       0.28259856 -0.091682784 -0.17062992 -0.24644677
0000e0 fb 3f 8a be fd 22 04 3f e4 42 93 bd 36 36 15 bf
       -0.27001938 0.5161589 -0.07190493 -0.58285844
0000f0 ff b8 df be be 16 07 be 8b 9c 43 3e b9 90 d2 3e
       -0.43695828 -0.13192269 0.19102685 0.4112604
000100 51 71 07 3f 86 66 e3 bd 93 a5 6e be 73 41 3f 3f
       0.5290728 -0.11103539 -0.23305349 0.7470924
000110 84 46 2e 3e 6e d0 a9 3e 0d 9a 09 bf 14 75 27 3e
       0.17019087 0.33166832 -0.5375069 0.16353256
000120 bf 64 98 bd c9 0e 9f 3e b5 0e d2 3e dc 6c 3f be
       -0.07441091 0.31065968 0.41026846 -0.1869387
000130 de b8 03 3f 54 65 52 bd d0 22 1e 3f 6c f8 00 3f
       0.5145396 -0.051366165 0.6177187 0.5037906
000140 3b ed 18 bf 62 a7 31 3e 1a 91 60 be d3 79 24 3f
       -0.59736985 0.17349008 -0.21930352 0.6424839
000150 6d fb 7a be 6a d3 0a 3e c5 3c 01 3e f0 85 fd 3d
       -0.24509974 0.1355721 0.12620838 0.12379062
000160 84 6e 85 3c f4 cb b9 be 5f ee 25 3e a1 59 29 3e
       0.01628805 -0.36288416 0.16204213 0.16538097
000170 34 d9 e8 be d9 f4 1e 3e 16 25 8f bb bd b2 8f 3e
       -0.45478213 0.1552309 -0.0043684347 0.28066054
000180 12 34 bd 3e 12 f0 e2 bd ed e4 4b 3e a8 37 02 bf
       0.3695379 -0.11080946 0.19911547 -0.50866175
000190 87 32 3b be e7 3b 82 3e 4b 0d 1b 3e b0 5f 96 be
       -0.18280993 0.25436327 0.1514179 -0.2936988
0001a0 5f 73 a7 3d f9 91 03 bf 09 53 cc 3e 05 76 68 be
       0.08176302 -0.5139461 0.399071 -0.22701271

gru_cp_fw.gru_cell.weight_hh f4 [18, 6]
000000 2e e1 3d 3e 2c 77 b9 3e 4b 71 20 be a8 24 b1 3e
       0.1854293 0.36223733 -0.15668218 0.3459828
000010 f7 0d 14 3f 1e 2d 44 bf be a0 81 3e 81 ce 53 3c
       0.5783381 -0.76631343 0.2531795 0.012927652
000020 96 e0 08 3e 2c e6 12 bf 1e 4a bb 3e 33 4d 85 3e
       0.13366923 -0.57382464 0.36579984 0.2603546
000030 fd 71 83 3e 7f d2 55 bf 28 29 37 be 7e 0f 5c 3e
       0.25672904 -0.83524317 -0.17886794 0.21490285
000040 02 7a 6e 3f 6b 1e 83 3e 62 f8 3d 3e d5 a5 54 be
       0.9315492 0.25609145 0.18551782 -0.20766385
000050 09 68 1e be cc c9 bf 3e 95 e1 02 3f 3a b5 01 be
       -0.15469374 0.37458646 0.5112546 -0.12666789
000060 e6 38 14 3f b5 7c 46 bf 06 39 04 bf 1c 1b 09 bc
       0.5789932 -0.7753404 -0.5164951 -0.00836828
000070 b0 19 0a 3f 03 0c d7 3e 47 df e5 3e 0b b7 c4 be
       0.53945446 0.42001352 0.4489691 -0.384209
000080 b2 49 54 be 8a 3b df 3e 4d 47 e7 3e ea 1b d6 bd
       -0.20731238 0.43600112 0.45171586 -0.10454543
000090 81 ab 26 3e 79 23 4c bf dc 1d cf 3e 43 5f 3a bf
       0.16276361 -0.79741627 0.40452468 -0.7280161
0000a0 3d 80 f7 3d aa 9a ff bd 1e dc 0d 3f 65 2e 4c bf
       0.120850064 -0.12480672 0.55414 -0.7975829
0000b0 c0 90 1a 3e d7 3d 13 bf 36 b3 97 3d 47 bb 3c 3d
       0.1509428 -0.57516235 0.07407229 0.04607704
0000c0 0f 00 66 be f8 f8 08 3f 18 50 c2 3e 9f 53 b8 3e
       -0.2246096 0.53504896 0.37951732 0.36001298
0000d0 01 26 23 bf b5 78 c6 be 3a f6 72 bd c9 6b c1 bd
       -0.63729864 -0.38763967 -0.05931685 -0.094443865
0000e0 1b 9a 34 3e d2 24 30 bd f4 f9 d1 bd 84 30 7d be
       0.17636912 -0.043003865 -0.10252753 -0.24725538
0000f0 06 8f 9f be 86 a6 07 3f 8b 69 87 3e 83 b1 3f bf
       -0.31163806 0.5298847 0.2644771 -0.74880236
000100 30 db 5d 3e 9c f2 74 3d 2c 47 bf 3e ad 72 e4 3e
       0.21665645 0.059801683 0.37358987 0.4461874
000110 37 30 e8 bb 3c 50 80 be 57 42 99 bd 3c 17 44 3f
       -0.007085826 -0.25061214 -0.074833564 0.7659795
000120 04 08 ad be f8 f7 c1 be 02 dc e9 be 06 33 82 3e
       -0.33795178 -0.37884498 -0.45675665 0.25429553
000130 30 c3 92 3d 20 be 96 be a2 58 8a 3e 08 c8 d1 3e
       0.07166135 -0.2944193 0.27020746 0.40972924
000140 4b 59 41 3e d9 c2 14 bf 76 0a cb 3d 47 32 4e be
       0.18881719 -0.58109814 0.09914105 -0.20136367
000150 df 1e 57 3e b0 3b 82 bd 80 1f 2d bf 40 f7 e9 3e
       0.2100787 -0.06359041 -0.6762619 0.4569645
000160 ad 7b 45 3f 8c 30 0c 3f 2b 57 b5 bb d8 22 d5 3e
       0.7714184 0.54761577 -0.005534073 0.41628146
000170 e2 2c 0d 3f 0f ba 6c bf e5 ee 4d bf a5 27 0e be
       0.5514661 -0.924714 -0.8044265 -0.1388231
000180 59 00 7c 3e 91 7e 2f bf 89 66 06 bd be 0a 36 3e
       0.24609508 -0.685525 -0.03281263 0.17777535
000190 52 38 98 3e 18 0e a0 3e 7d e2 d2 3e 7a ec 1b bf
       0.2973047 0.31260753 0.41188422 -0.6090771
0001a0 36 bb d4 be b9 6f ac 3d 26 a5 48 bd 91 9b 1c bc
       -0.4154908 0.08419747 -0.048985623 -0.009558574

gru_cp_fw.gru_cell.bias_ih f4 [18]
000000 a0 84 80 3e a9 49 d1 3d 4a 32 fe 3e 01 85 70 3e
       0.25101185 0.10219128 0.49647743 0.23488237
000010 02 d1 d1 be e1 fb f8 3e 25 59 84 3e 09 c6 04 3f
       -0.40979773 0.48629668 0.25849262 0.5186468
000020 3f 56 de be fb eb 20 bf 90 30 0b 3d 9d 51 a2 be
       -0.43425176 -0.6286008 0.03398186 -0.3170289
000030 79 be 49 3d a2 d8 bb bc f3 b0 0a bd b7 83 4f be
       0.049253915 -0.022930447 -0.03386016 -0.20265089
000040 49 a8 88 bd 9b b6 80 be
       -0.06672723 -0.25139317

gru_cp_fw.gru_cell.bias_hh f4 [18]
000000 04 9e 33 3e 69 f3 52 3e 65 91 90 3e 64 3b 00 3e
       0.17540747 0.20600666 0.28235927 0.12522656
000010 3e 00 1c 3d c6 11 e6 3e db 55 2a 3f 5b c6 6a 3f
       0.03808617 0.44935435 0.66537255 0.91708916
000020 42 1e 42 bf c9 3f 69 bf ed 40 82 bd e5 22 3f be
       -0.7582742 -0.91112953 -0.0636004 -0.18665655
000030 c4 0f 2a be e7 c4 93 3e 6f 97 1d 3e d1 6d c0 3e
       -0.16607577 0.28861162 0.15389799 0.37583783
000040 33 dc b0 3e 0a 2a b0 3e
       0.34543 0.34407073

gru_dp_bw.decays f4 [7]
000000 e5 39 16 b1 19 e1 84 b2 f2 59 6f b4 00 3e 71 b4
       -2.1860782e-09 -1.5469185e-08 -2.2291331e-07 -2.246743e-07
000010 71 4a 23 b1 12 41 7a b2 72 52 af b5
       -2.3761937e-09 -1.45667105e-08 -1.3062511e-06

gru_dp_bw.gru_cell.weight_ih f4 [21, 7]
000000 9a c2 34 be 98 a6 11 3e b7 53 dd bd 0b 3a 10 bf
       -0.1765236 0.14223707 -0.10806983 -0.56338567
000010 b2 a6 b7 3e b8 40 f1 be 88 d0 53 3e f4 f4 f0 3e
       0.35869366 -0.4711969 0.20685017 0.47061884
000020 8b 40 69 be b8 31 b0 3b e5 1f 32 3f ec 29 97 3e
       -0.22778527 0.0053770207 0.6957992 0.2952417
000030 18 13 82 bc 87 51 af be d3 14 37 3f db dd 43 be
       -0.015878245 -0.34241888 0.7151615 -0.191276
000040 8c c6 66 bf ad 2a 22 bf 69 75 a9 bc 84 21 2d 3f
       -0.9014671 -0.6334637 -0.020685868 0.67629266
000050 cb fa ab bd 0a 9d 29 3e 37 34 f0 bd 13 b1 2a bf
       -0.08397444 0.16563812 -0.11728709 -0.66676444
000060 b9 6c 2b 3f f6 4d ec bc 88 c3 c5 3d fe a9 91 be
       0.6696277 -0.028845768 0.09656435 -0.28450006
000070 77 1b af 3d 17 33 82 be ba 21 1a 3f 11 fe 89 3e
       0.085501604 -0.25429603 0.6020771 0.2695165
000080 f7 af 87 be d4 64 e7 3e 15 89 4c 3e e7 f8 7f 3e
       -0.26501438 0.45194113 0.19974168 0.24997292
000090 14 98 e8 bc 75 85 46 bf 17 c2 5d 3e 8b 82 cb 3e
       -0.028392829 -0.7754739 0.2165607 0.39748034
0000a0 59 47 2d 3e f0 6e 53 bf 46 f5 fc 3d e0 1e dd 3d
       0.16921748 -0.8259115 0.1235147 0.107969046
0000b0 8a 47 5e bd d7 42 c7 3e 62 d5 86 bc 6e 0b 72 3e
       -0.054267444 0.38918182 -0.01645917 0.23637173
0000c0 83 c2 b4 bd eb 2b 07 be 9c fb a3 3e d6 4c d0 3e
       -0.08826163 -0.13200347 0.320279 0.4068362
0000d0 32 d4 8f 3d 6d 6c d0 bd 7d 50 73 be 33 7b 27 be
       0.07022895 -0.101769306 -0.23761173 -0.1635559
0000e0 1e 1a 0e 3e b5 c9 89 3d 03 a2 14 bd fe ea f0 3c
       0.1387715 0.06727926 -0.03628732 0.029408928
0000f0 d5 2b 5b be 36 66 40 3e 35 4e 4a be 70 22 a3 3e
       -0.2140344 0.1878899 -0.19756396 0.3186221
000100 c3 08 a4 bd 75 7e 90 3c b9 1c 56 bd cf 50 bc be
       -0.08009484 0.017638424 -0.052273486 -0.36780402
000110 3b 50 67 3e 06 fc 54 3e bf ca 8a be ad db 67 be
       0.22589199 0.20799264 -0.27107808 -0.22642393
000120 c1 ee c8 bd 41 01 3f bd 57 e1 f8 bd f7 74 ac be
       -0.09811164 -0.046632055 -0.12152355 -0.33682987
000130 64 db 89 be 4d 0a a0 be ef 70 9d be df 3b cc 3d
       -0.26925194 -0.3125786 -0.30750224 0.09972357
000140 97 9b 49 bd 45 fe ce 3c f8 a9 58 3e aa b5 55 3e
       -0.049220648 0.02526773 0.21158588 0.2087008
000150 71 71 87 3e cc 02 fa 3c 59 28 5b be a9 30 f4 bd
       0.26453736 0.030518912 -0.2140211 -0.11923344
000160 70 3b 56 3e 44 8a 40 3e e7 91 26 be 39 48 98 3d
       0.20921111 0.18802744 -0.16266595 0.074356504
000170 26 e1 4d be 71 35 d0 3d f8 f7 8d be cb e1 54 3e
       -0.20105419 0.10166443 -0.27728248 0.20789258
000180 a4 ae 11 be e3 c6 6e 3c d6 50 72 3e 18 0a 08 bf
       -0.14226776 0.0145737855 0.23663649 -0.531404
000190 7c e0 44 bf ed 8b d3 be fa fd a0 3d 68 5a 57 3e
       -0.76905036 -0.41317692 0.07860942 0.21030581
0001a0 70 d7 8f 3e 02 04 39 3e c7 ce 28 3e f6 5a 6e be
       0.28094053 0.18067935 0.1648513 -0.23276886
0001b0 e7 51 ce 3e 8f f3 cd bd 63 7e 0e 3f c2 c2 e8 be
       0.40296862 -0.10056221 0.556616 -0.45461088
0001c0 cb b0 8e be 4c 60 4a be 49 18 b8 bd ba 3c 61 be
       -0.27869257 -0.19763297 -0.08989007 -0.21995822
0001d0 79 4c d8 3e 2e 7c c5 be 4b b0 a2 be 82 78 72 bf
       0.42245844 -0.38571304 -0.31775126 -0.9471513
0001e0 66 52 53 bc 44 37 66 be 15 e8 60 3e 28 62 48 be
       -0.012898063 -0.2248202 0.21963532 -0.19568694
0001f0 c2 38 86 be 3f 0b 03 bf 60 c1 44 3e 5b dd 53 3e
       -0.26215178 -0.51189035 0.19214392 0.20689909
000200 ea bd 12 3d 43 c3 82 3c 05 0e e0 bc ba 24 10 be
       0.035825647 0.015962249 -0.027350435 -0.1407651
000210 24 28 e6 bd 7f a9 57 bd ee 89 1e 3d fa 75 54 3e
       -0.11238125 -0.05265188 0.03870576 0.2074813
000220 d3 09 46 3d 80 4f 1a be 7e f1 54 bd be 08 d5 3c
       0.048349213 -0.1506939 -0.051988117 0.026005145
000230 8e c5 aa bc fa 55 df 3d a0 c3 8a bd 32 6a 94 be
       -0.020846155 0.109050706 -0.06775594 -0.2898727
000240 08 a4 b1 bd a2 1f 57 bd 36 a6 b0 bb
       -0.086738646 -0.0525204 -0.0053909076

gru_dp_bw.gru_cell.weight_hh f4 [21, 7]
000000 27 a3 d4 be d9 e0 d3 3d fd d9 ac be 8c 83 4b be
       -0.41530725 0.10345621 -0.33760062 -0.198744
000010 44 92 35 bd d8 1f b9 be cd 6e a0 3d 75 ae de be
       -0.044328943 -0.36157107 0.078336336 -0.43492475
000020 74 62 ac 3e 21 a1 e2 be b8 8d 9e 3e 38 6c 9b be
       0.33668864 -0.44263557 0.30967498 -0.30356002
000030 b1 41 a9 3e 86 e4 fe bd f8 64 16 3e 8a d3 ae 3e
       0.3305793 -0.12445931 0.14686954 0.34145766
000040 6a 95 fc be ea 2f c5 3e 44 ed 19 3e d5 08 e1 be
       -0.49332744 0.38513118 0.15031916 -0.4395205
000050 af 23 cd be 0a 0b b9 bd 06 6f be 3e dc 8e bd be
       -0.40066287 -0.09035309 0.3719408 -0.37023056
000060 d2 b0 54 bc 83 b1 63 bd 80 ff 93 be d4 39 54 be
       -0.01298161 -0.05558921 -0.2890587 -0.20725185
000070 21 38 ab 3e 7b 46 73 3c 7f 72 0b bf 04 72 76 bd
       0.3344126 0.014848347 -0.5447158 -0.060167328
000080 0d a3 f9 bc 95 b9 6f be 04 4e e0 3e 34 2a bc 3e
       -0.030473256 -0.23410638 0.4380952 0.36750948
000090 31 fe 50 3e e5 24 8f 3e 36 51 5b 3e b5 b0 91 be
       0.20409466 0.27957836 0.21417698 -0.2845513
0000a0 0c 96 9b 3c 5e 43 e1 bc f1 e0 ba bd dd eb 04 3f
       0.018992446 -0.027497943 -0.091249354 0.519224
0000b0 cf 86 ba be da 27 30 be 1e e8 fa bd 0b 82 3d 3e
       -0.36430976 -0.17202702 -0.12251304 0.18506639
0000c0 5d ce 91 3d 89 01 c5 3d 4b 3e 13 be 35 19 17 3f
       0.07119439 0.096194334 -0.14379232 0.5902284
0000d0 10 c7 c5 be f9 89 38 bf 15 82 a4 be 5d f8 d7 3d
       -0.38628435 -0.7208553 -0.32130495 0.105454184
0000e0 bd 6d 8c be ee 2a 01 bf 9b d9 7d 3e 2a 79 98 be
       -0.27427474 -0.5045613 0.24790041 -0.2977994
0000f0 9e 94 cd be 24 ae 08 3e a6 e9 8d 3e 04 c5 87 3c
       -0.40152448 0.1334768 0.27717322 0.016573437
000100 da a2 6d 3e 11 f6 08 3d c6 80 cb bd 7c 7e 79 bd
       0.23206654 0.033437792 -0.09936671 -0.06091164
000110 65 8f 70 be 9b 45 3c bd 2c d8 67 be ba 9a b2 3d
       -0.234922 -0.04596482 -0.22641057 0.08720918
000120 61 7f df 3e 55 00 7e be 6f 0e c8 be cd be ea bc
       0.4365187 -0.24804814 -0.39073512 -0.028655434
000130 1d 96 a0 bd a4 97 84 be f9 82 9f be 58 e8 9b bd
       -0.07841132 -0.25896943 -0.31154612 -0.076126754
000140 cc c1 2b be 41 33 0e 3e 4f 18 1a be 3e b9 ec bc
       -0.16773146 0.1388674 -0.15048335 -0.028896924
000150 2f 68 f5 be 52 c6 3f 3e f7 17 fa be 85 8a 23 3e
       -0.47931048 0.18727997 -0.4884641 0.1597081
000160 cc b7 2a bf 43 12 df 3d 0c dc 39 bd 4e 79 46 3e
       -0.666867 0.10892155 -0.04537587 0.19382212
000170 79 fe 6b bf eb 8d 94 3e 6c b0 35 3d 2b 5d ad bc
       -0.9218517 0.29014525 0.044357702 -0.02116259
000180 ca de 6a 3e d3 ce fa 3d 45 3d 92 3e fb 3d 78 be
       0.2293655 0.1224648 0.2856237 -0.24242394
000190 6c 89 a7 3e a2 93 12 bf 1f 19 2f 3e 9a eb 14 bc
       0.32722032 -0.5725652 0.17099427 -0.009089375
0001a0 8f d1 2c be 0b e5 82 be a9 ed 2f 3e 64 99 fa be
       -0.16876815 -0.2556537 0.17180504 -0.48945153
0001b0 35 0a cf 3e d9 c6 c0 bd bd d3 ed be 37 59 82 3e
       0.40437475 -0.09412927 -0.46450606 0.2545869
0001c0 6d e3 45 3f af ef 75 be 9d 12 2b 3e 93 05 f6 be
       0.7730015 -0.24017213 0.16706319 -0.48051128
0001d0 f0 eb 41 3e b9 79 4d 3e d6 f4 7f be 4f 95 6e be
       0.1893766 0.20065965 -0.24995741 -0.23299144
0001e0 09 f1 21 3f 6f 44 d5 be 25 10 9c 3e b5 79 4c 3e
       0.63258415 -0.41653773 0.30481067 0.19968303
0001f0 a8 79 da be af 48 2a 3e c7 95 1a 3f eb dd 36 be
       -0.4267094 0.16629289 0.6038479 -0.17858092
000200 6b e5 ea 3e 03 64 17 bf e6 f1 83 3d 75 60 fc 3d
       0.45878157 -0.5913698 0.06442623 0.12323085
000210 b2 eb 9f 3e 51 a3 3d 3f 14 96 1f be b7 f1 1a 3f
       0.3123451 0.74077326 -0.15584594 0.6052508
000220 cb bb 22 be 15 96 95 3c 1c 5f 1a 3d e0 a2 59 3e
       -0.1589195 0.018260041 0.03768836 0.21253538
000230 d9 09 18 3f 95 11 42 bf 76 8e 1f 3f 43 32 8f be
       0.59390026 -0.7580808 0.62326753 -0.27968034
000240 00 0d 59 be fe 6e 67 3d d6 3d f1 bd
       -0.21196365 0.056502335 -0.117793724

gru_dp_bw.gru_cell.bias_ih f4 [21]
000000 6b d4 0f 3f ba ad 0d be f3 b1 75 3e 87 73 53 3d
       0.561835 -0.13835803 0.23993663 0.051623847
000010 d3 a1 a3 3e a0 17 f3 3e 6a 4a 59 3e 75 c2 0a 3f
       0.319594 0.47478962 0.21219793 0.5420297
000020 b0 ff 1e 3f 45 a1 dc 3e 86 b8 22 3f 88 d5 09 3f
       0.621089 0.4309179 0.6356281 0.5384145
000030 71 de 76 3e f5 e2 47 3f dc 38 29 be 42 82 42 be
       0.24108292 0.78080684 -0.16525596 -0.18995002
000040 4d 53 26 3e 11 ee 3f be f4 17 48 bd 45 df 0c be
       0.16242714 -0.18743159 -0.04885097 -0.13757046
000050 60 41 a9 3e
       0.3305769

gru_dp_bw.gru_cell.bias_hh f4 [21]
000000 fb 50 dc 3d 06 cb 9e 3e 8e 55 a5 3e 7d 3b e9 3e
       0.10757633 0.3101427 0.32291836 0.45553198
000010 1e 2f 03 3f 2b 0e 38 3e 38 14 ed 3d fa dd 58 3f
       0.5124377 0.17974155 0.11576122 0.8471371
000020 60 15 84 3f 4b d5 75 3f bd 3d 81 3f 79 94 a3 3d
       1.0319023 0.96028584 1.0096966 0.07987303
000030 17 46 ea 3e 2f c7 02 3f d9 87 e5 bd ce 9d 7f 3e
       0.457566 0.5108518 -0.112075515 0.24962541
000040 f7 d7 e6 bd 5f ac 93 3e 1c f6 e0 bd 78 5f 90 3d
       -0.11271661 0.28842446 -0.10984442 0.07049459
000050 00 86 1c be
       -0.15285492

gru_cp_bw.decays f4 [6]
000000 3a 9d f5 b7 9a 77 8d b6 74 c4 0c b2 55 12 88 b5
       -2.927949e-05 -4.216051e-06 -8.193741e-09 -1.0138125e-06
000010 e0 bd 3b b6 29 eb a2 ba
       -2.7975693e-06 -0.0012429702

gru_cp_bw.gru_cell.weight_ih f4 [18, 6]
000000 8c 69 5e be 7a 1a b8 3e 3b b9 98 3d 5c 2b 71 3e
       -0.2171995 0.359577 0.07457205 0.23551697
000010 e4 dc 6d be 66 78 94 3e 15 08 df be bd 60 a9 bd
       -0.23228794 0.28998107 -0.43560854 -0.082704045
000020 d0 6f 0b be bb e1 8a be 85 34 8a bd da ba 94 be
       -0.13616872 -0.27125344 -0.067482986 -0.29048806
000030 45 94 9f be a5 e9 9b 3e 6d c5 08 3f 8d 6a 2b 3e
       -0.31167808 0.30451694 0.5342625 0.16739865
000040 6a 60 46 3e 5f 1a 46 3e e0 37 89 be d1 ff 96 3e
       0.19372717 0.19345997 -0.26800442 0.29492047
000050 d3 ef b5 3b d8 51 0d bd 56 13 00 bf 3c 59 25 be
       0.005552271 -0.03450188 -0.50029504 -0.16147321
000060 d9 bc b8 be e4 30 ad 3e 81 56 7c 3e 80 e1 06 bf
       -0.3608158 0.33826363 0.24642374 -0.52687836
000070 7d dc 1e 3e cc 0c 9b 3e 10 6a e5 be c7 f6 2b 3d
       0.15513797 0.302832 -0.44807482 0.041983392
000080 e9 c4 71 3e 41 da 2b bf e0 e3 82 3d f1 c2 03 3f
       0.23610272 -0.67129904 0.0639112 0.5146933
000090 da 4e 72 3e af 59 ce 3e 2e 15 eb be 79 86 06 be
       0.23662892 0.40302798 -0.45914596 -0.13137235
0000a0 78 0a a8 be 1e cf 84 be 6f ce ee bc 9b c7 1d 3e
       -0.32820487 -0.25939268 -0.02915117 0.15408175
0000b0 9d 8e d8 bd f4 09 a6 3d 2c e8 23 3e 55 18 ee 3d
       -0.10574076 0.08107367 0.16006535 0.11625735
0000c0 88 b3 17 be bb eb b8 be 06 bc 28 3e c4 38 9a 3e
       -0.1481458 -0.36117348 0.16477975 0.30121434
0000d0 0d b5 4d be be 6c cd 3e fe 02 0d bd 74 0d ac 3e
       -0.20088597 0.40122026 -0.03442668 0.33604014
0000e0 0c f7 47 be 56 ba 3e be f0 53 f3 3c a0 ad cf 3c
       -0.19527835 -0.18625769 0.02970311 0.025351346
0000f0 6c 7f 9e 3c 13 0e 16 be 9e bc 0d 3f b3 65 e0 3e
       0.019347869 -0.14653806 0.5536593 0.4382759
000100 40 26 7d be 5e e3 8e 3d 86 56 d1 bd 0b ad 4e 3d
       -0.24721622 0.069769606 -0.10221581 0.050457995
000110 95 f2 84 3b 16 f6 a9 3e 12 28 97 be f3 67 9b be
       0.0040572383 0.3319556 -0.2952276 -0.30352744
000120 79 eb 38 3d 0e 89 ed 3e c4 19 a3 be f4 7a 80 3e
       0.04514644 0.46393627 -0.31855595 0.25093806
000130 7a 0c 1d bf 5b 43 a1 3e 87 c7 3b 3e 60 6e b4 3d
       -0.6134716 0.314967 0.18337832 0.08810115
000140 a5 0e 98 3d c0 22 67 3d 1d 16 81 bc 3b ca 57 3e
       0.07424668 0.056429625 -0.015757615 0.21073239
000150 a4 ba 6f be e8 3c 11 be cd 0f 95 be dd b1 6a be
       -0.23411041 -0.1418339 -0.29113618 -0.22919412
000160 97 69 4f 3e 9c b0 e7 3e b4 25 c4 be 6a a6 b5 bc
       0.20255123 0.4525193 -0.38310015 -0.022174079
000170 31 70 48 3e 93 39 b7 bc 7c 6f b9 3e 3f df 8b be
       0.19574048 -0.02236632 0.36217868 -0.2731876
000180 b6 4b 87 be f0 b5 36 bd 70 32 01 bf ef e5 c8 be
       -0.2642495 -0.044607103 -0.50467587 -0.39237925
000190 71 e1 94 3e 6f 38 a9 bd 21 6b b8 3e f4 35 25 3d
       0.29078248 -0.08262717 0.36019233 0.040334657
0001a0 38 06 68 3c 99 0c b9 3e b1 71 67 be 5a b2 e8 3e
       0.014161639 0.36142424 -0.22601964 0.4544857

gru_cp_bw.gru_cell.weight_hh f4 [18, 6]
000000 43 56 05 3e db d8 01 bf 87 15 13 3d 54 a2 32 3d
       0.13021187 -0.5072152 0.035909202 0.04361184
000010 6b 58 c7 3e 9a 7c 32 be 83 a5 94 be 00 a3 d5 3d
       0.38934645 -0.17430344 -0.29032525 0.104314804
000020 11 87 a4 3e 72 74 02 3f 88 75 91 bd cd 6a 0d bf
       0.32134297 0.5095893 -0.071024954 -0.5524109
000030 96 7d ea bc dd 43 fb be 5c e4 82 bd b9 ca d9 3c
       -0.028624337 -0.49075213 -0.06391212 0.026585924
000040 ee c8 44 3e 87 96 05 bf 7d 02 ae 3d 03 c9 1b bf
       0.19217274 -0.5218281 0.08496568 -0.60853595
000050 94 81 58 be ba 05 2f 3e c7 88 55 be d8 28 12 bf
       -0.2114318 0.17092028 -0.20852958 -0.5709357
000060 26 ae 95 3a b8 d3 e5 3d 5f eb 05 3e 86 3b 5c be
       0.0011419698 0.11222023 0.13078068 -0.21507081
000070 1b 66 98 3d 22 28 53 3e 62 b4 d8 be 76 28 78 3d
       0.0744135 0.20620778 -0.4232512 0.06058546
000080 f1 98 18 be fd 00 56 bd d7 d3 06 3f e5 4e 05 bf
       -0.14902093 -0.052247036 0.5266699 -0.5207351
000090 40 77 8c be ee f1 b3 3e 60 50 f0 be 62 24 c1 3e
       -0.2743473 0.35145515 -0.4693632 0.3772307
0000a0 4f 93 12 3c 24 f5 d4 bd 86 ba ac be e5 2b 8f 3e
       0.008946254 -0.10398319 -0.33736056 0.27963176
0000b0 cb ee ac bd 4a 37 2c 3e b6 cd 5b 3e d5 0f 99 be
       -0.08443984 0.16817966 0.21465191 -0.2989489
0000c0 d2 e6 28 3e cf fd c4 be fc 34 6a be eb c3 9d 3e
       0.16494301 -0.3847489 -0.22871774 0.30813536
0000d0 ee 26 96 bc dc 13 a0 bd 22 0b 62 be 68 9f b1 3e
       -0.01832911 -0.07816288 -0.2207456 0.3469193
0000e0 8c 7f a3 3d db d8 3b 3e fc 0b 5d bd b4 60 d1 3e
       0.07983312 0.18344443 -0.053966507 0.4089409
0000f0 e6 b7 92 be c7 bf 78 be 5b 70 11 3d 0a 0d e3 3e
       -0.28655928 -0.24291907 0.03550754 0.44345886
000100 86 43 53 3e ab 46 b4 be 20 62 2d bd ab 8d a8 3e
       0.20631227 -0.35210165 -0.042329907 0.32920584
000110 f3 a5 01 bf b6 09 57 3e 0a c0 c7 be 96 92 17 3d
       -0.50643843 0.20999798 -0.39013702 0.03700503
000120 e3 1b a8 3e 3f f1 99 3e 71 df 38 bf 11 9b 08 bf
       0.32833776 0.3006687 -0.72215945 -0.5336161
000130 a1 6d aa be e6 ed d3 bc 58 f1 63 3e 97 48 9b be
       -0.33286765 -0.025870275 0.22260034 -0.3032882
000140 97 52 98 bf 85 6a 8f be 7a 0c fe be e4 0b 47 bd
       -1.1900204 -0.28010955 -0.49618894 -0.048595324
000150 a7 62 2f bf 49 9d 27 be 78 d9 94 bd 3a ee 1b 3f
       -0.68509907 -0.16368593 -0.07268041 0.6091038
000160 1d c6 05 3f 9b 43 8d bd e4 e4 02 bf 7c ac 44 be
       0.5225542 -0.0689766 -0.5113051 -0.19206423
000170 64 75 06 3f 30 2b 09 be 4d 28 89 3e 2e 47 17 bf
       0.52522874 -0.13395381 0.2678856 -0.59092987
000180 47 b8 3c 3d aa 2d 1b 3f da be 0b 3f 27 2b aa 3e
       0.046074178 0.6061655 0.5458809 0.33236048
000190 ca 30 d6 3e d8 3e b1 be 4f b8 ea 3e 5e 22 37 be
       0.41834098 -0.34618258 0.4584374 -0.17884204
0001a0 e1 e9 0a bf 98 22 01 3e f8 5c 1b bf 54 ba d4 3e
       -0.5426312 0.12610853 -0.60688734 0.41548407

gru_cp_bw.gru_cell.bias_ih f4 [18]
000000 1c 1c ad 3e 0a 42 01 3f 53 97 ac 3e 50 fb 9e 3d
       0.33810508 0.5049139 0.337092 0.07762778
000010 ee 67 37 3d 78 09 da bd 6e 54 a0 3e 61 f1 b5 be
       0.04477685 -0.10646337 0.31314415 -0.3553572
000020 ba d6 0a be 08 54 f5 3e 54 e0 25 3c 2a ce f4 3e
       -0.13558474 0.47915673 0.010124285 0.4781354
000030 00 1f 2e 3d 7c 56 2d 3e c3 52 48 3e 5d 86 a9 3e
       0.042510033 0.16927522 0.19562821 0.33110324
000040 12 1d 0c 3d 0f 0a 23 be
       0.03420741 -0.15921806

gru_cp_bw.gru_cell.bias_hh f4 [18]
000000 1e 8c 89 be 54 db 62 3c f0 e9 d9 bd ba f6 2d 3f
       -0.26864713 0.013846237 -0.10640323 0.679546
000010 ea 36 a3 bd ac fd 97 3e a6 78 85 3e 80 a9 af be
       -0.079694584 0.29685724 0.2606861 -0.34309006
000020 1a cf 18 3f d9 e8 8a 3c e9 02 3f 3f 39 20 02 3f
       0.5969101 0.016956734 0.74613816 0.5083042
000030 36 f3 09 be a0 0d c5 be 9e 8f c2 38 0a 3e 86 be
       -0.13471684 -0.38486958 9.277392e-05 -0.26219207
000040 56 81 6f be 54 b5 80 be
       -0.23389181 -0.25138342

fc_dp.weight f4 [1, 14]
000000 b6 73 b5 3a 5d df 67 3d 32 2e ab 3c f6 b4 09 3c
       0.0013843689 0.0566095 0.020896051 0.008404961
000010 70 47 34 3d 89 8a 9e 3a 05 a8 1d bd a0 f2 b5 be
       0.04401344 0.001209573 -0.038490314 -0.3553667
000020 1c 91 ff 3e a5 f2 d2 be e5 4f de 3e 41 ee e9 be
       0.49915397 -0.41200748 0.4342033 -0.45689586
000030 19 84 03 bf b2 c6 0e bf
       -0.5137344 -0.55771935

fc_cp.weight f4 [1, 12]
000000 a5 c2 98 3e ce 56 06 be 5d c8 43 3e 21 bd a3 be
       0.29836002 -0.13119051 0.19119401 -0.3198023
000010 cc 38 2a 3e dd 7b 93 3e 11 4c 9a be 37 70 b9 be
       0.16623229 0.28805438 -0.3013616 -0.36218426
000020 f5 0d a1 3e ed 8d c0 3e 30 70 93 3e ac fb d9 be
       0.3145596 0.3760828 0.2879653 -0.42574823

fc_all.weight f4 [1, 25]
000000 c6 5e 12 3c 28 75 c8 3c 72 9c ba 3d 70 cc 35 3a
       0.008933729 0.024469927 0.09111871 0.00069350656
000010 0d f8 01 3c d5 90 fc bd c1 e9 e2 bc 37 e6 d3 3e
       0.007932675 -0.12332312 -0.027699353 0.41386577
000020 af a0 92 bd 10 df 43 3d 15 c3 4c 3e 2a 89 2f be
       -0.07159554 0.04782015 0.19996293 -0.17142168
000030 f4 ae b8 3c aa ab cd bd 8f e5 f0 be a7 a6 65 bd
       0.022544362 -0.10042508 -0.4705014 -0.056067135
000040 d2 69 39 3c 76 7d 95 bc ff 09 85 bc 50 da 81 3d
       0.011316733 -0.018248301 -0.016240118 0.06340468
000050 c7 b0 1d bd 32 4f 94 bd 02 bb 75 bd b1 bd ad be
       -0.038498666 -0.07241668 -0.059992798 -0.33933786
000060 5b b6 58 3e
       0.21163313
