trained_models/birnn_concat_time_delta_attention/final_model.pt (torch_old, 54215 bytes, 27 tensors)

embed_dp.weight f4 [1292, 6]
00000000: 0000 0000 0000 0000 0000 0000 0000 0000
00000010: 0000 0000 0000 0000 1153 84be 6680 f43f
00000020: 7ae6 f1be e503 f0bf 4274 00c0 673a 933c
00000030: b536 90bf b613 15c0 ff4a b23e 65d9 70bf
00000040: 2d91 763e 07e0 5d3e 79dc c1be 83c8 523e
00000050: aab6 3bbf 298e 973f 14ec 1e3f dd00 853e
00000060: ba91 85be 5c39 da3e 59e8 313f 9359 b23e
00000070: 4a4f adbc a99b d43e 7239 ffbf 4dcd 1640
00000080: b879 9a3e 2da8 cc3e e912 5ebe 7c41 96be
00000090: 9dbd 103f 4a88 bcbe 5715 1040 f1bb 283e
000000a0: 346f adbf 2eb7 90bf ed59 88c0 901d 02c0
000000b0: 9a8d dcbf 66e0 bb3f 7182 583f 0ee0 1b3f
000000c0: 7d2b 2bbd 4219 1fbe 1ba7 a9bf ac22 c9bf
000000d0: 975c 19bf 3dff bdbe b874 9ebf 3932 f3bf
000000e0: 5dab b8bf ee8d 803f e055 143e 07ed 1f3f
000000f0: 9faf 32bf 06c3 6bbe dcaf 0640 8054 273c
00000100: aaca 20bf 70d7 febf 81bd 273f 0cb3 48bf
00000110: fee8 e1bf 6e63 9d3f 9cea 663e 40b7 acbe
00000120: 44d0 023f bcc3 ed3f c024 21bf 3d18 24bf
00000130: a97e 20bf b3a9 b13f 5997 8b3f e090 2e3f
00000140: f654 8dbf e388 d13e 36fd 6c3f 9cbf e8be
00000150: 28d3 1c3f 2f80 9e3f db2d 253e 9774 883f
00000160: b7a4 483f c40f 89bf ea6f 663f c452 743f
00000170: 9ea3 ac3e 215c 683f ebbf b8be 93b0 963e
00000180: b501 20be b150 903f b00f 08bf 190d e4bf
00000190: f31b 763e cdc8 10bf 2ff0 0dbe bc3b 3dbf
000001a0: 2cd6 87be 4106 1cbf 5aae 663e 6662 193f
000001b0: de15 a5bf abf9 773f d6b7 093f 3449 05be
000001c0: 1bb6 153f 19ef 053d ea8a 77be 5562 6a3f
000001d0: cdd3 b03f 8c65 893f 18fb 3fc0 1012 a3bf
000001e0: 76dd 873f 8405 2bbe 4cf9 b53e 3ef2 493f
000001f0: e890 a5be 05a0 c63e 59c7 82bb 7133 20bf
00000200: 8630 58bf 5364 a73f 3dc1 623f a225 e2be
00000210: 3d98 c8be dd8c 1dbf 984a 24bf 54e0 223f
00000220: 1c9f da3e 36d7 e63e 406d 923e 609f b9bf
00000230: 8a80 83c0 e380 9fbf 7e5f 3440 b122 693f
00000240: 3b2f 7c3f c2c2 3abe d268 8b3e 9d0b 913d
00000250: 21e8 90bf e571 94bf 6e95 afbe 215c 393f
00000260: e3c2 a1be 0e7b d33d 309c a73f c6de d7bf
00000270: c9fc 75be a1aa 5abe 0162 9dbf 6317 06bf
00000280: 2384 d7bf f8f8 93bf 5d33 fdbe 1dea b5bf
00000290: 9f38 99bf b6ac 04bf 28f0 d53e 6c7b 1d3f
000002a0: 987f 76bf 6cea 1abf 7abd bfbd 19dc c9bd
000002b0: 988a 403e 0f03 87be 35f4 95bd 2b8a 733f
000002c0: 1d00 d0be 3739 393f 7c92 64bf 78d8 583f
000002d0: 051b 3a3f 21e7 a73f 290a 7fbf 3e60 36bf
000002e0: 7eed c03f f125 803f a111 83bf 83a0 99bf
000002f0: 243b a53f 6d93 213e 6c81 e3be 5a68 3d3f
00000300: a58a 2abf 74d6 00c0 ff10 81bf 417c 72be
00000310: 35bb a03e f1cd 76be a9f4 843e ef43 7ebf
00000320: 0067 6ebd 02b8 093e 3106 9b3f 54bf 10bf
00000330: 16ab 883f 4b8e 1b3f ad59 3cbe ceb7 103f
00000340: a00f 0ec0 1c22 913f 82f4 d0bf 93d9 0c3f
00000350: df94 613f 12e1 13c0 240b b0bd ddb1 dc3e
00000360: 834f 14bf 8427 7dbf b7b4 943f 9eb9 c13f
00000370: 6c9a 8e3e 1b5f 7dbf 6400 ba3e 3bd0 253f
00000380: d381 8ebf 8f7d fe3f a765 343f 0850 8c3e
00000390: ba19 093f abff 00bf 29be a0bf 5ae1 7bbf
000003a0: bed2 423e 8897 b53f 5695 853e c275 b33e
000003b0: 23d3 4fbf b471 7cbf d132 923e d9c4 133e
000003c0: 5273 833f 7c78 d6bf 617f a43e c942 3940
000003d0: c274 3cbc b98e 2ebf de6b 5bbe 8077 7abf
000003e0: 2c5c ea3e b8dc aa3f aa68 d83e 7bbc 68be
000003f0: 205f 7c3f 4178 a2be 1119 c53e fdeb e8bf
0.0 0.0 0.0 0.0 0.0 0.0 -0.25844625 1.9101684
-0.47246152 -1.8751189 -2.0070958 0.017972184 -1.1266695 -2.329328 0.34822842 -0.9408172
0.24078818 0.21667491 -0.3786352 0.20584302 -0.733256 1.1840259 0.62078977 0.2597722
-0.26087743 0.42621887 0.6949516 0.34833965 -0.021155972 0.4152501 -1.9939406 2.3562806
0.3017099 0.39972058 -0.21686901 -0.29346836 0.56539327 -0.3682273 2.2513025 0.16477944
-1.3549562 -1.1305902 -4.2609773 -2.0330544 -1.7230713 1.4677856 0.8457404 0.60888755
-0.04178952 -0.15536979 -1.3254122 -1.5713706 -0.59906906 -0.37108794 -1.237937 -1.8999702
-1.4427296 1.0043314 0.14485884 0.6247105 -0.69799227 -0.23023614 2.1044836 0.010213017
-0.6280924 -1.9909496 0.65523535 -0.78398204 -1.7649229 1.2295969 0.22550434 -0.3373356
0.5109904 1.8575358 -0.629467 -0.64099485 -0.6269327 1.3879913 1.0905563 0.6818981
-1.1041553 0.4092475 0.9257387 -0.45458686 0.612597 1.2382869 0.16130774 1.066058
0.78376335 -1.0707936 0.9001452 0.9543879 0.3371858 0.9076558 -0.36083922 0.2943159
-0.15625651 1.1274625 -0.5314894 -1.7816497 0.240341 -0.565564 -0.13861154 -0.7391927
-0.26530588 -0.6094704 0.22527447 0.5991577 -1.2897298 0.9686534 0.53796136 -0.13016206
0.58480996 0.032698724 -0.24174085 0.9155629 1.3814636 1.0734115 -2.9997005 -1.2739887
1.061446 -0.16701323 0.3554176 0.7888526 -0.32337117 0.3879396 -0.0039910492 -0.62578493
-0.8444904 1.3077492 0.8857611 -0.44169337 -0.3917865 -0.61543065 -0.6417632 0.6362355
0.42699516 0.45086068 0.28598976 -1.4501762 -4.109441 -1.2461208 2.8183284 0.9106856
0.9850957 -0.18238357 0.2722841 0.07082293 -1.132084 -1.1597258 -0.34293693 0.724062
-0.31594 0.10326205 1.309454 -1.686486 -0.24022211 -0.21354152 -1.2295533 -0.52379435
-1.68372 -1.1560354 -0.4945325 -1.4212071 -1.1970404 -0.51826036 0.41784787 0.6151645
-0.9628844 -0.6051395 -0.09362312 -0.098564334 0.1880287 -0.2636952 -0.073219694 0.951327
-0.40625086 0.7235293 -0.8928602 0.84705305 0.7269748 1.311741 -0.9962488 -0.71240604
1.5072477 1.0011579 -1.0239755 -1.2002109 1.2908673 0.15778895 -0.4443468 0.7398735
-0.66617805 -2.0130892 -1.0083312 -0.23680212 0.31392828 -0.24101998 0.2596791 -0.9932241
-0.058203697 0.134491 1.2111264 -0.56541944 1.0677211 0.60763997 -0.18393584 0.56530464
-2.2197037 1.1338534 -1.6324618 0.5501949 0.88117784 -2.3106122 -0.08595875 0.4310445
-0.57933825 -0.9888842 1.161765 1.5134771 0.2785219 -0.98973244 0.36328423 0.6477086
-1.1133369 1.9882067 0.7046761 0.2740481 0.5355488 -0.5039012 -1.2558032 -0.98390734
0.19025704 1.4186869 0.26090497 0.3505078 -0.81181544 -0.98611 0.28554395 0.1443056
1.0269568 -1.6755519 0.32128432 2.8947012 -0.011502447 -0.6818653 -0.21427867 -0.9783859
0.45773447 1.3348608 0.42267352 -0.2272815 0.9858265 -0.3173237 0.38495687 -1.8197018

embed_cp.weight f4 [620, 5]
00000000: 0000 0000 0000 0000 0000 0000 0000 0000
00000010: 0000 0000 cbef 8bbf 1d59 79bf 5989 35bf
00000020: c077 cebf 7a5e f43f 53a3 b03e 6a87 03bf
00000030: 2e16 babf 4928 d63e 53c7 523e bdca 223e
00000040: 3601 f73e 5b6f bd3f 4045 cd3f 2f4a bbbe
00000050: 89cc cd3e 804b b93f 1676 af3d 1fd5 2dbf
00000060: c676 3f3f 4942 10bf 9af1 0a40 6a9f a73e
00000070: 5f7b 96bd 75ab 2240 2e22 9ebf 6995 8abe
00000080: 8b51 9b3e 3fc0 4d3e 1afe bcbe 0334 b5bf
00000090: cbcd 06bf 836d 98bf 1d1e 1cbf baae a33f
000000a0: 398d 95bf a7a2 10bf 83e5 55bf d81c cbbf
000000b0: 52f1 e3be 1fa0 df3e c6cd 3ebd a3a4 e63d
000000c0: d7d0 6dbf 7757 b8bf 465e 9e3f bae1 64bf
000000d0: 2d3a b13f c54a 68bf 67ab 983b a41c 07c0
000000e0: 69f5 c23f 1208 0e3d 04be 6fbf 491b b83f
000000f0: bada 84be ae4d d4be c000 023f 5e42 c73e
00000100: fccd d93e 3e8d 4ebf 466a 073f 4fc1 efbe
00000110: fd9b a43f 662c 833f 19c7 4140 4903 813e
00000120: 5494 913f 2068 c5bf d143 09bf 0df9 103f
00000130: beb0 583f 3f75 cc3e a887 b2bf ed20 0c3f
00000140: 3247 db3f ed77 8a3f 13c5 24be 05e4 9e3c
00000150: f52e 67be 65db 9e3f fc37 bf3f 8b19 d53e
00000160: 974f 87bf 3ddb 9dbe 86f2 61be 4d29 1d3e
00000170: 4d99 95bd c863 babe 83d9 dc3f 6ed4 63be
00000180: 37b8 7cbe ae2f 183f f71e f3bd fc83 ae3f
00000190: 7a1b ab3e 3283 38bd 9851 08bf 5bf2 94bf
000001a0: ac1b a03f bf9f d03d eb2f 3d3f b5c2 cfbf
000001b0: e9b1 9abf 1c44 453f 1bdf aabe a385 04c0
000001c0: 78ad 633f db71 11bf 68d7 a43f eb00 8b3e
000001d0: 3690 1840 58a0 773e 0cf1 08c0 d2b6 863f
000001e0: deca 24be 5a51 9d3f 5482 ecbf 56ac bc3f
000001f0: f9b1 74be 6a68 bdbf a560 74bd e830 653e
00000200: 04fe 7abe 7588 debe ddea 613f 562f 3b3f
00000210: 6727 f83f 241f 09be 8aac 003f b57b f6bf
00000220: 8448 323f 4bfa 3a3f 3f84 fdbd fe26 4d40
00000230: e39d 40bf 6f16 98bf 3e28 6ebe fd9d 1840
00000240: 53ef 1fbf 0868 84bf 415f 21c0 8ee2 d1bf
00000250: eee4 853f 416a 0fc0 5bf5 ebbf 2533 f83f
00000260: d5d2 803f f0b3 25c0 d36f 973f f08e 8c3d
00000270: b235 6f3f dcd0 4e3f 2418 babf 7946 a23f
00000280: 3e96 1ec0 2bea 253f 1b08 44bd 9a8a 9ebd
00000290: b5e8 a13f d4c8 be3f 26ec 86bf 9fa1 c43f
000002a0: 2072 813f 3a1d 8ebe 0915 03c0 2b01 0e40
000002b0: efe6 743e e3df 2abf b786 c7bd 5030 2dbf
000002c0: fdca 1fbf 9899 ea3c 0d5b 7d3e ad80 40bf
000002d0: d6bd 83bd e141 a5be 54c4 50bf 97b8 5bbf
000002e0: 0f6a 80bc 245a 423f 4e7a a0be 2e37 ba3f
000002f0: f9db f33f d714 143f b8b0 edbe 82bf d8be
00000300: c9e0 a0bf 5091 883f 9c21 8dbf 95ae 333f
00000310: c39e c9bf 1a57 f63d 0d24 d73f 5c4d 223f
00000320: 6d58 763d 5939 0d3f df53 0e40 3653 46bf
00000330: 02a1 9bbc cd56 43bf 3d77 b1be 97b4 15bf
00000340: dd06 d6bf cce1 173f 5f39 aa3f 3bce 603f
00000350: 8d48 00c0 2656 2abc 9501 bcbf a55b ecbf
00000360: 92bd 3d40 8f4e 733f da64 77be 1a07 973f
00000370: a1b9 093e 5c7a b63f c040 d2be fbb4 d2be
00000380: 0872 d83e 0994 0c3e 7e0f 59bf 49ed 493f
00000390: 0355 36bf 1db1 b33e d47b ef3e 25be 1c3f
000003a0: 25a5 f43e ae24 0e3f 8bb3 1940 77c5 d03f
000003b0: d591 ab3f 297d 9ebe 7566 dbbe d94c 1440
000003c0: 0d93 37bf 33a1 3cbf bfb9 e1be 7834 0840
000003d0: 3ea3 9cbf 3a7b 7bbf 7b4b 38be 5b8c 4dbd
000003e0: ef55 dabe 22b8 9d3e bce1 29c0 8ec8 cc3f
000003f0: f296 d4bd 33ad d13f bd47 c43f 9eb7 24bf
0.0 0.0 0.0 0.0 0.0 -1.0932554 -0.974016 -0.709127
-1.6130295 1.9091332 0.34499606 -0.513785 -1.4538019 0.4182761 0.20583849 0.15897651
0.4824311 1.4799608 1.6036758 -0.36580035 0.4019511 1.4476166 0.08567445 -0.6790332
0.7479061 -0.56351143 2.1709962 0.3273881 -0.0734775 2.541715 -1.2354181 -0.27067116
0.3033565 0.20092867 -0.36912614 -1.4156498 -0.52657765 -1.190842 -0.6098345 1.2787697
-1.1683723 -0.5649819 -0.8355333 -1.5868177 -0.4452005 0.4367685 -0.04658296 0.11261871
-0.9289679 -1.4401692 1.237252 -0.8940693 1.3845879 -0.9073909 0.0046591046 -2.111123
1.5231143 0.034675665 -0.93649316 1.4383327 -0.25948125 -0.41465515 0.50782394 0.38917822
0.42539966 -0.8068427 0.52896535 -0.4682717 1.2860104 1.0247924 3.027777 0.2519782
1.1373391 -1.5422401 -0.53619105 0.5663002 0.8464469 0.39933202 -1.3947649 0.5473774
1.7131102 1.0817848 -0.16090803 0.019395838 -0.22576506 1.2410704 1.493896 0.4162105
-1.0571164 -0.30831328 -0.22065172 0.15347786 -0.073046304 -0.36404252 1.7253879 -0.22249004
-0.24679647 0.59447753 -0.118711405 1.3634028 0.334194 -0.045046993 -0.532495 -1.1636461
1.2508445 0.10186719 0.7390124 -1.6231295 -1.2085544 0.7705705 -0.3337334 -2.0706565
0.8893657 -0.56814355 1.2878237 0.27149138 2.383802 0.2418226 -2.1397123 1.0524542
-0.16093013 1.2290452 -1.8477273 1.4740093 -0.23896016 -1.479749 -0.05966248 0.22381938
-0.24510962 -0.43463483 0.88249 0.73119104 1.9387025 -0.13390785 0.50263274 -1.9256502
0.696419 0.73038167 -0.123787396 3.205505 -0.75240916 -1.1881846 -0.23257539 2.3846428
-0.62474555 -1.0344248 -2.5214388 -1.6397264 1.0460489 -2.2408602 -1.8434252 1.9390608
1.0064341 -2.5891075 1.1831001 0.06863201 0.9344131 0.80787444 -1.4538617 1.2677757
-2.47792 0.64810437 -0.047859292 -0.0774128 1.2649142 1.4905038 -1.0540817 1.5361823
1.0112953 -0.27756673 -2.048159 2.2188213 0.23916219 -0.66747874 -0.09742492 -0.67651844
-0.6241911 0.028637692 0.24741764 -0.75196344 -0.06432693 -0.32276824 -0.8154957 -0.85828537
-0.015675573 0.75918794 -0.3134331 1.454809 1.9051505 0.578443 -0.46423888 -0.4233361
-1.2568599 1.0669346 -1.1025882 0.70188266 -1.5751575 0.12028332 1.6807877 0.6339929
0.060142923 0.5516563 2.223869 -0.7747072 -0.018997673 -0.7630432 -0.34661284 -0.58478683
-1.6720845 0.59328914 1.3298758 0.8781468 -2.0044281 -0.010396516 -1.4687983 -1.8465468
2.9646955 0.95041746 -0.24159566 1.1799042 0.13449718 1.4256091 -0.41065025 -0.41153702
0.422745 0.13728346 -0.84789264 0.78877693 -0.7122347 0.35096064 0.4677416 0.6122764
0.47782245 0.5552472 2.4015834 1.6310261 1.340388 -0.30954865 -0.42851606 2.3171904
-0.71708757 -0.7368347 -0.44087026 2.1282024 -1.2237318 -0.98234904 -0.17997544 -0.05018268
-0.42643687 0.30804545 -2.6544027 1.5998704 -0.10380353 1.6380981 1.5334393 -0.6434268

gru_dp_fw.weight_ih_l0 f4 [21, 7]
00000000: c164 52be c29d 23be 0d75 dbbe a299 05be
00000010: bb39 cb3c 4e52 1ebf 19bb c3bf a08e 2b3e
00000020: 3dd5 abbe 4626 7ebe 8366 0d3d 08ee 583e
00000030: 2f23 1ebf 76b7 45c0 48e9 78be 38d5 9cbe
00000040: 4459 873d 7eea 023e 7841 0cbf 7069 8abe
00000050: 71df 02c0 27e0 5c39 6be9 afbb b9f7 5bbe
00000060: 261a 2dbb fa4b 4bbe 94f2 0fbf 054e 91bf
00000070: 5663 073e 0db0 c5bc 7446 923d 3d71 51be
00000080: 1588 463e a83d 72bd 66b7 29c0 67cc be3d
00000090: e705 9abd ba00 473e ec31 9d3d 1da1 23be
000000a0: bedb 3cbf 4e33 ebbf a8a8 9f3b b8b5 963d
000000b0: f9ac 593d e615 81be 85c5 98bd 2fca 1fbe
000000c0: a354 24bf fa17 dc3e d083 4cbe a68a d1be
000000d0: 6e13 98bc c91b 74bf 16a8 ebbe 8302 e83e
000000e0: d8d2 423e c597 f83d 1ac4 233e 409f 773c
000000f0: 885a 44bf 3fab e13d faf7 b03d 224d af3e
00000100: b858 7abe e854 a6be b5cc 2dbd 888a c13e
00000110: 03b9 81be ebba be3d d6c3 0c3d 4c09 05bd
00000120: a82c ad3e 5294 c5bd 4270 ce3e 144c 88be
00000130: d737 21bd 5c4a 883e 00d0 81be 7764 82be
00000140: c370 46bd 5e83 5dbd 5aa0 a8be 7203 813e
00000150: adbc 313e 9be6 85be 740f b03e d7b4 e43b
00000160: aea0 003d 2299 173f 405a 4e3f d2ce 84be
00000170: b99b 3e3e 98cf 60be 97dc c03d 2ca8 9abe
00000180: 5f94 6ebe 8b84 383f 0a7d a13d b874 efbd
00000190: d4d5 323e b226 bebd c88a 533e d28f bc3d
000001a0: d58f ccbf 9b77 163e 32e4 1a3e 41a6 443e
000001b0: ae79 45be f6ad 1b3e 1b7b 51bc aa29 49c0
000001c0: 2adc 523e 73fa 8abd a424 053e a015 57bd
000001d0: 559f 24be acd4 0c3e fc19 fabf f71f 30bd
000001e0: e69b 0dbe 5dc6 5cbd af6f a2bb 354a 313f
000001f0: 75c1 ebbd fe82 c73f ab14 dfbd 8c34 adbe
00000200: ec90 6abe 20ff cf3c 8f2a ae3c 6695 07be
00000210: ccb4 0540 a6ba 853d bde1 173e 3d3a 13be
00000220: 711c 28be c9cc fcbd 1a6e f2be 3f9b 03c0
00000230: ec11 8abd 319c 043e 0d9b 7e3d be2b 7cbc
00000240: b881 043e 4c30 873e d8b1 173e
-0.20546247 -0.15978149 -0.4286274 -0.13046888 0.024807801 -0.61844337 -1.5291473 0.16753626
-0.33561125 -0.24819288 0.03452159 0.21184552 -0.61772436 -3.0893226 -0.2430774 -0.30631423
0.06608823 0.12784764 -0.547874 -0.27033567 -2.0448878 0.00021064338 -0.0053684018 -0.21481217
-0.002641329 -0.19853202 -0.5622952 -1.1351935 0.13221487 -0.0241318 0.07142344 -0.20453353
0.19387849 -0.05914083 -2.6518188 0.093163304 -0.07520657 0.19433871 0.076755375 -0.15979429
-0.737728 -1.8375032 0.0048724003 0.07358879 0.053143475 -0.2521202 -0.07459549 -0.1560447
-0.64191645 0.42987043 -0.19972157 -0.40926093 -0.018563952 -0.95354897 -0.46026677 0.45314416
0.19025743 0.12138323 0.15992776 0.015113652 -0.7670064 0.11018991 0.08641048 0.34238535
-0.24447906 -0.32486653 -0.042431552 0.37801003 -0.25336465 0.093129955 0.03436645 -0.03247957
0.33823133 -0.096474305 0.4032002 -0.26620543 -0.039359894 0.26619232 -0.25354004 -0.25467274
-0.04844738 -0.05408036 -0.3293484 0.2519794 0.1735713 -0.261525 0.3438679 0.0069795656
0.031403236 0.5921804 0.8060646 -0.2593904 0.18614091 -0.2195419 0.09417074 -0.3020643
-0.23298787 0.72077245 0.078851774 -0.11692184 0.17464381 -0.09284724 0.2065841 0.09207119
-1.5981394 0.14694063 0.15126112 0.19204046 -0.19284698 0.1520308 -0.012785698 -3.143168
0.20591798 -0.06786051 0.13002259 -0.052510858 -0.16076405 0.13753003 -1.953918 -0.042999234
-0.13829002 -0.05390011 -0.0049571614 0.69253856 -0.115115084 1.5586851 -0.10892614 -0.33829153
-0.22906846 0.025390208 0.021260528 -0.13240585 2.08916 0.06529741 0.14832206 -0.14377685
-0.164171 -0.12343747 -0.47349626 -2.0563505 -0.067416996 0.12950207 0.062159587 -0.015391288
0.12940109 0.26404035 0.14813936

gru_dp_fw.weight_hh_l0 f4 [21, 7]
00000000: b937 dfbe f08a 09be 2393 963e d460 343c
00000010: 6021 47be 8608 b43d f248 c5be 55ff 82be
00000020: 08c4 023e 063c 24be fc2f 9a3e d3f6 c3be
00000030: f2cc 873d fb67 3abf 2900 d8be bf81 123f
00000040: 6d40 ca3d 2d3a d73c 7b4d 11bf 11e6 cabe
00000050: a5a2 33be 23dd ad3d 2a19 b73d 89e7 1bbd
00000060: 421d a43e ddce 49bd d4ca 5e3e e8e8 07bf
00000070: 93ad 583e 26b8 173f bb43 753d 0138 59be
00000080: 0b0f 23be c666 633e 881d 2fbe a2b9 febe
00000090: 3017 a93e d194 5f3d ec84 5c3e 81b4 0fbf
000000a0: a91f ccbe 050a 7cbf 91e3 c8be 491c 1dbf
000000b0: 19d0 163e 9b67 5bbe 866a 1abf 2d21 0abf
000000c0: ad58 1ebf 8127 f83e ff9a 223e ffa9 6a3b
000000d0: e00a c1be ceb6 86bd 75ec 3fbe 068a 723e
000000e0: 1509 0f3e fc5c 733f be29 803e 4d0c 51be
000000f0: c729 813e 15fb 2cbe a3da ae3c 85af 503f
00000100: 1067 f13d c280 983e adff dc3d aaf1 16bd
00000110: 36f0 23be 2671 c4be a707 febd a503 953d
00000120: 73c9 863e 7b92 48be 3967 01bd a776 acbd
00000130: 5cfc 8e3d adc2 203f 1cd4 c13b 0b14 ddbd
00000140: 6a69 d2bd 3b9e 00be 4547 a53d 7637 133f
00000150: b3dc 31bf f565 92bd 8394 003f d927 913e
00000160: f3f5 2ebd 0a97 0c3f 54c3 1dbe 550a 263f
00000170: 7614 743f 3cdb e9bd 9d07 1ebd 7c94 9d3e
00000180: 5b8a 743e c3f3 903e ce80 f7bd bb5d 923e
00000190: f9cb 7d3e e466 7bbe d6d9 1abe 8757 6f3f
000001a0: a7f6 063f 676d c53d 9860 e83e 0e93 c33e
000001b0: e13a 8bbe a799 3abf 90d5 693e cfb5 b53d
000001c0: d914 f6bd 7e1c e13e 3754 0e3f 52cb ccbe
000001d0: d87f 37bf fb69 babe b8bb 28bf c526 70be
000001e0: fb33 61bf 7d8a 50be 2960 2e3e e439 253f
000001f0: 0023 85be c5e0 243e 0a1b 8b3d 1432 fabe
00000200: d293 26bf 42b9 ba3e da70 053f d765 eb3d
00000210: ec79 d03e 5f76 a53d 94f8 b23e ec31 1a3f
00000220: f62d e3be 4640 38bf ba30 71ba af9a 81be
00000230: ad16 18be e928 2b3f c132 003f fb27 62bf
00000240: be26 b8be 5905 233f c7ca e8be
-0.435972 -0.13431907 0.2940913 0.011009414 -0.19446325 0.08790688 -0.38532215 -0.25585428
0.12770092 -0.16038522 0.30114734 -0.3827425 0.06630887 -0.7281491 -0.42187622 0.57229227
0.098755695 0.026272858 -0.5675885 -0.39628652 -0.17542513 0.08489444 0.089403465 -0.038062606
0.32053572 -0.049269546 0.2175706 -0.5308976 0.21159963 0.59265363 0.059879046 -0.2121277
-0.15923707 0.22207174 -0.17101109 -0.49751002 0.33025503 0.05458528 0.2153508 -0.561348
-0.39867905 -0.9845279 -0.3923612 -0.61371285 0.1472782 -0.21426241 -0.6031879 -0.5395687
-0.6185406 0.4846764 0.15879439 0.0035806892 -0.3770361 -0.06577836 -0.18742545 0.23685464
0.13968308 0.9506376 0.25031847 -0.20414849 0.25227186 -0.16892655 0.021344488 0.8151782
0.11787236 0.29785734 0.10790954 -0.036851563 -0.16009602 -0.38367575 -0.12403803 0.07276086
0.2632557 -0.19587128 -0.03159258 -0.08421069 0.069817275 0.6279705 0.005915178 -0.107948385
-0.102740124 -0.1256036 0.08070234 0.575065 -0.69477385 -0.07148353 0.5022661 0.28350714
-0.042715024 0.5491797 -0.15406543 0.64859515 0.9534372 -0.11418769 -0.03858148 0.30777347
0.23880903 0.28310975 -0.120851144 0.28587136 0.2478484 -0.24550968 -0.1512216 0.9349293
0.5272011 0.096400075 0.45386195 0.3819813 -0.2719336 -0.72890705 0.22835374 0.08872568
-0.12015695 0.4396705 0.5559725 -0.3999887 -0.7167945 -0.36408982 -0.65911436 -0.2345229
-0.8796994 -0.20365329 0.1702887 0.6454146 -0.26003265 0.16101368 0.06792267 -0.48866332
-0.65069306 0.36469465 0.5212532 0.11494034 0.4071802 0.08079218 0.34955275 0.60232425
-0.44371003 -0.71973073 -0.0009200681 -0.25313327 -0.148524 0.668593 0.50077444 -0.88342255
-0.35967058 0.63680035 -0.45467207

gru_dp_fw.bias_ih_l0 f4 [21]
00000000: 3ffe 0a3d 1b00 80be 13b3 eb3e b79b 173f
00000010: 2838 b53c b97c 0e3f d08a 813f 72ff c1bd
00000020: c525 3b3f 8add 593e e86f d4bd 62c8 3d3f
00000030: 4002 1abf 72bc 83bf edc2 33be 75c9 bebe
00000040: e29c 833e 2b0c fa3d 30e8 e1be 9c28 dbbe
00000050: 66a5 9cbe
0.033933874 -0.2500008 0.4603506 0.59221977 0.022121504 0.5565906 1.0120487 -0.094725505
0.73104507 0.21275917 -0.10372907 0.74133885 -0.60159683 -1.0291884 -0.17554827 -0.37263075
0.2570563 0.12209352 -0.44122458 -0.4280442 -0.3059494

gru_dp_fw.bias_hh_l0 f4 [21]
00000000: a324 063f d6b4 1f3e 3e5f 07bd 4280 b83e
00000010: d9be 803e 5984 6d3f 05d7 6e3f f385 833e
00000020: b57d 053f 0008 453f bfc0 b9be c28e 2e3f
00000030: 4d93 80be 65dd 17bf 2666 28bd 32a7 773e
00000040: 78b6 d93e 8ee2 983e 09f7 89be a035 a7be
00000050: 66ca 65be
0.52399653 0.15596327 -0.033049814 0.36035353 0.25145605 0.9278007 0.93296844 0.25688133
0.5214494 0.7696533 -0.36279866 0.6818658 -0.25112382 -0.59322196 -0.04111304 0.24184874
0.42522025 0.29860348 -0.26946285 -0.326581 -0.2244049

gru_cp_fw.weight_ih_l0 f4 [18, 6]
00000000: a134 37be af54 60be f7cb 80be 1429 11bd
00000010: c1cb ec3e d345 5ebf da4c 093e fc0e c5be
00000020: c055 483e 8419 1c3f 6a22 33bf 6229 063f
00000030: c6e2 80be 79d1 62be b9a9 d7be 6e29 d0bd
00000040: 4554 f13e cb4e b4bf e294 af3e 8374 8a3e
00000050: bfe0 643e c6fa 6bbe dc0c 853d e019 6e3f
00000060: 468e b53e a2b4 e6be ef56 213f b823 be3d
00000070: 3f1f 50be dc09 8cbc c843 5abe 2f42 423f
00000080: 0229 a03d 3fab 3ebf 3d8c 163f 6b8f 7a3f
00000090: 5cff b1bb de7b 5e3e 19cb 46bc afc0 863e
000000a0: d5bf 72be f474 4f3e e4df 363f 634d b4be
000000b0: f22a de3c dd66 3ebe e25c ae3d 8ae1 8f3f
000000c0: 0e43 aabe 90a2 333e 7d1a 1a3e 34fe 263e
000000d0: 69f8 8b3d d663 703f 4c4d b9bd f936 723d
000000e0: 4f30 50be 9ceb 4c3e f210 03be 07db 3f3f
000000f0: 0568 adbd 2d5d 9d3e 6323 b8be 02a3 acbe
00000100: c6f6 b63e 7499 603f 6a6c 97be abc7 0cbf
00000110: 8cda d3bd 07df 92be ec8c aebd ada2 fe3e
00000120: d84e a33e 4574 083f 8bdb c73e 5de6 84bd
00000130: 12e8 85bb 5417 de3e 7593 2bbb 687f d73e
00000140: afa3 9b3e 0ce9 53be 2b45 033e 2acd 6f3f
00000150: 96a6 073f b70a 263e 31d6 693e 83b7 5fbe
00000160: a8ba 7c3e 8ed4 b33f 927c ecbd 95e3 debd
00000170: 0bb1 a93e a29a fabe a95c 893e 0232 903f
00000180: db58 cfbe 8eb8 a2be 0d48 a7be 0c58 9a3e
00000190: 8590 3cbe bca1 8fbf 6f5d 0cbe 9165 833e
000001a0: b1a9 d2be 54b9 ab3d 3e13 3b3e d3fe de3e
-0.1789117 -0.21907304 -0.25155613 -0.035439566 0.46249202 -0.86825293 0.13408223 -0.38487995
0.19563961 0.60976434 -0.69974387 0.52406895 -0.25173014 -0.2215022 -0.42121676 -0.10164152
0.47134605 -1.4086546 0.34293276 0.27042016 0.22351359 -0.23044881 0.06496593 0.9300823
0.3546011 -0.45059687 0.63023275 0.092841566 -0.2032442 -0.017094545 -0.21314919 0.7588224
0.078203216 -0.7448005 0.58807737 0.9787509 -0.0054320525 0.21726939 -0.012133383 0.2631888
-0.2370599 0.20259458 0.7143538 -0.3521529 0.027120087 -0.18593927 0.0851381 1.1240704
-0.33254284 0.17542481 0.15049167 0.16307908 0.0683449 0.9390234 -0.09047946 0.059134457
-0.20330928 0.20011753 -0.12799433 0.74943584 -0.08467106 0.3073515 -0.35964498 -0.33718115
0.35735148 0.8773415 -0.295749 -0.5499217 -0.10344419 -0.2868578 -0.085229725 0.49733487
0.3189609 0.53302413 0.39034685 -0.06489251 -0.004086503 0.43377173 -0.002618042 0.4208939
0.30398318 -0.20694369 0.12819354 0.9367243 0.52988565 0.16215025 0.22835614 -0.21847348
0.24680579 1.4049242 -0.115471974 -0.108832516 0.33142886 -0.489461 0.26828507 1.1265261
-0.4049748 -0.3178143 -0.32672158 0.301453 -0.18414505 -1.1221232 -0.13707517 0.25663427
-0.4114509 0.08384958 0.18269059 0.4355379

gru_cp_fw.weight_hh_l0 f4 [18, 6]
00000000: 4c15 01bf d7cb 233e 3e07 8b3e 79ef 193e
00000010: 98fe c03e f0e7 d63e bf57 1dbd cc13 4cbe
00000020: cb9c d8be fece 8a3c ac39 c23e debf 42bc
00000030: c8b2 04bf 175c 80be 6b11 393e 91bd a8be
00000040: 3e49 4d3f ab10 f63e bec7 0f3d 36f2 dd3d
00000050: 579f c0be 27b8 483f 180b 2cbe 1c56 113f
00000060: d44e 48be 8146 4a3e be14 20bf d3e4 75be
00000070: 02ac 86be 05b7 f6be 0ad7 80be 0d71 a03e
00000080: 01d0 be3e 49e0 cc3e 1a72 f1be a3a1 5b3f
00000090: ff2c 86be 5cc4 2dbf c46a b0be 5246 643e
000000a0: c492 2f3f 55c9 46be a9e5 0d3f 31d0 5abe
000000b0: b523 ef3d af39 c13e f1ff 403e 3124 8abe
000000c0: e56e 273f 7465 5b3f f8d0 043f 389e bc3e
000000d0: 2442 eebe afa4 84be 9e57 f83e 416f ac3c
000000e0: 899c 22be e3d8 0d3f 35eb 243d 94a6 babe
000000f0: 709d a5be 82ec aebe fec2 9e3d 1c32 313f
00000100: 7987 d2bd be8e 323e 1872 f2be ffd3 e83e
00000110: 266b f03c 10df 85be de4a 3e3d b005 3c3e
00000120: 5545 5d3d 6c95 22be 9436 a6be 3d63 98bd
00000130: 7355 a3bc 270b cebe 7063 be3e cd6a cc3e
00000140: 4cc5 c8bb 3c1d 2d3e 69e0 a5be 0a89 ac3d
00000150: 3179 c63d a991 a53e 7b15 893e 76a6 80bd
00000160: b71d 9fbe 1353 febe cbe1 1cbf 8a76 a9bd
00000170: 0a7f ccbd 28d8 003f 96c0 543e f417 043f
00000180: 0c28 7dbd 94ef 87be 6058 323e 3404 01bf
00000190: b7cb 193e 3453 0d3f 87e8 21bf 6cf5 a9bd
000001a0: 736d d7bd a522 3e3f 30aa b7be 1a99 f83e
-0.5042312 0.15995727 0.27153963 0.15032758 0.3769424 0.4197383 -0.03841376 -0.19929427
-0.42307124 0.016944405 0.37934625 -0.011886565 -0.518353 -0.2507026 0.1807305 -0.32957128
0.80189884 0.48059592 0.0351026 0.10837214 -0.37621567 0.78405994 -0.16801107 0.5677202
-0.1956132 0.19753458 -0.6253165 -0.24013071 -0.26303107 -0.48186508 -0.25164062 0.3133625
0.3726807 0.40014866 -0.47157365 0.85793513 -0.26206204 -0.67877746 -0.34456456 0.2229245
0.6858332 -0.1941274 0.5542856 -0.21368481 0.116767325 0.37739322 0.18847634 -0.26980737
0.65403587 0.8570168 0.5188136 0.3683946 -0.46534836 -0.25906894 0.48504347 0.021049144
-0.15880026 0.5540907 0.040263373 -0.36455214 -0.32346678 -0.34164816 0.077520356 0.69217086
-0.102797456 0.17437264 -0.47352672 0.4547424 0.029347967 -0.26146746 0.046458118 0.18361545
0.0540212 -0.15877312 -0.32463515 -0.07440803 -0.019938206 -0.40242884 0.3718524 0.39925233
-0.0061270352 0.16905683 -0.32397774 0.084245756 0.09691084 0.32337692 0.267742 -0.0628175
-0.31077358 -0.49672756 -0.6128203 -0.08274563 -0.09985168 0.5032983 0.2077659 0.5159905
-0.06180577 -0.2654997 0.17416525 -0.5039704 0.15019117 0.5520508 -0.63245434 -0.08298764
-0.10518923 0.74271613 -0.3587203 0.48554307

gru_cp_fw.bias_ih_l0 f4 [18]
00000000: 769c 19bf 7710 c43e 2610 21be e611 283e
00000010: 061f e73c aee0 19bd 139b 5bbe 75ce 6c3c
00000020: 40ca 92bc 1154 933f a2e2 e13d eb82 e63d
00000030: eb50 3a3d 1a85 80be bebb 4f3d 8581 1c3f
00000040: 040c 3f3e 1cef 0ebe
-0.60004365 0.38293812 -0.15728816 0.16413078 0.028213035 -0.037567787 -0.21445875 0.01445352
-0.017918706 1.151003 0.11029555 0.11255439 0.045487326 -0.25101548 0.050716154 0.6113513
0.18656927 -0.139584

gru_cp_fw.bias_hh_l0 f4 [18]
00000000: d603 103e 3380 0dbe 3625 a33e 93b3 a83e
00000010: 465b c93e bb09 e53e 8df6 bcbe 6492 febc
00000020: d7e4 0c3e 5cb0 763f 6866 9e3e 0dea 87be
00000030: 996d 60be d2df 473e 5e87 f3be 4738 ee3e
00000040: b0f6 0a3e 1479 d8be
0.14063963 -0.13818435 0.31864327 0.32949504 0.3932745 0.44733986 -0.36906853 -0.031075664
0.1375917 0.96362853 0.30937505 -0.26545754 -0.21916808 0.19518974 -0.47564214 0.4652731
0.13570666 -0.42279875

gru_dp_bw.weight_ih_l0 f4 [21, 7]
00000000: 5d18 89be 1629 b83e 5bd8 9ebe f663 00bf
00000010: d4a5 223f 24b5 63be 5cee 1440 09d9 1d3d
00000020: 4cf4 1fbf 8826 0c3e ec11 b6be e691 00be
00000030: 66e6 4f3d b2e8 af3f 114b 893e bbac 06bf
00000040: 8d11 003b 926f 893e 5bab 113e ee70 2a3e
00000050: 7bdc e23f 68b7 903e 3573 3d3c 741c 093f
00000060: 3dc5 223e 49be 26bf cde8 f8be f8c5 493f
00000070: 99f8 093f cc9c f6be 2e42 ec3e 8f84 6abd
00000080: 4875 9e3e ff42 2d3e 9f64 bc3f 939b b43d
00000090: 24f5 c8be 3108 a9bd 1190 7d3e 75b4 8f3f
000000a0: 400c ad3e 7ab9 0040 9891 61bd 49a1 ca3d
000000b0: a11d c0be 9d8d 903e b3f8 dd3d 2dfd 11bf
000000c0: cd85 0640 ba24 383e 6aa7 073e cb3e 193b
000000d0: f72a f7be 1ef3 e13e 137e 3b3e de1f e43f
000000e0: 2b03 e03e 7dac cdbc c3bc e33e 0899 d7bd
000000f0: 5d4e 313e c693 b53e 5a2d 0940 462c 933e
00000100: af9c cc3c 998b bdbe a7dd 463d 7e07 a33e
00000110: 0664 e6be fc6c 293f 5419 823e 46dc 243d
00000120: 691f 34be 7837 873e 3e50 44bf 8073 0d3e
00000130: 460b d13f 8349 a23e eba0 4ebe 1227 cc3d
00000140: 2dca 103e d0d1 71bd ffb8 ff3d 759a f4be
00000150: aaab 4c3e c45f d1be 802e 823e 1fb1 3e3e
00000160: 04dc 883e 65a4 a33e cd73 2540 fa98 ee3d
00000170: 3d0f cb3d ab1c 68be d951 333c 0b4f c0ba
00000180: 3155 0ebf 5110 a23f a0ec c7bd e020 843e
00000190: 2988 7bbd 5456 9cbe eb34 453f 813d aa3e
000001a0: d025 0040 4146 3d3e 76da e73e 31e2 a3be
000001b0: bc02 f7bd b374 e2be 3144 1ebf e2d0 9dbf
000001c0: 309f 5ebd 65ae ec3e 5547 1c3e 5511 f7bd
000001d0: b356 3fbd 8811 af3e fc6a f1bf b9a7 84be
000001e0: c6b4 733c d8a5 d1be 3c25 f03e 584a 20bf
000001f0: ed9a 103f 621c a43f 96ac 443c 2947 8b3e
00000200: ad19 793e c3b7 60be 18cc 1bbd b1bd 8fbc
00000210: 1053 04c0 4aeb d5be 885e bebe d7fd a13e
00000220: 9293 f33e ab41 db3e 2117 c63e c4b1 ee3f
00000230: 1739 413d 3978 463e f57b f63e a2ef fdbd
00000240: 14fc 23be 582f 9a3e cbfc 10c0
-0.267764 0.35968846 -0.3102444 -0.5015253 0.63534284 -0.22237068 2.3270483 0.03853706
-0.6248214 0.13686574 -0.35560548 -0.12555656 0.050756834 1.3742888 0.26815084 -0.52607316
0.001954171 0.26842934 0.14225523 0.16644642 1.7723535 0.28264928 0.011563112 0.5355904
0.15895553 -0.651341 -0.48615113 0.788177 0.53894955 -0.48166502 0.4614424 -0.057255324
0.30948853 0.16920088 1.4718207 0.08818736 -0.39249527 -0.082535155 0.24761988 1.1226946
0.33798409 2.0113206 -0.05507049 0.09894044 -0.37522605 0.28233042 0.10838451 -0.5702694
2.1019166 0.1798276 0.13247457 0.0023383375 -0.48274967 0.44130796 0.18309812 1.7822225
0.43752417 -0.025106663 0.4447995 -0.10527235 0.1731505 0.35464305 2.143393 0.28744715
0.024977056 -0.37020567 0.048551228 0.31841654 -0.44998187 0.6618192 0.2540995 0.04024913
-0.17590107 0.26409507 -0.7668494 0.13813591 1.6331565 0.3169671 -0.20178573 0.099683896
0.14139624 -0.059037983 0.12486457 -0.4777409 0.1998736 -0.40893376 0.25426102 0.18622254
0.2673036 0.3196136 2.585193 0.11650272 0.09915016 -0.22667186 0.010944807 -0.0014671994
-0.5559874 1.2661229 -0.097619295 0.25806332 -0.06140915 -0.30534613 0.7703387 0.3325005
2.002308 0.18483831 0.4528386 -0.32008508 -0.120610684 -0.4422966 -0.618228 -1.2329371
-0.05435103 0.46226802 0.15261586 -0.12063853 -0.046713542 0.34193063 -1.8860774 -0.25909212
0.014874643 -0.4094684 0.46903408 -0.6261344 0.564864 1.2821162 0.012004038 0.27202728
0.24326201 -0.219451 -0.038036436 -0.017546507 -2.0675697 -0.41781074 -0.37181497 0.31638977
0.47573525 0.42823538 0.3868952 1.8648 0.047173586 0.19381799 0.48141447 -0.12399222
-0.16014129 0.30114245 -2.2654293

gru_dp_bw.weight_hh_l0 f4 [21, 7]
00000000: 2182 15be feda 09bf 6d3c bbbd 7ec5 bbbd
00000010: c9bd 8cbe c0d1 55be c705 04bf 642d 4b3e
00000020: f834 0cbe 208b c9bd f647 2d3e dc1d eabe
00000030: 2763 4abd 7e2c 2cbf c9b3 2e3f 4ab7 30bf
00000040: 7176 2dbe 5beb 873d 6024 bfbe 711e c23e
00000050: 2fe5 a4be 4fda 123f 5764 c9bd 2c68 3cbf
00000060: 309f 54be 2c5b af3d 7b98 383d f921 0ebf
00000070: d401 dcbd 8b18 cb3d f849 34be 7c59 c93e
00000080: ec00 aebe 31f6 c73e a579 47bf 3092 103f
00000090: 6dc1 493e d9f1 953e 8a35 d83e 4c77 4f3d
000000a0: e906 27bd c7a4 0fbf 3eef 313e a8ca 08bf
000000b0: 53e9 f1be 35a7 123e 555c 113e 3145 c83e
000000c0: 61fb f6be 3e76 b33b 7c97 f7bd b687 15bf
000000d0: f14a 8b3d 304c 5ebe de9b ca3e 3a5d c2be
000000e0: 40a3 a73e fc4c d3bd ed8b b8be bcaf f23e
000000f0: 9d34 8fbd 2697 6fbe 43ef 42be 9390 cdbd
00000100: 3d35 863d 76c1 dfbc 745b 973e dda2 9bba
00000110: cb71 f13d e11a 9b3d a327 be3e 33ce 4abe
00000120: c782 c1be 2f2b 23bf d05f 29be 50cf 183e
00000130: 86a1 1abd 432e 9a3e 3d98 e8bd d7f9 64be
00000140: a829 5bbd e899 d43e 7257 14bf 7bb4 c43d
00000150: 7a82 a43e 8eb9 173f 1f67 4dbb e3b1 9f3e
00000160: f7d8 5a3c 03e9 bdbe 0c5f debd 7889 ac3e
00000170: b30b 053e 425e 823e 3f7e b23e 28d8 d2be
00000180: ef7a fc3c a3a3 ce3e 9aa7 d53e 384d adbe
00000190: 24c2 32bf 855a bc3e 55ab c2bb 205f b13e
000001a0: b2f5 04bf df4c 03bf b2e9 e1bd 54c8 973e
000001b0: 3da6 d1be 7ffe a63e 33b0 c8be 6f9e c43e
000001c0: 70a5 eabc b392 ffbc 7564 c43e a225 57bf
000001d0: b7f3 3b3c ded6 e7be 7ae5 ab3e 16cc 833e
000001e0: e2c7 86be ebd9 c53d bccd e23e 1004 8abe
000001f0: 9658 223f be4c c53d 9580 adbe 28cc 2f3f
00000200: f8ed bd3d 3f3c cbbe d817 ff3d b400 6abe
00000210: ebf9 ef3d 5972 0e3e 6fcd d0bc 2f8e 9f3e
00000220: 24d8 873d 08cd 17be 8ef9 fa3e e04e e1be
00000230: 472a 04be dbf0 113f a5f3 053d cde0 43bf
00000240: edb2 913d 126d cabe a5a5 15bc
-0.14600421 -0.5384978 -0.09142385 -0.09168528 -0.27488545 -0.20880795 -0.51571316 0.19841534
-0.13692081 -0.09840989 0.16921982 -0.45725906 -0.049410965 -0.6725539 0.6824308 -0.69029677
-0.16939713 0.06636687 -0.3733244 0.3791385 -0.32206103 0.5736436 -0.098335914 -0.73596454
-0.2076385 0.085623115 0.04506729 -0.5552059 -0.10742536 0.099167906 -0.17606342 0.39326084
-0.33985078 0.39055017 -0.7791999 0.56473064 0.19702692 0.29286078 0.42228347 0.05065088
-0.040778074 -0.56110805 0.1737642 -0.5343423 -0.47248325 0.14321597 0.14195378 0.3911529
-0.48238662 0.005476742 -0.1208944 -0.58410203 0.06801403 -0.2170875 0.39572042 -0.3796175
0.32741737 -0.10317418 -0.36044255 0.473997 -0.06992457 -0.23397502 -0.19036584 -0.10037341
0.06553123 -0.027313929 0.2956196 -0.0011874099 0.117892824 0.07573486 0.37139615 -0.19805221
-0.37795088 -0.6373777 -0.16540456 0.14922833 -0.037751697 0.3011342 -0.11357162 -0.22360931
-0.053506523 0.4152367 -0.5794593 0.096047364 0.32130796 0.5926751 -0.0031341983 0.31190404
0.0133573925 -0.37091836 -0.108579725 0.3369863 0.12992744 0.25462538 0.34861943 -0.4118054
0.030820338 0.4035922 0.41729432 -0.33847976 -0.69827485 0.3678781 -0.0059408345 0.34642887
-0.519374 -0.5128917 -0.11030902 0.29645026 -0.40947142 0.3261604 -0.3919693 0.38402125
-0.02864334 -0.031197881 0.38357893 -0.840418 0.01147168 -0.45281118 0.33573514 0.25741643
-0.26324373 0.09660705 0.44297588 -0.26956224 0.6341642 0.09633778 -0.33887163 0.6867089
0.092739046 -0.39694402 0.1245572 -0.2285183 0.1171759 0.13910808 -0.025488583 0.31163165
0.066330224 -0.14824307 0.4901852 -0.4400549 -0.12906753 0.5700814 0.03270306 -0.76514894
0.071142055 -0.3953634 -0.009133731

gru_dp_bw.bias_ih_l0 f4 [21]
00000000: f30f 213e 6cae 82bd 0c0b c83d d4a4 d23e
00000010: 8f7e 1c3e bab5 873e fb79 dd3c 4ef8 233f
00000020: c453 cd3e 27dc 363d 87c1 e33e 91cf 6cbe
00000030: 7f75 133f c88a 59be 0d27 3b3e dfde 453e
00000040: 0fba a33e 36dc 473e f108 563d 3b86 c33d
00000050: e4ba 583e
0.1572874 -0.063809246 0.09767732 0.4114138 0.15282653 0.26505834 0.027035704 0.6405076
0.4010297 0.044643547 0.44483587 -0.23126055 0.5760116 -0.21244347 0.18276615 0.193233
0.3197789 0.19517598 0.05225462 0.09547087 0.21165043

gru_dp_bw.bias_hh_l0 f4 [21]
00000000: 0849 703e aa9e ca3e 37b7 af3e a8c6 4e3c
00000010: 7072 943e 2e0d e73c 32a0 49bd 9ce6 69bc
00000020: 2449 3ebe f586 fabd dc4a 003f 9a34 febe
00000030: 171d 113f 8eca 45be 6dd5 c9bd 884d 593e
00000040: 6e3c 42be 0325 a5be 0725 703e 6d1f ab3e
00000050: a388 a1be
0.23465359 0.39574176 0.3431947 0.0126206055 0.2899356 0.028204527 -0.04922504 -0.014276173
-0.18582588 -0.12232772 0.50114226 -0.49649507 0.5668501 -0.1931555 -0.09855161 0.21220982
-0.18968365 -0.322548 0.23451625 0.33422413 -0.31549558

gru_cp_bw.weight_ih_l0 f4 [18, 6]
00000000: 2808 a9bd 7e6a c03d b994 093e af14 303f
00000010: fb55 6bbe 7ad0 a73c 6fb2 143d 8a30 143d
00000020: c684 dfbe a54d 89be 5703 8bbf 1aba ad3d
00000030: 80b1 493f 67e7 c23d 519b 9d3e 22eb 1dbe
00000040: 481e 18be 2f14 fabe 4abe 373c 2a46 88be
00000050: 13aa 673e f4a7 22bd f451 1abe 8b81 8ebf
00000060: a21e 1d3f 8623 a7bd b980 a6bd 1252 84be
00000070: dc0d f7be 8ee3 86be 24d9 81be 368e f43d
00000080: 5bc2 883f 4f46 943d 554a 8c3f ecb4 983e
00000090: bf8c adbd 24ed c03e 4bb2 72be 1ba4 43bd
000000a0: 877c e33d 060f 1bbf 4152 823d 0389 683b
000000b0: 39b4 7c3d 06ce 283d 5454 9cbe b7df 6a3e
000000c0: 4eb2 8abe 5573 a63e f095 50bb a1bd 90be
000000d0: 5772 d73d fd7a 31be dec3 90bd 1f0d 00bf
000000e0: f249 67be 3b8a b03e 1769 c1be b2f7 babe
000000f0: 28be 1cbe 3939 033e e1f2 033e ce74 0bbe
00000100: d72b 54be 3975 3ebe 4e0e f43d 6fb1 683e
00000110: f964 6bbd 77b4 403e acc5 3d3e 04e8 b63e
00000120: 7e7e 9ebe 9d72 92be 254e 18bf 233c c13d
00000130: ec59 c6bd fa87 0dbf b3ed 523e 3090 8abe
00000140: 2381 2cbc 6f27 843e 3849 11bf 0c26 013f
00000150: 4c4d 513e d0e8 0e3f a3c9 6a3e be99 0cbe
00000160: 60c1 2c3d cf3c a43e 6f25 783e 03c6 2c3b
00000170: 465b 593e 43f3 813d 9062 85be e3bd 613f
00000180: fc6a 783e 9c1c f03e f8e5 673e 2626 68be
00000190: e26d 9f3d d133 a1be fb80 073f 275f 003e
000001a0: a120 fb3e 01a9 86be 2a2f 203e b7e9 223f
-0.08253509 0.09395312 0.1343564 0.6878156 -0.22982018 0.020485152 0.03630298 0.036179103
-0.43655986 -0.2681705 -1.0860394 0.08482762 0.7878647 0.09516793 0.3078256 -0.15421727
-0.14855301 -0.48843524 0.011214802 -0.2661603 0.22623472 -0.039710954 -0.15070325 -1.1133283
0.61374867 -0.081610724 -0.08130021 -0.25843865 -0.4825276 -0.26345485 -0.25360978 0.11941187
1.0684313 0.07239973 1.0960184 0.29825532 -0.08474111 0.37680924 -0.23700826 -0.047763925
0.11107736 -0.605698 0.06363345 0.0035482056 0.06169531 0.041212104 -0.30533087 0.22936903
-0.2708916 0.32509866 -0.003182765 -0.28269675 0.105198555 -0.17332073 -0.07068609 -0.5002002
-0.22586802 0.3448046 -0.3777549 -0.36517102 -0.15306914 0.12814797 0.1288562 -0.13618776
-0.20719849 -0.18599404 0.11916791 0.22723936 -0.057469342 0.18818842 0.18532437 0.3572389
-0.3095588 -0.28603068 -0.5949424 0.09435298 -0.0968512 -0.5528561 0.20598488 -0.2706313
-0.0105288355 0.25811335 -0.5675235 0.5044868 0.20439643 0.55823994 0.22928481 -0.13730523
0.042176604 0.32077643 0.2423303 0.0026363141 0.21226224 0.063452266 -0.2605176 0.8818037
0.24259561 0.46896827 0.2264632 -0.22670802 0.0778463 -0.31484845 0.52931184 0.12536298
0.4904833 -0.26300815 0.15642992 0.6363787

gru_cp_bw.weight_hh_l0 f4 [18, 6]
00000000: ab2e 5ebe b680 0d3e 89bd 6e3e 4231 e53d
00000010: a0e4 02be 9efd 34bf d07c cb3e c78e 873d
00000020: 6e65 0cbd 9065 13bf 2eba 94be 8449 97be
00000030: 10f3 80bd 0518 743f bae9 4b3e aad7 15be
00000040: b033 58be c0de 29be f582 c4bd 600b 5e3e
00000050: 30cb 1ebe 0dae 7b3e 111f 7a3c a5f0 f7be
00000060: 5ab3 5dbe d5a2 413d f07a 283d 8a61 d0bc
00000070: 33ff 093e d6cb 993d 1116 49be 63f3 75be
00000080: 0b05 693d 4bf1 c83d 6fa7 a93d 7eeb ef3e
00000090: 8c05 b83e 259b 18bf 3167 243e eb7a a3be
000000a0: f871 403e 83fc 92bd a39b 96be ae9f 8abe
000000b0: b7a3 363f 102b 413e cec7 2c3f 2479 00be
000000c0: 10b8 e3bd 6f76 4f3e 754f 4abe 770a 86be
000000d0: 22cb 67be 1698 7abe 417c d53e 9d2c 843e
000000e0: ec41 66bc bcff a2bd d8f0 5a3e ac93 8f3e
000000f0: cf9f d23d 638e 92bd 0e0c a93e 17a1 abbe
00000100: a233 32bd fb33 adbc 6daf dbbe 8469 7ebd
00000110: 19fe 98bd 6fcd 20bf d59f 253b 22a7 b03d
00000120: d5a7 8abd 8ab5 65bd 151d 8cbe 7ccf 033d
00000130: a69b 7b3e d16a 82be e74d 3fbe ad7b f13e
00000140: 127f 18bf 1fca 26be 24d6 24bf 92be cebd
00000150: e22f b3be 48bb 463e 8aac b23d 1d92 753e
00000160: ad70 7a3e 0eba dc3e 87d6 4fbf 1601 363e
00000170: 93d6 2a3d 144b 013e a405 0b3f 69e3 4e3f
00000180: e3ab f5be f31b 7e3d 9e4b 60be 76fb 5fbe
00000190: ce67 8b3d dfff 813e ac7f f2bd f3d6 ef3d
000001a0: df65 e3be 5e41 0cbd 1568 1cbf bd4a c2be
-0.2169749 0.1381863 0.2331449 0.11191036 -0.12782526 -0.7069949 0.39743662 0.066190295
-0.03427642 -0.5757685 -0.29048294 -0.29548275 -0.062963605 0.9534915 0.19913378 -0.1463305
-0.21113467 -0.16588879 -0.095952906 0.21684027 -0.15507197 0.24578114 0.015266196 -0.48425785
-0.21650448 0.04727443 0.041132867 -0.025437135 0.13476257 0.07509582 -0.19637324 -0.24018626
0.056889575 0.09811648 0.082838885 0.46859354 0.35941732 -0.5961173 0.1605499 -0.31929716
0.18793476 -0.07177069 -0.29415616 -0.2707495 0.7134356 0.18864083 0.6749238 -0.12546211
-0.111190915 0.20260023 -0.19756873 -0.2617986 -0.22636083 -0.24472079 0.4169636 0.25815287
-0.014053803 -0.07958934 0.21380937 0.28042352 0.10284387 -0.07156064 0.3301701 -0.3352134
-0.043506272 -0.02114295 -0.42907277 -0.062112346 -0.0747034 -0.62813467 0.002527227 0.08625628
-0.06770293 -0.056081332 -0.27365938 0.032180294 0.24571094 -0.2547212 -0.18682061 0.4716467
-0.59568894 -0.1628804 -0.6438925 -0.10094942 -0.3499747 0.1940738 0.087243155 0.23981519
0.24457045 0.43110698 -0.8118672 0.17773852 0.04170854 0.12626296 0.5430548 0.8081575
-0.47982702 0.062038373 -0.21903846 -0.21873268 0.068069085 0.25390527 -0.11840758 0.1171092
-0.4441366 -0.034242027 -0.61096317 -0.37947646

gru_cp_bw.bias_ih_l0 f4 [18]
00000000: bd25 bd3e ce5f 17bd 8f47 0fbd ffed 0b3f
00000010: 5a4a babe db72 96bb 326e c13e 4b96 913e
00000020: 4042 bdbe c9b7 223e 4783 f3be 454b 13bf
00000030: 3f83 3abc 9a65 a73d 0b6b 90bd df86 523e
00000040: f460 abbe 1294 5abd
0.36942855 -0.0369566 -0.034980353 0.5466003 -0.3638485 -0.0045913286 0.37779385 0.28434977
-0.36964607 0.15890421 -0.47561094 -0.5753673 -0.011383831 0.08173676 -0.07051667 0.20559262
-0.33472407 -0.053363867

gru_cp_bw.bias_hh_l0 f4 [18]
00000000: 52f9 20be aac8 b63d ade3 3bbe 5e8c 0f3e
00000010: 41f7 e23d 0fc1 0cbf 7c33 c13e e205 debd
00000020: cd43 01bf 5b8f 16be ebbb 2dbf 117e 7cbe
00000030: 4216 a03e 9827 e23e 1bba a3bc 4912 afbe
00000040: 5ea3 883e dfed 013e
-0.15720108 0.089249924 -0.1834857 0.1401839 0.11082316 -0.54982084 0.37734592 -0.10840966
-0.5049408 -0.14703123 -0.67864865 -0.24657466 0.3126698 0.44170833 -0.019986203 -0.34193638
0.2668714 0.12688397

attention_dp.context f4 [14]
00000000: 60f4 0abe 40ef d3bd a0e9 263f 346f 7abf
00000010: d660 8d3e 124f 6339 fb7f 9dbe ce0e debe
00000020: fd78 5f3f 5221 35c0 22f7 51be 9689 7ebf
00000030: 5e81 6f3f 4882 4abf
-0.13569784 -0.10348368 0.65200233 -0.9782593 0.27612942 0.00021677863 -0.30761704 -0.4337067
0.8729399 -2.8301587 -0.2050443 -0.9942869 0.93556774 -0.79105043

attention_dp.linear_hidden.weight f4 [14, 14]
00000000: e97a 843d 5503 4bbd a299 903e 3d8d 083e
00000010: ad6c bcbe e1ce 2f3e d3d1 47be c379 273e
00000020: 36f0 763e ba91 27be 6696 433d 2ae3 5d3e
00000030: b1c9 9b3d 274f febd e7cc 603e daa1 b93c
00000040: 9ad8 793e cbd9 fbbd f1e6 84be d27c cbbd
00000050: 06a1 72be 68df e03d 32d0 373e c590 923d
00000060: 46c6 5f3e 66ea 3c3e f245 793b 624c 33be
00000070: e357 1fbe 1baf de3d 815c bbbd 80cb 81be
00000080: 9b81 16be 6db1 f8bc 3c7e 7f3e 51b7 573e
00000090: 12b6 5e3e 7602 803b c970 013e 4206 8e3e
000000a0: 1514 fdbd 8659 e63e 8bd0 463e e829 1f3e
000000b0: 0050 163e 8870 0d3d 8a8e c6be a46e c23e
000000c0: c28e 963d 885d 843e 5267 db3e 9125 85be
000000d0: bcd2 88be 92e4 2f3e 3260 ee3b 6544 9c3d
000000e0: 2f77 48be d390 54be 280a 13bd ad61 963e
000000f0: e6a0 c13e 07f2 cabd d5c2 0abd 40b3 913e
00000100: 8734 5dbe d120 f0bd 287b 7b3e a7ca ea3d
00000110: 57c4 bc3e b005 503e e6fe c9bd 86ec 31be
00000120: 8c93 273d 0a2f 693b 1d29 8abe b23c bebc
00000130: b9ed cd3d 5bd3 bdbc 10dc 0b3e 3483 1bbe
00000140: b572 f8bd 3976 90bd d5bb 07bd 4f87 a33d
00000150: b1d7 10bd da12 08be e65a e6be 7129 f83e
00000160: cfc7 893c 37a0 b8be ce2f 0ebf 3e96 573d
00000170: e771 a0be e4ba 86be 5062 8b3e fc87 9bbe
00000180: 9b30 b93d e8ba fbbe 7d72 8a3d d513 92be
00000190: e230 36bd edeb 743d 9f3f a43e 8d50 b8bc
000001a0: 55af e13d c6e3 1abf 7f5f 1d3f 4f49 953e
000001b0: 3286 91be 3fcc 073e e53b 06bf 8220 943e
000001c0: 4cd2 e53c 873e 6c3d 08cb e1be 3b59 e6bd
000001d0: 678a 0b3f 2cbd 33bb 344f 1cbd d0b6 79be
000001e0: fae6 a9be b5c2 94bd 7e10 813e e085 233e
000001f0: 0fc8 9b3d 7eaf c53e ac22 c2bd 86df 45bb
00000200: f408 1ebe 2ec3 d1bd 0ceb 003e 3a9a 8ebe
00000210: 1292 30be 2371 523e ff8a 0ebe fe02 7abe
00000220: 1b3d 8a3e c30f 173e 459f 3f3e e115 b53d
00000230: bfc4 59bd 6e4f a1bd 83fe d2be c315 943e
00000240: 76da 853e 8d70 f3bd 3f03 0cbf f2f8 ba3e
00000250: 971c bb3d fdbf 3bbe 1fdd a43e b6f7 bdbe
00000260: ebc4 853d cae3 93be 44f1 263e 1a0c 33be
00000270: 9bc5 1f3e 779f eabd 2bdc 20bd 3795 8cbe
00000280: 28e7 903d ab27 a7bd 0d79 d8bc b190 fa3d
00000290: 26b9 aa3d 9895 74be a8b6 4d3e 9c32 933d
000002a0: 68bd d0bc cccb ab3d 2076 fc3d aff7 6e3e
000002b0: 21be da3e c081 f2be 4c2b 08bd 8d60 8cbd
000002c0: e30b 1dbe d666 7ebe 2e4d 023d cc17 343b
000002d0: c139 52be bc5a afbd 1509 5b3e 9a70 43bc
000002e0: 3dfd 4ebe e834 27be 93d4 8cbe a130 b93e
000002f0: f805 60bb 14e4 743d e338 b73e 2daa 423e
00000300: b129 283c a098 a23d 7ba7 373e 7502 ecbd
0.06468756 -0.049563725 0.28242213 0.13335128 -0.36801663 0.17168762 -0.19513635 0.16355042
0.2411507 -0.16364184 0.047750853 0.21668687 0.07606829 -0.12417441 0.21953164 0.022660185
0.24399033 -0.122974 -0.25957444 -0.09935917 -0.23694238 0.10980111 0.17950514 0.07156519
0.21852979 0.18448791 0.0038036075 -0.17509606 -0.1556087 0.108732425 -0.09148503 -0.2535057
-0.14697878 -0.03035804 0.24950498 0.21066023 0.21749142 0.0039065434 0.1264068 0.2773915
-0.12357346 0.44990176 0.1941549 0.1554333 0.14678955 0.034531146 -0.38780624 0.37975037
0.07351448 0.2585261 0.42852265 -0.26005223 -0.26723278 0.17177036 0.007274651 0.07630233
-0.19576715 -0.20758371 -0.035898358 0.29371396 0.37818068 -0.09909444 -0.033877213 0.2845707
-0.21602069 -0.11725009 0.24558699 0.11464434 0.36868545 0.2031467 -0.09863071 -0.17375383
0.040912196 0.0035581016 -0.26984492 -0.023222301 0.100551076 -0.023172071 0.13658166 -0.15186769
-0.12131254 -0.07053799 -0.033138115 0.079847924 -0.03536195 -0.13288441 -0.44991225 0.48469117
0.016818909 -0.36059734 -0.55541694 0.052633516 -0.313369 -0.2631446 0.27223444 -0.30377185
0.09042474 -0.49166036 0.06760118 -0.28530756 -0.044480212 0.05979531 0.3207979 -0.022499347
0.1101977 -0.60503805 0.6147384 0.29157493 -0.28422695 0.13261507 -0.5243514 0.28931051
0.028054379 0.05767682 -0.44100213 -0.11247488 0.5450806 -0.0027425988 -0.03816147 -0.24386144
-0.33184034 -0.072637 0.25207895 0.15969038 0.076065175 0.38610452 -0.094792694 -0.0030193045
-0.15433103 -0.10242306 0.12589663 -0.2785204 -0.17243221 0.2055097 -0.1392021 -0.24415204
0.26999745 0.14752106 0.187131 0.08842064 -0.053166147 -0.07876478 -0.41209802 0.28922853
0.26143235 -0.11886702 -0.54692453 0.36518055 0.091363125 -0.18334956 0.32199952 -0.3710305
0.065317 -0.28884727 0.16302973 -0.17485085 0.15602724 -0.11456197 -0.03927247 -0.27457592
0.070753396 -0.08161863 -0.026424909 0.12234629 0.083360955 -0.2388519 0.20089209 0.07187387
-0.025480941 0.083884805 0.12327218 0.23336671 0.42723182 -0.47364616 -0.033244416 -0.06854353
-0.15336566 -0.24843916 0.031811886 0.0027480004 -0.20529844 -0.08562228 0.21390183 -0.011928702
-0.2021379 -0.16328776 -0.2750593 0.36169913 -0.0034183245 0.059787825 0.3578559 0.1901023
0.010263846 0.07939267 0.17934982 -0.11523906

attention_dp.linear_hidden.bias f4 [14]
00000000: 4c78 133f 9797 0f3f 8df6 12bf 47c4 f83d
00000010: 9864 cc3c 02f4 883f 6f7b 953e 04ea 95be
00000020: c716 0dbf 9b22 423f 17af 143e 5e1c 383f
00000030: 2887 45bd 0e63 fe3d
0.57605433 0.5609068 -0.57407457 0.12146812 0.02495031 1.0699465 0.29195735 -0.29280102
-0.5511288 0.75834054 0.14519916 0.71918285 -0.0482246 0.12421237

attention_cp.context f4 [12]
00000000: 28a8 9a3d 0a6b eebf bdb2 df3c c592 183e
00000010: 7a8e 2bbf f932 813f ec48 8fbe aadc 993c
00000020: 18d0 bb3e 246a 403f 015a 323f 0fb3 d03d
0.075516045 -1.8626416 0.027306909 0.14899738 -0.67014277 1.0093681 -0.27985322 0.018781979
0.366822 0.7516196 0.69668585 0.10190403

attention_cp.linear_hidden.weight f4 [12, 12]
00000000: 8f1c bfbd c329 47be 32ee 1e3e 282a 91bf
00000010: e66d 243e d467 343e 69e2 e13d 8801 c7be
00000020: e5fc 21bc a076 21be 8753 043e 17d0 ccbd
00000030: 7046 7abe e3c8 0a3d 8269 c2bd 973f 103f
00000040: 27ee b23d b718 c03e 81fd 15be cd93 aabe
00000050: 6dd6 8abe 9140 e8bd 1d31 313d f839 a3bd
00000060: 37d0 203d eb5e adbd 9ffc b2bc 9003 25bf
00000070: 172c 723c 0188 04be 4fff abbd 3aea b7be
00000080: 0271 43be a2ea 7d3e aef0 b5bd 203c 7fbe
00000090: 27cb 503e 4966 23be 6753 c3be 5899 42bf
000000a0: 7ef3 85be 23ac 3e3d 35a1 81be 8d2a f63d
000000b0: 246d edbc 3d2b d63e 303a 863c a93e 01be
000000c0: c207 203d 75bd b23d e107 7a3e 97f2 523f
000000d0: 48ff 2a3e 9a67 723e 10d5 823e 15a0 debe
000000e0: 465a 4dbe d495 54be 55e4 79be cdf2 2a3e
000000f0: f8d9 66be abd0 fb3b fec1 94be 78b1 11bf
00000100: a4aa ed3e d818 6cbd 75a2 a33c 1c36 253e
00000110: 0ad3 abbe b4a6 15be a770 ee3d 699e d8be
00000120: 1fd2 e3be 4b2b efbe e32e 023c 5f79 053f
00000130: 3a0a 803e 42f3 9d3e 1303 b6bd f933 e93d
00000140: da20 a1be fd95 8fbe aa50 6fbe 2be3 003e
00000150: 50ad 8abe 8338 36be 1f53 16be ace4 b13e
00000160: 394d fdbd 6360 efbc 08ae fe3d 6d33 253e
00000170: b4a2 7e3e 25ad 893d 824a 6f3e a56f 583d
00000180: 6325 483d 1b48 843e 8f83 d43d e45d 2cbf
00000190: c4bf 143e 3e91 e2be 0a3d 67bd 5b78 3e3d
000001a0: 7ce3 c8bd 49df e13e edeb 873e d8e2 16be
000001b0: 9ca8 6c3e 9677 a8be 5f24 adbe de3b d2be
000001c0: 17f5 133e 673d 9f3e cdf4 6ebd fe16 60bc
000001d0: 4cd4 82be d5ce 2d3e 4088 a8be f417 87be
000001e0: 5b1f 233e 5f2a 04be 32f2 9abe a8aa 4bbf
000001f0: fedf 8cbe aedd 21be 65a9 39be 486e fd3e
00000200: f0d1 cb3d 5b2e 733e bfe8 28be cc61 993e
00000210: 077d 2b3e 09be 08bc 7a29 ccbe cf2d c7be
00000220: a87b c8bd 5a18 343e e409 acbe b712 903d
00000230: 0ab5 493e 3a3e 9e3e 2305 83be 9fcd c2bd
-0.09331619 -0.19449525 0.15520552 -1.134099 0.16057548 0.17617732 0.110295124 -0.38868356
-0.009886955 -0.15767908 0.12922488 -0.100006275 -0.24440932 0.033882987 -0.0949278 0.5634703
0.0873683 0.37518856 -0.14647485 -0.33315888 -0.2711672 -0.1134044 0.04325973 -0.07970041
0.03926107 -0.0846537 -0.021848975 -0.6445856 0.01478102 -0.12942506 -0.083983056 -0.35920888
-0.19086078 0.24796537 -0.08883797 -0.2492528 0.20389996 -0.15956987 -0.38149568 -0.76015234
-0.26162332 0.04655088 -0.25318304 0.12019835 -0.028982706 0.41829863 0.016385168 -0.12621559
0.0390699 0.08727542 0.24417068 0.8240141 0.16698945 0.23672333 0.2555318 -0.43481508
-0.20053968 -0.2076028 -0.24403508 0.16694184 -0.22544086 0.0076847873 -0.29054254 -0.5691142
0.4641925 -0.05764088 0.019974926 0.16133922 -0.33559448 -0.14614373 0.116425805 -0.42308357
-0.44496247 -0.46712717 0.007945749 0.5213832 0.25007802 0.30849653 -0.08887305 0.11386866
-0.31470376 -0.2804412 -0.23370615 0.12586658 -0.27085352 -0.17794995 -0.14680146 0.34744775
-0.12368245 -0.029220765 0.124355376 0.16132899 0.24866754 0.06722478 0.23368266 0.052840848
0.04886378 0.25836262 0.10376655 -0.67330766 0.14526278 -0.44251436 -0.056454696 0.0465015
-0.09809014 0.44115666 0.26547185 -0.14734972 0.23111194 -0.32903737 -0.3381681 -0.410613
0.14448963 0.31101534 -0.05833893 -0.013677357 -0.25552595 0.16973431 -0.3291645 -0.26385462
0.1592993 -0.12906788 -0.30262905 -0.79557276 -0.27514642 -0.1580722 -0.18131025 0.494982
0.09952152 0.23748152 -0.16495036 0.29957426 0.16746913 -0.008346089 -0.39875394 -0.38902137
-0.097892106 0.17587414 -0.33601296 0.070348196 0.19697967 0.3090685 -0.25589857 -0.09511875

attention_cp.linear_hidden.bias f4 [12]
00000000: 40cb 85be 8462 dbbe dc3a c7be 009f 533f
00000010: aaff 4abf 6c1c acbe cf5f 9f3e afef ef3e
00000020: 7630 943e 5465 7fbe ab63 603f 83d1 1d3f
-0.2613163 -0.428486 -0.38912094 0.8266449 -0.7929636 -0.33615434 0.31127784 0.46862552
0.28943223 -0.24940997 0.8765208 0.61647815

fc_dp.weight f4 [1, 14]
00000000: 8d35 013f 1232 ec3e 6903 973d 5379 e7be
00000010: 55c1 8bbd 2d40 f33e 3d20 df3e 2989 a6be
00000020: bfd0 a93e 88b4 b73e aed9 a2be 78cd d13e
00000030: dd9c a0be 15a9 f13e
0.50472337 0.4613195 0.07373697 -0.4520975 -0.068239845 0.475099 0.43579283 -0.3252652
0.33167073 0.35879922 -0.318067 0.40977073 -0.31369677 0.47199312

fc_cp.weight f4 [1, 12]
00000000: dddf 16bf c982 d8be 2aaa c7be e07f babc
00000010: c996 d13e 59f9 5d3e 5b3e d13e af1f 673e
00000020: f79a c4be 126f c8be fade cabe 62e3 fcbe
-0.5893534 -0.4228728 -0.38997012 -0.022766054 0.40935352 0.2167715 0.40867886 0.2257068
-0.3839948 -0.3914724 -0.39623243 -0.4939223
