trained_models/mce_birnn/final_model.pt (torch_old, 7771 bytes, 19 tensors)

gru_dp_fw.weight_ih_l0 f4 [21, 7]
0	0xbe9687a8	-0.29400373
1	0xbc15af20	-0.009135991
2	0x3d1bfd80	0.038083553
3	0xbd0679d0	-0.032831013
4	0xbd20d6c0	-0.0392673
5	0xbe9ecfd3	-0.31017932
6	0x3c46fae0	0.012144774
7	0xbd388b28	-0.045054585
8	0xbea32ce0	-0.31870174
9	0xbe1ac83c	-0.15115446
10	0xbae68900	-0.0017588437
11	0xbc7ab3e0	-0.015301675
12	0x3ebeb193	0.37244853
13	0xbde43910	-0.11143696
14	0xbebbee9e	-0.36705488
15	0x3da5f3c0	0.08103132
16	0xbdfbd75c	-0.12296936
17	0x3eab1b27	0.33419153
18	0x3ebb6e43	0.3660756
19	0xbdfb2348	-0.12262589
20	0x3c0f6c60	0.008753866
21	0x3dcedc70	0.10100639
22	0xbd83be18	-0.06432742
23	0xbe6af8b7	-0.2294644
24	0x3cda5580	0.026652098
25	0xbe6e4cab	-0.23271434
26	0xbe66291b	-0.22476618
27	0x3c3401a0	0.010986716
28	0x3eb27afd	0.34859458
29	0x3e93ef3d	0.28893462
30	0x3df9c93c	0.121965855
31	0x3e9b4489	0.30325726
32	0xbddd743c	-0.108131856
33	0x3e9f4cff	0.3111343
34	0x3d9ec1f8	0.0775184
35	0xbdc551dc	-0.09634754
36	0xbd1e9cb8	-0.038723677
37	0x3e2794fe	0.1636543
38	0x3e8b0c37	0.27157757
39	0xbcf400f0	-0.029785603
40	0xbe17fdd9	-0.14842929
41	0x3d25db70	0.040492475
42	0x3bd1a2c0	0.006397575
43	0xbe1da347	-0.15394317
44	0x3ebd0191	0.36915258
45	0x3e7e8b32	0.24857786
46	0x3e8d8fa1	0.27648643
47	0xbdefb008	-0.11703497
48	0xbe8eeb3c	-0.27913845
49	0xbe704409	-0.23463453
50	0xbdea51dc	-0.11441395
51	0xbe0228b0	-0.12710834
52	0x3cbb28c0	0.02284658
53	0xbe16cbd0	-0.14726186
54	0x3ce0ed60	0.02745694
55	0xbe893692	-0.26799446
56	0xbe327bf6	-0.174301
57	0x3e9cb8a1	0.3060961
58	0x3eadb9f5	0.33930936
59	0xbe8bef33	-0.27330932
60	0x3e9d9029	0.30774048
61	0xbe1f11e4	-0.15534168
62	0xbe8d2d30	-0.27573538
63	0xbeb8403e	-0.35986513
64	0xbdfac3b0	-0.12244356
65	0xbe92d779	-0.28680018
66	0x3c40b2a0	0.0117613375
67	0xbe4f7990	-0.20261216
68	0xbeb4e37b	-0.35329804
69	0xbde3a18c	-0.11114797
70	0x3ead0373	0.33791694
71	0x3d334230	0.043764293
72	0xbe891710	-0.26775408
73	0xbe5cf608	-0.21578228
74	0x3e08f54a	0.1337482
75	0x3d9d1acc	0.07671127
76	0x3e875799	0.2643402
77	0xbdc158e8	-0.09440786
78	0xbde3ef24	-0.11129597
79	0xbe9bd467	-0.30435488
80	0x3eb71dab	0.35764822
81	0x3e1e7e3e	0.15477845
82	0xbe1f9c9e	-0.15587088
83	0x3ea44101	0.32080844
84	0xbe99b674	-0.30022013
85	0xbdd55f24	-0.10418537
86	0xbeb149ba	-0.3462656
87	0x3dc7fcc0	0.09765005
88	0xbe8a0e0f	-0.2696385
89	0x3d286978	0.041116208
90	0xbd3ddab0	-0.046351135
91	0x3dc73d20	0.097284555
92	0x3e9ea88b	0.30987963
93	0x3e676ffa	0.2260131
94	0xbe90ca0b	-0.28279147
95	0x3ea9f8e5	0.33197704
96	0x3dacf7b0	0.0844568
97	0x3e21aa5a	0.1578764
98	0xbe6af663	-0.22945552
99	0x3e3e15fa	0.18563071
100	0xba693200	-0.0008895695
101	0x3e9e791f	0.30951783
102	0x3eb8581b	0.3600472
103	0xbdf74a24	-0.12074688
104	0xbe59892e	-0.21243736
105	0xbe8a803c	-0.2705096
106	0x3dd733fc	0.10507962
107	0xbac6b200	-0.0015159249
108	0x3e468e92	0.19390324
109	0x3d8ad68c	0.06779203
110	0x3ebc9cef	0.3683848
111	0x3ea60925	0.32428852
112	0x3e3874fe	0.18013379
113	0x3de6ae04	0.112636596
114	0x3df43b48	0.119253695
115	0xbdb715ac	-0.089396805
116	0x3e9812b5	0.29701772
117	0xbdb62cc8	-0.0889526
118	0x3e5c295e	0.21500155
119	0xbd92a140	-0.07159662
120	0xbe86b586	-0.26310366
121	0x3ebbfb95	0.3671538
122	0xbdf004dc	-0.11719677
123	0x3e8ce08d	0.2751507
124	0xbe67cdac	-0.22637051
125	0x3dcfc774	0.101454645
126	0xbe7bd4e1	-0.24592926
127	0x3e1049fa	0.1409072
128	0x3e33495a	0.1750845
129	0xbce30720	-0.027713358
130	0xbdc87f58	-0.09789914
131	0x3eb3b609	0.3509982
132	0x3d8dbf0c	0.06921205
133	0x3d4487c0	0.047981024
134	0xbebd6a8d	-0.36995354
135	0x3e7c0096	0.24609599
136	0x3d90c8d8	0.07069558
137	0x3c17f020	0.009273559
138	0x3eb7d061	0.35901168
139	0xbcc55600	-0.02408886
140	0xbc84f780	-0.016231298
141	0xbdc50774	-0.09620562
142	0x3e3a64aa	0.18202463
143	0x3e772992	0.24136952
144	0xbe6dff57	-0.23241936
145	0x3bfbce80	0.007684529
146	0xbe1ac4ba	-0.15114108

gru_dp_fw.weight_hh_l0 f4 [21, 7]
0	0xbe967256	-0.29384106
1	0x3eb1a9ea	0.34699947
2	0xbdcb6648	-0.09931618
3	0xbe7ecfba	-0.24883929
4	0xbd78d8f9	-0.060753796
5	0xbdf0a442	-0.1175008
6	0x3ee8bec0	0.4545803
7	0x3e85e764	0.261531
8	0x3e9c1149	0.30481938
9	0xbda34ed1	-0.079740174
10	0x3dd62c47	0.10457664
11	0x3e01d138	0.12677467
12	0x3cc48262	0.023987953
13	0x3e6bcd1b	0.2302746
14	0x3dfd9253	0.12381425
15	0xbec1b826	-0.37835807
16	0x3de99177	0.11404698
17	0xbe98e06e	-0.29858726
18	0xbe974a06	-0.29548663
19	0x3d66bdeb	0.056333464
20	0x3dd4cb62	0.10390355
21	0xbcab52d8	-0.020913526
22	0x3ea70883	0.3262368
23	0xbd80900e	-0.06277476
24	0xbf091689	-0.5355001
25	0x3dc2ddfe	0.09514998
26	0xbe03659f	-0.12831734
27	0x3f0e038e	0.55474174
28	0x3e8de9ab	0.27717337
29	0xbe9dea5c	-0.30842865
30	0x3e9df246	0.30848902
31	0x3e874b8d	0.26424828
32	0x3e7abbf1	0.24485756
33	0xbdaf77e0	-0.08567786
34	0x3e785df4	0.2425459
35	0x3c8f0d06	0.017462265
36	0xbd65a3a6	-0.05606427
37	0x3ec92fdc	0.39294326
38	0x3dab4800	0.08363342
39	0x3e61683e	0.22012421
40	0x3f0a03a5	0.5391181
41	0x3eec53d9	0.4615772
42	0xbdcfd64b	-0.10148295
43	0x3d9c206d	0.07623372
44	0x3e706db3	0.23479347
45	0xbd8a94c8	-0.06766659
46	0xbe87e4ba	-0.26541692
47	0x3e132cff	0.14372633
48	0xbd0f6bc9	-0.0350149
49	0x3e28ab6d	0.16471644
50	0x3e7b348f	0.24531768
51	0xbe58818f	-0.21143173
52	0xbd8dfbd9	-0.06932802
53	0xbe63ec57	-0.22258125
54	0xbd1380fb	-0.036011677
55	0xbebd73ba	-0.37002355
56	0x3e3ec95d	0.18631501
57	0xbd9864f5	-0.07441131
58	0x3e387015	0.18011506
59	0xbe389994	-0.18027335
60	0x3dbc0c95	0.09182087
61	0x3d0d66c6	0.03452184
62	0xbde4a97b	-0.11165138
63	0xbe83581c	-0.2565316
64	0xbde3b283	-0.11118033
65	0xbe10594e	-0.14096567
66	0x3e2db3fd	0.16963191
67	0x3c24d892	0.0100614
68	0x3dc71d69	0.097224064
69	0x3dbc0ddd	0.09182332
70	0xbeafb41e	-0.34317106
71	0xbe023cea	-0.1271855
72	0x3e51479d	0.20437475
73	0x3e6952ea	0.22785535
74	0x3eade078	0.3396032
75	0x3e15328b	0.14570062
76	0x3e53b342	0.2067385
77	0x3b3c9a0c	0.0028778343
78	0xbeb2715d	-0.34852114
79	0xbe8b67ad	-0.27227536
80	0x3e1607f1	0.14651467
81	0x3ea94bd1	0.33065656
82	0xbe5dfe78	-0.21679103
83	0xbc1c242e	-0.00953011
84	0x3ea5224d	0.32252732
85	0x3e597b52	0.21238449
86	0x3e5f2413	0.21791105
87	0x3e0ca00f	0.13732933
88	0x3e92e6c6	0.2869169
89	0x3e9b0439	0.3027666
90	0x3d812420	0.063057184
91	0xbd98cc65	-0.0746086
92	0xbe832612	-0.25614983
93	0x3e82c384	0.25539792
94	0x3d93cf10	0.072172284
95	0xbe8765c7	-0.26444837
96	0xbe7b15c8	-0.24520028
97	0xbe8a28a7	-0.2698414
98	0xbd97e816	-0.07417314
99	0x3e64024e	0.22266504
100	0xbdf49548	-0.11942536
101	0x3ded6f36	0.115934774
102	0x3ec90f38	0.39269423
103	0x3d97115f	0.0737636
104	0x3e8de259	0.27711752
105	0xbeeeaffe	-0.46618646
106	0x3d860e3f	0.06545686
107	0x3e2365fc	0.15956873
108	0xbe9895a6	-0.29801673
109	0xbd8c78cc	-0.06858978
110	0x3ee02394	0.43777144
111	0x3e42d9fb	0.19028465
112	0x3ddc6952	0.10762276
113	0x3e6777a0	0.22604227
114	0x3d9ad86a	0.07560809
115	0x3e93ef2f	0.2889342
116	0xbe7db84c	-0.24777335
117	0xbe73832c	-0.23780507
118	0x3e2ade98	0.16686475
119	0x3e39fbd8	0.18162477
120	0x3eb7c93f	0.35895726
121	0x3e9d26f9	0.30693796
122	0xbf0f233a	-0.55913126
123	0x3e7ec9f4	0.24881727
124	0x3df9dfb9	0.12200875
125	0x3b984ea9	0.004648049
126	0xbea1ad2b	-0.3157743
127	0x3ec1c6c9	0.37846974
128	0xbea03226	-0.3128826
129	0xbe5b6b94	-0.21427757
130	0xbd42f20d	-0.04759412
131	0x3e2b97ec	0.16757172
132	0xbe865bfe	-0.2624206
133	0xbd974e87	-0.07388025
134	0xbbae0691	-0.0053108414
135	0xbe06d506	-0.131672
136	0x3e231e78	0.15929592
137	0xbd189432	-0.037250705
138	0xbe1771bd	-0.14789481
139	0xbec401b7	-0.38282558
140	0xbefe9967	-0.49726412
141	0xbee28151	-0.44239286
142	0x3ebf4b54	0.37362158
143	0xbee3da7f	-0.44502637
144	0x3f04ccbe	0.5187491
145	0x3ef31edd	0.47484484
146	0xbec95a18	-0.3932655

gru_dp_fw.bias_ih_l0 f4 [21]
0	0x3df0a215	0.11749665
1	0x3e9c3b3b	0.3051394
2	0xbe5a6cb1	-0.21330525
3	0xbe975772	-0.29558903
4	0x3e5ab623	0.21358542
5	0x3e1c8222	0.15284017
6	0xbd898d1d	-0.06716368
7	0x3dc6edd9	0.097133346
8	0xbe803503	-0.25040445
9	0x3d8f30be	0.06991719
10	0xbe70e723	-0.23525672
11	0x3e830ae7	0.25594255
12	0xbe5c236b	-0.21497886
13	0xbcfef057	-0.031120462
14	0xbd2ef67f	-0.042715546
15	0x3e1f8e18	0.15581548
16	0xbdb3f315	-0.087865986
17	0xbe145c1b	-0.1448826
18	0x3dd79550	0.10526526
19	0x3d6045ab	0.05475394
20	0xbc8d8ead	-0.017279947

gru_dp_fw.bias_hh_l0 f4 [21]
0	0xbea41fb9	-0.32055452
1	0x3d21aa88	0.039469272
2	0x3d921689	0.071332045
3	0x3eac2561	0.33622268
4	0xbeee90c3	-0.4659482
5	0xbe7d62cf	-0.24744724
6	0x3e55bace	0.20872042
7	0x3e087612	0.1332629
8	0xbe71502d	-0.23565741
9	0x3e220921	0.15823795
10	0x3d9c27ec	0.07624802
11	0xbe99a002	-0.3000489
12	0x3d762213	0.06009109
13	0xbccc11f7	-0.02491091
14	0x3db0ee55	0.08639208
15	0xbe80896d	-0.25104848
16	0x3e33cd2b	0.17558734
17	0x3e9c530a	0.30532104
18	0xbe6d4259	-0.23169841
19	0xbe254386	-0.1613904
20	0x3d2e4ded	0.042554785

gru_cp_fw.weight_ih_l0 f4 [18, 6]
0	0x3e7ccebd	0.2468824
1	0xbe42c184	-0.19019133
2	0x3eeb3aa6	0.45943183
3	0xbe4513c4	-0.19245821
4	0xbe5103a3	-0.20411544
5	0x3e2f8993	0.17142324
6	0xbe30b6f4	-0.17257291
7	0xbeaa1f8e	-0.332272
8	0xbcec5cf3	-0.028852915
9	0xbda330eb	-0.07968315
10	0x3d7817bc	0.06056951
11	0x3dca44be	0.09876393
12	0x3e6a2af8	0.22867954
13	0x3ea6bf2c	0.32567728
14	0x3e23720e	0.15961477
15	0x3de7dce6	0.1132143
16	0xbeea13bb	-0.45718178
17	0x3e60e157	0.2196096
18	0xbe96f6d9	-0.29485205
19	0xbe0ce567	-0.13759385
20	0x3ef1753b	0.47159752
21	0xbebfcf98	-0.3746307
22	0xbe048fbc	-0.12945455
23	0x3e0c40fe	0.13696668
24	0x3e105071	0.14093186
25	0xbf493b3b	-0.78606004
26	0x3eeb0528	0.4590237
27	0x3f39cf9f	0.7258243
28	0x3eec3afe	0.46138757
29	0x3cfc734a	0.030816693
30	0xbb3ac455	-0.002849837
31	0x3dc07b6c	0.09398541
32	0x3e849c6e	0.25900596
33	0xbe0bc975	-0.13651069
34	0x3ec8f16a	0.39246684
35	0xbe03509e	-0.12823722
36	0xbe65a909	-0.22427763
37	0x3c64905d	0.0139504345
38	0xbe6c1fa3	-0.23058943
39	0x3eaa5614	0.33268797
40	0xbf46e77a	-0.77696955
41	0xbd61af3d	-0.05509876
42	0x3eb22ada	0.34798318
43	0x3e0a8fce	0.1353142
44	0x3f3247a5	0.6964057
45	0xbea97af3	-0.33101615
46	0x3d8b9c58	0.068169296
47	0xbe94b979	-0.29047754
48	0xbed309e4	-0.41218483
49	0xbf2a3329	-0.66484314
50	0xbe54a3c5	-0.20765598
51	0x3ea52897	0.3225753
52	0xbf2e6594	-0.68123746
53	0xbe4292f9	-0.19001378
54	0xbe70b98d	-0.23508282
55	0x3e4fa11e	0.20276305
56	0x3f07df84	0.5307543
57	0xbe64de89	-0.22350515
58	0x3e05db20	0.13071871
59	0x3dd8a63b	0.10578581
60	0xbf4df461	-0.8045102
61	0x3bc68852	0.006058731
62	0x3ea17bdc	0.3153981
63	0xbe8d9d00	-0.27658844
64	0x3eca96e2	0.3956824
65	0x3e9c5739	0.30535296
66	0xbf1f474f	-0.62218183
67	0xbe9a2a90	-0.30110598
68	0x3d90df0b	0.07073792
69	0xbe21277b	-0.15737717
70	0xbf2f811a	-0.6855637
71	0x3ed5edb9	0.4178293
72	0xbe290d2b	-0.1650893
73	0xbe017569	-0.12642445
74	0xbe94991c	-0.29023063
75	0x3e9838da	0.29730874
76	0xbe52c76b	-0.20583884
77	0xbd2e7610	-0.042593062
78	0xbd34e729	-0.044165764
79	0xbcea3f83	-0.028594738
80	0x3f353df0	0.70797634
81	0x3c8f4200	0.017487526
82	0x3e671d02	0.2256966
83	0xbf1eddd2	-0.6205722
84	0xbe00630d	-0.12537785
85	0xbecc7015	-0.39929262
86	0xbe366cd4	-0.17814952
87	0x3e0e92c7	0.13923179
88	0xbea01aa9	-0.3127034
89	0xbea29915	-0.31757417
90	0xbf0ab6ea	-0.54185355
91	0xbe9db455	-0.30801645
92	0x3f1ae8d3	0.6051151
93	0xbc829412	-0.015939746
94	0xbec27d44	-0.37986195
95	0xbec1415f	-0.37745187
96	0x3ec3db8c	0.38253438
97	0x3d53ca4e	0.051706605
98	0xbdde65e9	-0.108592816
99	0x3eda1d02	0.42600256
100	0xbea11b47	-0.31466123
101	0xbe7ffee2	-0.24999574
102	0xbf06acfc	-0.52607703
103	0xbe57b478	-0.21064937
104	0xbca340de	-0.019928392
105	0xbe960f55	-0.29308572
106	0xbe884fc9	-0.2662337
107	0xbdc6a6f4	-0.096998125

gru_cp_fw.weight_hh_l0 f4 [18, 6]
0	0xbe29960b	-0.16561143
1	0xbf0dff4c	-0.5546768
2	0x3e39e0ca	0.18152156
3	0xbe313f7c	-0.17309374
4	0x3ebaa697	0.36455223
5	0x3aa4e9bc	0.0012581865
6	0xbdea727a	-0.11447616
7	0xbec7fd4e	-0.39060444
8	0xbe257a0a	-0.16159835
9	0xbf4a026b	-0.7890994
10	0x3c1933a7	0.009350694
11	0xbdd9925c	-0.10623619
12	0xbd999631	-0.0749935
13	0xbea75850	-0.32684565
14	0xbc830b89	-0.015996711
15	0xbe5cbb47	-0.21555816
16	0x3eb06fea	0.34460384
17	0xbed0359d	-0.40665904
18	0xbe63f763	-0.2226234
19	0x3db22e2d	0.087002136
20	0xbdff3c99	-0.1246273
21	0x3f03cb7d	0.51482373
22	0xbf030cc3	-0.5119135
23	0x3e019930	0.12656093
24	0x3ebe6359	0.3718517
25	0xbd449f74	-0.04800363
26	0x3e38e9e5	0.18057974
27	0x3ca5ebca	0.020254035
28	0xbcf216f7	-0.029551966
29	0x3ec7d72f	0.3903136
30	0x3da4d02f	0.0804752
31	0x3edef8ec	0.43549287
32	0x3ee27e97	0.44237205
33	0x3e90c35f	0.28274056
34	0x3dda77d4	0.10667387
35	0xbe18c01a	-0.14917031
36	0x3d5d428b	0.05401854
37	0xbcbeb477	-0.023279412
38	0xbe64e097	-0.22351299
39	0xbeb3906d	-0.35071126
40	0x3eca6abc	0.39534557
41	0xbf030c08	-0.51190233
42	0xbec69cf5	-0.38791624
43	0xbf63f744	-0.8904917
44	0xbeb33337	-0.3500001
45	0xbe9264f7	-0.28592655
46	0x3dcf553f	0.10123681
47	0xbeb57d11	-0.3544698
48	0xbeba0203	-0.3632966
49	0x3b8fdbb4	0.0043902043
50	0xbf0b0ccc	-0.543164
51	0xbe61c776	-0.22048745
52	0xbdbfc3a3	-0.093634866
53	0xbd8a4a04	-0.067523986
54	0xbf4e4a16	-0.80581796
55	0xbf589177	-0.8459696
56	0xbf5a7d35	-0.853473
57	0xbf079d11	-0.5297404
58	0x3e8049ff	0.25056455
59	0xbf618490	-0.880929
60	0xbd249eaa	-0.040190376
61	0xbe512b59	-0.20426692
62	0xbf29baad	-0.6630047
63	0xbe4c3525	-0.19942148
64	0x3e8a57a6	0.27019995
65	0xbf366b94	-0.712579
66	0xbe949f93	-0.29027995
67	0xbf0cff11	-0.550767
68	0xbe8b8cff	-0.2725601
69	0xbe2ca536	-0.16859898
70	0x3f4d2c20	0.80145454
71	0xbf820238	-1.0156927
72	0x3dd55eda	0.10418482
73	0xbadea859	-0.0016987427
74	0x3ea05833	0.3131729
75	0x3e03fe13	0.1288989
76	0x3bf3ab0e	0.007436163
77	0x3e40b03e	0.18817231
78	0x3eb64ad8	0.35603976
79	0x3e2cf73f	0.16891192
80	0x3e6f64f5	0.23378356
81	0x3ea0c49d	0.31400004
82	0xbd232d72	-0.039838262
83	0xbd7f4d11	-0.062329356
84	0xbe7c2270	-0.24622512
85	0x3ea39096	0.31946248
86	0xbe6a9474	-0.22908193
87	0x3f1227ab	0.5709178
88	0xbb93b37d	-0.0045074807
89	0x3e8c9f38	0.27465224
90	0xbe5b6179	-0.21423902
91	0xbf19beed	-0.60056955
92	0xbe278a35	-0.16361316
93	0xbda644b1	-0.081185706
94	0x3e4a7895	0.19772561
95	0xbed57b74	-0.4169575
96	0xbddd813e	-0.108156666
97	0x3e662bab	0.22477596
98	0xbe05bab2	-0.130595
99	0xbe2ef8c3	-0.17087083
100	0x3e91456b	0.28373274
101	0x3c584855	0.013200839
102	0x3de53efb	0.11193653
103	0xbdf1d9f4	-0.118091494
104	0xbe880191	-0.26563695
105	0x3e80ba65	0.25142208
106	0xbe62fe18	-0.22167242
107	0xbe90aa1b	-0.2825478

gru_cp_fw.bias_ih_l0 f4 [18]
0	0xbe8bac75	-0.27280012
1	0x3edab7de	0.42718405
2	0xbd670bc0	-0.05640769
3	0x3e357602	0.17720798
4	0xba8a0ae5	-0.0010531811
5	0x3db8eb9a	0.090293124
6	0x3ecb4b99	0.39706114
7	0x3d6efe10	0.05834776
8	0x3f3a2adb	0.7272164
9	0x3e582c09	0.21110548
10	0x3e8f0c5b	0.27939114
11	0x3e507193	0.20355825
12	0x3c8b5fcc	0.017013453
13	0x3dc563af	0.09638154
14	0xbdf54a18	-0.11977023
15	0x3d5f5b64	0.054530516
16	0xbe2dc00e	-0.16967794
17	0xbe479117	-0.19488941

gru_cp_fw.bias_hh_l0 f4 [18]
0	0x3d24ae93	0.04020555
1	0x3eb8d386	0.3609888
2	0xbe6ee7d3	-0.23330621
3	0x3e4b3642	0.19844916
4	0xbec90217	-0.39259407
5	0xbe967743	-0.29387864
6	0x3cf14fac	0.029456936
7	0x3de1085a	0.10987921
8	0x3e653293	0.22382574
9	0x3f18cde8	0.5968919
10	0x3e67a753	0.22622423
11	0x3ee26919	0.44220808
12	0xba1210ac	-0.00055719423
13	0xbea6b26b	-0.32557997
14	0x3ef0c2ba	0.47023565
15	0xbca12661	-0.01967162
16	0x3e972d7c	0.2952689
17	0x3f043bcc	0.5165374

gru_dp_bw.weight_ih_l0 f4 [21, 7]
0	0x3ef4c39a	0.47805482
1	0xbeb0bf9f	-0.34521195
2	0xbecbd860	-0.3981352
3	0xbf38b9de	-0.7215861
4	0xbf3cbadd	-0.7372263
5	0x3f4fe58d	0.8120964
6	0xbc6e50b8	-0.014545612
7	0x3d83e296	0.06439702
8	0xbeca8e2e	-0.395616
9	0xbe97b9ae	-0.2963385
10	0x3e59dd4f	0.21275829
11	0xbe64bb9a	-0.2233719
12	0x3d731e58	0.05935511
13	0xbce01cd1	-0.02735749
14	0xbe235cdc	-0.15953392
15	0xbe52a307	-0.20570002
16	0xbd8b06cf	-0.06788408
17	0x3d95900e	0.07302867
18	0xbedb0d4e	-0.42783588
19	0xbdc8caf8	-0.09804338
20	0x3ef680b8	0.4814508
21	0xbeaaa43a	-0.3332842
22	0xbdee814c	-0.11645755
23	0x3f020127	0.5078301
24	0xbed0fd0c	-0.4081806
25	0x3ef0117d	0.46888342
26	0x3e2d1546	0.16902646
27	0xbeaee997	-0.3416259
28	0xbf51b6a6	-0.81919324
29	0x3d18806c	0.037231848
30	0x3f803388	1.0015726
31	0x3f283b01	0.6571503
32	0x3e70a6c5	0.23501118
33	0xbec78932	-0.3897186
34	0xbebd7935	-0.37006536
35	0xbc60fb19	-0.013731741
36	0xbe883bb8	-0.26608062
37	0xbf24c92d	-0.6436947
38	0x3cef738b	0.0292299
39	0x3ec4befc	0.3842696
40	0x3f0501b2	0.5195571
41	0x3e016fcf	0.12640308
42	0xbdcb0ba5	-0.099143304
43	0xbe05c00a	-0.13061538
44	0x3f9f08c7	1.2424554
45	0xbe1b3f4e	-0.15160868
46	0x3f7eb432	0.99493706
47	0x3e8b8871	0.27252534
48	0xbe5aa0d0	-0.21350408
49	0x3db6631a	0.08905621
50	0x3dd0c596	0.101939365
51	0x3cc44176	0.023956995
52	0xbcdd8545	-0.027041087
53	0xbd8f0394	-0.06983104
54	0x3d165e76	0.03671118
55	0x3e00adc9	0.12566294
56	0xbe0cce63	-0.13750605
57	0xbe21ff86	-0.1582013
58	0xbd852d6d	-0.06502805
59	0xbf22328e	-0.6335839
60	0x3e062f8f	0.1310408
61	0xbd4f1391	-0.05055577
62	0x3a3e28ab	0.0007253985
63	0x3cd839dd	0.026394779
64	0xbcbdc06b	-0.023163041
65	0x3e661d6e	0.22472164
66	0xbe0f0a0a	-0.13968673
67	0x3eec765c	0.4618405
68	0xbe048192	-0.12940052
69	0x3de21b5b	0.11040374
70	0xbed84e44	-0.42247212
71	0xb9f2b296	-0.00046290894
72	0xbd9fb94a	-0.07799013
73	0xbe2c0b42	-0.1680117
74	0xbd7c7964	-0.061639205
75	0xbcdcab15	-0.026937047
76	0xbea93fe6	-0.33056563
77	0xbe839053	-0.25696048
78	0xbbab4cdd	-0.0052276687
79	0x3d02ed9d	0.031964887
80	0x3db544c5	0.08851007
81	0xbd564e9c	-0.05232106
82	0xbdb932d3	-0.09042897
83	0x3de61cec	0.11235985
84	0xbe3cff10	-0.18456674
85	0x3da0bdc3	0.07848694
86	0x3ea2e56d	0.31815663
87	0xbdf8cbed	-0.12148271
88	0x3deb5842	0.11491443
89	0xba9dd91e	-0.0012042855
90	0x3eb31ead	0.3498434
91	0x3c97f807	0.018550886
92	0xbd90a8f8	-0.07063478
93	0x3e82ce68	0.255481
94	0xbe8fe4eb	-0.28104338
95	0xbcb14fa9	-0.02164443
96	0xbd281b9d	-0.04104196
97	0xbe220a93	-0.15824346
98	0x3e1cbb83	0.15305905
99	0x3b33efef	0.0027456244
100	0xbee25b6f	-0.44210383
101	0xbd4def77	-0.0502772
102	0xbebb7211	-0.36610463
103	0xbde4c987	-0.11171251
104	0xbda562e4	-0.080755025
105	0x3df17eca	0.11791761
106	0xbc4f298e	-0.012644185
107	0x3baf4bff	0.0053496356
108	0x3de6a95a	0.1126277
109	0xbd2a58a9	-0.04158846
110	0xbc26ff01	-0.010192634
111	0xbd9899a2	-0.07451178
112	0xbd854182	-0.06506635
113	0x3ca8aace	0.020589259
114	0x3dc5cfd4	0.09658781
115	0x3be0b738	0.006857779
116	0x3d7ef997	0.062249746
117	0x3d54e740	0.05197835
118	0xbcf44b2b	-0.029821
119	0x3ec97cdb	0.3935307
120	0x3d06b05c	0.032883033
121	0xbdee8923	-0.116472505
122	0x3ce2463e	0.027621385
123	0xbd11cc5b	-0.03559528
124	0x3e3ec9aa	0.18631616
125	0xbe58c36f	-0.21168302
126	0xbe9cd2da	-0.30629617
127	0x3c888abb	0.016667714
128	0xbd16e560	-0.036839843
129	0x3da19161	0.07889057
130	0xbe8385b6	-0.2568795
131	0xbe3c23dd	-0.18373056
132	0xbe026e4c	-0.12737387
133	0xbdf0a0d1	-0.11749423
134	0x3d207299	0.03917179
135	0x3e925c4c	0.28586042
136	0xbc87fafe	-0.016599175
137	0x3e27a619	0.16371955
138	0xbe0a4432	-0.13502577
139	0xbe3e947e	-0.18611333
140	0xbe4d57e9	-0.20053066
141	0xbca77753	-0.02044264
142	0xbe41af5d	-0.18914552
143	0x3deb1f91	0.1148063
144	0xbe406ca4	-0.18791443
145	0xbcb955cf	-0.022623925
146	0xbb44998d	-0.002999875

gru_dp_bw.weight_hh_l0 f4 [21, 7]
0	0x3f209984	0.62734246
1	0x3e76cb0c	0.24100894
2	0x3e8d75e4	0.27629006
3	0x3ec7190d	0.388863
4	0xbdf52ca5	-0.11971406
5	0xbec38d1d	-0.38193598
6	0xbde7ef05	-0.11324886
7	0x3c8b7d93	0.017027652
8	0x3ecfb84e	0.405703
9	0x3dbd4213	0.09241118
10	0x3de7f5e6	0.11326198
11	0x3d95202a	0.072815254
12	0x3e926063	0.28589162
13	0xbe5890ff	-0.21149062
14	0x3eafccad	0.34335843
15	0xbec5d57d	-0.3863944
16	0x3f00b173	0.50270766
17	0x3dafbe5d	0.08581231
18	0xbe60363b	-0.21895687
19	0xbe4013b5	-0.18757518
20	0xbf0e1b78	-0.55510664
21	0x3ecfdb8c	0.40597188
22	0xbf1bff71	-0.6093665
23	0x3e96ecb8	0.29477477
24	0x3da7bcff	0.08190345
25	0x3e9fb87c	0.31195438
26	0x3c29b88e	0.010358943
27	0xbf425ebe	-0.75925815
28	0x3d941ff5	0.07232658
29	0xbdd175b5	-0.10227529
30	0x3f14be18	0.5810256
31	0x3d59193c	0.05300258
32	0x3ef82c45	0.48471275
33	0x3c243d04	0.010024313
34	0xbece8a4c	-0.40339887
35	0xbd94fe3d	-0.072750546
36	0xbe1a748d	-0.15083523
37	0x3efea749	0.49737003
38	0x3ea35981	0.31904224
39	0xbdeb5958	-0.1149165
40	0x3e75dda0	0.24010324
41	0xbf2b877b	-0.670036
42	0x3cbb0e16	0.022833865
43	0xbecb1a1e	-0.39668363
44	0x3e9f4b59	0.31112173
45	0x3eb16590	0.346478
46	0x3e427250	0.1898892
47	0xbe723e50	-0.23656583
48	0xbe404884	-0.18777663
49	0xbda25550	-0.07926428
50	0xbe39f53b	-0.18159954
51	0x3e247261	0.16059257
52	0xbe8d198f	-0.27558562
53	0x3e658f22	0.22417882
54	0xbebc320f	-0.36756942
55	0xbf21d1cc	-0.6321075
56	0x3e1f1603	0.1553574
57	0xbf442bc7	-0.766293
58	0xbef9bd57	-0.48777267
59	0x3e6b4dc5	0.22978885
60	0xbdd270c3	-0.10275414
61	0xbeddfd79	-0.43357447
62	0x3d9d4fa7	0.07681208
63	0x3e3f3d0a	0.18675628
64	0xbf1eeab9	-0.6207691
65	0x3da6dd60	0.08147693
66	0x3d99752a	0.074930504
67	0x3e6e9b9a	0.23301545
68	0xbed68a5d	-0.41902438
69	0x3e23a8dd	0.15982385
70	0xbeb8a9c2	-0.36067015
71	0xbed32a3c	-0.4124316
72	0x3e6dc2b5	0.23218806
73	0x3e2a3508	0.16621792
74	0x3e98a8bc	0.29816234
75	0xbecbcbff	-0.39804074
76	0xbc7fa78a	-0.015603909
77	0x3ec2a3c0	0.38015556
78	0x3db4b76d	0.08824048
79	0xbeea8eda	-0.45812112
80	0x3e8c947b	0.27457032
81	0xbddb2f1f	-0.10702347
82	0xbdaf49fe	-0.08559035
83	0xbec69db0	-0.3879218
84	0x3e1ef920	0.15524721
85	0xbec6fcd2	-0.38864762
86	0xbdf3fa28	-0.11912948
87	0x3dd98c28	0.10622436
88	0x3e0bfa25	0.13669641
89	0xbe7e9db9	-0.24864854
90	0xbe0968d1	-0.1341889
91	0x3ece854c	0.40336072
92	0x3ee8a4a6	0.45438117
93	0xbeff9937	-0.4992158
94	0x3eda1e73	0.42601356
95	0x3f4a22c1	0.7895928
96	0x3c94a97e	0.018147226
97	0x3dfc93b4	0.1233286
98	0x3f3f86d4	0.74815106
99	0xbef192d4	-0.47182333
100	0x3de9c05a	0.11413641
101	0x3e21a353	0.1578496
102	0x3ee1337a	0.43984586
103	0xbc43f1af	-0.011959477
104	0xbf0d9c80	-0.55316925
105	0x3f8224b8	1.0167456
106	0x3e20dadc	0.15708488
107	0xbe7e3c4e	-0.24827692
108	0x3e31e744	0.17373377
109	0xbd1966d1	-0.03745157
110	0xbf705ab0	-0.9388838
111	0xbd353ada	-0.04424558
112	0xbf5ba546	-0.8579906
113	0x3e54586c	0.20736855
114	0xbe9a6b63	-0.30160055
115	0xbf11c1b7	-0.5693621
116	0x3d64313d	0.05571102
117	0x3edcddcf	0.43137977
118	0x3e3de705	0.18545158
119	0x3f3a34fb	0.7273709
120	0xbe704ffb	-0.2346801
121	0x3e06695f	0.13126133
122	0x3d2a0c7e	0.04151582
123	0x3f38ca83	0.7218401
124	0xbeb51916	-0.35370702
125	0xbf0f9c4d	-0.5609787
126	0x3f45386e	0.7703923
127	0x3d3582b9	0.04431412
128	0xbeccb950	-0.39985132
129	0x3e91fee8	0.2851479
130	0x3e5a83d0	0.21339345
131	0xbea00fd7	-0.31262085
132	0xbf2d5a1d	-0.67715627
133	0xbf7a4797	-0.9776549
134	0x3e891abf	0.26778218
135	0x3e785afd	0.2425346
136	0xbf4dff4f	-0.80467695
137	0xbe8f006a	-0.27930003
138	0x3eb5e9a1	0.35529807
139	0xbd9ec207	-0.077518515
140	0xbf826835	-1.0188051
141	0x3a6f8be2	0.00091379706
142	0x3d9c235f	0.07623934
143	0xbf015f11	-0.50535685
144	0xbf401f99	-0.75048214
145	0x3f23bb9b	0.6395814
146	0xbdcc7940	-0.09984064

gru_dp_bw.bias_ih_l0 f4 [21]
0	0x3ead8a98	0.338948
1	0x3e8fa332	0.28054196
2	0x3f1e16ac	0.61753345
3	0x3e2166b5	0.15761836
4	0x3ea4dc19	0.3219917
5	0x3ee7c618	0.4526832
6	0x3e1ae291	0.1512549
7	0x3f0c867a	0.54892695
8	0x3f4eb5ba	0.8074604
9	0x3e9659d7	0.29365417
10	0x3f6a0709	0.91416985
11	0x3f0f1e37	0.5590548
12	0x3e19e71e	0.1502957
13	0x3f09ea41	0.5387307
14	0x3e010cc1	0.12602521
15	0xbe916556	-0.28397626
16	0x3e3d2185	0.18469818
17	0x3de1b51e	0.110208735
18	0xbdda4e8d	-0.106595136
19	0x3e06036f	0.13087247
20	0x3ee0b38a	0.43886977

gru_dp_bw.bias_hh_l0 f4 [21]
0	0x3c4a7f69	0.0123594785
1	0x3f5e4bfa	0.8683468
2	0x3ec55fe3	0.38549718
3	0x3e867947	0.26264402
4	0xbd931a13	-0.07182708
5	0x3d2ae96c	0.041726515
6	0x3e64b29c	0.22333759
7	0x3f4ea140	0.807148
8	0x3f2549c4	0.6456568
9	0x3f0d9bce	0.55315864
10	0x3f659099	0.89673764
11	0x3f5dda9e	0.8666171
12	0x3ea8afd2	0.3294664
13	0x3f154a7a	0.5831677
14	0x3eeb3760	0.45940685
15	0xbed5f5e2	-0.41789156
16	0x3d20cd0e	0.039258055
17	0xbdf3484a	-0.118790224
18	0xbe0f1bfb	-0.13975517
19	0x3da8d6d8	0.08244103
20	0xbeaee15b	-0.34156308

gru_cp_bw.weight_ih_l0 f4 [18, 6]
0	0x3ee94b20	0.45565128
1	0xbd74c728	-0.059760243
2	0xbf3745b7	-0.7159075
3	0xbf073718	-0.5281844
4	0x3e285439	0.16438378
5	0x3f555301	0.8332978
6	0x3d733211	0.05937392
7	0x3e97bb86	0.29635257
8	0x3e027266	0.12738952
9	0xbc9d9608	-0.01923658
10	0xbc991a68	-0.01868935
11	0x3edfd5d4	0.43717825
12	0xbdcf04da	-0.10108347
13	0xbf080fd5	-0.5314916
14	0x3e964002	0.2934571
15	0x3d7f14c3	0.06227566
16	0x3dea4335	0.114386
17	0xbf1165fb	-0.56796235
18	0xbe5a4172	-0.21314028
19	0x3e7494f9	0.23884954
20	0xbdb897c4	-0.09013322
21	0x3e8827d3	0.26592883
22	0x3d8e3a73	0.06944742
23	0x3e38e92d	0.180577
24	0x3e640979	0.22269239
25	0xbf27d15b	-0.65553826
26	0x3efdadf9	0.49546793
27	0xbedfd79d	-0.43719187
28	0xbea546b3	-0.32280502
29	0xbed62fac	-0.41833246
30	0xbe0037a7	-0.1252123
31	0xbe0877d2	-0.13326958
32	0x3dd336ba	0.10313173
33	0x3d771557	0.060323086
34	0xbe84eafc	-0.2596053
35	0xbe9d7a79	-0.30757502
36	0xbf0bc27d	-0.5459364
37	0x3e2d4f47	0.16924773
38	0x3d409937	0.047021117
39	0xbea290ba	-0.31751043
40	0xbe592ed0	-0.21209264
41	0x3d9a0387	0.07520204
42	0xbe815c72	-0.25265843
43	0xbe11384d	-0.14181633
44	0x3dcdae99	0.100430675
45	0x3d927fb7	0.07153266
46	0x3cbddeba	0.023177493
47	0x3bc1ed5f	0.0059181894
48	0xbd54325a	-0.05180583
49	0xbdc105e1	-0.094249494
50	0x3e6a6380	0.22889519
51	0x3ea57bba	0.32320958
52	0xbe6bfb24	-0.23045021
53	0xbe4aedbd	-0.19817252
54	0x3e53e7bd	0.2069387
55	0xbf0317b2	-0.5120803
56	0x3bcc93a5	0.0062431865
57	0x3e403a4b	0.18772237
58	0x3ef68932	0.48151547
59	0x3baf8ee0	0.005357608
60	0xbe90676b	-0.28203902
61	0x3df51df3	0.11968603
62	0x3e9f6659	0.31132773
63	0x3db54dcc	0.08852729
64	0x3f3e22f6	0.74272096
65	0x3da18178	0.07886022
66	0xbe01bb4b	-0.12669103
67	0x3de76854	0.11299196
68	0x3dfe3a4f	0.12413465
69	0xbd2db112	-0.042405196
70	0x3f0ebe70	0.55759335
71	0x3e86d87a	0.26337034
72	0xbec1c088	-0.37842202
73	0x3e7196d8	0.23592699
74	0xbee2f81f	-0.44329926
75	0xbe626c0a	-0.22111526
76	0xbe936880	-0.28790665
77	0x3e5be78c	0.21475047
78	0x3e25f372	0.16206148
79	0xbbc48f39	-0.005998519
80	0x3d66275d	0.056189884
81	0xbd36b1d7	-0.044603195
82	0xbce60919	-0.02808051
83	0x3d72bd21	0.0592624
84	0xbd4a3c09	-0.04937366
85	0x3d3679fc	0.044549927
86	0x3e064b4d	0.13114662
87	0xbe40a20f	-0.1881182
88	0x3e8defa7	0.27721903
89	0xbc32a018	-0.010902427
90	0xbe568971	-0.20950867
91	0xbe5fa30e	-0.21839544
92	0xbd115d54	-0.035489395
93	0x3e2634ec	0.16231126
94	0x3df1941f	0.1179583
95	0xbe6c684b	-0.2308666
96	0xbe16add0	-0.14714742
97	0x3eed117d	0.46302405
98	0xbdb66af0	-0.089071155
99	0xbd54c69a	-0.051947214
100	0xbd49ce56	-0.049269043
101	0x3eaaf10f	0.33387038
102	0xbe7d658f	-0.24745773
103	0xbd0c284e	-0.034218125
104	0xbdb4353a	-0.08799215
105	0x3e010092	0.12597874
106	0x396a1a65	0.00022325812
107	0x3ddbf051	0.10739196

gru_cp_bw.weight_hh_l0 f4 [18, 6]
0	0x3eb23552	0.34806305
1	0x3f959e65	1.1688963
2	0x3ef09188	0.46986032
3	0xbe26ac2b	-0.16276614
4	0xbebd4588	-0.3696711
5	0xbe3910b8	-0.18072784
6	0x3e22bc78	0.15892208
7	0x3f4b9ac7	0.79533046
8	0x3ed41203	0.41419992
9	0xbee1001f	-0.43945405
10	0xbea7d73d	-0.327814
11	0xbed65d83	-0.4186822
12	0xbf71a2fb	-0.94389313
13	0x3d9db364	0.07700232
14	0x3d9f09f5	0.07765571
15	0xbd848e7e	-0.06472491
16	0xbe19b632	-0.15010908
17	0xbef1bd96	-0.47214955
18	0xbef194b7	-0.47183773
19	0x3f66c956	0.90150964
20	0x3f2d5c0f	0.67718595
21	0xbea99c02	-0.33126837
22	0x3dfa86f9	0.12232775
23	0xbf228eea	-0.6349932
24	0xbe5d401d	-0.21606489
25	0x3f320876	0.6954416
26	0x3e790868	0.24319613
27	0x3f009919	0.5023361
28	0xbdc9bac2	-0.09850074
29	0xbec6cdd8	-0.3882892
30	0x3e27d39e	0.1638932
31	0x3f23d8ed	0.6400288
32	0x3e6ffcc6	0.23436269
33	0xbe518982	-0.20462611
34	0xbea830e6	-0.32849807
35	0x3dff8df3	0.124782465
36	0xbefbca10	-0.491776
37	0xbd88fc9c	-0.066888064
38	0x3e0931de	0.13397929
39	0x3e810c54	0.25204718
40	0xbf167ed8	-0.587873
41	0x3d68ae1c	0.05680667
42	0xbee7532d	-0.45180646
43	0x3e84392f	0.25824878
44	0x3e3ed95a	0.186376
45	0x3d0e51dd	0.03474604
46	0xbddfe5d6	-0.109325096
47	0xbd6b3fd0	-0.057433903
48	0x3e583c1d	0.21116681
49	0xbf3184e3	-0.69343394
50	0x3e85ceb7	0.26134273
51	0x3e912333	0.28347167
52	0xbd9fcbd8	-0.07802552
53	0x3f4bc1c2	0.79592526
54	0x3ea1718d	0.31531945
55	0x3e85a7fa	0.26104718
56	0xbe94bf88	-0.29052377
57	0x3f1f27f2	0.62170327
58	0xbd3fb009	-0.04679874
59	0x3d6c4df4	0.05769153
60	0xbf2117c2	-0.62926877
61	0xbf17a923	-0.5924246
62	0x3d6c179a	0.057639696
63	0x3e32be7e	0.1745548
64	0xbe6cd6e4	-0.2312885
65	0x3eb85160	0.35999584
66	0x3ed3a33f	0.41335484
67	0xbe96537f	-0.29360577
68	0xbed5892e	-0.41706222
69	0x3f0748b4	0.5284531
70	0x3ea8fbf5	0.33004728
71	0x3eff9dd5	0.49925104
72	0x3f42b656	0.7605947
73	0x3debe186	0.115176246
74	0xbf03b76d	-0.5145176
75	0xbe8b3898	-0.27191615
76	0x3ee3521c	0.44398582
77	0x3e3c7920	0.1840558
78	0xbf40214c	-0.75050807
79	0x3e52318e	0.20526716
80	0x3f2c5d8f	0.6733026
81	0x3ddf50f9	0.10904116
82	0xbec37366	-0.3817398
83	0xbdbddfff	-0.092712395
84	0xbf1d8276	-0.6152719
85	0x3f4efc79	0.8085399
86	0x3efe2682	0.49638754
87	0x3dc51790	0.09623635
88	0xbf457c64	-0.7714293
89	0xbec6c8df	-0.38825127
90	0x3f56e960	0.8394985
91	0xbf1a0415	-0.6016248
92	0xbf69f5a5	-0.9139045
93	0xbd66a4a9	-0.056309376
94	0x3e1ded8b	0.15422647
95	0x3eb758bb	0.35809883
96	0x3f1fad99	0.62374264
97	0xbd8d3560	-0.06894946
98	0xbe5209f9	-0.20511617
99	0x3e1d2e56	0.15349707
100	0x3f3f5b6c	0.74748874
101	0x3e8550f9	0.2603834
102	0x3e8dda5b	0.27705655
103	0xbe124af2	-0.14286402
104	0xbf32ddc7	-0.69869655
105	0x3e10dcaa	0.14146677
106	0x3ed785fb	0.42094406
107	0x3f1ac349	0.6045423

gru_cp_bw.bias_ih_l0 f4 [18]
0	0x3f025a3c	0.50918937
1	0x3e7b000b	0.24511735
2	0xbb977801	-0.00462246
3	0x3f5bd94f	0.8587846
4	0x3d54a529	0.05191532
5	0x3ce2a1bc	0.027665012
6	0x3dd84cad	0.105615
7	0x3c570319	0.013123297
8	0x3f49b52a	0.7879206
9	0x3e45ed86	0.19328889
10	0x3e0c6461	0.13710167
11	0x3f375ab3	0.7162277
12	0x3e4d69ba	0.20059863
13	0x3d38ca03	0.04511453
14	0xbdf19c9e	-0.117974505
15	0x3e756982	0.2396603
16	0xbd07a84d	-0.03311949
17	0xbe459d17	-0.19298206

gru_cp_bw.bias_hh_l0 f4 [18]
0	0x3e00e0bc	0.1258573
1	0x3e10685a	0.14102307
2	0xbcc581fe	-0.024109837
3	0x3e83dbab	0.2575353
4	0xbe38223c	-0.1798181
5	0xbd5cc40b	-0.0538979
6	0x3e03505f	0.12823628
7	0x3c52a597	0.0128568625
8	0x3f1de635	0.61679393
9	0x3eafd65d	0.34343234
10	0x3c78fbf6	0.015196791
11	0x3e625508	0.2210275
12	0x3c4f5f5d	0.012657014
13	0x3ca4615c	0.020065956
14	0x3e576fc5	0.2103873
15	0xbcc4dfbe	-0.02403247
16	0xbf1e5eac	-0.6186321
17	0x3eaa0fe4	0.3321525

fc_dp.weight f4 [1, 14]
0	0xbb041b68	-0.0020157937
1	0xbaacf0d4	-0.0013194331
2	0x3bbaf614	0.0057056043
3	0xbc59418d	-0.013260257
4	0xbb2d0a91	-0.0026404003
5	0x3c57b29a	0.0131651405
6	0xb96d5ed2	-0.00022637405
7	0xbeab3f50	-0.3344674
8	0xbecd12dd	-0.40053454
9	0x3f120e12	0.5705272
10	0xbeb5d433	-0.35513458
11	0xbeb11efd	-0.34593955
12	0x3ede038b	0.43362078
13	0x3ec135d2	0.37736374

fc_cp.weight f4 [1, 12]
0	0x3e20aea2	0.15691617
1	0x3e15e380	0.14637566
2	0x3e075e57	0.13219582
3	0x3e2b6e06	0.1674119
4	0xbe117732	-0.14205626
5	0x3e82bd19	0.25534895
6	0x3e089383	0.13337521
7	0xbeadc387	-0.33938238
8	0xbe8d1d25	-0.27561298
9	0x3e4a3b97	0.19749294
10	0x3e3e268e	0.18569395
11	0x3ea71cdd	0.32639208

fc_all.weight f4 [1, 25]
0	0x3bafc260	0.0053637475
1	0x3cb673c3	0.022271996
2	0x3dc463db	0.095893584
3	0x3ab0904d	0.0013470739
4	0x3c4a6bf5	0.0123548405
5	0xbe0112e5	-0.12604864
6	0xbcaf6314	-0.021409549
7	0x3eb50bb5	0.35360494
8	0xbdc84f08	-0.09780699
9	0x3d8be330	0.06830442
10	0x3e6f6292	0.23377445
11	0xbe368053	-0.1782239
12	0xbc95af6b	-0.018272122
13	0xbde71d4b	-0.11284884
14	0xbf0e229d	-0.55521566
15	0xbdd48d51	-0.103785165
16	0x3c213209	0.0098385895
17	0x3c3b2942	0.011423411
18	0xbcf8a504	-0.030352123
19	0x3d404003	0.046936046
20	0xbd2bcabd	-0.041941393
21	0xbdd1bd9d	-0.10241244
22	0xbd95a855	-0.073074974
23	0x3e992724	0.29912674
24	0xbe304ae8	-0.17216074
