trained_models/birnn_time_decay_attention/final_model.pt (torch_old, 62481 bytes, 31 tensors)

embed_dp.weight f4 [1292, 7]
0	0x00000000	0.0
1	0x00000000	0.0
2	0x00000000	0.0
3	0x00000000	0.0
4	0x00000000	0.0
5	0x00000000	0.0
6	0x00000000	0.0
7	0x3f6ec60b	0.9327094
8	0xbe93796e	-0.2880358
9	0x3e63fc07	0.2226411
10	0x3fd300ac	1.648458
11	0xbf26ca7f	-0.65152735
12	0x3fbb3eff	1.46286
13	0x3f74409d	0.9541109
14	0xbf094094	-0.53614163
15	0xbe71bc9f	-0.2360711
16	0xbf2d43c2	-0.67681515
17	0xc013445e	-2.3010478
18	0xbebf8bfd	-0.3741149
19	0xbf3f1b7d	-0.7465132
20	0xbf8d8d16	-1.1058681
21	0xbedc864b	-0.43071207
22	0xbf380da6	-0.71895826
23	0x3f045805	0.5169681
24	0xbf8fe1a0	-1.124073
25	0xbeefaffc	-0.46813953
26	0xbef9752b	-0.48722205
27	0xc0396491	-2.896763
28	0xbe64e60f	-0.22353385
29	0xbf90a26d	-1.1299568
30	0xbf5f9517	-0.8733687
31	0xbd2ab2f5	-0.041674573
32	0x3e028d22	0.1274915
33	0x3f45401d	0.77050954
34	0x3e343404	0.17597967
35	0xbf94ded5	-1.1630503
36	0xbf4cc39e	-0.7998599
37	0x3ed17faf	0.40917727
38	0x3db64bfc	0.089012116
39	0xbe8e7e8e	-0.2783093
40	0x3caad230	0.020852178
41	0x3ff1bb17	1.888522
42	0x3e2c5f8e	0.16833326
43	0xbf7ae4ac	-0.98005176
44	0x3ead66e7	0.3386757
45	0x3f0eae17	0.5573439
46	0xbbe58904	-0.007004859
47	0x3f346ab8	0.7047534
48	0x3ed101b3	0.4082161
49	0xbfdc6de3	-1.7221035
50	0xbf84ce12	-1.0375388
51	0x3f02bcbf	0.51069254
52	0xbff10a1d	-1.8831211
53	0xbf72d684	-0.94858575
54	0xc042c7f9	-3.0434554
55	0xc032213a	-2.783278
56	0x3f89def8	1.077117
57	0x3f924faa	1.1430562
58	0xbf894446	-1.072396
59	0x3f26b787	0.6512379
60	0x3e0cd46d	0.13752909
61	0xbf060894	-0.5235684
62	0x3cd41664	0.025889583
63	0xbe9ce3cb	-0.30642542
64	0xbfa57bcb	-1.2928404
65	0xbee41732	-0.44548947
66	0xbffc5f77	-1.9716634
67	0xbfcac6d8	-1.5841932
68	0xbf41649d	-0.7554415
69	0xbfeff7c8	-1.8747492
70	0x3ccebe8f	0.02523735
71	0xbd2f60bf	-0.042816874
72	0x3eac5420	0.33657932
73	0x3e8d70ac	0.27625024
74	0x3d1b1952	0.037865944
75	0xbe105273	-0.14093952
76	0xbf1a3276	-0.6023325
77	0x3d842292	0.06451906
78	0x3e547d94	0.20751029
79	0xbf86a03f	-1.0517653
80	0x3ee5bf98	0.44872737
81	0xbd464a31	-0.0484106
82	0xc012622f	-2.2872427
83	0xbf130889	-0.574349
84	0x3e0fdf5f	0.14050053
85	0xbdaf00e8	-0.08545095
86	0xbe537260	-0.206491
87	0xbeabf1cc	-0.33582914
88	0xbf87db28	-1.0613756
89	0x3f24e8a6	0.64417493
90	0xbecd877c	-0.4014243
91	0x3fb724bc	1.4308085
92	0xbfec00f6	-1.8437793
93	0x3fa8a860	1.3176384
94	0x3e1b5427	0.1516882
95	0x3e86f1a3	0.2635623
96	0xbb0ebd33	-0.0021780252
97	0xbe56134e	-0.20905802
98	0xbf05dcaa	-0.5228983
99	0x3f788f12	0.9709331
100	0x3ed94e02	0.42442328
101	0x3f60e2d1	0.87846094
102	0x3f651226	0.8948082
103	0x3f57dc9e	0.8432101
104	0x3f1fe38f	0.624566
105	0xbf7d4f40	-0.9894905
106	0xbe8d4748	-0.27593446
107	0x3f6ca674	0.9244149
108	0xbf15aa5c	-0.5846307
109	0xbf122314	-0.57084775
110	0xbe48fa3f	-0.19626711
111	0x3dca4f3c	0.09878394
112	0x3dde6829	0.10859711
113	0x3f804986	1.0022438
114	0xbfd3c67a	-1.6544945
115	0xbe958dda	-0.29209787
116	0x3f83777a	1.0270836
117	0xbe96c990	-0.29450655
118	0xbeaf1385	-0.3419458
119	0xbf557ab0	-0.8339033
120	0xbfae4187	-1.3613747
121	0x3f75d6b7	0.96030754
122	0xbeb2e3e3	-0.3493949
123	0xbed82673	-0.42216834
124	0xbfd3b7a9	-1.6540424
125	0xbf1864df	-0.5952892
126	0xbef9a281	-0.48756793
127	0xbf8b4f57	-1.0883588
128	0xbf72d682	-0.9485856
129	0xbc7e4989	-0.015520462
130	0x402c6ca3	2.6941307
131	0xbf1da91a	-0.61586154
132	0x3e5fdd22	0.21861699
133	0xbf929223	-1.1450847
134	0x3e9f4df3	0.31114158
135	0xbf573a1c	-0.8407304
136	0xbde8678a	-0.113478735
137	0x3e03b347	0.12861358
138	0x3fc44733	1.5334228
139	0x3fcd7a7d	1.6053005
140	0xbf187191	-0.5954829
141	0xbf5ac1df	-0.85452074
142	0x3fe066c0	1.7531357
143	0x3f6641e2	0.8994428
144	0xbf5f550c	-0.87239146
145	0xbeb76b59	-0.35824087
146	0xbfe04217	-1.7520169
147	0xbdc8b8d1	-0.09800876
148	0xbf4a36b3	-0.78989714
149	0xbfa068c0	-1.2531967
150	0x3ecc01f0	0.39845228
151	0x3f8387fc	1.0275874
152	0xbf6e4d66	-0.9308685
153	0x3f27aef8	0.65501356
154	0x3e1dfb8a	0.15427986
155	0x3f6af661	0.91782194
156	0xbe8a8e74	-0.27061808
157	0xbf927556	-1.1442058
158	0xbdf75fa2	-0.120787874
159	0x3f155c1a	0.5834366
160	0xbfa03885	-1.2517248
161	0xbfa5446c	-1.2911506
162	0x3f4c055d	0.79695684
163	0xbf020e65	-0.50803214
164	0x3ef8b4ad	0.48575345
165	0x4033d262	2.8097157
166	0x3f0cbbe4	0.549742
167	0x3e7eb707	0.24874507
168	0x3cc8a248	0.024491444
169	0x3f0d0f1e	0.5510119
170	0xbf918601	-1.136902
171	0x3f8f13d6	1.1177928
172	0xbfeb00e9	-1.8359653
173	0xbd78eeee	-0.060774736
174	0x3f71451a	0.94246066
175	0x3f3185fb	0.6934506
176	0x3fd8e28c	1.6944137
177	0x3f8bb0bb	1.0913309
178	0xbf81bfb7	-1.0136632
179	0xbd3391a4	-0.043840066
180	0xbec552e5	-0.38539806
181	0x3f1a7da2	0.6034795
182	0x3f409b4d	0.7523697
183	0x3e9216f4	0.28533137
184	0xbfa01cd6	-1.25088
185	0x3f4af6cf	0.7928285
186	0xbec4bf21	-0.3842707
187	0x3fa248a0	1.2678413
188	0x3e286630	0.16445231
189	0xbe8192be	-0.25307268
190	0xbfd27fcc	-1.644525
191	0x3f864d67	1.0492371
192	0xbfbce149	-1.4756252
193	0xbe8772f2	-0.26454884
194	0x3db6700e	0.089080915
195	0x3e9f8f6d	0.31164113
196	0x3f0a4571	0.5401221
197	0x3ede9490	0.4347272
198	0xbce93c87	-0.028471244
199	0xbfe4813f	-1.7851943
200	0xbcedfbf8	-0.029050812
201	0xbf995cd9	-1.198146
202	0xbf355fac	-0.7084911
203	0x3e4ff33b	0.20307629
204	0x3d02b908	0.03191474
205	0x3d8bae64	0.06820372
206	0x3e7620e4	0.24035984
207	0xc01d0aff	-2.4537961
208	0xbe030bcf	-0.12797473
209	0x3de1df0d	0.11028872
210	0x3f644d90	0.8918085
211	0x3ff6813a	1.9258187
212	0xbfd945fd	-1.6974484
213	0x3f8486d4	1.0353646
214	0xbf61218c	-0.87941813
215	0x3f11b7b3	0.5692093
216	0x3e35ed90	0.17766404
217	0xbfceb689	-1.6149455
218	0xbf2503bd	-0.6445883
219	0xbdec09b6	-0.1152529
220	0x3f935bfc	1.1512446
221	0x3f1219d6	0.5707067
222	0xbfb62a40	-1.4231644
223	0x3f00a80d	0.50256425
224	0x3f902d1e	1.1263769
225	0xbfd21036	-1.6411197
226	0xbf410e19	-0.75412136
227	0xbf11e9b4	-0.5699723
228	0xbf2acda6	-0.66720045
229	0x3f7ccd87	0.9875111
230	0x3e4b0612	0.19826534
231	0x3efc75db	0.49308667
232	0x3f5b427d	0.8564833
233	0x3e78022f	0.24219583
234	0x3fcd2206	1.6026008
235	0x3e80a019	0.25122145
236	0xbdeb22f2	-0.11481275
237	0xc01e7256	-2.4757285
238	0xbf84898b	-1.0354475
239	0x3f86fc64	1.0545774
240	0xbf6b9b5f	-0.9203395
241	0x3dede353	0.11615624
242	0xbf0b02a7	-0.5430092
243	0x3ceb429b	0.028718283
244	0x3f6bdd23	0.921343
245	0xbf81eea3	-1.0150951
246	0x3e1024ab	0.14076488
247	0x3f71495b	0.94252557
248	0x3fa2807e	1.2695463
249	0x3f294b53	0.6613056
250	0x3e75c052	0.23999146
251	0xbf6e94a2	-0.93195546
252	0x3f95b6fe	1.169647
253	0xbee521d8	-0.44752383
254	0xbf406ff0	-0.75170803
255	0xc051a777	-3.2758462

embed_cp.weight f4 [620, 6]
0	0x00000000	0.0
1	0x00000000	0.0
2	0x00000000	0.0
3	0x00000000	0.0
4	0x00000000	0.0
5	0x00000000	0.0
6	0xbfbb6a69	-1.4641849
7	0xbf7f08ae	-0.9962262
8	0xbf1340d6	-0.57520807
9	0xbee90669	-0.45512703
10	0x3f01a50d	0.5064247
11	0xbd7ab6f2	-0.061209626
12	0xbe051897	-0.12997662
13	0xbfd53221	-1.6655923
14	0xbf59ea90	-0.8512354
15	0x400b7504	2.179017
16	0x3e7794f9	0.24177922
17	0xbd9206fb	-0.07130238
18	0xbecc1cd2	-0.39865738
19	0x3c595aeb	0.013266305
20	0x3ec041b9	0.37550142
21	0x3f92b65b	1.14619
22	0xbf3002f7	-0.68754524
23	0x3f9e62cd	1.2373902
24	0xbeb230fe	-0.34803003
25	0x3f1bae14	0.608125
26	0x3eb06bc0	0.34457207
27	0x3f9072f3	1.128508
28	0x3efa2561	0.48856643
29	0x400d541f	2.2082593
30	0xbf8c4ae4	-1.0960355
31	0xbe98be29	-0.2983258
32	0xbf7ea217	-0.9946608
33	0xbd4b6eb2	-0.049666114
34	0x3f231e1f	0.63717836
35	0x3f2e1db8	0.680141
36	0xbfab9cd1	-1.3407232
37	0x3d924499	0.0714199
38	0x3f49d5a7	0.7884163
39	0x3c90f5f9	0.017695414
40	0x3e4a25fb	0.19741051
41	0x3ec45625	0.38346973
42	0x400b6a86	2.1783767
43	0xbf90c4a7	-1.1310014
44	0x3ddb7553	0.10715737
45	0xbc1d15e9	-0.009587743
46	0x3f9390c3	1.1528553
47	0xbf400659	-0.75009686
48	0x3d529859	0.05141482
49	0x3fd2aff4	1.6459947
50	0xbedafccb	-0.4277099
51	0x3f46d066	0.7766174
52	0x3faa0f75	1.3285967
53	0x3e8ea186	0.27857608
54	0xbf82379f	-1.0173224
55	0xbe7b406e	-0.24536297
56	0x3e29cfb6	0.16583142
57	0x3f3ef813	0.7459728
58	0x3e2487ad	0.16067381
59	0x3f9c9151	1.2231847
60	0xbf3e992a	-0.7445246
61	0x3de15a05	0.11003498
62	0xbfa960dc	-1.3232684
63	0x3ff0869b	1.8791078
64	0xbed20f87	-0.4102747
65	0xbe90990e	-0.2824177
66	0x3fb0e793	1.3820671
67	0x3fa97464	1.3238645
68	0xbfd2cbdf	-1.6468467
69	0x3f92c50c	1.1466384
70	0xbdf53302	-0.119726196
71	0x3e2c8838	0.16848838
72	0x3f2d55f8	0.677093
73	0x3e89755b	0.26847348
74	0xbf4ead42	-0.8073312
75	0xbeea65b9	-0.45780733
76	0xbe54e4ab	-0.20790355
77	0xbffe5376	-1.986922
78	0xbf71290d	-0.94203264
79	0xbf2739e3	-0.65322703
80	0xbe8f917b	-0.2804068
81	0x3fdea9bf	1.7395552
82	0x3e90e19e	0.28297132
83	0xbf81c115	-1.0137049
84	0xbd59356d	-0.053029466
85	0x3fe6ecea	1.804105
86	0xbff4de99	-1.9130431
87	0x3f3987db	0.72472924
88	0xc02405ff	-2.562866
89	0x3f03535e	0.51299083
90	0x4001ca82	2.027985
91	0x3f81e8a8	1.0149126
92	0x3dc6ae34	0.09701195
93	0x3f4910b6	0.78541124
94	0xbeba510e	-0.36389965
95	0x3eb2cbea	0.349212
96	0x3ff96d16	1.9486415
97	0x3f868a27	1.0510911
98	0xc007a6ff	-2.1195676
99	0x3f84d9d3	1.0378975
100	0xbfb4dfc0	-1.4130783
101	0x3fc446a2	1.5334055
102	0xbf3b7e25	-0.73239356
103	0x3f382156	0.71925867
104	0xbf913ca6	-1.1346633
105	0x3f0c5ef6	0.548324
106	0xbf13f75b	-0.5779931
107	0x3faa2134	1.3291383
108	0x3dac7b80	0.08421993
109	0x3f384a4b	0.7198836
110	0xbf37bedb	-0.717756
111	0xbed6de41	-0.4196644
112	0x3f89da39	1.0769721
113	0xbfa2c854	-1.2717385
114	0xbe5c4b87	-0.21513186
115	0x3da75a9a	0.08171578
116	0xc00507e7	-2.0786073
117	0x3f7b72f7	0.982223
118	0x3f188979	0.59584767
119	0xbf5358e9	-0.8255754
120	0x3f059ea0	0.5219517
121	0x3f7f5bf7	0.997497
122	0xbef9fddd	-0.48826495
123	0xbe53599c	-0.20639652
124	0x3f427648	0.7596173
125	0xc065ec66	-3.5925536
126	0xbf018ecb	-0.5060851
127	0x3d885bd1	0.066581376
128	0xbe2bff5a	-0.16796628
129	0x3edcc533	0.431192
130	0xbf6ab4c3	-0.9168207
131	0xbf376d0c	-0.7165077
132	0x3fe1b62b	1.7633718
133	0x3f254b48	0.64567995
134	0x4003a560	2.0569687
135	0xbfb66c73	-1.4251846
136	0xbfd2816f	-1.644575
137	0xbdaf898b	-0.08571156
138	0xbed48eee	-0.41515297
139	0x3d7b767a	0.061392285
140	0xbf7c2dea	-0.9850756
141	0x3ebb85be	0.36625475
142	0x3e26c989	0.16287817
143	0x3cfdd692	0.030986104
144	0x3f1cad58	0.61202
145	0xba936f16	-0.0011248316
146	0xbf2b5f2b	-0.6694209
147	0x3f81be59	1.0136214
148	0x4007c4ce	2.121387
149	0xbf59405f	-0.8486385
150	0xbfb27428	-1.3941698
151	0xbe353365	-0.17695387
152	0x3f9a65a2	1.2062266
153	0x3f03c040	0.51465225
154	0x3fb56c28	1.4173632
155	0xbfce82d4	-1.6133676
156	0x3f266a83	0.65006274
157	0x3fa24675	1.2677752
158	0xbfd78cbb	-1.6839823
159	0x3fec5621	1.8463784
160	0x3f3dae73	0.74094313
161	0xbe6ed542	-0.23323539
162	0xbe84083f	-0.2578754
163	0x3ec07f7d	0.37597266
164	0xbe27dbe8	-0.16392481
165	0x3f67a537	0.9048647
166	0xbf34e05d	-0.7065485
167	0xbd243554	-0.04008992
168	0x3f8e120d	1.1099259
169	0x3ee4c21f	0.44679353
170	0x3f07103e	0.5275916
171	0xbf2f5f54	-0.68504834
172	0x3f8b5e72	1.0888197
173	0xbfef7be6	-1.8709686
174	0xbf2f57ff	-0.68493646
175	0xc0310c26	-2.7663665
176	0x3ef4c1fc	0.47804248
177	0xbf7e323a	-0.9929539
178	0xbf3bdfa1	-0.73388106
179	0xbec6d84b	-0.38836893
180	0x3f9f853b	1.2462534
181	0x3fd330ee	1.6499307
182	0xbf38f0fb	-0.72242707
183	0x3f9d99f9	1.2312614
184	0xbf8be7fa	-1.0930169
185	0x3f0d6948	0.5523877
186	0xbe174eae	-0.14776108
187	0x3fe9cdf6	1.8265979
188	0xbfa5f5e4	-1.2965665
189	0x3ff1b567	1.8883485
190	0xbfc2b6d7	-1.5212048
191	0xbeca8bf0	-0.3955989
192	0xbeb54198	-0.35401607
193	0x3f2351be	0.63796604
194	0x3f34bb16	0.7059797
195	0xbe3c52bc	-0.18390936
196	0xc03b9132	-2.930737
197	0xbfb7b639	-1.4352485
198	0xbf14b80e	-0.58093345
199	0x3f21b72f	0.6317014
200	0x3e49c70b	0.19704835
201	0x3f1a2ea3	0.6022741
202	0x3f72626d	0.94681436
203	0xbf0523df	-0.5200786
204	0xbfc7e891	-1.5617849
205	0x3eb882b9	0.36037233
206	0xbf8c35bf	-1.0953902
207	0xbeca7de8	-0.39549184
208	0x403d67e6	2.9594665
209	0xbfde7c1e	-1.7381628
210	0x3ed5aaeb	0.41731963
211	0x3e1996d5	0.14998944
212	0x3f8dcaac	1.1077476
213	0xbf01b6db	-0.5066964
214	0x3eaa3e72	0.33250767
215	0xbf2aa05d	-0.66650945
216	0xbfbf18ee	-1.4929483
217	0xbf150088	-0.58203936
218	0xc04f7b5d	-3.2419045
219	0x3e47dcbc	0.19517797
220	0xbeb50178	-0.35352683
221	0x3e410bee	0.18852207
222	0xbf8c0fc3	-1.094231
223	0x3ede0f82	0.43371207
224	0x3eab912c	0.33509195
225	0x3f6919ab	0.9105479
226	0xbe4ed9b8	-0.2020024
227	0x3fb6a397	1.4268674
228	0xbfe5c621	-1.7951089
229	0xbe3cb1d8	-0.18427217
230	0x3f1c8517	0.6114058
231	0x3f0e32c2	0.555462
232	0x3fbc862d	1.4728447
233	0xbfd18996	-1.6370113
234	0x3e898438	0.26858687
235	0xbdad619c	-0.08465883
236	0x3f31a0a9	0.6938577
237	0xbfa071d6	-1.253474
238	0x3f9ca8da	1.223903
239	0xbf2ffaa8	-0.68741846
240	0x3e9e542c	0.30923593
241	0x3ef55379	0.47915247
242	0xbe5bd77e	-0.21468922
243	0x3fa0b590	1.2555408
244	0xbf378773	-0.71691054
245	0x3f9580e3	1.1679958
246	0xc05c212c	-3.4395247
247	0xbcdf929f	-0.027291594
248	0x3f9732c9	1.1812373
249	0xbf305e9a	-0.6889435
250	0xbe484613	-0.19557981
251	0xbeaade37	-0.3337266
252	0x3db14e2e	0.0865749
253	0xbf85e18c	-1.0459456
254	0x402fbab5	2.7457707
255	0xbf2f1ed4	-0.68406415

gru_dp_fw.decays f4 [7]
0	0xc39e1c08	-316.219
1	0xbb07fea4	-0.0020751143
2	0xc39e1c08	-316.219
3	0xbbc2f3fc	-0.0059494954
4	0x68605020	4.2371526e+24
5	0xbb35b570	-0.0027726553
6	0xbbc2c068	-0.005943347

gru_dp_fw.gru_cell.weight_ih f4 [21, 7]
0	0xbd3a053b	-0.045415144
1	0x3ebae86e	0.36505455
2	0x3effaf07	0.49938223
3	0xbe2a1659	-0.16610087
4	0x3e89ce84	0.2691537
5	0x3e29e44a	0.16590992
6	0x3d7dd40a	0.061969794
7	0x3e7d0cd7	0.2471193
8	0x3d778b11	0.06043536
9	0xbd35f922	-0.044427045
10	0x3d838e41	0.06423617
11	0x3f165b08	0.5873265
12	0xbdb2fb17	-0.08739298
13	0xbe4562b6	-0.19275936
14	0xbc075c32	-0.008261727
15	0x3e1364e2	0.14393952
16	0x3ebeae10	0.37242174
17	0x3d4cefb3	0.050033282
18	0x3ea98ba2	0.33114344
19	0xbf06c69f	-0.5264682
20	0x3e69005d	0.22754045
21	0x3e1f949e	0.15584037
22	0xbd9cc93c	-0.0765557
23	0x3db5869c	0.08863565
24	0x3e052452	0.13002136
25	0xbe506335	-0.20350344
26	0x3df2c5ce	0.118541345
27	0xbdedf370	-0.11618698
28	0x3e40f9b8	0.1884526
29	0xbdca3d6b	-0.09874996
30	0x3df45fc5	0.11932329
31	0xbd104d97	-0.035230245
32	0xbe33aa5a	-0.17545453
33	0xbd9cd165	-0.07657126
34	0x3d318cbc	0.043347105
35	0xbdfd8fd7	-0.12380951
36	0x3e167db1	0.14696385
37	0x3e032c29	0.12809815
38	0x3e9f9c01	0.3117371
39	0x3dcdcf89	0.1004935
40	0x3e67b380	0.22627068
41	0xbf028be4	-0.50994706
42	0x3e380b7a	0.17973128
43	0x3ea077fd	0.31341544
44	0x3e87f7d6	0.2655627
45	0x3e0015df	0.12508343
46	0x3e822861	0.25421432
47	0x3eaf2d47	0.3421423
48	0x3d907b15	0.07054726
49	0x3d8fee27	0.07027846
50	0xbe7bf5f4	-0.24605542
51	0x3d4ff204	0.050767913
52	0xbda3090b	-0.07960709
53	0xbefb05f2	-0.49027973
54	0xbdba49a3	-0.09096076
55	0xbe81cf85	-0.25353637
56	0x3ea8db0a	0.32979614
57	0xbd952a23	-0.072834276
58	0x3e29d446	0.16584882
59	0xbe087f4f	-0.13329814
60	0x3d7780bb	0.0604255
61	0x3e2510ee	0.1611974
62	0x3e10fbab	0.14158504
63	0xbdb228df	-0.08699202
64	0x3eb14ee3	0.34630498
65	0xbeece2aa	-0.4626668
66	0x3d0bb558	0.03410849
67	0x3c5ee58b	0.013604532
68	0xbbbce5dd	-0.0057647065
69	0x3e02a73e	0.1275911
70	0xbddda77c	-0.10822961
71	0x3e968f2a	0.294061
72	0xbeb1d8a4	-0.34735596
73	0x3ee4ad65	0.4466354
74	0x3e46a8af	0.19400285
75	0x3dc07c38	0.09398693
76	0xbe9089b1	-0.2823005
77	0xbe068ff0	-0.13140845
78	0xbdd2c2e3	-0.10291078
79	0xbdfc40de	-0.1231706
80	0xbbfb3560	-0.007666275
81	0x3e94279f	0.28936478
82	0xbd60f7d3	-0.054923844
83	0x3ba43632	0.0050113434
84	0xbe0e752d	-0.13911887
85	0x3cab3eef	0.020904033
86	0xbebf5599	-0.37369993
87	0xbedef62b	-0.43547186
88	0x3b8c1889	0.0042753858
89	0x3c4ab460	0.012372106
90	0xbd08d1e6	-0.0334033
91	0x3d711bf2	0.05886454
92	0xbd9fb8c9	-0.07798917
93	0x3eb5d4a9	0.3551381
94	0xbe854507	-0.26029226
95	0x3d2a5803	0.04158784
96	0x3e8524b6	0.2600457
97	0x3eabaa0c	0.33528173
98	0xbe2061c3	-0.15662293
99	0xbd6f374f	-0.058402356
100	0xbe824d22	-0.25449473
101	0xbe83804b	-0.25683817
102	0x3e9c70cf	0.30554816
103	0xbdbe7014	-0.09298721
104	0xbe42d79e	-0.19027564
105	0x3d3b1e0e	0.04568296
106	0x3e143189	0.14472021
107	0x3d5b840a	0.05359272
108	0x3d67ef2b	0.056624573
109	0xbdc52e29	-0.09627945
110	0x3e24cdf3	0.16094188
111	0x3decee72	0.11568917
112	0xbbcad4a3	-0.006189899
113	0xbd6a8636	-0.0572569
114	0x3d8c3812	0.06846632
115	0xbd67f820	-0.056633115
116	0x3dbbcc89	0.09169871
117	0xbe1dd310	-0.15412545
118	0xbe27dac1	-0.16392042
119	0xbd9abe87	-0.075558715
120	0xbe51f507	-0.20503627
121	0x3da7729f	0.08176159
122	0xbd0a1615	-0.033712465
123	0xbd218d2b	-0.03944127
124	0xbda09789	-0.07841403
125	0xbd325e89	-0.043547187
126	0x3d87637a	0.066107705
127	0x3d869a9e	0.0657246
128	0x3dcb8606	0.09937672
129	0x3de49435	0.11161081
130	0xbd8990c7	-0.06717067
131	0x3dd28eb3	0.10281124
132	0x3dfd6826	0.1237338
133	0xbe0c340f	-0.13691734
134	0x3df06157	0.11737316
135	0xbe8fdd21	-0.28098395
136	0xbdd44714	-0.103651196
137	0xbe74bc74	-0.23900014
138	0xbd917033	-0.071014784
139	0xbe27a3cd	-0.16371079
140	0xbdc79851	-0.09745849
141	0x3db63bbf	0.088981144
142	0x3d15d6d3	0.036581825
143	0xbe430e78	-0.19048488
144	0x3c2ab843	0.010419908
145	0x3da1d725	0.07902364
146	0x3d03c20a	0.032167472

gru_dp_fw.gru_cell.weight_hh f4 [21, 7]
0	0x3f24c9cf	0.64370435
1	0x3e0afb27	0.1357237
2	0xbe8c5904	-0.27411664
3	0x3d978e25	0.07400159
4	0x3e315507	0.17317592
5	0xbe1d3b50	-0.15354657
6	0xbee9f435	-0.45694128
7	0xbd49173a	-0.049094416
8	0x3efea6c8	0.4973662
9	0xbe59f897	-0.21286236
10	0xbd648342	-0.05578924
11	0x3f1b8f36	0.607654
12	0xbf0c208f	-0.5473718
13	0x3e5f40f4	0.21802121
14	0xbef1c659	-0.4722164
15	0x3ec92a65	0.39290157
16	0xbf13051c	-0.5742967
17	0xbf325591	-0.69661814
18	0x3efe3171	0.49647096
19	0xbec1e5f7	-0.37870762
20	0x3ef0eb9f	0.47054765
21	0x3e9838f8	0.29730964
22	0x3f244c67	0.6417908
23	0xbe91a2c7	-0.28444502
24	0xbe897df2	-0.268539
25	0x3ee2a707	0.44268057
26	0xbed1f109	-0.41004208
27	0xbd9bf241	-0.07614566
28	0x3ef2f235	0.47450414
29	0x3f134f1a	0.57542574
30	0xbef7b7d3	-0.48382434
31	0x3e8d75ae	0.27628845
32	0x3f0d4576	0.55184114
33	0xbf3806d5	-0.71885425
34	0xbf3f7e56	-0.7480215
35	0x3e8e775e	0.27825445
36	0x3ed49f85	0.41527954
37	0xbf0047c5	-0.5010951
38	0xbf2c515e	-0.67311656
39	0x3f8c7d82	1.0975802
40	0xbea01d1a	-0.31272203
41	0x3e952f53	0.29137668
42	0x3f208b93	0.62712973
43	0xbe26d5ed	-0.16292544
44	0xbe7748cd	-0.24148865
45	0xbd04ce5e	-0.03242337
46	0xbf0ff8bc	-0.56238914
47	0x3d8ca64e	0.068676576
48	0xbeb1ff72	-0.34765202
49	0xbd9b2f82	-0.07577421
50	0xbf14087a	-0.57825434
51	0x3eb183ab	0.34670767
52	0x3f6f7557	0.9353842
53	0xbf32c34f	-0.6982927
54	0x3eabfff5	0.33593717
55	0xbe69e8ef	-0.22842763
56	0xbeb3a675	-0.35087934
57	0x3ee2e372	0.44314152
58	0xbe91270c	-0.28350103
59	0x3e34d7d6	0.1766046
60	0xbe2f7ca8	-0.17137396
61	0xbe8638f7	-0.26215336
62	0x3d8199d6	0.0632817
63	0x3ec7ad1e	0.38999265
64	0x3d0bc25e	0.03412091
65	0xbeb7948e	-0.35855526
66	0xbe14b603	-0.14522557
67	0x3e364f69	0.1780373
68	0xbef463c1	-0.47732356
69	0x3c003b5c	0.007826652
70	0xbe451ee0	-0.19250059
71	0x3e39125e	0.18073413
72	0xbe4cdfc3	-0.20007233
73	0x3e2953ec	0.1653592
74	0xbebf800c	-0.3740238
75	0xbc3ead72	-0.011638032
76	0xbe8aabcb	-0.27084193
77	0x3ebc48b0	0.36774206
78	0x3fbadd58	1.4598799
79	0xbfb57329	-1.4175769
80	0xbfce1696	-1.6100643
81	0x3e62f845	0.2216502
82	0xbf92a38c	-1.145616
83	0x3dd48bf8	0.103782594
84	0xbe7a67d1	-0.24453665
85	0xbe3f2580	-0.18666649
86	0x3dcedbb3	0.10100498
87	0xbec7c95c	-0.39020813
88	0xbd4ccab0	-0.049997985
89	0xbec4f550	-0.3846841
90	0xbe298059	-0.16552867
91	0xbf151ce5	-0.58247215
92	0x3e87b740	0.26506996
93	0x3e9db236	0.30800027
94	0x3f257a87	0.64640087
95	0xbf1b4632	-0.60653985
96	0x3e9c037d	0.3047141
97	0x3f14b903	0.58094805
98	0x3d72d129	0.059281502
99	0xbe90693e	-0.28205293
100	0x3ef3e734	0.4763733
101	0x3f85cb24	1.0452619
102	0xbf29ea05	-0.6637271
103	0x3f894362	1.0723689
104	0xbdba9531	-0.09110487
105	0xbe68f6df	-0.22750424
106	0x3f128385	0.5723193
107	0xbef27b75	-0.47359815
108	0xbea8e122	-0.32984263
109	0x3f5ca8c4	0.86195016
110	0xbf000f1f	-0.5002307
111	0xbea84743	-0.32866868
112	0x3c26c9ea	0.010179976
113	0xbf4ce157	-0.8003134
114	0x3e2015b4	0.15633279
115	0x3ddfce72	0.10928048
116	0xbf932eb7	-1.1498631
117	0x3ef0f5fd	0.47062674
118	0x3e301ef7	0.17199312
119	0xbec92072	-0.39282566
120	0xbf0d9bb8	-0.5531573
121	0x3e1a08c2	0.15042403
122	0x3f0f3dd2	0.55953705
123	0xbf842139	-1.0322639
124	0x3f20ec39	0.6286045
125	0x3eda97c1	0.42693904
126	0x3f4517e5	0.76989585
127	0x3e3e49a7	0.18582784
128	0xbef61a05	-0.48066726
129	0xbf261f83	-0.64891833
130	0x3f59da07	0.8509831
131	0xbf2f2c78	-0.6842723
132	0xbf315751	-0.6927386
133	0xbf090b8c	-0.53533244
134	0xbf1c6e64	-0.6110594
135	0x3f01752a	0.50569403
136	0x3f01410a	0.50489867
137	0xbf3b67bf	-0.7320518
138	0x3eba8569	0.3642991
139	0x3b665173	0.0035143762
140	0xbe1a9fba	-0.15099993
141	0x3f54f1a8	0.8318124
142	0xbee07faf	-0.43847415
143	0xbf55d8da	-0.83534014
144	0x3f6413a2	0.8909246
145	0xbef1ca3e	-0.4722461
146	0x3efb2616	0.49052495

gru_dp_fw.gru_cell.bias_ih f4 [21]
0	0x3e9c998f	0.30585906
1	0x3d1f66be	0.038916342
2	0x3dcecd2d	0.10097728
3	0x3e3505bc	0.17677969
4	0x3f8dfb9a	1.1092408
5	0x3e7f82cb	0.24952237
6	0x3f13c017	0.5771498
7	0x3ec1ca3e	0.3784961
8	0x3f0ba256	0.5454458
9	0x3f45e102	0.7729646
10	0xbe9ca7c9	-0.3059676
11	0x3e3c3e0d	0.18383045
12	0x3f668458	0.9004569
13	0x3e72aa77	0.2369784
14	0x3eaddf8c	0.33959615
15	0x3e17c457	0.14820991
16	0x3e6b2554	0.22963458
17	0x3edaa944	0.42707264
18	0xbe092ac7	-0.13395225
19	0xbe8e4ee2	-0.27794558
20	0xbe0037a8	-0.12521231

gru_dp_fw.gru_cell.bias_hh f4 [21]
0	0x3e40ae66	0.18816528
1	0x3c96e5ed	0.018420184
2	0x3efa7d2c	0.48923624
3	0x3d1c40a8	0.0381476
4	0x3f2fe777	0.6871256
5	0xbda3c602	-0.07996751
6	0x3f4cafc5	0.79955703
7	0xbe904230	-0.28175497
8	0x3eb6a34a	0.35671455
9	0x3eade07d	0.33960333
10	0xbf274249	-0.6533552
11	0x3f2b2314	0.668504
12	0x3f198d58	0.599813
13	0x3ee90023	0.45507917
14	0x3eace3ab	0.33767447
15	0xbedb7881	-0.42865375
16	0x3e2237fa	0.15841666
17	0x3cc2495d	0.023716623
18	0x3d42be2e	0.04754465
19	0xbeaa3ad7	-0.33248016
20	0xbede4a1e	-0.43415922

gru_cp_fw.decays f4 [6]
0	0x3f42264b	0.7583968
1	0xbbc1547b	-0.0058999634
2	0x3e1c722d	0.1527793
3	0x3fdc44d6	1.7208507
4	0x3f8eec20	1.116581
5	0xbbc396a2	-0.0059688846

gru_cp_fw.gru_cell.weight_ih f4 [18, 6]
0	0x3e292a42	0.16520026
1	0x3f00e67f	0.5035171
2	0x3b4c6cd6	0.00311928
3	0x3d51cfea	0.051223673
4	0xbec011f9	-0.37513712
5	0xbee4a64c	-0.44658124
6	0xbe98e3be	-0.29861253
7	0xbe45fb21	-0.1933408
8	0xbcdbe59d	-0.026842887
9	0xbeb08a6c	-0.34480608
10	0x3ec67c7a	0.38766843
11	0xbc8c1873	-0.017101502
12	0xbd1ad8b7	-0.03780433
13	0x3e04d98f	0.12973617
14	0xbe963d02	-0.2934342
15	0x3e800a35	0.25007787
16	0xbeaf82b4	-0.34279406
17	0x3f5f8678	0.8731456
18	0x3f263578	0.64925337
19	0x3f1860a8	0.59522486
20	0x3e4b037a	0.19825545
21	0xbe314701	-0.17312242
22	0x3ea80e4d	0.3282341
23	0x3f31c202	0.6943666
24	0xbedd00d6	-0.431647
25	0xbe4c897a	-0.19974318
26	0x3f1e2405	0.6177371
27	0x3ccfa6b6	0.025348049
28	0x3cdadda5	0.026717016
29	0x3f13ee05	0.57785064
30	0x3ee0ba91	0.4389234
31	0xbea24fb5	-0.31701437
32	0x3eda860b	0.42680392
33	0xbe4a24e0	-0.19740629
34	0x3e374292	0.17896488
35	0x3f207b2e	0.6268796
36	0x3ec97c4d	0.39352646
37	0xbeb19fa4	-0.3469211
38	0xbe71cf09	-0.23614134
39	0x3eb5150c	0.3536762
40	0x3e8d31cc	0.27577055
41	0xbcd2b6f6	-0.025722008
42	0x3e129684	0.1431523
43	0x3ec3b488	0.38223672
44	0x3da9f806	0.0829926
45	0xbe4cbe6c	-0.19994515
46	0x3ce6cb78	0.028173193
47	0x3e593c4f	0.21214412
48	0x3e82f699	0.25578764
49	0xbc85c785	-0.01633049
50	0x3e3f6619	0.18691291
51	0xbe244b39	-0.1604432
52	0x3e446689	0.19179739
53	0xbe3813db	-0.17976324
54	0x3d9df857	0.07713383
55	0xbf045e73	-0.5170662
56	0x3e79567f	0.24349402
57	0x3bfedbce	0.0077776676
58	0xbea854ba	-0.3287714
59	0x3e3829f5	0.17984755
60	0x3e8aba21	0.2709513
61	0xbe98e3ee	-0.29861397
62	0x3db5567e	0.08854388
63	0x3d6a6cff	0.057232853
64	0xbe9ff5e2	-0.3124228
65	0x3ca8f8fc	0.020626538
66	0xbd556e47	-0.05210712
67	0x3f110540	0.56648636
68	0xbece35a3	-0.40275297
69	0x3f0e6818	0.55627584
70	0x3e98bc62	0.29831225
71	0xbe7977f5	-0.24362166
72	0x3e1a3453	0.15059023
73	0x3e813a32	0.25239712
74	0xbef45ed0	-0.47728586
75	0x3f23f1ff	0.6404113
76	0x3d13e7f2	0.036109872
77	0x3ed44545	0.41459098
78	0x3ee6af7a	0.45055753
79	0xbe1c4e4c	-0.15264243
80	0x3ead3e19	0.3383644
81	0xbeb69617	-0.35661384
82	0xbd979b22	-0.07402636
83	0x3db1a472	0.086739436
84	0x3e04dc3c	0.12974638
85	0x3e36dbb9	0.17857255
86	0xbdadf4f4	-0.08493987
87	0x3eb1554e	0.34635395
88	0xbe7b4d0c	-0.2454111
89	0xbe0d9a3c	-0.13828367
90	0xbd27abab	-0.0409352
91	0xbe698e67	-0.22808228
92	0x3e0efc3c	0.13963407
93	0xbdd2d1d2	-0.10293926
94	0x3f139823	0.5765402
95	0xbf09b60a	-0.53793395
96	0xbd61aa79	-0.055094216
97	0xbdb9ba6a	-0.09068759
98	0x3e042f1a	0.12908593
99	0xbe9872af	-0.29774997
100	0x3eb7f4e0	0.35929012
101	0xbd063b1b	-0.03277121
102	0xbd99e851	-0.07515014
103	0xbeff2187	-0.49830267
104	0x3e39017b	0.18066971
105	0xbe7edaee	-0.24888203
106	0xbd8ee590	-0.06977379
107	0xbeda9cf8	-0.42697883

gru_cp_fw.gru_cell.weight_hh f4 [18, 6]
0	0x3ee98a97	0.45613548
1	0xbea40d14	-0.32041228
2	0x3ede9912	0.43476158
3	0xbf02224a	-0.5083357
4	0xbdfc195d	-0.12309525
5	0xbdbe4722	-0.09290911
6	0x3e330b31	0.17484738
7	0xbed37850	-0.4130273
8	0x3e0cace8	0.13737833
9	0x3e447410	0.191849
10	0xbefb986d	-0.4913973
11	0xbeaf6914	-0.34259856
12	0x3ed30fb0	0.41222906
13	0x3e135b48	0.1439029
14	0x3e5ba708	0.21450436
15	0x3e68ce66	0.22734985
16	0x3f15f534	0.58577275
17	0xbd9721bd	-0.07379482
18	0x3e065122	0.13116887
19	0x3f070c0b	0.5275275
20	0xbe90e73b	-0.28301415
21	0xbddb5c1c	-0.10710928
22	0x3e715d75	0.23570807
23	0x3db6d34c	0.089270204
24	0xbed1bf50	-0.40966272
25	0x3ed87398	0.4227569
26	0x3e8d1f33	0.27562866
27	0x3ec1bf17	0.37841102
28	0xbd13e9a4	-0.03611149
29	0x3def399b	0.11680909
30	0xbebce287	-0.36891577
31	0x3ec0ec62	0.37680346
32	0x3ba2ee4c	0.004972255
33	0xbd13c6eb	-0.036078375
34	0x3e9fb4f5	0.31192747
35	0x3ec6ae42	0.38804823
36	0x3e56a946	0.2096301
37	0xbfbe9065	-1.4887816
38	0xbe6f27fc	-0.23355097
39	0x3f053863	0.52039164
40	0x3f14f969	0.5819307
41	0xbe3453d6	-0.17610106
42	0xbe1a1ad0	-0.1504929
43	0xbdfcf6df	-0.123517744
44	0xbee4ea1c	-0.4470986
45	0x3ed67ab2	0.41890484
46	0xbe25da9b	-0.16196673
47	0x3e440b3a	0.19144908
48	0xbc2370ee	-0.009975655
49	0x3d745e1e	0.05966007
50	0xbdf1f30b	-0.11813935
51	0x3e5fa6f3	0.2184103
52	0x3e4c8411	0.19972254
53	0xbecac322	-0.39602
54	0xbc6bb459	-0.01438626
55	0xbeb6095e	-0.35554022
56	0x3c6d48e9	0.014482715
57	0xbda10594	-0.07862392
58	0x3dc24f49	0.09487779
59	0x3eaf19da	0.3419941
60	0xbe25d940	-0.16196156
61	0xbf01586e	-0.5052556
62	0x3e50cd12	0.20390728
63	0x3f063d6e	0.52437484
64	0x3dac2b62	0.08406712
65	0xbe9d4290	-0.30714846
66	0x3dd2195d	0.10258744
67	0x3ea6c668	0.32573247
68	0x3e2bb08d	0.16766568
69	0x3ea90c7e	0.33017343
70	0x3e84e2cc	0.25954282
71	0x3e1aeeca	0.15130153
72	0xbe2614b6	-0.16218838
73	0xbead5cae	-0.3385977
74	0x3eb37473	0.3504978
75	0xbe3d6870	-0.18496871
76	0x3e4dceb7	0.20098387
77	0xbea9878a	-0.3311122
78	0xbe1c1aa3	-0.15244536
79	0x3f68a552	0.9087726
80	0xbe2e67f3	-0.17031841
81	0x3e1000ef	0.14062856
82	0x3cc452a2	0.023965184
83	0x3e308c64	0.17241055
84	0x3f0fef02	0.5622407
85	0x3e1a3bb3	0.15061836
86	0xbe1b147d	-0.15144534
87	0xbf00493a	-0.50111735
88	0xbedeb7b7	-0.43499538
89	0xbf02fa26	-0.51162946
90	0xbe9048b8	-0.2818048
91	0x3ea2279d	0.31670848
92	0x3d9f24f0	0.07770717
93	0x3cd11e91	0.02552727
94	0x3e32d3be	0.17463586
95	0x3ebec514	0.37259734
96	0xbf0fcc29	-0.561709
97	0x3e192f50	0.14959455
98	0xbcc48f63	-0.023994153
99	0x3eb9f5e8	0.36320424
100	0x3f1407b4	0.57824254
101	0x3eed5f95	0.46361986
102	0xbe819de7	-0.25315782
103	0x3f2b9c77	0.6703562
104	0xbcfcdd48	-0.030867234
105	0x3f2293a9	0.6350656
106	0x3dd4bebf	0.103879444
107	0x3f027be7	0.5097031

gru_cp_fw.gru_cell.bias_ih f4 [18]
0	0xbe7f930c	-0.24958438
1	0x3eb96392	0.3620878
2	0x3f292693	0.66074485
3	0xbe441b63	-0.19151072
4	0x3e73aec2	0.23797134
5	0x3c8a0d8f	0.016852168
6	0x3eba35a2	0.36369044
7	0x3f20a738	0.62755156
8	0x3e9e544a	0.30923682
9	0xbb20fc7b	-0.0024564553
10	0xbe1e6640	-0.15468693
11	0x3dfc546a	0.12320788
12	0xbe8d14a5	-0.27554813
13	0xbecae0de	-0.39624685
14	0xbe544135	-0.20728
15	0x3e8c231e	0.27370542
16	0x3d2e8692	0.042608805
17	0xbe0495c8	-0.12947762

gru_cp_fw.gru_cell.bias_hh f4 [18]
0	0xbe902a98	-0.28157496
1	0x3ef2e0f8	0.47437263
2	0x3eb46567	0.35233614
3	0xbea51ef0	-0.32250166
4	0xbe1cc84d	-0.15310784
5	0x3e3ac830	0.18240428
6	0x3f162101	0.5864411
7	0x3f43db02	0.76506054
8	0xbe62289d	-0.22085805
9	0x3e98493e	0.2974338
10	0xbeb1f752	-0.34759003
11	0x3e174500	0.14772415
12	0x3e7635a3	0.24043898
13	0xbdf28ead	-0.118436195
14	0x3dfb4b40	0.12270212
15	0xbce47735	-0.027888874
16	0x3e1b5340	0.15168476
17	0x3e01765d	0.12642808

gru_dp_bw.decays f4 [7]
0	0xc39e1b78	-316.2146
1	0xbbe08f99	-0.0068530557
2	0xc39e1b78	-316.2146
3	0xbb0ccf58	-0.0021485891
4	0xba936075	-0.0011243956
5	0xbbc29628	-0.00593831
6	0xbb40f0e9	-0.0029440469

gru_dp_bw.gru_cell.weight_ih f4 [21, 7]
0	0xbe30c7d8	-0.17263734
1	0xbdb7b510	-0.08970082
2	0xbf1ed471	-0.6204291
3	0x3e162dc3	0.14665894
4	0x3e7487f7	0.23879991
5	0xbece93ac	-0.4034704
6	0xbf39cd7b	-0.72579163
7	0x3e92f0e1	0.286994
8	0xbe7260f8	-0.23669803
9	0x3eec3f46	0.46142024
10	0x3e2b53ae	0.1673114
11	0xbf58ff1b	-0.8476426
12	0xbf1b65f9	-0.6070247
13	0x3f083c6e	0.5321721
14	0xbdcd89c2	-0.10036041
15	0xbe05d287	-0.13068591
16	0xbe301969	-0.17197193
17	0xbe1f3044	-0.15545756
18	0x3e6fb3c8	0.23408425
19	0xbcaed610	-0.021342307
20	0x3ed1f448	0.41006684
21	0xbcfaa0e2	-0.030594293
22	0xbeef7b7a	-0.46773893
23	0xbeb3104d	-0.34973374
24	0x3eb978ea	0.36225063
25	0xbd9f5cb6	-0.07781355
26	0xbed5b6fa	-0.41741163
27	0x3d93d8ef	0.07219111
28	0x3e7f451b	0.24928705
29	0x3b9ff76c	0.00488179
30	0xbdb19d00	-0.086725235
31	0xbeed2b0b	-0.46321902
32	0xbe272574	-0.16322881
33	0x3ed86c69	0.4227021
34	0x3d483bdb	0.048885208
35	0xbf688a6f	-0.9083623
36	0x3deb091f	0.11476349
37	0x3e550c95	0.20805581
38	0x3c878a47	0.016545428
39	0x3ec4aa8c	0.38411367
40	0xbf2dac17	-0.67840713
41	0x3e597c85	0.21238907
42	0xbc7a4fbc	-0.015277799
43	0xbec09270	-0.37611723
44	0x3d86459c	0.06556246
45	0xbdb74491	-0.08948625
46	0xbc2d0e11	-0.010562436
47	0x3e9d1977	0.3068349
48	0x3be868b0	0.007092558
49	0x3e4fc4a5	0.20289858
50	0x3d2dd2ee	0.042437486
51	0xbdd49732	-0.10380401
52	0x3db2730f	0.08713352
53	0x3e8c680a	0.27423126
54	0x3e214c40	0.15751743
55	0xbd936504	-0.071970016
56	0x3e62fdaf	0.22167085
57	0xbf039c20	-0.514101
58	0x3ef75210	0.48304796
59	0xbd34778e	-0.04405933
60	0xbf5566c2	-0.8335992
61	0xbe8e6e83	-0.2781869
62	0x3ed95f94	0.42455733
63	0x3d40dd32	0.04708595
64	0x3decb31d	0.11557601
65	0x3d7c7630	0.06163615
66	0xbeda2eb6	-0.42613763
67	0x3d1e87d0	0.03870374
68	0x3d8f6c4b	0.07003077
69	0xbe1c8a58	-0.15287149
70	0x3dd07a05	0.101795234
71	0x3d8542f1	0.06506909
72	0x3d5215a3	0.051290166
73	0x3e9feb6b	0.31234297
74	0xbe628ab0	-0.22123218
75	0xbcb4bdaa	-0.022063095
76	0x3dd65811	0.10466016
77	0xbd054e39	-0.032545302
78	0xbef18810	-0.4717412
79	0xbd70456c	-0.058659956
80	0x3e2d12fe	0.16901776
81	0xbe008aa0	-0.12552881
82	0x3f0ed3d0	0.5579195
83	0xbed5a225	-0.4172527
84	0xbe832a03	-0.2561799
85	0xbe27a3ee	-0.16371128
86	0x3d7736cc	0.060354993
87	0xbe003f1d	-0.12524076
88	0x3e68fef6	0.2275351
89	0xbd946edc	-0.07247707
90	0xbca1fc73	-0.019773697
91	0x3e4570de	0.19281337
92	0x3eb6be79	0.35692194
93	0xbe804659	-0.2505367
94	0x3d528f45	0.051406164
95	0x3e8761f9	0.26441935
96	0x3d338452	0.043827362
97	0x3dda9c40	0.106743336
98	0x3e979395	0.29604784
99	0x3e35c6dc	0.1775164
100	0x3d338a0f	0.043832835
101	0x3ea3f83f	0.32025334
102	0xbd94523b	-0.07242247
103	0x3e403ae4	0.18772465
104	0x3e901e4c	0.28148115
105	0x3f318004	0.6933596
106	0xbe401b6e	-0.18760464
107	0x3f6f815b	0.93556756
108	0x3e6ac57d	0.22926898
109	0xbf335cee	-0.70063674
110	0x3e377aa2	0.17917874
111	0x3ece87f9	0.40338114
112	0x3e328bcd	0.17436142
113	0xbdf8f9a2	-0.12156989
114	0xbe5da169	-0.21643604
115	0xbe8ff170	-0.2811389
116	0x3ce0fb27	0.027463509
117	0xbe01d151	-0.12677504
118	0xbe8b7c28	-0.2724316
119	0x3d9bde8e	0.07610808
120	0x3e9fd9cf	0.31220862
121	0x3d046fda	0.032333232
122	0x3ded347d	0.11582277
123	0x3e03c2c6	0.12867269
124	0x3f1610e2	0.5861951
125	0x3d55650e	0.052098326
126	0xbe5e0404	-0.2168122
127	0xbed8ead0	-0.42366648
128	0xbec3a1c3	-0.38209352
129	0xbd5a2be7	-0.053264525
130	0xbe0e3d7c	-0.13890642
131	0x3da871ef	0.08224856
132	0xbef83fa5	-0.48486057
133	0xbf737f73	-0.9511635
134	0xbe20b91f	-0.15695618
135	0xbe63a192	-0.22229603
136	0xbebab200	-0.36463928
137	0x3ec64ecd	0.38731995
138	0xbedf30be	-0.43591875
139	0xbdf7b3b0	-0.120948195
140	0x3e40638c	0.18787974
141	0x3d901d06	0.07036786
142	0x3e2bf61f	0.16793106
143	0x3e5b0738	0.21389472
144	0xbe9c1eac	-0.3049215
145	0x3e00f733	0.12594299
146	0x3e924cf5	0.2857434

gru_dp_bw.gru_cell.weight_hh f4 [21, 7]
0	0xbe08fd74	-0.13377935
1	0xbe2c1226	-0.16803798
2	0x3d1d4c11	0.03840262
3	0xbc90ce79	-0.017676579
4	0x3e3e5153	0.1858571
5	0xbe04933f	-0.12946795
6	0xbe5f5ea0	-0.2181344
7	0x3ebe2287	0.37135717
8	0x3da4fbde	0.08055852
9	0x3e738909	0.23782744
10	0x3d0063a0	0.03134501
11	0x3e4c11ea	0.19928709
12	0xbe35c373	-0.17750339
13	0x3ea8793c	0.32904994
14	0xbeb91d6e	-0.36155266
15	0x3f331623	0.6995565
16	0x3efc3a59	0.49263266
17	0xbeaf1a27	-0.3419964
18	0x3f19aca2	0.6002904
19	0x3e7c2858	0.24624765
20	0xbf1e8037	-0.6191439
21	0xbeebddb4	-0.46067584
22	0xbd2bb523	-0.041920792
23	0x3d7b5132	0.06135673
24	0xbd9b55e4	-0.07584742
25	0x3ec9a763	0.39385518
26	0x3f2e5507	0.6809849
27	0xbe90d3ac	-0.28286493
28	0x3e4337db	0.19064276
29	0x3f43cf02	0.76487744
30	0x3f09ad28	0.5377984
31	0x3e85356b	0.26017317
32	0x3ef0faa8	0.47066236
33	0xbe29e0c7	-0.16589652
34	0x3e55ee16	0.20891604
35	0x3eb38dc8	0.35069108
36	0x3ea26c57	0.31723282
37	0x3f20cca9	0.62812287
38	0xbe28dd5e	-0.16490695
39	0x3f171dd8	0.5902991
40	0x3ed00b67	0.406337
41	0xbde449d1	-0.11146892
42	0x3eecdd6a	0.46262676
43	0x3f381179	0.7190166
44	0x3e59dcb4	0.21275598
45	0x3e4046b8	0.18776977
46	0xbcf8da3b	-0.030377498
47	0x3ebddfb1	0.37084725
48	0xbce9ffc2	-0.028564338
49	0xbde771da	-0.11301012
50	0x3c7ff1a8	0.01562158
51	0xbe270f0e	-0.16314337
52	0x3da815d2	0.08207287
53	0xbf127d44	-0.5722239
54	0xbe8adccd	-0.27121583
55	0xbe395aac	-0.18100995
56	0xbe2cb5d5	-0.16866238
57	0xbf6c9d23	-0.9242727
58	0xbe8ef7a5	-0.27923313
59	0xbdec74f5	-0.11545745
60	0x3db9a3f2	0.09064473
61	0x3da538e5	0.080674924
62	0xbe90ca8a	-0.28279525
63	0xbe2a5ac1	-0.16636182
64	0xbd23c588	-0.039983302
65	0xbeab9157	-0.33509323
66	0xbe676df2	-0.22600535
67	0x3f346bd7	0.7047705
68	0x3eb7ddd5	0.35911432
69	0x3e0b81fd	0.13623805
70	0x3e6dec37	0.2323464
71	0x3d1a0165	0.037598986
72	0xbe84c3df	-0.25930688
73	0x3e51d45b	0.20491163
74	0x3e0286cc	0.12746733
75	0x3dbd9fc1	0.09258986
76	0x3e4458bb	0.19174473
77	0xbece28c8	-0.4026549
78	0x3e0566c5	0.13027485
79	0x3e33e128	0.17566359
80	0xbe8c667e	-0.27421945
81	0xbe626434	-0.22108537
82	0x3f1bbcde	0.60835063
83	0xbe0adf72	-0.135618
84	0x3eaf9cde	0.34299368
85	0x3f23b1f3	0.63943404
86	0xbe369989	-0.17832007
87	0xbe6a639f	-0.22889565
88	0x3e462ca9	0.19352974
89	0x3c8d6460	0.017259777
90	0x3e709fe6	0.23498496
91	0xbd85c2ab	-0.065312706
92	0xbdd01186	-0.10159592
93	0x3d34ace9	0.044110212
94	0xbd9e5edb	-0.07732936
95	0xbda68ab4	-0.08131924
96	0x3ecda8e2	0.4016791
97	0x3ea76149	0.3269141
98	0xbde8d279	-0.113682695
99	0xbd0ca066	-0.034332655
100	0xbeee12cb	-0.46498713
101	0x3cd5acc4	0.026083358
102	0xbeaa9059	-0.33313254
103	0xbebb2e97	-0.36558983
104	0x3d6a55b0	0.057210624
105	0x3d1c5886	0.03817036
106	0x3ea776e1	0.32707885
107	0x3e3a8555	0.18214925
108	0xbe6b16f8	-0.2295798
109	0x3d3611d0	0.04445058
110	0x3ec4cbb4	0.38436663
111	0xbe5602f3	-0.20899563
112	0x3e3c9a9a	0.18418351
113	0x3f0ca532	0.5493957
114	0x3eb1035d	0.34572878
115	0xbea30b9a	-0.3184479
116	0x3e9b7f4a	0.3037055
117	0x3f2de39e	0.6792544
118	0x3c57a238	0.013161235
119	0xbeb2daab	-0.34932455
120	0xbf126933	-0.5719177
121	0xbe8ba6cb	-0.2727569
122	0x3eaec5b9	0.34135225
123	0xbe34a33b	-0.17640392
124	0xbf2119b6	-0.62929857
125	0x3e95ff2c	0.29296243
126	0x3d759bf1	0.05996317
127	0x3e003548	0.12520325
128	0x3e88ce3d	0.26719847
129	0xbf5ead3b	-0.8698308
130	0x3d044713	0.032294344
131	0x3ed05a2a	0.4069379
132	0xbf01c085	-0.50684386
133	0xbda5b747	-0.08091598
134	0x3f5588c7	0.8341183
135	0x3d965707	0.07340818
136	0xbf078014	-0.52929807
137	0xbd3c0380	-0.045901775
138	0x3f229446	0.635075
139	0x3e312e23	0.17302756
140	0x3e876301	0.2644272
141	0xbee0328d	-0.43788567
142	0xbed1a39e	-0.40945143
143	0x3e8bf43a	0.27334768
144	0xbe3da41a	-0.18519631
145	0xbeffbf60	-0.49950695
146	0x3eb1a562	0.3469649

gru_dp_bw.gru_cell.bias_ih f4 [21]
0	0xbed2b37d	-0.41152564
1	0x3e8600d4	0.26172507
2	0x3e8aa886	0.27081698
3	0x3e263368	0.16230547
4	0x3e8add86	0.27122134
5	0x3ea88a2e	0.32917923
6	0x3d3b519c	0.045732126
7	0xbf5896b3	-0.8460495
8	0x3dad1395	0.084510006
9	0xbe950d4e	-0.29111713
10	0x3e7e3e0a	0.24828354
11	0xbd44347e	-0.047901623
12	0x3e5bfb6f	0.21482633
13	0x3e96d76f	0.29461238
14	0x3e804ee6	0.25060195
15	0x3ceeba5c	0.029141597
16	0xbe81a1e1	-0.25318816
17	0x3e9840cb	0.29736933
18	0x3cbe0259	0.023194479
19	0x3d047a43	0.03234316
20	0x3e67caa2	0.22635892

gru_dp_bw.gru_cell.bias_hh f4 [21]
0	0x3e787844	0.24264628
1	0xbe410a8e	-0.18851683
2	0xbe998836	-0.29986733
3	0xbd45d2a0	-0.04829657
4	0x3f225a55	0.63419086
5	0xbe307365	-0.1723152
6	0x3d2e1822	0.042503484
7	0xbf39d4a5	-0.72590095
8	0x3e7efe85	0.24901779
9	0xbe74f77a	-0.2392253
10	0xbd3dd489	-0.046345267
11	0x3e8406a2	0.2578631
12	0x3eacef32	0.33776242
13	0xbe1d336a	-0.15351644
14	0xbd8ada65	-0.06779937
15	0x3e5d25b6	0.21596417
16	0x3eb8ea85	0.36116424
17	0xbe8b01c2	-0.2714978
18	0xbec535c2	-0.38517576
19	0x3e8df0ba	0.27722722
20	0x3e813a46	0.25239772

gru_cp_bw.decays f4 [6]
0	0xbbc4880d	-0.005997664
1	0xbb60f0ee	-0.0034323293
2	0xbbb88aa2	-0.0056317607
3	0xbb0860f7	-0.0020809749
4	0xbbac334d	-0.005255139
5	0xbbb774b3	-0.0055986284

gru_cp_bw.gru_cell.weight_ih f4 [18, 6]
0	0x3ee755b6	0.4518258
1	0xbec2f96b	-0.38080916
2	0x3f87682a	1.0578663
3	0xbe1bc333	-0.15211181
4	0x3e336295	0.17518075
5	0x3f2f4ba9	0.68474823
6	0x3e73e55f	0.23817967
7	0xbe95a847	-0.29229948
8	0x3f8ace21	1.0844156
9	0xbf53670b	-0.82579106
10	0xbe977704	-0.2958299
11	0x3ef5d858	0.4801662
12	0xbeb46db7	-0.35239956
13	0x3e01d3d6	0.12678465
14	0xbe62b1c8	-0.2213813
15	0xbcea6807	-0.028614057
16	0xbe9e447b	-0.3091162
17	0x3ed3eb44	0.4139043
18	0xbe716c0f	-0.23576377
19	0x3ef62c7f	0.48080823
20	0x3e8aa976	0.27082413
21	0x3e0161a0	0.12634897
22	0x3e6debf1	0.23234536
23	0x3e4ba929	0.19888748
24	0x3f295b34	0.6615479
25	0x3e42cefe	0.19024274
26	0x3e24dc1e	0.16099593
27	0xbe953c07	-0.2914736
28	0xbeb26683	-0.34843835
29	0x3f615e68	0.8803468
30	0xbce1321d	-0.027489716
31	0x3dc9338b	0.09824284
32	0xbe2ed217	-0.1707233
33	0x3e3aebb1	0.18253972
34	0xbe295518	-0.16536367
35	0x3f1b6e80	0.60715485
36	0x3ee2fcbc	0.44333446
37	0xbeb08ba8	-0.3448155
38	0xbd9a16cb	-0.07523879
39	0x3d878132	0.06616439
40	0x3e58eff9	0.21185292
41	0x3d9832bd	0.074315526
42	0xbf1a6dd2	-0.6032382
43	0xbc859334	-0.016305543
44	0xbe3952b5	-0.18097956
45	0x3e6e4db6	0.23271832
46	0x3e17250d	0.14760228
47	0xbe7253b5	-0.23664744
48	0x3cf20e2f	0.029547779
49	0xbe8a2f15	-0.26989046
50	0x3e88552e	0.26627487
51	0xbefd2dc0	-0.49448967
52	0x3c382f27	0.011241711
53	0xbe7a539d	-0.24445958
54	0xbd9c53a3	-0.0763314
55	0xbf0d3da5	-0.5517219
56	0x3de81cd3	0.11333623
57	0x3efcd902	0.49384314
58	0xbec3a7fd	-0.38214102
59	0xbe176dae	-0.14787933
60	0x3d47f611	0.04881865
61	0x3ec751e6	0.3892967
62	0x3ed8d4b7	0.4234979
63	0xbdc2529b	-0.09488412
64	0xbd83feed	-0.064451076
65	0xbe6ac7b2	-0.2292774
66	0xbe66c2f6	-0.22535309
67	0xbe23bb5f	-0.15989445
68	0xbe8e7981	-0.27827075
69	0x3e1fec8a	0.15617576
70	0x3e236bb1	0.1595905
71	0x3d14747b	0.036243897
72	0x3e951a1e	0.29121488
73	0x3e4351c2	0.19074157
74	0xbec0a64e	-0.3762688
75	0x3eb26aec	0.348472
76	0xbd812752	-0.06306328
77	0x3d4d8a82	0.05018092
78	0x3e3a22e8	0.18177378
79	0x3eed9489	0.46402386
80	0xbebd43b0	-0.36965704
81	0x3e834164	0.25635827
82	0xbd807eff	-0.062742226
83	0x3ec96b54	0.39339697
84	0x3d2d6d41	0.04234052
85	0xbebee051	-0.37280515
86	0x3e3d9852	0.18515137
87	0x3e281905	0.16415794
88	0x3e8b2663	0.27177724
89	0xbdd471e3	-0.10373285
90	0x3e2dc11c	0.16968197
91	0x3e89dde2	0.26927096
92	0x3e3ee6a2	0.18642667
93	0x3e86f487	0.26358435
94	0xbecec054	-0.4038111
95	0xbeb87ac3	-0.3603116
96	0xbbe9746d	-0.0071244747
97	0xbed95f20	-0.42455387
98	0xbdbeff8c	-0.093260854
99	0xbe9e492a	-0.30915195
100	0x3f334b49	0.7003675
101	0xbe834bdb	-0.2564381
102	0xbd1699f3	-0.03676791
103	0xbeb6e44c	-0.35721052
104	0x3ea0640a	0.31326324
105	0xbe12c6a6	-0.14333591
106	0x3e3cce61	0.18438102
107	0xbd384a16	-0.04499253

gru_cp_bw.gru_cell.weight_hh f4 [18, 6]
0	0x3d775255	0.060381252
1	0x3e806477	0.2507665
2	0x3e4cb2e8	0.19990122
3	0xbdd87901	-0.10569955
4	0xbde45d05	-0.111505546
5	0x3e53214b	0.20618169
6	0xbde432bd	-0.1114249
7	0xbe3ec7f4	-0.18630964
8	0x3e0e4de8	0.13896906
9	0xbeb8785b	-0.36029324
10	0x3ed1c76d	0.40972462
11	0x3e9cca4c	0.3062309
12	0xbc9e2c37	-0.019308193
13	0xbf110350	-0.5664568
14	0x3d55e59b	0.052220922
15	0x3e6c818f	0.23096298
16	0x3dc79417	0.09745043
17	0xbe36b869	-0.17843784
18	0xbe083717	-0.13302265
19	0x3ca187e9	0.019718127
20	0x3db8deb5	0.09026853
21	0x3b8e3824	0.0043401886
22	0x3e51a63f	0.20473574
23	0x3eee322c	0.46522653
24	0xbede3639	-0.43400744
25	0xbe218f3d	-0.15777297
26	0x3f168720	0.58799934
27	0x3e750ceb	0.23930709
28	0x3e728887	0.23684894
29	0x3b6ee740	0.0036453754
30	0xbe0c0757	-0.13674675
31	0xbd175b5d	-0.036952365
32	0x3e85b8fb	0.2611769
33	0xbea82391	-0.32839635
34	0x3e98d761	0.2985182
35	0xbe88bce1	-0.26706603
36	0xbf0ecb09	-0.5577856
37	0xbe993c8a	-0.29929
38	0xbe0e6033	-0.13903885
39	0x3e557e72	0.20849016
40	0x3ea98323	0.33107862
41	0xbe1b87b2	-0.15188482
42	0x3ee5aae6	0.44856948
43	0xbb69e496	-0.0035689226
44	0xbdfe87f4	-0.12428275
45	0x3dbd85d3	0.092540406
46	0xbd5d7f83	-0.054076683
47	0xbecb4203	-0.396988
48	0xbec568d8	-0.38556552
49	0x3ebc1c32	0.3674026
50	0xbe5992ad	-0.21247359
51	0x3f4c146a	0.7971865
52	0xbe1e43d3	-0.1545556
53	0xbcbf4570	-0.02334854
54	0xbe4a83f1	-0.19776894
55	0xbe16e137	-0.1473435
56	0x3de0e53d	0.10981224
57	0xbe514ef5	-0.20440276
58	0xbeb37995	-0.35053697
59	0xbe824bb1	-0.25448373
60	0xbe8e4e17	-0.27793953
61	0x3e896f40	0.2684269
62	0xbe92b276	-0.2865178
63	0xbd198d1f	-0.0374881
64	0x3f1e0652	0.61728394
65	0x3e181934	0.14853364
66	0x3ed2f0ea	0.41199428
67	0x3e53064d	0.20607872
68	0xbe8b3a0c	-0.27192724
69	0xbd0dd05b	-0.03462253
70	0x3e807b8a	0.25094253
71	0xbea91c84	-0.33029568
72	0xbe2c5257	-0.16828285
73	0x3f01a7f7	0.5064692
74	0xbd9d84de	-0.07691358
75	0x3eaedb12	0.34151512
76	0xbe844aed	-0.25838414
77	0xbec9ee5e	-0.39439672
78	0x3ef5d082	0.4801064
79	0x3f138f27	0.5764031
80	0x3e240101	0.16016008
81	0x3ebc692f	0.36799
82	0xbe408b8b	-0.18803231
83	0xbe606677	-0.21914087
84	0xbecb472e	-0.39702743
85	0xbf112c7e	-0.56708515
86	0xbebb7898	-0.36615443
87	0x3efadce5	0.48996654
88	0x3e81e626	0.25370902
89	0x3eeb1dd5	0.45921198
90	0xbe360361	-0.17774726
91	0xbec99305	-0.3936998
92	0xbc559ec7	-0.013038344
93	0xbc1c9e3f	-0.009559213
94	0xbe21f702	-0.15816882
95	0x3ea52a8e	0.3225903
96	0xbf689d61	-0.9086514
97	0xbf0657e2	-0.5247785
98	0x3e7233bf	0.23652552
99	0x3ece7095	0.40320268
100	0x3ec382aa	0.38185626
101	0x3effdef6	0.49974793
102	0xbe7ab1b7	-0.24481855
103	0xbe30c867	-0.17263947
104	0xbde14bc5	-0.1100078
105	0xbd450a3a	-0.048105456
106	0x3e62cc25	0.22148187
107	0xbea71642	-0.3263417

gru_cp_bw.gru_cell.bias_ih f4 [18]
0	0xbe487d57	-0.19579063
1	0xbe9c5560	-0.30533886
2	0x3e7889b3	0.24271278
3	0xbe42b575	-0.19014533
4	0x3e8d610c	0.27613103
5	0xbebc76fa	-0.36809522
6	0x3e34d14a	0.17657962
7	0xbefd2316	-0.4944083
8	0x3e1eb553	0.15498857
9	0xbc174716	-0.009233257
10	0xbf0f2e1b	-0.55929726
11	0xbf50038a	-0.812554
12	0xbc60368d	-0.013684881
13	0xbe652cdc	-0.22380394
14	0x3e42beba	0.19018069
15	0x3e400a2c	0.1875388
16	0xbdbe73e8	-0.09299451
17	0x3e376f45	0.1791354

gru_cp_bw.gru_cell.bias_hh f4 [18]
0	0xbe3b477d	-0.1828899
1	0xbe574fb0	-0.21026492
2	0x3e7c652c	0.24647969
3	0xbe85706d	-0.26062337
4	0xbe413306	-0.1886712
5	0xbec02d56	-0.3753459
6	0x3e1eac4c	0.15495414
7	0xbf286016	-0.65771616
8	0xbe3a8dcd	-0.18218155
9	0x3edeac00	0.434906
10	0x3bd4be9c	0.006492449
11	0xbec4900c	-0.3839115
12	0xbdb3f25a	-0.08786459
13	0xbe4b6369	-0.1986214
14	0x3c16daf2	0.009207474
15	0x3e798599	0.2436737
16	0xbe2011aa	-0.15631738
17	0x3d87bfba	0.06628366

attention_dp.context f4 [14]
0	0x3eacb134	0.33728945
1	0xbf42bf30	-0.7607298
2	0x3f976d29	1.1830188
3	0xbe580afb	-0.21097939
4	0x3f569947	0.8382763
5	0x3cce183e	0.025158044
6	0xbfb25f29	-1.393529
7	0x3e98fb50	0.29879236
8	0xbed488a4	-0.415105
9	0xbd9f1cb5	-0.07769147
10	0x3f2eb731	0.6824828
11	0x3c489951	0.012243585
12	0xbf8e194c	-1.110147
13	0x3fc2ddcb	1.5223936

attention_dp.linear_hidden.weight f4 [14, 14]
0	0x3dacd783	0.08439543
1	0x3eabd149	0.3355811
2	0xbe765163	-0.24054484
3	0xbe8ae52c	-0.2712797
4	0x3ebc810d	0.36817208
5	0xbeb2c76b	-0.3491777
6	0x3de1b727	0.11021262
7	0xbd85be1c	-0.06530401
8	0xbe978614	-0.2959448
9	0x3e8a0c0c	0.26962316
10	0xbed21b05	-0.4103624
11	0x3ea9214f	0.33033225
12	0x3eea22bb	0.45729622
13	0xbee6d2ad	-0.45082608
14	0x3dcfc342	0.10144664
15	0x3d3dcd31	0.046338264
16	0x3e1af3ea	0.15132108
17	0x3e179e2a	0.14806429
18	0x3c4ceac7	0.012507147
19	0x3d951ec8	0.07281262
20	0xbe4e5611	-0.20150019
21	0xbe7e6b98	-0.24845731
22	0xbdd7d185	-0.105380096
23	0x3e48ee01	0.19622041
24	0x3d1483c1	0.036258463
25	0xbc9a9454	-0.018869556
26	0x3e60564d	0.21907921
27	0x3e6913dc	0.22761482
28	0xbe936749	-0.28789738
29	0xbde0a264	-0.109684736
30	0xbe138ba1	-0.14408733
31	0xbe9c2abc	-0.30501354
32	0x3e875d36	0.26438302
33	0x3e963d55	0.29343668
34	0x3e9ad094	0.30237257
35	0x3e2b3415	0.16719086
36	0x3d52e353	0.051486325
37	0xbdbe087e	-0.092789635
38	0xbb281f52	-0.0025653434
39	0xbe4948c8	-0.1965667
40	0xbec57900	-0.38568878
41	0x3d3d9037	0.046280112
42	0xbe9d80df	-0.30762383
43	0xbd68aa9b	-0.056803327
44	0xbe67aa75	-0.22623618
45	0xbe190fc8	-0.14947426
46	0x3e5acff9	0.21368398
47	0xbe88be37	-0.26707622
48	0x3eaba678	0.33525443
49	0x3c22aa0c	0.009928238
50	0x3c2bb97c	0.010481235
51	0xbe08cb0a	-0.13358703
52	0x3dcab107	0.098970465
53	0x3cab3781	0.02090049
54	0xbc5b2fcb	-0.013378094
55	0x3da3f15a	0.080050185
56	0x3dfc9d2d	0.123346664
57	0xbee0dbe3	-0.4391776
58	0x3ee2ebc5	0.44320503
59	0x3ef94eea	0.4869302
60	0xbe4227f2	-0.1896055
61	0x3e05a296	0.13050303
62	0xbe6868a7	-0.22696172
63	0xbd679209	-0.056535754
64	0xbe0dcb64	-0.13847119
65	0x3a61bf98	0.00086116185
66	0x3e469db5	0.19396098
67	0x3e9e3bc4	0.30904973
68	0x3dd9fb48	0.10643631
69	0xbd93cef3	-0.07217207
70	0xbd4603ee	-0.04834359
71	0x3d59c0c8	0.053162366
72	0x3e16b26f	0.14716505
73	0x3e4ae035	0.1981209
74	0x3e48e611	0.19619013
75	0xbcb810c2	-0.022468928
76	0x3d82db6f	0.0638951
77	0xbe0cc975	-0.13748725
78	0x3e5a263e	0.2130365
79	0xbe1ac0ff	-0.15112685
80	0x3e2afddd	0.16698404
81	0xbd46b9ef	-0.048517164
82	0x3d8d8447	0.069099955
83	0xbe562af9	-0.2091483
84	0x3e70e08c	0.23523158
85	0x3e3f01b2	0.1865299
86	0xbe05c607	-0.13063823
87	0xbe12f18d	-0.14349957
88	0x3e2eea7a	0.17081633
89	0xbe6aa281	-0.22913553
90	0x3c8a8b20	0.016912043
91	0x3e9ca77c	0.3059653
92	0x3b2b59a1	0.0026145952
93	0x3d3ad0cf	0.04560929
94	0xbe140ea1	-0.14458705
95	0xbe9b747f	-0.30362317
96	0x3e8f3916	0.2797324
97	0x3e54118e	0.20709822
98	0x3e8681df	0.2627096
99	0xbf0a9ad9	-0.5414253
100	0x3f142339	0.57866246
101	0x3f24d43c	0.64386344
102	0xbdc1d41d	-0.094642855
103	0xbcc3faad	-0.023923242
104	0xbf34f189	-0.70681053
105	0xbe0161e2	-0.12634996
106	0xbf0081eb	-0.5019824
107	0xbe5c4ac1	-0.21512891
108	0xbd9c4955	-0.076311745
109	0xbdb78e8f	-0.08962738
110	0x3e9fb7c0	0.31194878
111	0xbe3593e6	-0.177322
112	0x3ec0f526	0.37687033
113	0xba9b5cc9	-0.0011853214
114	0x3e43050f	0.19044898
115	0xbe584e0a	-0.2112352
116	0xbe5e49fd	-0.21707912
117	0x3cc36d98	0.02385597
118	0x3bf2a822	0.007405297
119	0xbe1bc6ab	-0.15212505
120	0x3ea0daff	0.3141708
121	0x3eaed979	0.34150293
122	0xbdf8d7ef	-0.12150561
123	0x3e5944f2	0.21217707
124	0x3c572f86	0.013133889
125	0x3d8ea3d0	0.069648385
126	0x3eaf2365	0.3420669
127	0xbe4306fd	-0.19045635
128	0x3e0e8ba1	0.13920452
129	0xbdc1b0f8	-0.09457582
130	0xbdbce69e	-0.09223674
131	0xbe9976aa	-0.29973346
132	0xbdae1ca7	-0.08501559
133	0xbc405514	-0.011739034
134	0xbe2be42a	-0.16786256
135	0x3e3c8469	0.18409885
136	0x3ccbcdc6	0.024878394
137	0x3e2a7fdf	0.16650341
138	0x3db10c0d	0.08644877
139	0x3e6e4875	0.23269828
140	0xbe923dfe	-0.2856292
141	0x3e52aeb7	0.20574461
142	0xbe2bcec2	-0.1677809
143	0x3e174bfd	0.14775081
144	0x3ee6cd5a	0.45078546
145	0x3e215133	0.15753631
146	0x3d2da70c	0.042395636
147	0x3e6bf896	0.23044047
148	0x3e11095f	0.14163731
149	0xbeb60eb6	-0.355581
150	0xbc250645	-0.010072296
151	0x3b912800	0.004429817
152	0xbe0c16cf	-0.13680576
153	0xbdbe2664	-0.09284666
154	0xbe88d01b	-0.26721272
155	0xbdb02374	-0.08600512
156	0x3e763518	0.24043691
157	0x3d87b3f6	0.06626122
158	0x3dd08fb2	0.10183658
159	0x3ea89cb5	0.32932058
160	0x3de6721b	0.11252233
161	0xbdfaa3a7	-0.122382455
162	0x3e635c1e	0.22203109
163	0x3cb52b95	0.022115508
164	0x3dfa087a	0.12208648
165	0x3d864c76	0.065575525
166	0x3d872393	0.06598582
167	0x3cbd173d	0.02308237
168	0x3e47fc64	0.19529873
169	0x3e59a739	0.21255197
170	0xbdf75c27	-0.120781235
171	0xbe09135c	-0.13386291
172	0x3e94b252	0.29042298
173	0xbee6db1c	-0.45089042
174	0x3d08e261	0.033419017
175	0x3e8b07b2	0.2715431
176	0x3cab8021	0.02093512
177	0xbd9d4352	-0.07678856
178	0x3e12b370	0.14326262
179	0x3d3c2b68	0.045939833
180	0x3e66b5bc	0.22530264
181	0x3e5ab661	0.21358635
182	0xbeea05db	-0.45707592
183	0x3e2dc8bc	0.16971105
184	0x3e5692fd	0.20954509
185	0xbe7399c8	-0.23789132
186	0x3de1270e	0.10993777
187	0xbdcf7300	-0.101293564
188	0x3ab38758	0.0013696952
189	0x3d89b931	0.067247756
190	0x3e736bd9	0.2377161
191	0xbe4eb3f6	-0.20185837
192	0x3ea89a29	0.32930115
193	0x3bdbaacd	0.0067037106
194	0x3dd63bb2	0.10460605
195	0xbe8675ea	-0.26261836

attention_dp.linear_hidden.bias f4 [14]
0	0x3e81716c	0.25281847
1	0x3f3bbf3f	0.73338693
2	0xbf2f49ff	-0.68472284
3	0x3e4b9c58	0.19883859
4	0x3eb2d99f	0.34931657
5	0xbf94be13	-1.1620506
6	0x3f16d129	0.58912903
7	0x3ea4b9f2	0.32173115
8	0x3ea5e03a	0.32397634
9	0x3f578d22	0.84199727
10	0xbf206fba	-0.6267048
11	0xbf99cc02	-1.2015383
12	0x3eaef504	0.34171307
13	0xbf281064	-0.6565001

attention_cp.context f4 [12]
0	0x3fe8bba5	1.8182265
1	0x3c110392	0.008850949
2	0x3f2928f5	0.6607812
3	0xbfcd824f	-1.6055392
4	0xbbf4e7de	-0.00747393
5	0xbe069e70	-0.13146377
6	0xbf29e2f1	-0.6636191
7	0xc0197549	-2.3977835
8	0xbc8b7231	-0.017022224
9	0x3fac3af3	1.345549
10	0xbe3735d8	-0.17891634
11	0x3e1dcf19	0.15411033
