trained_models/mce_attention/final_model.pt (torch_old, 3389 bytes, 9 tensors)

attention_dp.context f4 [13]
00000000: 2b49 f8be a68d f9be e9d0 65bf d311 7fbe
00000010: 82a4 81bf 449b 4ebf e0d8 1fbf 44ec 38bf
00000020: 591f 40bf 8ef9 87bf 924b 7abf d613 24bf
00000030: cfbe 343f
-0.48493323 -0.48740882 -0.89771897 -0.24909143 -1.0128329 -0.80705667 -0.624403 -0.7223551
-0.7504783 -1.0623033 -0.9777156 -0.6409277 0.7060365

attention_dp.linear_hidden.weight f4 [13, 13]
00000000: bea8 0ebe 1ea6 d13e 3c72 0c3f 4b4b a03e
00000010: ee24 e13e e120 bf3c d3cd cb3d c69e 993d
00000020: 8faf 713d 373f f5bd 50cd 933e 2539 0d3f
00000030: f13c d03c 8328 92be e3ef dcbd eb7c bdbe
00000040: 3f8d b43e a658 1f3e fe8c efbe 5126 89bd
00000050: 0683 0f3e a157 cc3d 9100 edbd 0197 76be
00000060: 6048 693e 4e81 82be 1034 60be 30df 003f
00000070: df39 70be 128e 183e 19f6 053e 4b8d 00bf
00000080: e5b1 063e 9152 22be 5612 08be ac34 9f3e
00000090: be1f 1abe 7b36 003f e114 64be 3ea8 883e
000000a0: 9e41 c83c 5b6a acbe 6bbf 34be 92dc 353e
000000b0: cca6 9a3d 228b 61ba 5849 9f3e 8eea b2be
000000c0: 56b1 3ebd 0f41 a33e 5a14 0abe 42ab 833e
000000d0: 073d 713e ec30 163e 0a3c 203d 0825 0abe
000000e0: e10e d03c 93d7 f63d 20a4 a4bd bc32 4cbe
000000f0: 2f81 6bbd 9b21 a03e 3390 ecbd 2369 42be
00000100: 1223 1bbd d874 6d3b 0303 78bd d061 653f
00000110: 330c 0b3f ca65 d23e 5522 023f e92a 6b3e
00000120: 35c8 783e da66 85be db68 0fbf f0bc 0a3f
00000130: b003 d5bd 81fc f93e f4bc 1e3e a8d7 6e3c
00000140: 63a0 19be 3ff7 dcbd 11a1 023e 16db 03be
00000150: b510 50be d2a6 10bf 71d0 263f a1b4 fc3d
00000160: 266b 7a3c 8ca1 71be 5fb7 d03d 9128 72be
00000170: b54a 07bf 1d30 bcbd 54eb 9ebe 47cf 453e
00000180: dac3 9cbc f184 063e aac0 613e b365 7b3d
00000190: 7ed5 15be a2fb 343e 6a02 65be 1abd 1abf
000001a0: 426f 9dbd da49 aa3e 9881 a13c 6baa 7b3d
000001b0: 5590 78be 7866 f73d dda2 493d 4710 0cbe
000001c0: 9d32 15be a776 20bc 0dc5 08be 1fa8 a7be
000001d0: af93 283e 5c76 4c3e 2558 5b3d 5770 debd
000001e0: 16d9 17be e84a 83be 1aec 03be c121 20bd
000001f0: 432c ddbd 636d 3d3f 8732 033e 4ebb 39be
00000200: aadb a3be dcc0 24bd 55ec bd3d 4ff5 24be
00000210: 2a44 56bd 0ec7 84be da32 cfbe c4df 88bd
00000220: 1c31 3f3e 8be6 453e ca17 4bbe b6b0 39be
00000230: bf9d f4be 0faf c03d 2e55 8cbe e2fe 5d3e
00000240: d933 00be b592 393b 157f 593d ceb5 d53c
00000250: 2365 a6be f4eb 5abe 1bfb a3be a27c 903e
00000260: e29f 06be c906 443c 6635 1a3e e9f7 623e
00000270: 7385 70be a308 ae3e 7f33 a83d 3d9a f23e
00000280: 2063 b3bd a889 3fbe 7aed a23d a293 dbbd
00000290: f2fe 96be 673c c8be 87df 5dbe af23 a0be
000002a0: ee7f 273d
-0.13931558 0.4094705 0.5486181 0.31307444 0.43973488 0.023331108 0.09951367 0.07500987
0.059005316 -0.11974948 0.28867579 0.5516532 0.025419684 -0.28546533 -0.10787942 -0.37009367
0.35264012 0.1556116 -0.46787256 -0.066967614 0.14014825 0.099776514 -0.11572374 -0.24081041
0.22781515 -0.25489277 -0.2189486 0.5034056 -0.23459576 0.14897946 0.1308216 -0.50215596
0.13153799 -0.15851809 -0.13288245 0.31094873 -0.15051171 0.5008313 -0.2227359 0.2669086
0.024445351 -0.33674893 -0.17651145 0.17759922 0.07551345 -0.0008603801 0.31110644 -0.34944576
-0.04655584 0.31885573 -0.13484326 0.25716597 0.23558436 0.146671 0.039119758 -0.13490689
0.02539772 0.12052836 -0.08039117 -0.19941229 -0.057496246 0.3127564 -0.11550941 -0.18985419
-0.037875243 0.0036232974 -0.060549747 0.89602375 0.5431549 0.41093284 0.50833637 0.22965588
0.24295123 -0.26055032 -0.5601937 0.54194546 -0.10401094 0.48825458 0.15501767 0.014577784
-0.15002589 -0.10789346 0.12756754 -0.12876543 -0.20318873 -0.5650455 0.65161806 0.1233914
0.015284335 -0.23596781 0.10191225 -0.23648287 -0.5284837 -0.091888644 -0.31038916 0.19317351
-0.019136358 0.1313665 0.22046152 0.061376285 -0.14632222 0.17674115 -0.22364202 -0.60444796
-0.07687236 0.3325947 0.019715115 0.06144182 -0.24273808 0.12080091 0.049227584 -0.13678084
-0.14570089 -0.009793914 -0.13356419 -0.32745454 0.16462587 0.19967026 0.053550858 -0.10861271
-0.14828905 -0.25643086 -0.12883034 -0.03909469 -0.10799458 0.73995036 0.12812243 -0.18137857
-0.32003528 -0.040222988 0.092735924 -0.16109203 -0.0523111 -0.25933117 -0.40468484 -0.06683305
0.18671077 0.19326226 -0.19833294 -0.18133816 -0.477766 0.0940839 -0.27408737 0.21679261
-0.12519778 0.0028316204 0.05309971 0.026087668 -0.32499036 -0.21379071 -0.32027516 0.28220087
-0.13146928 0.011964508 0.15059432 0.22164883 -0.23488407 0.33990964 0.08212947 0.473833
-0.08759141 -0.18704855 0.07955451 -0.10721518 -0.29491383 -0.39108583 -0.216673 -0.31277224
0.040893488

attention_dp.linear_hidden.bias f4 [13]
00000000: 9c6a d03e 1742 4cbf 07f1 c7be 5103 a2be
00000010: cf94 1cbf f066 e9bd b0cb b03e 78c3 84bf
00000020: 9f97 5abf 7977 973f ff8e 04bf 0150 56bf
00000030: 23e3 6f3f
0.40706336 -0.79788345 -0.39051077 -0.31643155 -0.61164564 -0.11396587 0.345304 -1.0372152
-0.85387605 1.1833335 -0.51780695 -0.83715826 0.9370596

attention_cp.context f4 [11]
00000000: 4ec7 8a3c 880e 1d3f a4bf 51bf 26f7 4cbf
00000010: 5610 05bf 870c 0abf 163a b4be 5730 41be
00000020: 88a4 593f 406d da3e 4756 343f
0.016940739 0.613503 -0.81933045 -0.8006462 -0.5197805 -0.53925365 -0.35200566 -0.18866096
0.8501668 0.42661476 0.7044415

attention_cp.linear_hidden.weight f4 [11, 11]
00000000: 724d 35bc ed0f af3e 2984 8fbd ac06 b9b9
00000010: 81f2 6d3c 7c6e 713e 526e 173f a9c9 c2be
00000020: 988e d0bc a149 583d 7b31 963d 6599 ecbd
00000030: 1c1d 95be 3667 bcbd 247d 4bbf d736 4fbf
00000040: 1f81 07be 8f16 2d3e 0743 823e 0bbf 933e
00000050: 2d0d 26be dd69 96be b0ae 8abe dda5 3ebe
00000060: 3fc6 9d3d 5ecc 623e dd2f 693c 02f5 54bd
00000070: 2f8e 1ebf 9e0c b93d 553f 15bd 70d2 adbd
00000080: 95d1 0bbd c19b 2e3f 6b1f 90be 2921 3d3e
00000090: 77bd 20be 8028 0c3c 7fe7 90be 93ca a3bd
000000a0: ab27 f4bd ab1f 273f 3fc7 cbbd 3806 4e3e
000000b0: ab3e 68bd 7a30 85be b4ab 2f3e 0942 d2bc
000000c0: c725 4a3d 2fdc 7fbe f4b3 b7be f5a7 9f3d
000000d0: e13d 463f 57d1 65be a8b8 46be cbe7 b0bd
000000e0: 3528 36bc 3539 1ebf 43fa 6c3e 0fe1 62be
000000f0: 6399 51be 2cc6 d43d dda4 64bc c3df 473e
00000100: 60c4 58bd 48e0 d3bc 2f29 c0be 7bc3 abbe
00000110: 66a8 6f3e b2bf 04bf d791 c93c e447 c2be
00000120: 2c32 7e3e 7ed8 1b3e 8921 853e 11bc fd3d
00000130: 9526 fbbd d3a5 e6be 582a 333c b1ac 243e
00000140: 9b29 053e 8dd1 823d d3a8 80be afd4 c0be
00000150: 2689 a23e f798 5d3f c438 bd3d b330 50bd
00000160: 0e0c 7a3e 4b68 1abc ba62 9f3e d497 4f3e
00000170: b7dd 963e 5ff2 983e 0d2f 2fbe b7c2 95be
00000180: 20c1 c63d b95c e23c 6a7a 223e 4d4f d4be
00000190: ce2a 543d 46a8 10be 5e45 0e3f 7b74 2f3e
000001a0: 0bd8 34be 7866 d43e 06fe 04be abc8 873e
000001b0: 1e4c 03bf 9b48 6f3c 3caa e33d 8213 34be
000001c0: 22e3 3d3d ac18 92bd b5e5 8b3e 9504 efbe
000001d0: b4f8 edbd 6a2a 973e 8cdd 823e 9a64 fc3e
000001e0: 96cb 1b3e
-0.011065828 0.34191838 -0.070076294 -0.0003529092 0.0145231495 0.23577303 0.5915271 -0.3804448
-0.025458619 0.052804593 0.073336564 -0.11552695 -0.2912377 -0.091993734 -0.79487824 -0.80943054
-0.1323285 0.16903137 0.25441763 0.28856692 -0.16215964 -0.29377642 -0.270864 -0.1861796
0.07703828 0.22148272 0.014232603 -0.05199147 -0.61935705 0.0903561 -0.03643735 -0.084874034
-0.03413542 0.6820641 -0.2814897 0.18469681 -0.15697275 0.008554578 -0.28301618 -0.07997622
-0.119216286 0.65282696 -0.099501126 0.2011956 -0.05670039 -0.26013547 0.17155343 -0.025666254
0.049352434 -0.24986337 -0.3587948 0.07795707 0.7743817 -0.22443138 -0.19406378 -0.08637961
-0.011117985 -0.6180604 0.23142342 -0.22156166 -0.20468669 0.10389361 -0.013955322 0.19518952
-0.052921653 -0.025863782 -0.3753142 -0.33547577 0.23404083 -0.51855004 0.024605675 -0.37945473
0.24823827 0.15219304 0.26002148 0.123893864 -0.12263218 -0.4504839 0.0109353885 0.16081502
0.13004152 0.06387625 -0.25128803 -0.37662265 0.3174526 0.8656153 0.09239343 -0.050827693
0.24418661 -0.009424279 0.3113001 0.20272762 0.2946603 0.29872414 -0.17107792 -0.29250118
0.097048044 0.027632104 0.1586701 -0.41466752 0.051798634 -0.14126691 0.55574596 0.17134278
-0.17660539 0.41484427 -0.12987527 0.26520285 -0.5128802 0.014604713 0.11116454 -0.17585567
0.04635919 -0.07133612 0.2732369 -0.46683183 -0.11619702 0.29524547 0.25559652 0.49295503
0.1521438

attention_cp.linear_hidden.bias f4 [11]
00000000: 3037 573f a343 babe 8246 55bf 3648 97be
00000010: 65b3 02bf dda8 293f 9921 e63d 9d08 33bf
00000020: 9664 9dbf a845 11be b8da 7d3f
0.84068584 -0.36379728 -0.8331071 -0.2954728 -0.51054984 0.6627329 0.11236877 -0.6993502
-1.2296321 -0.14186728 0.99161863

fc_dp.weight f4 [1, 13]
00000000: 16fd 543e 2e77 74bd ec19 c5bd 05ef 5ebe
00000010: cbe5 90be 51fa 13be 96ab 3cbe 77a5 09be
00000020: f50c ed3e 27d5 223e 3cc7 7bbe eabc 8bbe
00000030: ca8d b0bd
0.2079967 -0.05968397 -0.09624085 -0.21770866 -0.28300318 -0.14450957 -0.1842483 -0.13442026
0.46298948 0.15901624 -0.2458772 -0.27292567 -0.08620794

fc_cp.weight f4 [1, 11]
00000000: 885b fbbe 081d 5ebd 7fb8 a5be 0c23 5dbe
00000010: bdf9 65be 1c6b 9cbe 29ce a03d 53e6 3a3e
00000020: 3e9c f0bd 8577 c4bd 47fa 26be
-0.4909327 -0.054226905 -0.32367322 -0.215954 -0.22458549 -0.30550468 0.07851822 0.18251924
-0.11748551 -0.09593109 -0.1630641

fc_all.weight f4 [1, 25]
00000000: 0b4c 623c 8c9c 053d f5dc fe3d c010 24b9
00000010: d43a a33c 013e e2bd b9a1 b6bb a0eb bc3e
00000020: 08de cfbd 9474 a43d 129f 083e 55e4 7ebe
00000030: ff2f 793c d1d1 c2bd b68e 06bf a3a3 02be
00000040: 6270 95bc dcc0 5f3c 67b2 19bd f194 323d
00000050: 603f 8fbd 6d73 b2bd c7c6 04be 3510 24be
00000060: 42f8 01be
0.013812075 0.032619998 0.12444488 -0.00015646499 0.019925512 -0.110469826 -0.005573478 0.36898518
-0.10149771 0.08030048 0.1334193 -0.2489179 0.015209197 -0.095126756 -0.5256151 -0.12757735
-0.018242065 0.013656821 -0.037523653 0.043599073 -0.0699451 -0.08713422 -0.12966453 -0.16021807
-0.12692359
