trained_models/birnn_concat_time_delta/final_model.pt (torch_old, 51681 bytes, 21 tensors)

embed_dp.weight f4 [1292, 6]
00000000: 0000 0000 0000 0000 0000 0000 0000 0000
00000010: 0000 0000 0000 0000 83ca 6a3f 6250 8ebd
00000020: f238 2540 47e0 903f f74e 9bbe c588 ba3e
00000030: f010 b93e bb1f 563d a2cc 03bf 6488 8dbf
00000040: fa11 0e3f a3ce 56bd 4623 92be 37d1 3a3f
00000050: 63c5 10be 5bb5 a43c bab5 c93c 832f 8b3d
00000060: 7ea1 123f aa64 283f 4fb7 c6bd d6d4 be3e
00000070: 1e9a 1fbf 0e4b 8e3f 0727 603d 91ee d9be
00000080: 0ee0 24bf 0005 aabe f084 a43f 0834 60bf
00000090: 1b4e 343f 462a 5a3e 8046 89be aa96 ebbf
000000a0: 00ea 853f eaff f23e 292e 4cc0 68e9 28bf
000000b0: c040 95bd b7d7 a3bf 7ad7 5f40 79ae 02be
000000c0: 7cf7 2fbe 89db 9ebf 32af 653f 8eb9 2840
000000d0: 5378 3cbf 7158 9bbe 6a5d 1b3f e69d 6ebf
000000e0: 98a1 0e3f e36e 31bf 0f63 2cbe f029 45be
000000f0: 250f 3abf f962 7a3e 8c10 763f 87b7 cb3e
00000100: 971d 4fbf 5ac2 923f 2721 e9be c244 27bf
00000110: c371 503f 65cd 623e 8a14 a03f f5c5 a5be
00000120: d3db 32bf 9cb1 37bf 2faf 9fbf 634e ca3f
00000130: 725b f03c e03c bcbe c664 ee3e d673 c0bd
00000140: 11a8 c23e 9af2 b93e 93d1 94bf 64f8 4c3f
00000150: fb1f f53f f47a 3abd eb02 96bf aba1 04c0
00000160: 8228 d73f 9d5e 2f3f a593 f63e 9458 97be
00000170: b906 bdbf 7e65 b13e 557f a73e b079 1fbe
00000180: 5f77 9dbf 2a01 bb3f e8e6 a4bf edd6 403d
00000190: d96d 713f aa39 97bf 4365 833e a852 613f
000001a0: 154a 05c0 9d64 d23e e005 613f 5456 5b3c
000001b0: 380d 4fbf 0747 cd3d 9d69 2d3f 7aca 19bf
000001c0: 07d4 5ebe 3134 d9be b3e5 bebe 64ba dabe
000001d0: 18c0 ac3f 7115 913f 432a 42bf 6c2a d1bf
000001e0: 928f 99be ec23 1f3f 838a 1ec0 915b a9bf
000001f0: 0fb4 863f d20f d4be 60a6 bcbf a81f 68be
00000200: 5ca3 b2be 0b7f b5be 21c7 de3f 6962 13bf
00000210: 9aac dfbf 7aec e03e b24e 3abf 50b4 b13d
00000220: e0ca 533f 8453 acbe de1a 28c0 7ad9 99bf
00000230: b9cb d8bf 1922 6a3f 7e07 adbe 2fc4 023f
00000240: 5ee1 c9bd c99a 043e 3c0f 873f db5c 0040
00000250: 3300 e2be 2824 043e e0b9 643d a67f 3abb
00000260: 2d38 38c0 9040 8c3f d49e 13bf b7f7 3b3f
00000270: 4956 af3f a6b4 983e 9804 8a3f ea5b 033f
00000280: 5601 eabe 0d77 f33e bd4e 293d 563a 8b3f
00000290: d436 ffbe 4545 34bf a604 ba3d 4a95 6c3f
000002a0: 4383 1a3d c3fd 91bd dbe7 4dbf bb9b ebbd
000002b0: 7c13 293f a699 c6bd 1d99 493f fb13 8a3f
000002c0: 6041 87bf 8119 edbd 6dde 103f a49c 1440
000002d0: 4056 cc3d 8a94 a93c 581d 1fbf 6e7f 59bf
000002e0: 3861 38bf 9ea9 d53d 75ef 61bf b2b5 e53e
000002f0: 6030 66bc 7b42 89be 3356 123e 12fe 26bf
00000300: ea0e 45bf fe11 07bf 0c1c 57bf 4e99 e1be
00000310: fdce 223f 4ffd 1dbe 2494 de3e b7ec 113f
00000320: 5591 f43e e7db 633f 9621 2dbf ca9a f33e
00000330: 3938 6f3f b762 4d3e 2430 ae3e 408f 503e
00000340: c009 3a3e 434d 78bf b1b8 6e3f 80d6 b9bf
00000350: 0f09 7f3f 1b66 92bf 7b52 0a40 7e2e a0bf
00000360: 197f 7fbf 43b0 8d3e b737 713f 337b f2be
00000370: 2a35 493e e1bf b8be a518 95bf fc62 15bf
00000380: 42af dbbe 7183 73be 1aa1 1cbf d052 70bd
00000390: 96e0 b5bf ba56 fabf 2358 3c3e 94e0 813e
000003a0: 030c c43d d38d 233e 803f 9dbe 2e3f f2bd
000003b0: 8d3d 15bf 6acc 3ebf 3289 d23f 5560 953b
000003c0: 5cbc 17bf 44f1 c9be fc19 acbf cc4b 963f
000003d0: 576e a03f 0d79 e8be b289 08c0 6a10 32be
000003e0: 5e54 41bf f532 4ebf 21ef 8b3f c477 febd
000003f0: 0bdd 9b3f e8e2 723f 722c d1bd 7524 173f
0.0 0.0 0.0 0.0 0.0 0.0 0.9171526 -0.069489256
2.5816007 1.1318444 -0.30333683 0.36432472 0.36145735 0.052276354 -0.5148412 -1.1057248
0.5549618 -0.052443158 -0.28542536 0.72975487 -0.14137797 0.020106008 0.024622787 0.067961715
0.5727767 0.657786 -0.09702932 0.37271756 -0.6234454 1.1116655 0.05472472 -0.42564824
-0.6440438 -0.3320694 1.2853069 -0.87579393 0.7043168 0.21305189 -0.268116 -1.8405354
1.0462036 0.47460872 -3.1903174 -0.6598115 -0.07287741 -1.2800206 3.4975266 -0.12761869
-0.17184252 -1.2410747 0.8972045 2.6363254 -0.736211 -0.30340913 0.60689414 -0.93209684
0.5571532 -0.69309825 -0.16834663 -0.19254279 -0.7267936 0.24451818 0.96119 0.39788458
-0.80904526 1.1465561 -0.45533106 -0.6533929 0.81423587 0.22148664 1.2506268 -0.32377592
-0.69866675 -0.71755385 -1.2475337 1.5805172 0.02934048 -0.36765194 0.4656126 -0.09397094
0.3801885 0.36317903 -1.1626457 0.80066514 1.9150385 -0.045527413 -1.171964 -2.0723674
1.6809237 0.68503743 0.4815952 -0.29559767 -1.4767677 0.34647745 0.32714334 -0.15573764
-1.2302054 1.460973 -1.2882967 0.04707997 0.9430824 -1.1814473 0.25663194 0.8801675
-2.0826466 0.41092387 0.8789959 0.013387281 -0.80879545 0.10023313 0.6773928 -0.6007458
-0.2176057 -0.4242263 -0.37284622 -0.4272033 1.3496122 1.1334668 -0.75845736 -1.6341071
-0.29992348 0.6216419 -2.477204 -1.3231069 1.05237 -0.4141832 -1.4738274 -0.22668326
-0.34890258 -0.3544849 1.7404519 -0.57572037 -1.7474549 0.43930417 -0.7277633 0.0867697
0.8273144 -0.33657467 -2.6266398 -1.2019494 -1.6937171 0.9145828 -0.3379478 0.510806
-0.098574385 0.12949671 1.0551524 2.0056674 -0.44140777 0.12904418 0.055841327 -0.0028457432
-2.8784287 1.0957203 -0.5766423 0.7342486 1.3698207 0.29825324 1.0782652 0.51312125
-0.45704144 0.47551766 0.041334856 1.0877178 -0.49846518 -0.70418197 0.09082918 0.924153
0.037722837 -0.07128479 -0.8043191 -0.115043126 0.66045356 -0.09697275 0.7874926 1.0787348
-1.0566826 -0.1157713 0.56589395 2.3220606 0.099773884 0.020700712 -0.6215415 -0.8496007
-0.72023344 0.104327425 -0.8825601 0.44865185 -0.014049619 -0.26808533 0.14290695 -0.6523143
-0.7697588 -0.5276183 -0.8402717 -0.44062275 0.6359709 -0.15428661 0.43472397 0.57001823
0.4776713 0.8900742 -0.67629373 0.47579032 0.93445164 0.20057188 0.34021103 0.20367146
0.18167782 -0.9699289 0.93250567 -1.4518585 0.996232 -1.143741 2.1612842 -1.2514188
-0.9980331 0.2767354 0.9422564 -0.4735962 0.19649187 -0.36083892 -1.1648146 -0.58354163
-0.4290715 -0.2378061 -0.6118332 -0.058672726 -1.4209163 -1.9557717 0.18392996 0.25366652
0.095726036 0.1597207 -0.3071251 -0.11828457 -0.58297044 -0.7453066 1.6448119 0.004558603
-0.5927179 -0.39441884 -1.344543 1.1741881 1.2533673 -0.45404854 -2.1334043 -0.17389074
-0.7551936 -0.80546504 1.0932351 -0.12425187 1.2176832 0.9487748 -0.102135554 0.59040004

embed_cp.weight f4 [620, 5]
00000000: 0000 0000 0000 0000 0000 0000 0000 0000
00000010: 0000 0000 0ff2 f43e 6745 ad3f a4f8 4b3f
00000020: 62c1 2e3f 6e38 ca3d 8d69 cfbc 4ad1 213f
00000030: 195b 843f 8936 bdbe 6ce2 153f d3e2 3dbf
00000040: 9dca f33e 804e 023e f8a2 693f d73d 233e
00000050: 688f 8d3f 3c1e e0bf a1cf 7abf 6e30 f13f
00000060: 7e4e b23f 37be 82bf 8e61 603e 211e 22be
00000070: eaee c13e 9840 a13f d000 ac3d d5c8 3b3f
00000080: 17d1 acbf a8dc 52be 4a6d 31be f509 bb3e
00000090: 77c1 483f 2bee bc3f 8ec6 3bbf 0248 c4be
000000a0: f24f b73f 6099 aebe d94a c1bd f6cd 38bf
000000b0: e561 c53f c275 88bf 5b37 9cbe 2c35 e2be
000000c0: 7c93 fbbd 99fc 0f40 ac9b 14c0 7416 82bf
000000d0: 87d4 91bf 3f6e 2bbe bf5f 9b3f e4d5 71be
000000e0: a7ce cebf 6769 cebd 3608 7d3d c67c 473f
000000f0: 268b 80be 9f43 99bf 69f4 68bd 7e75 15bf
00000100: 5a6c b83f bafa 2fbe 9c6b 9f3e 5564 4e3f
00000110: a973 51bf a58f 54be a782 15be 4fa2 4bbf
00000120: 6ba3 cfbe 120a c5be 4cd6 3c3f 267a 29bf
00000130: e340 f5be 0882 73bf 80b5 903e 6c53 813f
00000140: e6d0 d2bf 3db8 bfbf 9cbf b0be 6f9a 36bf
00000150: 37eb 213f 5af1 1d40 e561 f1bf f8d8 46bf
00000160: 8676 a63f 993d 633f 3884 90bf ad4c 14be
00000170: dec1 99bf d844 02bf b73f 233f 095e 693e
00000180: 4fbb 0340 9940 45be 2615 9abe acc0 9c3f
00000190: 4d61 763f 1b34 9cbf 6a28 bdbf 234d a83f
000001a0: 3d6f 36bf 1f0e 983e 04b5 acbf 0e8f 62bf
000001b0: b9a0 73be 6cfd 6d3f 24fc b5be 629e 663e
000001c0: 6074 ae3f 516c 453f 7d92 d73e c39d 0d40
000001d0: 7302 a1be fbf9 8bbe c6ee 8e3f 0bff 263f
000001e0: 2989 873f c518 3cbf 78a3 72be 1333 51bf
000001f0: 239a bebe 0184 c8bc 8edf 073f 8fc3 4b3f
00000200: f8e7 4bbe 2725 46be 6ebe b73f 7ea3 0cbf
00000210: c2a9 8abf 0955 f03e 58d2 4cbf 3da5 4340
00000220: 5f04 5fbf ae0f 103f 1f29 353e 4099 8c3e
00000230: b5fb 943d ef1c 72bf e6af d7bf 2093 c73f
00000240: ec0e 3e3f 1da6 19be 4e99 aabe f78a 59be
00000250: 375e fc3e 7f6a 6d3f 3730 31bf 4b5c f2bf
00000260: 17e9 20c0 c52a 743f 795d a43e af8a e0bf
00000270: 6298 4cbe d91f 50bf 18dd 60bd e98e e7be
00000280: 2bb0 76be 43a6 103f 3a91 383f c303 ccbf
00000290: aa51 8bbf d709 99be 1702 ab3e 4f17 37bf
000002a0: 88aa a73e 9203 9ebd a17d 91be 313a 0e40
000002b0: eaee 993f 760a d93f c691 363f 1a94 37be
000002c0: 80d3 823f 9836 2740 161e c6be 0eff bdbd
000002d0: ded4 45bf b00f 933f ad14 c13f 58e2 4ebe
000002e0: 6766 983f d7a7 81bf 4712 1e3f 47fb 84bf
000002f0: fba9 c2be 9b35 d5be ad43 1a3f 5ef3 1c3f
00000300: 9cd3 773f 367a 97bf 9669 f03d 2661 1bbf
00000310: 6fe8 3c3f 4ec6 863f ae7a ce3f 700f 03bf
00000320: 59cc 2f3f 0bc0 b0bc b36c 33be a821 4e3f
00000330: c966 093f ee1a 9f3f db10 38be 07d4 8dbe
00000340: 4750 1fbf 7183 f8be 9b34 f33f 0279 ef3c
00000350: 26c4 793f 276a 8e3f 9e7f b53f 0ee6 3f3f
00000360: 7ad9 ab3e 5b9e 0e3d 8f8b 07be 3fda a6bd
00000370: afb9 93bf b314 e1bf 01a0 9dbf e7d7 92bc
00000380: abb3 113f 197f 0540 4c1b 95be d284 b2bf
00000390: e9e9 90be bf50 453f 7636 bcbd 5604 88be
000003a0: 5c54 e1be 80b1 57bf 5533 6c3f b347 a8bf
000003b0: a64c 14c0 dbc1 7fbf 1074 6bbf ba2f 693f
000003c0: 2cf1 96be 2436 84be 1c4d 93be eb89 453e
000003d0: f0ca e8bf c202 a23e 68da c9bc 587d 68bf
000003e0: 75d6 a5be 08ef 043f ae50 4cbe a188 2a40
000003f0: 8d4d 9d3e 6fa1 a53e b8f4 29bf 3147 a7be
0.0 0.0 0.0 0.0 0.0 0.47840926 1.3536805 0.7967627
0.6826383 0.09874044 -0.025318885 0.63209975 1.0340301 -0.3695567 0.5854862 -0.7417423
0.4761552 0.12725258 0.91264296 0.15941559 1.1059389 -1.7509227 -0.97973067 1.8842905
1.3930204 -1.0214299 0.21912214 -0.15831806 0.3787759 1.2597837 0.083985925 0.7335332
-1.3501309 -0.20591986 -0.17326847 0.36531034 0.78420204 1.4760183 -0.73349845 -0.38336188
1.4321272 -0.3410139 -0.09438104 -0.7218927 1.54205 -1.0660937 -0.30510983 -0.44181192
-0.1228399 2.2497923 -2.3220015 -1.0163102 -1.1392983 -0.16741274 1.2138594 -0.23616749
-1.6156815 -0.10078698 0.06177541 0.77924764 -0.25106162 -1.1973761 -0.056873713 -0.58382404
1.4408066 -0.17185488 0.31136787 0.80621845 -0.8181711 -0.20757921 -0.14600621 -0.7954454
-0.40554366 -0.38484246 0.7376449 -0.6620201 -0.47901067 -0.95120287 0.28263474 1.0103583
-1.6470001 -1.49781 -0.34521186 -0.71329397 0.63249534 2.467856 -1.8858 -0.7767482
1.300492 0.88765866 -1.129035 -0.14482374 -1.2012289 -0.508863 0.63769096 0.22789778
2.0583074 -0.19262923 -0.3009426 1.2246299 0.9624222 -1.2203401 -1.4777958 1.314854
-0.71263486 0.29698274 -1.3492742 -0.88499534 -0.2379178 0.92964816 -0.3554393 0.22521356
1.3629265 0.771184 0.4210395 2.212754 -0.3144718 -0.27339157 1.1166618 0.65232915
1.0588733 -0.73475295 -0.23695171 -0.8171856 -0.37226972 -0.024477007 0.5307549 0.79595274
-0.19912708 -0.1935011 1.435499 -0.5493697 -1.0833056 0.46939877 -0.8000846 3.0569603
-0.87116045 0.56273925 0.17691468 0.2746067 0.07274572 -0.945754 -1.6850555 1.5591774
0.7424152 -0.15004773 -0.33320087 -0.21244417 0.4929063 0.92740625 -0.69214195 -1.8934416
-2.5142267 0.9537776 0.32102564 -1.7542323 -0.19980004 -0.81298596 -0.05489835 -0.4522622
-0.2409064 0.56503695 0.720966 -1.5938648 -1.0884297 -0.2989032 0.33400032 -0.7151994
0.32747293 -0.07715525 -0.2841616 2.2223017 1.2026036 1.6956317 0.7131618 -0.1792759
1.0220795 2.6127071 -0.3869483 -0.092771634 -0.77277935 1.1489162 1.5084435 -0.20203531
1.1906251 -1.0129346 0.6174664 -1.0389184 -0.3802031 -0.4164246 0.60259515 0.6130885
0.96807265 -1.1834171 0.11738889 -0.6069511 0.73792166 1.0529268 1.6131189 -0.5119543
0.68671185 -0.021575948 -0.17521934 0.80520105 0.5367246 1.2430093 -0.1797518 -0.27700827
-0.6223187 -0.48537782 1.9000429 0.029232506 0.97564924 1.1126145 1.4179571 0.7496041
0.3356436 0.03481899 -0.13236831 -0.08147096 -1.1541041 -1.7584442 -1.2314454 -0.017925216
0.56914777 2.0858824 -0.29122388 -1.3946784 -0.2830346 0.77076334 -0.09190075 -0.26565808
-0.44009674 -0.8425522 0.92265826 -1.3146881 -2.3171782 -0.99905175 -0.9197397 0.9108845
-0.29480875 -0.25822556 -0.28769767 0.19290893 -1.8186932 0.3164273 -0.024640277 -0.9081626
-0.3239018 0.5192723 -0.19952652 2.6645892 0.3072323 0.32349727 -0.66389036 -0.32671502

gru_dp_fw.weight_ih_l0 f4 [21, 7]
00000000: a534 a63e 8b40 ba3e 907b c13c 69bd 8dbe
00000010: f272 393e 6941 be3e 8754 a9be a0cb 433d
00000020: 27b6 b5be c948 8a3e 6809 7f3d 9375 75be
00000030: 2ec3 603e 54ea d23d a4bb c13d 12e4 403e
00000040: e01f 57bd 0060 6dbc ec19 c3bd cc68 0cbe
00000050: ef18 2cbe b1c0 bdbe 7085 d8bd e82d b1bd
00000060: 347c e7bd 8008 e9bd 7213 90be f835 1ebd
00000070: 96fe 1f3e 67ec c0be 248c ef3d 70db 723d
00000080: f02c 603d d52f 9d3e 50d0 debc 5a05 213e
00000090: 9006 7fbd 78ef a2bd 521e 6abe b0e3 983d
000000a0: 84f5 c6bd 1be9 ae3e 6ec5 6dbe ba9f 62be
000000b0: 8d8b a63e 406d eabd e690 053e 461d 4f3e
000000c0: b82f 6ebd 0dfc 943e aefe 183e 7260 493e
000000d0: 8bbf 97be 6db2 8f3e 7083 76bd f0c5 9a3c
000000e0: 3064 a7bd 28ca b3bd 33d4 85be ede0 b73e
000000f0: d040 c0bd f444 37be 34a5 bc3d 065f 463e
00000100: a8da 64bd 8fcd 913e 2ad2 bcbe 7b1a 2cbe
00000110: 2aa3 8abe de13 81be 0afb 0d3e 80b9 523b
00000120: 84e4 c7bd f98f b13e 776d 24be 4042 c5bc
00000130: ac13 87be d6c0 98be 63a0 8c3e 7518 8c3e
00000140: 0657 6d3e e9ee a93e 988c 9cbd a8d6 9cbe
00000150: c020 64bc f6a2 22be a918 1ebe c877 cf3d
00000160: 838d a8be c99b 7dbe 90a5 a53d 36f4 583e
00000170: dd4b 22be cca1 b2be c0af 26be 8021 5cbc
00000180: 66f1 6d3e 2dd4 08be c2b8 363e 82c4 78be
00000190: b037 8cbe 34a2 1abe 223f 45be 6e0a 3b3e
000001a0: c8e6 213d 9496 d73d e948 a53e f152 9ebe
000001b0: a82c 3fbe 721a 303e 6217 7c3e 0086 b9bd
000001c0: e025 74bc 056c a63e f2c9 3c3e 4cd6 a2bd
000001d0: 001d abbe 3b0b 993e b1ea 8c3e e7d1 5bbe
000001e0: 9e12 643e 5590 27be 8062 333c 92b6 6b3e
000001f0: 1e0d 86be 19e1 ae3e 2c15 acbd 7891 283d
00000200: 3442 88be f443 90be 9ea0 273e f41f f1bd
00000210: aa9c 97be f393 58be a8ea e13d d0ab 293d
00000220: 7c23 b4bd 1c96 9b3d d1ef a43e 401e 933b
00000230: 200a a8bd d8f2 46be 52f3 b9be df70 9b3e
00000240: 7bed 8d3e 4d8f a03e 42c7 6e3e
0.3246204 0.36377367 0.02361849 -0.2768357 0.18110254 0.3715928 -0.33072302 0.047801614
-0.35490534 0.27008656 0.06226483 -0.23970632 0.21949455 0.10298601 0.09459618 0.18837002
-0.052520633 -0.01448822 -0.095264286 -0.13711852 -0.16806386 -0.37061074 -0.10572326 -0.08651334
-0.11302987 -0.11378574 -0.28139836 -0.038625687 0.1562446 -0.3768036 0.116966516 0.059291303
0.054730356 0.30700555 -0.02719894 0.15724698 -0.062262118 -0.07955831 -0.22863129 0.07465303
-0.09714797 0.3416222 -0.23219845 -0.22131243 0.32528344 -0.11446619 0.13043556 0.2022601
-0.058150977 0.2909855 0.14940903 0.19665697 -0.29638323 0.28065816 -0.060183942 0.018893212
-0.08173406 -0.087787926 -0.26138458 0.35913792 -0.09387362 -0.17897397 0.092111975 0.19372186
-0.05587259 0.2847714 -0.36879092 -0.16806976 -0.2707761 -0.2521047 0.13865295 0.0032154024
-0.09760383 0.34680155 -0.16057383 -0.024079442 -0.26382196 -0.29834622 0.27466115 0.2736241
0.23177728 0.33190086 -0.07644004 -0.3063252 -0.013923824 -0.15882477 -0.15439095 0.10130268
-0.32920465 -0.24766459 0.08088219 0.21186909 -0.15849252 -0.34889066 -0.16277981 -0.013435721
0.23236617 -0.13362189 0.17843917 -0.24293712 -0.27386236 -0.15100938 -0.19262365 0.18265697
0.03952673 0.105267674 0.3228219 -0.30922654 -0.18669379 0.17197588 0.24618295 -0.090587616
-0.014901608 0.32504287 0.18436411 -0.0795103 -0.33420563 0.2989138 0.27522805 -0.2146679
0.22272727 -0.16363652 0.010948777 0.23018864 -0.26181883 0.3415611 -0.08402476 0.041154355
-0.2661301 -0.28176844 0.16369864 -0.11773673 -0.29611713 -0.21150188 0.11031085 0.04142362
-0.087958306 0.075969905 0.32214215 0.00448969 -0.08205056 -0.19428575 -0.3631845 0.3035955
0.27720246 0.3135933 0.23318198

gru_dp_fw.weight_hh_l0 f4 [21, 7]
00000000: 916b db3d 5ab8 ecbd 7a0f c43e 87cf d73e
00000010: 4c1b ef3e ee39 85be 6880 643e 38fe 56bd
00000020: 332a 0dbe 965b d63e c913 393e 14c4 1c3f
00000030: 6c78 113d 9379 c83c e407 bcbd 97c1 f83d
00000040: bad0 ddbe 5854 963e 84e9 4c3e e355 62bd
00000050: c115 853e ecfc 203e 93ce 923e 2e42 21be
00000060: 5f9b 9c3e 6991 f13c 7f37 343e 5a8b 3ebe
00000070: 62b2 9bbe b652 fcbe 5fac 4f3e ad71 e73d
00000080: d24b 493d 2420 66be 83da b6bd 2397 583e
00000090: 325e 2a3e dca2 febd 9e17 4b3d 5d9c 99be
000000a0: 3d2a 4f3e 011c a23e f75f 0fbe 9f80 973e
000000b0: 748e b1bd 9a04 b2be 62fe d0be ca4f 69be
000000c0: c1be ac3d f632 6d3e 4ccd 9abd 8e9b bfbe
000000d0: 33f6 b7be 7eb8 57be 0e10 813e c393 ccbd
000000e0: 6ac3 85be bda3 c83d 34ca 9d3e 8420 48bd
000000f0: 5bac eebd cc02 eebb 1489 67be 7818 2cbe
00000100: 3001 dbbd d5ba 98be f697 88be f6ae 5ebe
00000110: c92a 32be 0342 ad3e b6d9 6dbc 9f03 b63e
00000120: f851 31be ff9f 8f3e 0671 473e 5f2b 073e
00000130: 88d4 aabd bf7d 71bd 2db7 03be 9e85 89be
00000140: fa69 633e 89ef a73e b476 393e a2d7 bdbd
00000150: 6697 35be 9edc 753e 8716 6dbe dcc8 06be
00000160: 586e 98bc c21a 32be de0a 063d 702f e0bd
00000170: 52dc 56be cbeb 5f3e 73c4 63be 1150 5f3e
00000180: a3e2 993e cd12 773e 58e8 e1be d654 3a3e
00000190: 2ea2 ce3d ee2b b0be 1ad5 bd3d 85dd 823e
000001a0: 4972 38be f112 843c 387e 86be 4f50 7dbe
000001b0: bad7 ee3e 1d98 943e 2f7e 1bbc 95d1 e03d
000001c0: a1a2 8dbe a119 d0bd 4594 21be 4492 50bd
000001d0: 5295 17be d0cd 6a3e eb1f efbb 726f 173e
000001e0: 37a8 92bd f7af 503e 399e 21bd 1f82 b63d
000001f0: d56c 92be 19bc a6be 05bd 8ebd a670 e6be
00000200: fb6c 153e 9fcd ce3d ed3f b2be 8677 483e
00000210: f2c9 c1be 3ca3 a2be ff75 cf3e f9b5 8bbe
00000220: f355 f93e 8012 16bd 34b4 22bf ac3d 48be
00000230: 3f9e 82be 9ad5 3c3e 0f1e 3cbe 2ae2 aa3d
00000240: 6056 c43e 6d9d 40be 5d90 02bf
0.10713876 -0.115586 0.38293058 0.42150518 0.46700513 -0.2602076 0.22314608 -0.052488536
-0.13785629 0.4186675 0.18073954 0.6123669 0.035515234 0.024472034 -0.091811925 0.12146299
-0.43323308 0.29361224 0.20010954 -0.05525769 0.2599316 0.15721482 0.2867323 -0.15747902
0.3058729 0.029488282 0.17599295 -0.18607846 -0.30409533 -0.49281853 0.20280598 0.11300979
0.049144574 -0.22473198 -0.089283966 0.21151404 0.16637495 -0.12433407 0.04958307 -0.30002108
0.20230956 0.3166199 -0.14001451 0.29590318 -0.08669749 -0.34769136 -0.4081908 -0.22784343
0.08434821 0.23163971 -0.075586885 -0.37423366 -0.35930023 -0.21066472 0.2520756 -0.09989121
-0.26125652 0.097968556 0.3081833 -0.048859134 -0.11653968 -0.007263517 -0.22610885 -0.16806209
-0.10693586 -0.29830042 -0.26678437 -0.2174643 -0.17399134 0.33839425 -0.014517238 0.35549638
-0.17316425 0.28051755 0.19476709 0.13200139 -0.08341318 -0.05895781 -0.12862845 -0.26859754
0.22208396 0.32799938 0.18111688 -0.09269644 -0.17733535 0.2400994 -0.23153125 -0.1316256
-0.018607304 -0.1739302 0.032725208 -0.10946548 -0.20982483 0.21867292 -0.22242908 0.21807887
0.30055723 0.24128266 -0.44122577 0.18196425 0.10089527 -0.34408516 0.092691615 0.2555963
-0.18012346 0.016122313 -0.26268172 -0.24737667 0.4664896 0.29022303 -0.009490534 0.109774746
-0.27663139 -0.10161138 -0.15779217 -0.05092074 -0.14803055 0.22930074 -0.007297506 0.14788607
-0.07160991 0.20379625 -0.039457534 0.089115374 -0.28598657 -0.32565382 -0.06969646 -0.4500782
0.14592354 0.10097813 -0.34814397 0.19576845 -0.37849385 -0.31765163 0.4051971 -0.27287272
0.48698387 -0.036638737 -0.6355622 -0.19554776 -0.25511357 0.18440858 -0.18370841 0.083439186
0.3834715 -0.18810053 -0.5100153

gru_dp_fw.bias_ih_l0 f4 [21]
00000000: f12e cabe 41e2 9cbe 1a67 a6be 7f8f 31be
00000010: f05f 6bbe 86a1 b13e b4b0 e93c 6594 ab3e
00000020: 0daa e7bd 5adc e63c dbdf 41bd dd50 9fbe
00000030: e774 163e 2955 2f3e be0d a2bc 32ac 73bd
00000040: 0cdc 17bc 26d5 883d d281 1fbe 8764 6e3d
00000050: 806d e63c
-0.39488938 -0.30641368 -0.32500535 -0.17339896 -0.22985816 0.34693545 0.028526641 0.33511654
-0.113117315 0.028181244 -0.047332626 -0.3111638 0.14693032 0.1712233 -0.019781943 -0.05949039
-0.009268772 0.0668128 -0.15576866 0.05820134 0.028128386

gru_dp_fw.bias_hh_l0 f4 [21]
00000000: be3d 623e 3abd 903d c89a 173e a922 1db9
00000010: 8eab 49be b3dd 79be 01bd e8be f9de bb3e
00000020: 257b 50bd 6dc1 b73e 38f3 90bd 81dd b4be
00000030: 5989 b4bd d558 b93b 665f 423d f07f 053e
00000040: a453 9f3c 6056 fbbd 0350 c83e 4415 f1bd
00000050: fcb2 98bd
0.22093865 0.07067342 0.14805138 -0.00014985599 -0.19694349 -0.24400978 -0.454567 0.36693552
-0.05089869 0.3588976 -0.0707764 -0.35325244 -0.088152595 0.0056563416 0.04745426 0.13037086
0.019449063 -0.12272334 0.39123544 -0.11771634 -0.074560136

gru_cp_fw.weight_ih_l0 f4 [18, 6]
00000000: 6165 b6bd 7ed9 48bc 1b4f 933e 626b 073f
00000010: b04c 8dbe b773 f13e 8b94 4d3e ae7a f33e
00000020: 308a d83d 86c4 b13e c8c4 4f3e cd0d 2c3f
00000030: 5cd0 633e 238a 09be 3c83 efbd 53e6 a13e
00000040: 2810 3fbe 1ff1 d93d 4f0d d03d 8144 71be
00000050: a688 99be 3b24 573e 1413 fc3d d282 2c3e
00000060: 2445 893e 76b4 b23e d08d 0bbe a521 923e
00000070: 75a2 9fbe 6fe2 7bbe 53e5 143c 1ec9 a6be
00000080: fd14 963e 904f f43d 9d0d b93d 4575 3dbe
00000090: d688 c7bd 2126 cdbe 827f bc3e 4c0b 1abf
000000a0: 9a39 c9be 0753 5c3e e6dc 6cbe f77a 4cbe
000000b0: 08a9 d8be c12f 32bf 92b2 e23e e2f1 1abf
000000c0: d400 b73e 239c 58bf 152f 743e 2ca3 d5be
000000d0: 55e6 ef3d b8e9 1ebf 1425 87be 9964 7b3f
000000e0: ee90 823f 3fd7 4c3d 6406 e8be f6d5 8e3e
000000f0: 537d c8be 0d4e e83e 67e3 7c3f ca81 eabe
00000100: 1128 fd3e 3480 1a3f 87f4 7dbe b7b3 953c
00000110: d653 6d3d 9429 7dbe 3364 0bbf 4636 d73d
00000120: cf30 a43e 00cd 393e 8902 6bbe 768f f93e
00000130: 27e1 043f d342 c23e fd0b 6dbe 8d59 00bf
00000140: 0564 95be 1217 1cbf 8527 06bd 956c a1be
00000150: 9516 0ebe a02a 793e eb1d 823d 2e72 28bf
00000160: 8461 77be 5ddb ddbe 1433 123f a595 47be
00000170: 2f57 0fbf 9f0a 8a3d 65d6 7d3e 3658 e63e
00000180: 2b43 f43e 4a89 27be 63da 3cbf 4bc4 f53e
00000190: b764 99bd ffc9 743e f26d 903e fc8d d13e
000001a0: bdc0 6bbe 94bf 0a3e affc 2d3f 770e be3e
-0.08906055 -0.012258885 0.2877129 0.5289823 -0.2759757 0.47158596 0.20076196 0.47554535
0.10573232 0.34720248 0.2028991 0.6720856 0.22247452 -0.13431601 -0.11694953 0.31621036
-0.18658507 0.10641693 0.101587884 -0.23561288 -0.29987067 0.21009915 0.12308326 0.16846779
0.26810563 0.34903306 -0.13628316 0.28541294 -0.31178632 -0.24598096 0.009087878 -0.32575315
0.29312888 0.11929238 0.090358 -0.18501766 -0.09742896 -0.40068153 0.3681603 -0.6017349
-0.3930176 0.21516047 -0.23131141 -0.19968782 -0.4231646 -0.69604117 0.44276863 -0.60525334
0.3574282 -0.84613246 0.23846085 -0.41726053 0.11713854 -0.62075377 -0.26395476 0.98200375
1.0200479 0.050009962 -0.45317376 0.27897614 -0.39158115 0.45372048 0.9878449 -0.45802146
0.4944463 0.6035187 -0.24800311 0.018274171 0.05794128 -0.24722892 -0.54449767 0.10508399
0.32068488 0.18144608 -0.22950186 0.48742265 0.51906055 0.37941608 -0.23149104 -0.50136644
-0.2917787 -0.609727 -0.032752533 -0.31528154 -0.13875802 0.24332666 0.06353363 -0.65799224
-0.24158293 -0.43331423 0.5710919 -0.19490679 -0.55992407 0.06740307 0.24788816 0.44989175
0.47707495 -0.16360965 -0.7377073 0.48001322 -0.07489913 0.2390518 0.28208882 0.40928638
-0.23022743 0.13549644 0.6796369 0.3712041

gru_cp_fw.weight_hh_l0 f4 [18, 6]
00000000: 2f44 453e a5ba 26be c432 43bf 77d1 e63d
00000010: f31f 59be d896 1e3e 536c 0b3f 1e3d 69bc
00000020: bd2c 27be 193f 6c3e 642c 16be fe90 8ebd
00000030: 8e0b 54bc 57c9 33bf 7363 a43e 90d1 f93e
00000040: 4e28 653f 6c64 153f ab9f 933d f2f5 113e
00000050: 31dc 353e 972c f2be 0d28 85be 0ac5 b0be
00000060: 3998 4c3e a1af 01bf d82e 4ebe 3343 1b3f
00000070: 92c9 d93e 1b9a b23c 95f9 fe3e cab2 b2ba
00000080: 2654 053e a298 913d b86f 0d3e cf15 3a3f
00000090: 7fed 263f 5f2d 95be a68f b6be 7f04 6e3f
000000a0: 8b52 a73e bec8 95bd 48af af3e 7b32 06bf
000000b0: 36d1 03bf f9c5 e73e 90b3 683e 6786 f9bd
000000c0: 3b6c 943e 242b e3bd 541a 80be a1c6 683e
000000d0: b8a0 e93e 1b1b 2d3f 58e8 533e 6267 603e
000000e0: 56bd ecbe 9f75 383f 7233 39be 8f9c 08bf
000000f0: 9169 333f c0d2 9cbe 7af2 2ebf 81cc 8b3e
00000100: 601e 243f 4751 0cbc cb33 1e3f 1ae4 f2be
00000110: c6eb 1bbf 3a62 8a3e 239b 2bbc e029 253e
00000120: d8d9 e5bc 1c1c d73e c8b5 943d e4af 2b3f
00000130: 7e72 993d 6120 a53e 0ee1 96be d8f0 3e3e
00000140: 5143 1abd 856e 71be 9288 083e 11a2 653e
00000150: dd4a 03bf a831 073f 67fb 793a f724 1fbe
00000160: 7f4b d9be dc88 0ebe 551c 8dbe b562 03bd
00000170: 78bb 923e 8f2a cebe 044d a03e a88c 2c3e
00000180: 1253 14bf fc47 d43d 7e5f c3be a707 0e3e
00000190: 97f3 5e3e eec7 fabe 9b1e a93e d66d 19bf
000001a0: 1e37 acbe afba ff3c 896e 13bc 0ceb 423e
0.19264291 -0.16282137 -0.7624934 0.11270421 -0.21203594 0.1548723 0.54462165 -0.014235763
-0.1632566 0.23070945 -0.14665371 -0.06961249 -0.012942208 -0.70229095 0.32107124 0.48792696
0.89514625 0.58356357 0.072081886 0.14253977 0.17759778 -0.47299644 -0.2600712 -0.3452533
0.19979943 -0.50658613 -0.20135057 0.6064941 0.42536598 0.021801999 0.4979979 -0.0013633606
0.13020381 0.071091905 0.13812149 0.7268953 0.6520614 -0.29136178 -0.3565647 0.9297561
0.32680163 -0.07313679 0.34313416 -0.5242078 -0.51491106 0.4526823 0.22724748 -0.12183838
0.28988823 -0.11092213 -0.25020087 0.22732021 0.4563043 0.67619485 0.20694101 0.21914437
-0.46238202 0.72054476 -0.18086031 -0.5336389 0.70082957 -0.3062954 -0.6833874 0.27304462
0.6410885 -0.0085643 0.6179778 -0.47439653 -0.60906637 0.27028066 -0.010473999 0.16129255
-0.028057978 0.42013633 0.072612345 0.6706526 0.07492541 0.32251266 -0.29468578 0.18646562
-0.037661854 -0.23577316 0.13333347 0.22425105 -0.5128611 0.52810144 0.0009536058 -0.15541445
-0.4244041 -0.13919395 -0.27560678 -0.032076556 0.28658652 -0.40266845 0.31308758 0.16850531
-0.57939255 0.103652924 -0.38158792 0.13870107 0.2177261 -0.4898066 0.33031163 -0.5993322
-0.336358 0.031216947 -0.008998522 0.19034976

gru_cp_fw.bias_ih_l0 f4 [18]
00000000: a66c 573d 32cb 3fbe cc7a 89be 0bc9 eabe
00000010: 8162 cf3d 99f2 4a3e e259 e33e d090 0d3f
00000020: 4f0a 0c3f 75c1 163d 28f9 723e 5966 95bc
00000030: e05a 5c3e 5b77 153e 6ea0 923c 3140 3fbe
00000040: 85be 82bd 1198 21be
0.05259385 -0.18729857 -0.268515 -0.4585651 0.1012621 0.19819106 0.44404513 0.5529909
0.5470323 0.03680559 0.23727858 -0.01823728 0.21519041 0.14596312 0.017898764 -0.18676831
-0.06383995 -0.15780665

gru_cp_fw.bias_hh_l0 f4 [18]
00000000: 29b0 0a3f e32b c23d 3bd3 8d3e 36fc 713e
00000010: 3ff0 93bd 2ae9 dc3c e57f fe3e 1686 333f
00000020: 1e54 bc3e e913 b53e cbe9 b83e 657b db3c
00000030: 2c46 98be 538f 96be 62c8 153e 5758 503e
00000040: 8ea9 46bd 9226 c9bd
0.5417505 0.09481027 0.2770022 0.23631367 -0.07223558 0.02696665 0.4970695 0.70126474
0.36782926 0.35366753 0.3611587 0.026792238 -0.29741037 -0.29406223 0.14627221 0.20346199
-0.048501544 -0.0982181

gru_dp_bw.weight_ih_l0 f4 [21, 7]
00000000: 4eb3 22bf 9853 0d3f 1de3 cd3e 6a46 393e
00000010: 1bfd 8c3d bd30 5ebe b229 3440 0904 573e
00000020: ba2e da3c b686 10be faa7 e93e 3cfd c73e
00000030: 1b36 34be 47e0 1d40 3b3e 203f 6758 773e
00000040: 7c56 c9bd 8940 db3e e210 d7be 86f5 adbe
00000050: 1ef3 f33f c7be b8bd bbb2 0a3f 4e5b 10bf
00000060: d638 0a3f 7735 203f fa77 7c3e 459d ee3f
00000070: 87db d2be a9e7 063e 7b06 29be 0c83 d53d
00000080: 826a 3a3f dc46 1abe 2d0b ae3f e852 84be
00000090: 3c3e fc3c 2578 37bf fca2 35bf 71fc c83e
000000a0: d77e 7bbe 8e30 b43f e050 89b9 71ef 093f
000000b0: 03a0 953e b1ab 30bf fad7 2fbd 9719 b13e
000000c0: dadb cf3f 9b77 10bf cdaf f13e 581e bd3e
000000d0: ad63 d63c 0bd9 913d cd68 00bf 724f 403e
000000e0: 519c 543e 584f 8ebe 27b5 0f3e b02f 273e
000000f0: 26bd 303e 6b45 e43d d6db 0ec0 fe29 1f3e
00000100: 7cb5 2ebe 8ea2 07be d3b7 953d 03d4 4ebe
00000110: 59c9 b9be a628 523f 6f81 0d3d fc4b 8c3e
00000120: 7cf1 123d f2de d53e 2338 193c 9e48 b13e
00000130: 5cb4 d03f 760e f6bd 3783 e83c a999 e7be
00000140: 2883 083e 6f82 32be 0732 d03d efe9 debf
00000150: 4627 80be dc94 02be 49a6 1ebe 999d 80be
00000160: ee86 733e f371 213d 297d bb3f 3216 da3d
00000170: 01e9 a33d 18eb b93e 263a 8bbe ca0f 69be
00000180: 63a7 353e 344f a8bb dc1b c23d 6b0e 53be
00000190: 5133 3cbe 7fa9 38bd eec5 f03b 6f1f e63d
000001a0: 0d6c 3ac0 bb48 5a3e a19a 1c3e 6c70 2e3e
000001b0: 5e36 1d3a b157 e3bd 7255 b53c 6113 45c0
000001c0: 8c9c 2f3e a2fa cc3e 6665 dc3e 0b65 cb3d
000001d0: 998b 6bbd 4f81 7d3f 2003 03c0 2928 523e
000001e0: 2af9 48be bb09 073e 83e1 35be a18d 73be
000001f0: 00b5 b4be a1f6 1ec0 bab1 4fbd 3a1f 173e
00000200: 5b4f 013c 0c15 b0bd badf 38be b58c f8bc
00000210: 41b9 bdbf 774e 37bf 2ef1 bcbe a285 e1be
00000220: 6237 6fbf ef75 053f ffff c93d 49ff f23f
00000230: 8b5e 5cbd 11fe a23c 7221 143e 3ddb 62be
00000240: 3d9d c83d 908b 053e 4a30 1f40
-0.6355485 0.5520568 0.40212336 0.18093267 0.068842135 -0.2169828 2.8150449 0.20997633
0.02663361 -0.14113888 0.45635968 0.3906039 -0.17598765 2.4668138 0.62594956 0.24154817
-0.09830949 0.42822674 -0.42005068 -0.33976382 1.9058568 -0.09020763 0.5417897 -0.5638932
0.53992975 0.6258158 0.24655142 1.8641745 -0.4118311 0.13174309 -0.16506378 0.10425386
0.7281877 -0.15066093 1.359716 -0.25844502 0.030791394 -0.716677 -0.7095182 0.39255098
-0.24560104 1.4077318 -0.00026190933 0.53880984 0.29223642 -0.6901198 -0.04293058 0.34589836
1.6238968 -0.56432503 0.47204438 0.36937213 0.026170576 0.07121476 -0.50159913 0.18780306
0.20762755 -0.2779491 0.14033948 0.16326785 0.17259654 0.11146053 -2.2321677 0.15543362
-0.17061418 -0.13245603 0.07310452 -0.20198064 -0.3628643 0.82093275 0.034547266 0.2740172
0.03587483 0.41771656 0.009351763 0.34625715 1.6305041 -0.12014477 0.02838288 -0.4523442
0.13331282 -0.17432569 0.10165792 -1.7415141 -0.25029963 -0.12752098 -0.1549312 -0.25120237
0.2378194 0.03941531 1.4647571 0.10648765 0.08003426 0.36312175 -0.271928 -0.2275993
0.17739634 -0.005136395 0.0947797 -0.20610969 -0.1837895 -0.04508352 0.007347814 0.11236464
-2.912845 0.21316807 0.15293361 0.17035073 0.0005997176 -0.1110071 0.02213547 -3.0793078
0.17149562 0.40034968 0.4304611 0.09931382 -0.057506178 0.99025434 -2.0470657 0.20523132
-0.19626299 0.13187306 -0.17761807 -0.23784496 -0.35294342 -2.483803 -0.050706603 0.14758006
0.007892455 -0.085977644 -0.18054095 -0.030340532 -1.482216 -0.716041 -0.36902755 -0.44047266
-0.9344388 0.5213308 0.098632805 1.8984157 -0.0538011 0.019896539 0.14465883 -0.22153945
0.09795616 0.1304152 2.4873223

gru_dp_bw.weight_hh_l0 f4 [21, 7]
00000000: 7c08 3c3e d7d0 66be 5fbd 243e 2d4d 21be
00000010: 8e2d afbd 7e97 34be bb2a da3e fc27 6ebc
00000020: 0c59 b4bd f640 abbd 56a9 93be e2eb 233e
00000030: c97d 753e 8312 bb3e e950 d6be db48 56be
00000040: 8a7d 453e b595 82be 4063 e1be ecf9 82be
00000050: c67b 813e 6ff7 c1be 786e 33be 2a52 5a3e
00000060: 7795 fabd c0c7 51be e9df 953c 7e52 863d
00000070: a580 93bd bb6e 88be 5eb7 c03e 083b a03d
00000080: 77e7 3dbe 9a01 153f 55e2 e7be de17 623b
00000090: 7895 73bd 53ab 9abd 656f ecbe d8c7 853e
000000a0: a0c5 063f cd87 253f 66fd 363d 2c99 d2be
000000b0: 566d 9a3c 52e3 ddbe 965e 993e cbd4 9e3d
000000c0: fc6d a23e 53cd dabe 8ae6 78bf d02f d7bd
000000d0: 06be bebd cb92 98be 846f 9fbb dfea 553f
000000e0: 5bd8 b9bd 10aa 143e e1fc 0d3f 3c39 d93e
000000f0: 6626 9a3d 7ebd f0be 1db6 34be f1f9 4bbe
00000100: a0bb 1dbf 134d 123f 6d47 5a3e 6047 a0be
00000110: f5fc 99be 27b6 2f3e 2a8f 1b3d 6e16 02bf
00000120: 3f9c e8bd 93c9 3a3e 68a6 aebd 0833 a23c
00000130: 7566 673e 0951 313d 0acf db3d cd8f 733f
00000140: 9058 ed3e d6c7 ba3e 7eee 1bbf d060 113e
00000150: 9fa1 1ebf e936 a0be a35b e53e 2622 a7bd
00000160: 141e 87be cbd9 14bf 5ef7 afbe cd31 bebe
00000170: ca08 1abf 6ec2 0dbe a458 4e3e e2b0 143e
00000180: b173 dfbe 17f6 92be f388 753d 61d6 58be
00000190: db0f c83e c8ad 953d b866 fa3e 80a2 31bf
000001a0: 4284 23bf f2f4 373e d664 143e ce7b 683e
000001b0: 9649 fc3e 3dc2 4e3e cf7e 2ebf 9762 d6be
000001c0: 92bd 9a3e fda7 22be 7bc5 293f d413 74bb
000001d0: 868a b7be 0275 58bf 9e11 e4bd a3bf 053d
000001e0: 4f03 12be 8563 613f 1f15 0d3f 3ac4 57be
000001f0: edb3 aabe f6e3 eebe 72b3 2c3e ffe6 47be
00000200: 885a 5d3f 8afb b23e fe88 73bc 99f2 fdbe
00000210: 17ed 64be 3568 fcbe 5411 aebe 8895 22bf
00000220: 42e8 a2bd e94d 083d 07fe 6a3e 53f6 d1bc
00000230: fc24 e9bd 3827 1e3e 384a 0bbf 444b cfbe
00000240: 2169 c9bd 0cb7 063f fc79 393e
0.18362612 -0.22540604 0.16087864 -0.15752096 -0.08553611 -0.17635915 0.42610726 -0.0145359
-0.08806047 -0.08362 -0.2884013 0.16007951 0.23973764 0.3653756 -0.41858605 -0.2092623
0.1928617 -0.25504842 -0.44021034 -0.255813 0.25289744 -0.3788409 -0.17522609 0.21320406
-0.122355394 -0.20486355 0.018295245 0.06558703 -0.07202271 -0.2664698 0.37639898 0.07823759
-0.18545328 0.5820557 -0.45289865 0.003449909 -0.059468716 -0.07552209 -0.46178737 0.2612903
0.526453 0.6466034 0.044675253 -0.41132486 0.018850964 -0.43337494 0.29954976 0.07755431
0.31724536 -0.42734775 -0.97226775 -0.105071664 -0.09313588 -0.29799494 -0.0048655886 0.8356151
-0.0907447 0.14517999 0.5546399 0.4242648 0.07526855 -0.4701957 -0.17647596 -0.19919564
-0.6161442 0.57148856 0.2131631 -0.31304455 -0.30075803 0.1715933 0.03797833 -0.50815475
-0.113579266 0.18240957 -0.08527833 0.019799724 0.22597678 0.04329017 0.10732849 0.951413
0.4635663 0.36480588 -0.60910785 0.14197087 -0.61965364 -0.31291893 0.44796476 -0.0816081
-0.26390135 -0.58144826 -0.34368414 -0.3714737 -0.6016966 -0.138437 0.20151001 0.145206
-0.43642953 -0.28703377 0.059945058 -0.21175529 0.39074597 0.07308537 0.48906493 -0.6938858
-0.63873684 0.17964533 0.14491591 0.22703478 0.49274892 0.20191284 -0.68162245 -0.41872093
0.30222756 -0.15884395 0.66316956 -0.0037243264 -0.35847872 -0.8455354 -0.11136173 0.032653462
-0.14259075 0.8804248 0.55110353 -0.21070948 -0.33340397 -0.46658295 0.16865328 -0.19521712
0.86466265 0.34957534 -0.014864204 -0.4959915 -0.22356068 -0.49298254 -0.33997595 -0.63509417
-0.07954456 0.033277426 0.22948466 -0.025630152 -0.11384007 0.15444648 -0.54410124 -0.4048711
-0.09834505 0.5262306 0.1811294

gru_dp_bw.bias_ih_l0 f4 [21]
00000000: ac37 143e ba45 71be 4b34 103f d890 f23e
00000010: 0c01 233f 1d2e 67be 5755 bb3e e814 0d3f
00000020: 0e99 5e3f e4e9 3c3f 2395 823f 27e0 ee3d
00000030: d3ba 543f bd56 e33e 82eb 25bc 722b 1f3e
00000040: 9861 75bd 06b4 283b c716 12be 9f04 c43d
00000050: 5496 bc3d
0.14474362 -0.23561755 0.5632979 0.47376132 0.6367347 -0.22576185 0.36588547 0.55110025
0.8695229 0.7379439 1.0201763 0.116638474 0.8309757 0.44402114 -0.01012695 0.15543917
-0.059907526 0.0025742068 -0.14266501 0.09571194 0.0920836

gru_dp_bw.bias_hh_l0 f4 [21]
00000000: 8c85 1c3f 07d5 673d 9e15 723e 1379 353c
00000010: 4428 293d 0b76 4dbe 51c7 803d 4b02 c63e
00000020: 642e 023f 9ad9 593f 1ff7 ed3e 8f74 6bbb
00000030: 7d06 6c3f df13 c33e 0b2b 2ebd afbb 64bc
00000040: a1b2 353e 996f e8bb 22f1 c63e 930f 9b3e
00000050: 1f3b 6ebe
0.61141276 0.056599643 0.23641059 0.01107623 0.041298166 -0.20064561 0.062880166 0.38673624
0.50852036 0.8509766 0.464776 -0.0035927629 0.921974 0.38101098 -0.042521518 -0.013960763
0.17743923 -0.0070933816 0.38855845 0.3028532 -0.2326474

gru_cp_bw.weight_ih_l0 f4 [18, 6]
00000000: 7623 d4be 28d5 f83d 8713 36be d7ef e9be
00000010: 3d9e 1f3e 374e cbbf b721 c23e 9441 60be
00000020: 6c21 2fbf 7559 1e3d b221 093d 3bbb b4bf
00000030: 1c90 ad3e 985d 863d f83c cf3e d719 bb3e
00000040: 797c 043d 93e6 89bf 43af 433e 32a8 95bc
00000050: 73e2 513e ae8a 573e 5784 debe 8741 95bf
00000060: 4e98 9a3e 719d a2be edf4 d93c 102f 60be
00000070: 028f 1a3e 84b0 f03b 50b4 24be f3c7 9bbe
00000080: 2290 0e3d 91ab cbbc b965 99be f9b3 8bbf
00000090: e36e 663e bd2b 2f3e 402e d1bd bc71 a43e
000000a0: 24b0 aa3e d802 80bf b281 2abf a4e3 1a3e
000000b0: 66f7 b93d 6396 b4bd be20 db3b 02fd 61bf
000000c0: f3e7 88be 890a 9fbe 756c 953d acb7 d4bd
000000d0: bcdf 1cbd e0f0 31bf 1693 ee3e 6f45 49bc
000000e0: 5886 bdbe 4569 a73d 6f3b d33e 0e4a 80bf
000000f0: 6277 dd3d 7bfa f9bd 6aa4 a83e a6b7 673e
00000100: a99c 753e c731 a73d 5855 afbc cda7 15be
00000110: 5aea fdbc f317 eebc d8d3 0f3e 966a 4dbf
00000120: 55a1 02be 3416 35be b460 bcbe 3f3f 9c3e
00000130: b8ae 183f 0f55 b83f f662 213e 258e a0be
00000140: 1961 b9be c274 f83d 9e83 4f3e ada1 863f
00000150: 790a d03e 39c2 10be 9d86 da3d d520 9f3e
00000160: 0d9e 833d 4da7 6a3f 8a37 983e 3de4 833e
00000170: 9bfc eb3e f04f 16be 9b9f e3be a95c d0bf
00000180: 512e eebd 5fe7 a0be e456 89bd 7b03 fb3d
00000190: 7b4a b83e e1ba f9be a2b6 9bbd fe9d d53e
000001a0: 9264 583e 68ae 6bbe a133 8dbe c25c 13bf
-0.41433305 0.12150031 -0.17780887 -0.45690796 0.15587707 -1.5883244 0.37916347 -0.21900016
-0.6841037 0.03865953 0.0334794 -1.4119638 0.3389901 0.0656082 0.40476203 0.36543152
0.03234527 -1.0773491 0.19109826 -0.018268678 0.2049654 0.21048996 -0.43460342 -1.1660622
0.30194324 -0.31760743 0.026606048 -0.21892953 0.15093616 0.007345261 -0.16084409 -0.30425987
0.034805425 -0.024862083 -0.2996042 -1.0914298 0.22503237 0.17106529 -0.102138996 0.32118022
0.3333751 -1.0000868 -0.6660415 0.151259 0.09080391 -0.088177465 0.006687253 -0.88276684
-0.26739463 -0.31062725 0.07296077 -0.10386595 -0.038299307 -0.6950817 0.46596593 -0.012284621
-0.3701656 0.081743754 0.41256282 -1.00226 0.10813786 -0.122059785 0.32937938 0.2262865
0.23985542 0.08163791 -0.021403 -0.14614792 -0.030995537 -0.029064154 0.14045656 -0.8024076
-0.12756856 -0.17684251 -0.3679253 0.30517003 0.596416 1.4400958 0.15760407 -0.31358448
-0.36206892 0.12131645 0.20265052 1.051809 0.4063299 -0.1413659 0.10670207 0.31079736
0.0642663 0.9166153 0.29729873 0.2576007 0.4609116 -0.14678931 -0.44457707 -1.6278278
-0.11629928 -0.31426522 -0.06706026 0.12256523 0.35994324 -0.4877539 -0.07603194 0.417221
0.21132115 -0.2301575 -0.27578452 -0.5756341

gru_cp_bw.weight_hh_l0 f4 [18, 6]
00000000: b5c4 d63d 65ce 36be 0afa f73e 5ee2 aa3e
00000010: 6f15 113f ea8e b6be d0af 03bd 0d3b bebe
00000020: bc82 5fbd 1702 9f3e 3747 48be ff18 f33e
00000030: 5d40 8dbe 0ccd d3bc e1fb 84be ddec 09bf
00000040: e668 b9bd 4ccc d83d 997b c5be 8623 13bf
00000050: 7eb8 cebe fd91 cebd cc1e 7abe 9c6a ec3e
00000060: 6e8e 18bf e616 14be 125f c2be f3d8 58bd
00000070: 1bca abbd 0508 0e3e 334a 8cbf 1639 ed3d
00000080: 380c c0be 8e57 c23e 1098 e63d 2a1f 0c3f
00000090: 1e6d febe fda6 55be 697b a23e 74bf d73e
000000a0: 59c5 ae3e 375d b7bd 3c18 0dbb b7a3 75be
000000b0: 3d46 433e cf73 d73c ffde f43d fc55 80be
000000c0: 6d0f 47be a9a7 a03e 36e7 90bd 81da 63be
000000d0: 36b9 1abe 5214 c8be 7b5f 4bbd fa46 cd3d
000000e0: e68a 8e3e a309 0cbe a7d0 0c3e 01ed f43d
000000f0: a6da 9e3d 4ed7 dc3d 1f0d 5e3e 173e c03d
00000100: 5d2e 15bc 715b 13be 927f fbbd d2a9 153f
00000110: f4cd c7bd b91d 08be 2058 4d3e e9c7 b33e
00000120: 5e73 e03e 0508 793e a9e6 b73e 6093 23bf
00000130: 5559 5fbe 9944 893e 1de7 213f 9d22 1e3e
00000140: 8d9d f43e 0ff8 0abf bac2 943c e16d 2abf
00000150: a368 513f b667 be3e 4faa fe3e 4384 5abf
00000160: 00dd 0f3e 6d4f 4b3c d39b 30be 4fbe adbd
00000170: 2407 933d 8a3d 083f ea0e e8bd e50b e1bd
00000180: 98c9 633f 82e6 e3bd 6403 253f 052b a1be
00000190: c2fa af3e 9e03 9abe 961e 1bbf dc56 8fbd
000001a0: 6f57 cebe 843a 833e 5cfb 53be 76d7 8f3e
0.10486738 -0.17852171 0.48432952 0.3337583 0.5667333 -0.3565591 -0.03215009 -0.37154427
-0.054568037 0.31056282 -0.19558416 0.47480008 -0.27588168 -0.02585461 -0.25973418 -0.5387705
-0.09053211 0.105858415 -0.3857086 -0.5747608 -0.4037513 -0.10086439 -0.2442581 0.46175086
-0.5959233 -0.1446186 -0.37963158 -0.052941274 -0.08388158 0.13870247 -1.0960144 0.11583154
-0.37509322 0.37957424 0.11259472 0.5473505 -0.49692625 -0.20864482 0.3173478 0.42138255
0.3413494 -0.08953326 -0.0021529337 -0.23988234 0.19069763 0.026300339 0.11956596 -0.250656
-0.19439478 0.31377915 -0.0707535 -0.22251321 -0.15109715 -0.39078003 -0.049651604 0.10023303
0.27840346 -0.13675551 0.1375147 0.119592674 0.07756548 0.107832536 0.21684693 0.09386843
-0.009105292 -0.14390351 -0.122801915 0.5846225 -0.09756079 -0.13292588 0.20053148 0.35113457
0.43838018 0.24319465 0.35918167 -0.6389675 -0.21811421 0.26810148 0.63243276 0.15442891
0.47776452 -0.5428476 0.01815926 -0.6657391 0.8180029 0.371885 0.4973931 -0.85358065
0.14049149 0.012409073 -0.17246942 -0.08483564 0.07179096 0.532189 -0.1133097 -0.10988597
0.8897948 -0.1112795 0.644583 -0.31478134 0.34371 -0.30080885 -0.60593545 -0.06998989
-0.40301082 0.2563058 -0.20701355 0.2809407

gru_cp_bw.bias_ih_l0 f4 [18]
00000000: f8bd 853d 1652 a93e 9188 213f 1c04 3d3c
00000010: f6b2 fcbd 48c6 56be 7ac3 103f d35f b7be
00000020: 0397 1a3f a4e2 f83e c19b 793d 463e 9a3d
00000030: 1d2c b1be c7c2 f3bd 2c8b 71be d51a ff3d
00000040: c0b4 aabd 2a52 7a3c
0.06530374 0.3307044 0.6309901 0.011536624 -0.123388216 -0.20974076 0.56548274 -0.35815296
0.60386676 0.48610413 0.060939554 0.07531409 -0.34603968 -0.11902385 -0.23588246 0.1245629
-0.083352566 0.0152783785

gru_cp_bw.bias_hh_l0 f4 [18]
00000000: af18 843e 68e0 243f f065 493e cc0d 583e
00000010: f8af 0a3f a008 ecbd 6921 393f 01b5 94be
00000020: c59c 833e 3031 6c3f b315 fabc a801 363f
00000030: 3b54 943e f957 17be 0e4b ccbd 5cf6 1fbc
00000040: 5e5b 963d d1a2 bc3e
0.25800082 0.64404917 0.19667792 0.21099013 0.54174757 -0.115250826 0.72316605 -0.29044345
0.25705543 0.92262554 -0.030527925 0.7109628 0.28970513 -0.14779653 -0.09975253 -0.0097633265
0.07341646 0.3684297

fc_dp.weight f4 [1, 14]
00000000: c764 89ba a215 0d3a db14 503a d751 eb3b
00000010: d2f7 4e3a 4a65 01bb f5d5 cbb9 8da4 bd3e
00000020: e7a4 f63e 741a c13e 82da f53e 77f0 093f
00000030: 9bd1 b6be 2cdc f5be
-0.0010482304 0.00053819467 0.0007937678 0.007181387 0.00078952045 -0.001974421 -0.00038878588 0.37039605
0.48172686 0.37715495 0.4801827 0.53882545 -0.3570679 -0.4801954

fc_cp.weight f4 [1, 12]
00000000: 8fb1 283e 7824 cdbd 7749 1bbe fc3b ab3d
00000010: df73 b33d e152 a33d c5df d4be e762 64be
00000020: 0e4b b5be d04b cc3e 57b2 a4be 5574 db3e
0.16473983 -0.100167215 -0.15164743 0.083610505 0.08762335 0.07974792 -0.41576973 -0.22303353
-0.35408825 0.3990159 -0.32167313 0.42862192

fc_all.weight f4 [1, 25]
00000000: bff2 cd3b ad89 dd3b 6b53 cf3d 4c83 8eba
00000010: b6f3 393c c8e0 f5bd 3f10 1fbd 36d1 bc3e
00000020: dfec a6bd 1119 663d 95ed 823e 3389 36be
00000030: f0c1 4a37 2a19 e4bd a4e5 06bf 6e90 23bd
00000040: 1321 f7bb 344c b739 c61c 52bd 51f7 8a3d
00000050: 4dfd 4ebd 8254 87bd 1abb bbbd 0a80 c53e
00000060: 3493 433e
0.006285041 0.006760797 0.101233326 -0.001087287 0.011349609 -0.12005764 -0.038833853 0.36878365
-0.08150648 0.05617625 0.25571886 -0.17825775 1.2085293e-05 -0.11137612 -0.52694154 -0.03993266
-0.0075417846 0.00034961256 -0.05129697 0.06785453 -0.050534535 -0.066079155 -0.09166546 0.3857425
0.19099122
