trained_models/ode_birnn/final_model.pt (torch_old, 62611 bytes, 33 tensors)

embed_dp.weight f4 [1292, 7]
0.0 0.0 0.0 0.0 0.0 0.0 0.0 1.2310314
-1.8569213 0.3733618 -0.5057131 -0.90472186 -1.7835467 0.5931259 -0.78050417 -0.7319967
-1.1958268 1.0374715 1.1341151 0.9683333 -1.2045199 -0.111205555 -0.119729646 -0.92677426
-0.35381097 0.5517207 -0.35813093 -1.372672 -0.32427657 0.5675518 0.081619024 0.31583452
0.92437685 -0.92016435 2.2344596 -0.8554715 -0.3206333 2.1316059 0.89913464 0.58798134
-0.4411364 1.5572195 -0.4776752 -1.1936578 0.1293363 -1.6304562 0.121121936 0.3460848
-1.3701364 -0.37777737 -0.38722852 -1.4674716 -2.0350015 2.2311456 0.019192306 -1.1305473
1.2024891 2.0288804 -0.89776754 0.13321069 0.9355878 1.0092175 -2.240252 -0.37469774
-0.7740647 -0.87797105 -0.72467834 -0.33681038 -0.41296345 -0.7540187 -0.07248998 -0.6131108
-1.0211451 0.54123104 0.6555486 -0.84692943 0.7722213 0.41692984 0.71430266 0.09568159
-1.1379033 1.5212724 -0.41721854 -0.37205896 -0.43186006 -0.057150748 0.3037324 -0.8862713
0.04623276 0.12455923 -1.0378159 0.31104103 0.4003011 1.0495214 0.7634547 -0.79497963
-0.2849329 0.8087228 -1.7072656 0.46008784 0.24383484 0.011640733 -0.25813136 1.0558513
-0.06824946 -0.10787179 -0.3436454 -0.19117475 0.918348 1.0715297 0.22206438 0.05716097
0.95816636 -1.0417534 -0.9223995 0.08811113 -0.6552197 -0.12821461 -0.11451247 -0.44808942
0.35851675 -1.6884073 0.583042 0.31169596 -1.3836533 -0.5297391 -0.14078535 -0.110248394
-0.01243456 1.1947433 0.27037987 0.12973185 -0.24418963 0.77841914 -0.57359314 0.06155793
0.91989374 0.189948 1.9823501 -0.6011264 -0.25313216 0.4137865 -0.0107424185 -0.26895487
-0.32621163 -0.21164674 -0.3601055 0.08456305 0.31278452 0.96713424 -1.4672728 1.0856446
-0.14537302 -0.9694227 0.027838347 0.36057627 -1.8934239 -0.6156185 0.7389152 0.62835807
0.76209766 -0.42945284 -0.37525582 -0.3423987 0.38843778 -0.10377059 -0.049041808 -0.18653429
1.8777924 -1.6866629 -0.5586021 1.4007006 -0.36045593 0.6147475 1.547436 -0.12291709
-0.76464 1.0956225 2.2859828 -1.2004243 -0.8458495 -1.8762136 -1.3632321 -1.2923592
-0.9871241 0.18847583 -0.8597048 -0.62057495 -1.3949361 -0.8393918 -0.70036894 -1.222463
0.041918825 -0.094732665 -0.8997515 0.0831813 -0.8765864 0.45971334 -0.090291046 -0.045740757
1.6456189 0.16643845 0.27982077 -0.7565919 -0.8546573 0.39601284 1.6824749 -0.29634234
0.6205972 -0.6241342 -1.9627465 0.03362692 -0.91215855 -0.3139893 -0.04546633 -1.1833402
-0.38413107 0.19951428 -0.014310376 -0.013542866 -0.13539712 0.3127352 0.29629508 -0.78945786
0.09246809 -0.20237637 0.6142815 -0.31395552 2.5423377 0.23331547 -0.03830653 1.2417502
1.110696 -1.3379277 1.0066224 0.39553073 2.1529593 1.1224375 0.8491052 0.5582001
-0.81506985 2.1877122 0.022834282 -0.05628548 -0.9619523 -0.10176216 0.82769054 -1.1665063
-2.9521556 0.6167441 0.53854746 0.54931796 -0.42004076 0.5661148 0.50773877 -1.1871434
00000000: 0000 0000 0000 0000 0000 0000 0000 0000
00000010: 0000 0000 0000 0000 0000 0000 7092 9d3f
00000020: 99af edbf 4729 bf3e 6a76 01bf da9b 67bf
00000030: 424b e4bf 19d7 173f 1fcf 47bf 2364 3bbf
00000040: da10 99bf decb 843f af2a 913f b1e4 773f
00000050: b52d 9abf bdbf e3bd d134 f5bd 1441 6dbf
00000060: b626 b5be 913d 0d3f f05c b7be b7b3 afbf
00000070: 9407 a6be 134b 113f e027 a73d 10b5 a13e
00000080: f6a3 6c3f e48f 6bbf 6301 0f40 2e00 5bbf
00000090: 0c2a a4be 3b6c 0840 b02d 663f f285 163f
000000a0: a1dc e1be f852 c73f d891 f4be c7c9 98bf
000000b0: bc70 043e cab2 d0bf c70e f83d 0732 b13e
000000c0: a160 afbf 096c c1be d142 c6be 1cd6 bbbf
000000d0: 773d 02c0 17cb 0e40 2f39 9d3c c6b5 90bf
000000e0: 2aeb 993f 2dd9 0140 18d4 65bf 6268 083e
000000f0: af82 6f3f 0a2e 813f 4a60 0fc0 62d8 bfbe
00000100: 1b29 46bf b6c2 60bf 8584 39bf 6972 acbe
00000110: f26f d3be 5f07 41bf a075 94bd d4f4 1cbf
00000120: e2b4 82bf 1e8e 0a3f 08d2 273f 5ed0 58bf
00000130: 4cb0 453f d477 d53e 8adc 363f b6f4 c33d
00000140: d1a6 91bf 0eb9 c23f ab9d d5be 837e bebe
00000150: c31c ddbe e716 6abd d082 9b3e ade2 62bf
00000160: 905e 3d3d e918 ff3d 27d7 84bf c540 9f3e
00000170: 44f4 cc3e b856 863f c471 433f c983 4bbf
00000180: bae2 91be 7508 4f3f ae87 dabf a290 eb3e
00000190: d7af 793e c6b8 3e3c cb29 84be 2326 873f
000001a0: 5fc6 8bbd e3eb dcbd 4af2 afbe 50c3 43be
000001b0: db18 6b3f e327 893f d864 633e 9f21 6a3d
000001c0: 644a 753f 2d58 85bf 6022 6cbf 9c73 b43d
000001d0: 7abc 27bf b14a 03be 8485 eabd fa6b e5be
000001e0: 828f b73e bb1d d8bf 3e42 153f 9d96 9f3e
000001f0: 8d1b b1bf fb9c 07bf 092a 10be e9c9 e1bd
00000200: 53ba 4bbc 59ed 983f 3b6f 8a3e 6dd8 043e
00000210: d90c 7abe 7a46 473f 00d7 12bf 2b24 7c3d
00000220: 287e 6b3f ba81 423e a6bd fd3f 6be3 19bf
00000230: 8a9a 81be d3db d33e f800 30bc 74b4 89be
00000240: 3605 a7be ecb9 58be c05f b8be 642f ad3d
00000250: 4b25 a03e 1c96 773f 98cf bbbf 67f6 8a3f
00000260: aadc 14be 162c 78bf 3f0d e43c 749d b83e
00000270: b75b f2bf 2d99 1dbf 8c29 3d3f 13dc 203f
00000280: d518 433f 3ee1 dbbe 8821 c0be e24e afbe
00000290: 51e1 c63e ad85 d4bd 10e0 48bd d802 3fbe
000002a0: 805b f03f 92e4 d7bf 8c00 0fbf 284a b33f
000002b0: ae8d b8be 1860 1d3f 6212 c63f f5bb fbbd
000002c0: 72bf 43bf 5c3d 8c3f 8b4d 1240 81a7 99bf
000002d0: 9889 58bf c427 f0bf 647e aebf 076c a5bf
000002e0: 2ab4 7cbf cfff 403e 9d15 5cbf 00de 1ebf
000002f0: 448d b2bf 62e2 56bf 614b 33bf ab79 9cbf
00000300: 13b3 2b3d 3303 c2bd 1d56 66bf f55a aa3d
00000310: f767 60bf 8c5f eb3e 83ea b8bd a95a 3bbd
00000320: a4a3 d23f d76e 2a3e ab44 8f3e 02b0 41bf
00000330: d2ca 5abf 32c2 ca3e 565b d73f 2fba 97be
00000340: 75df 1e3f 42c7 1fbf 473b fbbf 62bc 093d
00000350: 3983 69bf 35c3 a0be e73a 3abd b177 97bf
00000360: d4ac c4be 794d 4c3e 1176 6abc e6e2 5dbc
00000370: 8ba5 0abe d41e a03e fdb3 973e e919 4abf
00000380: e95f bd3d c03b 4fbe 8d41 1d3f c7be a0be
00000390: a9b5 2240 40ea 6e3e 4fe7 1cbd acf1 9e3f
000003a0: 492b 8e3f 3741 abbf 01d9 803f 0183 ca3e
000003b0: 16ca 0940 08ac 8f3f f55e 593f 34e6 0e3f
000003c0: 6ba8 50bf 7a03 0c40 f60e bb3c 9a8b 66bd
000003d0: 8242 76bf ae68 d0bd 87e3 533f 1450 95bf
000003e0: 1ef0 3cc0 f1e2 1d3f 3fde 093f 1aa0 0c3f
000003f0: 950f d7be e6ec 103f 2bfb 013f 51f4 97bf

embed_cp.weight f4 [620, 6]
0.0 0.0 0.0 0.0 0.0 0.0 -1.8554529 -0.4962034
0.53508806 -0.6820071 0.9770321 -0.84422266 0.93141824 0.6334064 -0.13210902 -0.2711142
-0.19027247 3.1630182 -1.4766343 -0.516096 -0.2514756 -1.4763218 -1.4164691 0.6443466
-0.12548405 0.034916066 -0.84879357 -0.13563699 0.4182752 -0.53203666 0.5478136 -0.30095986
1.131608 -0.5297755 -0.19169219 1.3097793 -0.93029016 0.87542075 0.96640253 1.0665649
-1.2144563 -0.807726 -0.052621253 0.79915166 -3.124156 1.7058705 0.9271219 1.1197351
-0.07156858 0.20654552 -1.0078856 0.32753345 -2.263882 -1.7218865 0.14409368 0.33169487
-1.5212091 0.4512992 -1.2513825 -0.861773 -0.09525955 -0.35853523 -0.52120864 -1.598712
0.33120534 -1.7764698 -0.48203957 -1.3887838 -0.5968888 -0.5442721 -0.38241214 -1.1683046
0.31680375 1.2271734 0.3228697 -0.5394133 -1.0504174 1.5975968 -2.270877 1.5511909
0.63723546 0.3338595 2.4727714 0.14824553 -0.36667466 1.2094872 -0.09206839 0.1182469
-0.13521352 -0.20265411 0.011500986 -1.7089007 -0.56055856 -1.592415 -0.49891037 0.03310271
0.21389228 -1.3667213 -0.7066028 -0.46379074 -0.8986184 -0.33189675 -0.17278454 -0.5790448
-0.7164574 -0.009390216 -1.7917293 -1.163837 -0.15203165 -0.30616188 -1.4264135 -0.21075931
-0.7177913 0.0551984 -0.96193796 0.6745342 -0.27782908 0.45740682 0.013692578 0.14726944
0.80089986 -1.533169 0.4108845 1.7191736 -0.29993936 -2.6560202 0.46633545 -0.5036108
0.39507067 -0.35502216 -1.2438909 -0.040192567 -0.9984367 1.5711457 1.7715517 0.8223442
-0.60045004 -1.0331552 -0.18961306 -1.2114075 -1.0921283 -1.285948 -1.1059942 -1.0446787
0.4293857 0.5733297 -0.035919026 -0.18143198 0.9306186 1.9571598 0.7607424 -0.557208
0.0036823791 0.76723427 0.8398982 0.90405464 -0.09709644 0.09174381 -0.65014213 -2.2690246
-0.99102235 0.9026812 1.5077997 -1.9270622 0.0013385093 -1.052659 -1.7875148 -0.3439523
-0.2206609 -1.2925235 -0.6304652 -0.7072484 -1.1007107 -1.0822049 -2.5477903 0.9454995
0.70718735 -0.4823269 -0.965136 2.003177 -0.15148509 -0.9172226 -0.12812896 0.74912554
-0.17396364 -0.8654183 0.37881038 -0.6991783 -1.1507583 -0.3463005 -1.4438176 -1.2066276
-1.6475246 1.318852 1.244919 2.2063072 0.5495083 -0.30586702 0.7234324 0.1896117
-0.6350731 -0.1692097 1.3738176 -0.40441388 0.5779154 1.3878416 0.15202662 2.0519178
-0.69696254 1.265863 1.179733 0.79839313 0.73467606 0.5202527 1.3036287 1.0062366
0.7247546 0.061178077 -0.9734613 -0.63348 1.1925975 -0.34855708 0.20575133 0.33948883
-0.1429271 0.64633626 -0.7975566 -1.7045559 -0.27887335 1.1372088 1.3698908 -1.338487
0.13663577 2.1229563 -0.059142552 -0.7412919 1.0875114 -1.2714144 1.4597021 -0.43630153
0.35021263 -0.5260343 -0.20340736 0.20416118 -0.44737586 -0.24561389 0.76287806 0.22324964
0.10792703 0.12615913 1.371489 -0.9197127 0.14816985 1.1549729 -1.1746969 -1.3945192
00000000: 0000 0000 0000 0000 0000 0000 0000 0000
00000010: 0000 0000 0000 0000 7b7f edbf 5f0e febe
00000020: 88fb 083f 0498 2ebf c71e 7a3f fa1e 58bf
00000030: 6d71 6e3f ec26 223f 9647 07be 7bcf 8abe
00000040: c9d6 42be e46e 4a40 5a02 bdbf de1e 04bf
00000050: 69c1 80be 1df8 bcbf dc4e b5bf e6f3 243f
00000060: e47e 00be 2604 0f3d 894a 59bf 6ce4 0abe
00000070: 2b28 d63e 8e33 08bf 833d 0c3f 6917 9abe
00000080: 88d8 903f 5e9f 07bf f54a 44be d9a6 a73f
00000090: 7f27 6ebf 931b 603f 2866 773f 3385 883f
000000a0: 4e73 9bbf 22c7 4ebf 6289 57bd 3495 4c3f
000000b0: 2cf2 47c0 f759 da3f dc57 6d3f 7b53 8f3f
000000c0: 8c92 92bd ab80 533e 6502 81bf 77b2 a73e
000000d0: 71e3 10c0 c766 dcbf 4b8d 133e e9d3 a93e
000000e0: fbb6 c2bf b010 e73e 4d2d a0bf 289d 5cbf
000000f0: 7017 c3bd ee91 b7be ee6d 05bf 98a2 ccbf
00000100: bf93 a93e 5d63 e3bf e4cd f6be abc3 b1bf
00000110: b4cd 18bf 6b55 0bbf 86cb c3be 018b 95bf
00000120: 1a34 a23e 0514 9d3f 2d4f a53e fd16 0abf
00000130: 1474 86bf 0d7e cc3f 0c56 11c0 6c8d c63f
00000140: dd21 233f a2ef aa3e e341 1e40 adcd 173e
00000150: c8bc bbbe 7ad0 9a3f 5a8e bcbd 6e2b f23d
00000160: 6a75 0abe 8f84 4fbe a26e 3c3c 42bd dabf
00000170: c480 0fbf 41d4 cbbf 2e71 ffbe b596 073d
00000180: 9406 5b3e b9f0 aebf ece3 34bf fb75 edbe
00000190: db0b 66bf 5fee a9be 6eee 30be 483c 14bf
000001a0: c169 37bf 6cd9 19bc 6357 e5bf 9cf8 94bf
000001b0: 2fae 1bbe 40c1 9cbe b894 b6bf 4ad1 57be
000001c0: 2cc1 37bf b817 623d 9141 76bf 46ae 2c3f
000001d0: 9d3f 8ebe 3a31 ea3e d656 603c cdcd 163e
000001e0: c607 4d3f e23e c4bf 745f d23e e10d dc3f
000001f0: a791 99be 3cfc 29c0 85c3 ee3e a3ec 00bf
00000200: b446 ca3e 77c5 b5be d137 9fbf f6a0 24bd
00000210: 8c99 7fbf 4d1b c93f 35c2 e23f 2685 523f
00000220: 18b7 19bf 6e3e 84bf ed29 42be 670f 9bbf
00000230: dcca 8bbf f299 a4bf 3891 8dbf 08b8 85bf
00000240: 71d8 db3e bcc5 123f d41f 13bd 4ec9 39be
00000250: 053d 6e3f 3684 fa3f 04c0 423f 2fa5 0ebf
00000260: 1254 713b 7769 443f 9203 573f 2070 673f
00000270: 80da c6bd 2ee4 bb3d b76f 26bf b337 11c0
00000280: a4b3 7dbf 1d16 673f 95ff c03f f9a9 f6bf
00000290: eb70 af3a 88bd 86bf 49cd e4bf 841a b0be
000002a0: eef4 61be 6971 a5bf 2b66 21bf 3b0e 35bf
000002b0: 17e4 8cbf b185 8abf ff0e 23c0 410c 723f
000002c0: 3b0a 353f 8df3 f6be 2713 77bf 0d34 0040
000002d0: e81e 1bbe 1acf 6abf 3d34 03be b1c6 3f3f
000002e0: 8623 32be 0e8c 5dbf 6ff3 c13e 59fd 32bf
000002f0: 0c4c 93bf 4d4e b1be 04cf b8bf c672 9abf
00000300: 16e2 d2bf 24d0 a83f 8159 9f3f 2334 0d40
00000310: 93ac 0c3f 9a9a 9cbe de32 393f 9229 423e
00000320: 2794 22bf 4f45 2dbe 41d9 af3f 560f cfbe
00000330: 43f2 133f cba4 b13f deac 1b3e 9f52 0340
00000340: 236c 32bf cc07 a23f 7e01 973f 7e63 4c3f
00000350: bb13 3c3f 482f 053f 4edd a63f 5ccc 803f
00000360: 8489 393f dd95 7a3d c234 79bf bf2b 22bf
00000370: 09a7 983f 1376 b2be 7ab0 523e 7bd1 ad3e
00000380: 7b5b 12be 4b76 253f ab2c 4cbf e32e dabf
00000390: 7dc8 8ebe 0f90 913f 9558 af3f 8b53 abbf
000003a0: 3fea 0b3e 84de 0740 763f 72bd 4ec5 3dbf
000003b0: 9333 8b3f b5bd a2bf 85d7 ba3f ea62 dfbe
000003c0: 124f b33e 2faa 06bf 054a 50be a10f 513e
000003d0: 730e e5be 3582 7bbe fa4b 433f 8e9b 643e
000003e0: d908 dd3d dc2f 013e f48c af3f 4b72 6bbf
000003f0: d6b9 173e 27d6 933f 785c 96bf 9b7f b2bf

ode_dp.odeblock.odefunc.fc1.weight f4 [7, 7]
-1.5525725 1.485009 0.03716382 0.18819614 0.005052989 0.22664395 0.2190363 -0.2653893
1.4570888 0.35324132 -0.4235031 0.038554687 -0.541106 0.10093615 -0.8802385 1.4524097
-0.20470922 0.08362092 -0.045375668 -0.040461406 0.10513964 -0.45445395 1.80179 0.5036248
-0.1074378 0.32906416 -0.2762374 0.31388968 -0.6794859 -0.018376827 -0.28820947 -1.0065639
-0.2397373 -0.46702605 0.10838331 -1.4233621 0.1916458 -0.12916468 -0.61308056 0.009931069
-0.20882183 0.43198055 0.19052963 0.6566229 0.3249741 -1.5354058 -0.29128662 0.21681023
0.28163055
00000000: b2ba c6bf c614 be3f 1739 183d 7db6 403e
00000010: 8b93 a53b 5a15 683e 0d4b 603e 1be1 87be
00000020: e381 ba3f 0cdc b43e 66d5 d8be 85eb 1d3d
00000030: ec85 0abf 9db7 ce3d 4f57 61bf 90e8 b93f
00000040: 4b9f 51be 7241 ab3d d6db 39bd dcba 25bd
00000050: 7453 d73d 30ae e8be 0ea1 e63f 8eed 003f
00000060: 5908 dcbd 197b a83e fd6e 8dbe 26b6 a03e
00000070: caf2 2dbf 008b 96bc 3190 93be 16d7 80bf
00000080: b27d 75be 0a1e efbe 12f8 dd3d bb30 b6bf
00000090: cc3e 443e bf43 04be d9f2 1cbf ecb5 223c
000000a0: 64d5 55be 8e2c dd3e 331a 433e 7018 283f
000000b0: 0163 a63e 2d88 c4bf 8523 95be 8003 5e3e
000000c0: e131 903e

ode_dp.odeblock.odefunc.fc1.bias f4 [7]
1.1134607 1.0849814 0.98944795 1.134969 0.76501167 1.1813638 1.4408937
00000000: e185 8e3f ace0 8a3f 764c 7d3f aa46 913f
00000010: ced7 433f ee36 973f 346f b83f

ode_dp.odeblock.odefunc.fc2.weight f4 [7, 7]
1.0118508 1.5061015 1.180658 1.3289366 0.84272933 0.6923711 1.3322264 0.9263027
1.17381 0.73517287 1.1326436 1.3656781 0.7961939 1.9130965 1.4541816 0.91732115
1.0584674 0.8951351 0.97260195 1.3197644 0.92074883 0.037858736 0.6092438 0.31854016
-0.059307985 0.60496646 0.5901567 0.8649834 0.61613965 0.89556104 0.54115504 1.0561202
0.003696141 0.46699682 0.61801803 1.5474912 1.2036836 1.0007848 1.4971958 0.2111067
0.7744603 1.2158195 1.6972302 1.6487664 0.93091184 1.3026695 1.0326589 1.3354272
1.6202494
00000000: 5484 813f efc7 c03f cd1f 973f 981a aa3f
00000010: 1cbd 573f 3b3f 313f 6586 aa3f 2c22 6d3f
00000020: 683f 963f 4a34 3c3f 77fa 903f 8ace ae3f
00000030: 5dd3 4b3f 59e0 f43f 9f22 ba3f 8fd5 6a3f
00000040: dc7b 873f 9327 653f 71fc 783f 0aee a83f
00000050: 32b6 6b3f c311 1b3d 67f7 1b3f b217 a33e
00000060: eeec 72bd 15df 1a3f 8214 173f 8d6f 5d3f
00000070: 54bb 1d3f 7d43 653f 2389 0a3f f22e 873f
00000080: f53a 723b 351a ef3e 6e36 1e3f 3114 c63f
00000090: 4e12 9a3f b719 803f 1da4 bf3f 5b2c 583e
000000a0: 0843 463f f99f 9b3f d73e d93f c70a d33f
000000b0: 3d50 6e3f e0bd a63f 2b2e 843f 47ef aa3f
000000c0: 5564 cf3f

ode_dp.odeblock.odefunc.fc2.bias f4 [7]
0.44344676 1.254072 0.4986438 0.6339913 0.26972428 0.28332338 0.6612064
00000000: 740b e33e 6e85 a03f 3d4e ff3e 414d 223f
00000010: 4d19 8a3e c30f 913e d344 293f

ode_dp.odeblock.odefunc.fc3.weight f4 [7, 7]
-0.26783213 -0.27267918 0.34528527 -0.07824029 -0.09651991 0.14456205 0.12591252 -0.14879154
0.33706233 -0.3677675 0.5406213 -0.22020416 -0.25845516 0.08768114 -0.751186 -0.74210083
-0.6837174 -0.2830556 -0.52536535 -0.86438847 -0.7451798 -0.26465857 -0.120617874 0.40960625
0.4146066 -0.3146123 -0.35551038 -0.06022669 1.6705962 1.4737355 1.3156248 0.9779818
1.1839187 1.0808285 1.2675772 0.19016784 0.11662038 0.27316552 0.5340446 0.38742837
0.072161004 -0.17314138 -1.0849196 -1.4526834 -1.3901006 -0.8299756 -0.97342163 -1.3778136
-1.6240119
00000000: 4b21 89be 9b9c 8bbe 3bc9 b03e 723c a0bd
00000010: 3bac c5bd 1308 143e 36ef 003e cf5c 18be
00000020: 6f93 ac3e 064c bcbe 2866 0a3f 337d 61be
00000030: 3c54 84be 2b92 b33d ba4d 40bf 52fa 3dbf
00000040: 1b08 2fbf aaec 90be 587e 06bf 9048 5dbf
00000050: 1ac4 3ebf 5481 87be 8106 f7bd e9b7 d13e
00000060: 5147 d43e dd14 a1be 7505 b6be 43b0 76bd
00000070: 19d6 d53f 5da3 bc3f 6566 a83f 045d 7a3f
00000080: a68a 973f 9758 8a3f f83f a23f 5cbb 423e
00000090: aad6 ee3d 5adc 8b3e 26b7 083f 035d c63e
000000a0: 26c9 933d f94b 31be a5de 8abf 88f1 b9bf
000000b0: d1ee b1bf 4879 54bf 2932 79bf 325c b0bf
000000c0: 9fdf cfbf

ode_dp.odeblock.odefunc.fc3.bias f4 [7]
-0.06962858 0.21762353 0.20495938 0.27450517 0.68717366 -0.06610959 -0.68405515
00000000: 6e99 8ebd b4d8 5e3e dfe0 513e f18b 8c3e
00000010: 9dea 2f3f 7764 87bd 3d1e 2fbf

ode_cp.odeblock.odefunc.fc1.weight f4 [6, 6]
0.35821033 -0.22300479 -0.19400135 -0.32632515 0.13891605 0.320095 1.2130754 -0.46020025
-0.53871566 -0.23769045 0.017558755 -0.5832261 0.82044584 -0.30211812 -0.9339291 -0.08140066
-0.17444162 -0.041938677 0.5145726 -0.2966685 -0.39993975 -0.08261781 -0.8588593 -0.54805344
0.88755596 0.20729707 -0.44652072 -0.017120626 -0.2648267 0.26236832 0.68025947 -0.27185482
-0.593949 -0.054780725 -0.33456847 -0.66249645
00000000: 5867 b73e 5e5b 64be 4aa8 46be 1714 a7be
00000010: 0240 0e3e 7ee3 a33e 0e46 9b3f 5e9f ebbe
00000020: 45e9 09bf 2065 73be 61d7 8f3c 4e4e 15bf
00000030: bd08 523f 3aaf 9abe fa15 6fbf 64b5 a6bd
00000040: d3a0 32be e4c7 2bbd 08bb 033f efe4 97be
00000050: e7c4 ccbe 8733 a9bd 34de 5bbf 3b4d 0cbf
00000060: de36 633f af45 543e 5d9e e4be 8e40 8cbc
00000070: 5d97 87be 2455 863e 7c25 2e3f 8e30 8bbe
00000080: 0b0d 18bf c161 60bd 8f4c abbe 5e99 29bf

ode_cp.odeblock.odefunc.fc1.bias f4 [6]
0.8000855 1.1762273 0.9163471 1.1235406 0.43860576 0.36897808
00000000: 67d2 4c3f 9e8e 963f b995 6a3f 2ed0 8f3f
00000010: ef90 e03e b2ea bc3e

ode_cp.odeblock.odefunc.fc2.weight f4 [6, 6]
0.13495046 0.47942227 -0.060427926 0.32644948 0.42427844 0.5304152 0.58637714 1.3002491
1.061366 0.6723257 0.69943106 0.2645997 0.24418376 0.86867905 1.0628027 1.1063138
0.7211265 0.75967497 0.85550904 0.7977313 1.029761 0.6849649 0.56654066 0.6441388
0.3133525 0.9219036 0.99330795 0.79393893 0.93199456 0.6932296 0.2953468 1.0307217
0.68901867 0.61026627 0.40250146 0.58415115
00000000: 7430 0a3e d676 f53e 4683 77bd 6324 a73e
00000010: 063b d93e 4ac9 073f d01c 163f 906e a63f
00000020: d7da 873f 891d 2c3f ea0d 333f 9d79 873e
00000030: 4f0b 7a3e c061 5e3f eb09 883f b19b 8d3f
00000040: bf9b 383f 0f7a 423f a402 5b3f 1e38 4c3f
00000050: 35cf 833f dc59 2f3f cf08 113f 48e6 243f
00000060: bd6f a03e e001 6c3f 6e49 7e3f 953f 4b3f
00000070: 3297 6e3f 7f77 313f b237 973e b0ee 833f
00000080: 8763 303f 693a 1c3f ac14 ce3e ee8a 153f

ode_cp.odeblock.odefunc.fc2.bias f4 [6]
0.3598423 0.7602663 1.1113251 1.1476922 0.85302 0.7500369
00000000: 403d b83e d0a0 423f e73f 8e3f 94e7 923f
00000010: 855f 5a3f 6b02 403f

ode_cp.odeblock.odefunc.fc3.weight f4 [6, 6]
-0.57723427 -0.3954551 -0.21555662 -0.27807587 -0.46558884 -0.10313687 0.021452103 -0.30550846
0.27946892 0.047862843 -0.011423941 -0.16330163 -0.4347819 0.081320405 -0.21741742 0.20894982
-0.4679419 0.053904235 -0.31231 -1.1989125 -0.8503576 -1.1398556 -0.76589626 -0.68167114
-0.9055754 -1.0384557 -1.0407505 -0.76932776 -0.87588716 -0.782943 -0.43345487 0.10202588
-0.19151314 -0.39137846 -0.37704545 0.07045458
00000000: a0c5 13bf 1779 cabe e0ba 5cbe f65f 8ebe
00000010: a961 eebe 6c39 d3bd 52bc af3c 9b6b 9cbe
00000020: 8d16 8f3e d40b 443d 7b2b 3bbc 8b38 27be
00000030: bc9b debe 508b a63d aca2 5ebe f1f6 553e
00000040: 1596 efbe b0ca 5c3d 19e7 9fbe f775 99bf
00000050: 09b1 59bf cae6 91bf c711 44bf 0082 2ebf
00000060: cad3 67bf 1eec 84bf 5037 85bf aaf2 44bf
00000070: 243a 60bf f46e 48bf cced ddbe f2f2 d03d
00000080: 051c 44be c262 c8be 1a0c c1be 7e4a 903d

ode_cp.odeblock.odefunc.fc3.bias f4 [6]
-0.31591302 -0.30198577 -0.41122285 -0.96223766 -0.74616474 -0.59991384
00000000: 5abf a1be e19d 9abe cd8b d2be 3555 76bf
00000010: a704 3fbf f493 19bf

gru_dp_fw.weight_ih_l0 f4 [21, 7]
-0.076414734 0.30832484 -0.23712757 -0.095338225 0.13583323 0.13053128 -0.33562854 -0.06427914
-0.3322764 -0.1379154 0.16317359 -0.15965949 0.016604722 0.19904098 -0.17612341 0.010684699
-0.24379401 0.33280024 -0.29301485 -0.33008772 -0.22254506 0.109922975 -0.24410455 0.071897656
0.32947347 -0.22789723 0.05313629 -0.11889866 -0.30531403 -0.01253587 0.12853631 -0.03185439
-0.24783917 0.1773862 -0.3623633 0.14192519 0.3599212 0.2215307 0.0019098818 -0.037133723
-0.008989036 0.27982882 0.3742536 -0.27863693 0.11556643 0.22301564 -0.15997836 -0.17926882
-0.025036663 -0.3122546 -0.044410765 0.13348863 0.37404993 -0.017690063 0.29732868 0.20700434
-0.31936398 0.058804274 -0.18878704 0.16923538 -0.09640166 -0.16916578 -0.3330066 0.22693428
0.1581597 0.32704142 0.031988025 0.110732675 0.19453773 -0.24072789 -0.19667731 0.1901218
0.15731552 0.10387871 0.27717486 -0.33870402 -0.24619289 -0.3010672 -0.11791316 0.17005053
-0.19224003 0.1608577 0.22417536 -0.30388984 -0.3522067 5.9843063e-05 -0.07443634 -0.3634193
0.35627064 0.25242063 -0.10159916 0.030824542 -0.04013893 -0.15985648 0.3401501 0.18209323
-0.32782045 0.25802627 -0.34902665 -0.0068668425 -0.11434236 -0.3029522 0.37749955 0.043570936
-0.051211953 -0.23416522 -0.028978497 0.1846902 -0.2223128 0.29976013 -0.28716117 0.0014320016
0.11710116 0.19719198 -0.3474636 -0.20662092 -0.082341164 -0.2828479 0.34802422 -0.29423547
-0.123401284 -0.24279533 -0.22738475 0.28697237 0.17763993 0.123298556 -0.3533941 -0.22868648
0.2620357 -0.08366129 -0.24257131 -0.135963 0.25855294 -0.012869328 -0.111742705 0.14281043
0.3596492 -0.18507153 -0.15809412 -0.29373926 -0.017692536 0.01579982 -0.15088637 0.10575944
0.32804534 0.342733 0.2235013
00000000: 547f 9cbd c1dc 9d3e 92d1 72be b040 c3bd
00000010: de17 0b3e fea9 053e 81d7 abbe c8a4 83bd
00000020: 2220 aabe b239 0dbe fa16 273e c77d 23be
00000030: a006 883c 66d1 4b3e b259 34be e00e 2f3c
00000040: 23a5 79be cb64 aa3e 0b06 96be 4201 a9be
00000050: dae2 63be 4c1f e13d 8bf6 79be 143f 933d
00000060: bfb0 a83e e45d 69be 70a5 593d 2481 f3bd
00000070: 1f52 9cbe 4063 4dbc 069f 033e c079 02bd
00000080: 8dc9 7dbe baa4 353e af87 b9be d654 113e
00000090: 9747 b83e f2d8 623e 0055 fa3a 8819 18bd
000000a0: c046 13bc b945 8f3e 2b9e bf3e 80a9 8ebe
000000b0: 18ae ec3d 365e 643e 5ed1 23be 3f92 37be
000000c0: b019 cdbc d6df 9fbe 10e8 35bd 3eb1 083e
000000d0: 7983 bf3e c0ea 90bc 773b 983e f2f8 533e
000000e0: ad83 a3be c0dc 703d 6451 41be 0a4c 2d3e
000000f0: 3c6e c5bd cb39 2dbe d77f aabe 7661 683e
00000100: 9ef4 213e f971 a73e e005 033d d0c7 e23d
00000110: e634 473e 5f81 76be c765 49be 4aaf 423e
00000120: 5217 213e 5cbe d43d dde9 8d3e 9d6a adbe
00000130: fd19 7cbe 7b25 9abe 747c f1bd ba21 2e3e
00000140: 92da 44be e2b7 243e 3a8e 653e 7397 9bbe
00000150: 7054 b4be 0000 7b38 1472 98bd 1812 babe
00000160: 1b69 b63e 473d 813e 3813 d0bd c083 fc3c
00000170: b868 24bd 6bb1 23be 2728 ae3e a676 3a3e
00000180: 15d8 a7be 051c 843e 9fb3 b2be 4003 e1bb
00000190: 542c eabd 8d1c 9bbe 9f47 c13e 7077 323d
000001a0: a0c3 51bd 02c9 6fbe 5064 edbc 6e1f 3d3e
000001b0: f7a5 63be 297a 993e ca06 93be 00b2 bb3a
000001c0: bcd2 ef3d b2ec 493e c0e6 b1be 6f94 53be
000001d0: 7ca2 a8bd 71d1 90be 3b30 b23e 08a6 96be
000001e0: d0b9 fcbd 579f 78be 8cd7 68be 0bee 923e
000001f0: 3ee7 353e f483 fc3d 12f0 b4be ca2c 6abe
00000200: 8b29 863e 9c56 abbd 9d64 78be e239 0bbe
00000210: 0d61 843e e0d9 52bc 5cd9 e4bd e63c 123e
00000220: f123 b83e 6483 3dbe 6de3 21be fe64 96be
00000230: f0ef 90bc a06e 813c f581 1abe 6898 d83d
00000240: 8ff5 a73e b37a af3e 86dd 643e

gru_dp_fw.weight_hh_l0 f4 [21, 7]
-0.08794736 -0.39151096 -0.63402355 0.4896153 0.11654841 -0.45953402 -0.08185029 0.06530011
-0.2608981 -0.071932934 0.41365647 0.18774082 -0.11647071 -0.019288726 -0.11646091 0.113457166
0.007192908 0.36211473 -0.26022145 -0.20814894 -0.55323446 -0.43258923 -0.34183136 0.34871757
-0.23915471 0.4704045 -0.23759133 0.49400043 0.26097947 0.43704957 -0.44731933 0.009753995
-0.5643457 -0.081973396 -0.014305306 0.40776905 -0.23019321 -0.18908228 0.21953748 -0.049014516
0.52009654 -0.24185918 -0.26119864 0.15606806 -0.021160426 -0.15711333 -0.13529849 0.27544105
-0.008554326 0.22791617 -0.22538559 0.25751704 0.37794298 -0.08277369 -0.21623008 0.10411969
0.2919571 0.1226718 -0.35607645 0.11026162 -0.24060798 0.31589228 -0.22845131 0.27186736
0.04692832 -0.08523151 0.15595785 -0.17256865 -0.36760458 -0.10134237 -0.037779734 -0.0700121
0.19934645 -0.37690058 -0.020237971 0.01811205 -0.071261734 -0.09378732 0.3372829 -0.030603714
0.18308523 -0.16381316 -0.016050614 -0.3681963 -0.29325685 -0.3156821 -0.31712738 0.1888829
-0.21398321 -0.16502976 -0.15114975 -0.049332146 0.10919459 0.3329306 -0.17126232 0.33532885
0.3487173 0.13067 -0.6147803 -0.21760862 0.16289975 0.47975373 0.06885027 0.2527224
-0.16826536 -0.18386249 -0.42975673 -0.2962126 0.25511733 -0.27461636 -0.10886335 -0.20689757
-0.31248087 -0.44159082 -0.0029293087 0.055826537 0.155936 0.05023693 -0.0073212557 -0.074114166
0.3960538 -0.12239352 -0.028240502 -0.13509673 0.25155345 0.01159056 0.123067245 -0.2810869
-0.0915825 0.13379824 -0.74316394 0.02522551 0.065396555 -0.2236972 0.18521534 0.16405767
-0.27085945 0.045811042 -0.21697325 -0.08223191 0.15892921 0.43195957 0.47123128 -0.14014143
-0.08605448 0.089591354 -0.34364623
00000000: bf1d b4bd 2074 c8be 5e4f 22bf dbae fa3e
00000010: efb0 ee3d 0b48 ebbe 20a1 a7bd 10bc 853d
00000020: 7094 85be 9351 93bd c8ca d33e 213f 403e
00000030: 3288 eebd 6403 9ebc 0f83 eebd 3b5c e83d
00000040: 7cb2 eb3b 1a67 b93e bf3b 85be ff24 55be
00000050: c6a0 0dbf 567c ddbe 8504 afbe 1c8b b23e
00000060: f9e4 74be dcd8 f03e 244b 73be a0ed fc3e
00000070: 1a9f 853e f6c4 df3e 0a07 e5be 38cf 1f3c
00000080: f678 10bf abe1 a7bd cd60 6abc 1bc7 d03e
00000090: c5b7 6bbe c99e 41be 6fce 603e 72c3 48bd
000000a0: 0c25 053f efa9 77be d4bb 85be 4ed0 1f3e
000000b0: a158 adbc 51e2 20be b08b 0abe 9c06 8d3e
000000c0: 7227 0cbc db62 693e 7bcb 66be 46d9 833e
000000d0: be81 c13e 4185 a9bd 6b6b 5dbe b43c d53d
000000e0: 677b 953e 5a3b fb3d a74f b6be d8d0 e13d
000000f0: f061 76be a2bc a13e 24ef 69be 3332 8b3e
00000100: e937 403d dc8d aebd 6ab3 1f3e d6b5 30be
00000110: ab36 bcbe 978c cfbd ecbe 1abd 8162 8fbd
00000120: 7a21 4c3e 1df9 c0be 1aca a5bc b95f 943c
00000130: acf1 91bd 9113 c0bd 58b0 ac3e a4b4 fabc
00000140: b27a 3b3e a3be 27be 947c 83bc 3a84 bcbe
00000150: c325 96be 16a1 a1be 855e a2be 856a 413e
00000160: 6a1e 5bbe 90fd 28be 00c7 1abe 8110 4abd
00000170: 6aa1 df3d e175 aa3e 645f 2fbe 39b0 ab3e
00000180: 138b b23e 5bce 053e 3e62 1dbf cbd4 5ebe
00000190: 31cf 263e 48a2 f53e 5f01 8d3d d564 813e
000001a0: c14d 2cbe 7346 3cbe 1309 dcbe 2ea9 97be
000001b0: bd9e 823e 849a 8cbe bff3 debd f5dc 53be
000001c0: 7efd 9fbe 3118 e2be a5f9 3fbb 5eaa 643d
000001d0: b0ad 1f3e 3dc5 4d3d 25e7 efbb 2bc9 97bd
000001e0: 90c7 ca3e 74a9 fabd a058 e7bc cc56 0abe
000001f0: 9dcb 803e 55e6 3d3c ae0a fc3d 9fea 8fbe
00000200: 9b8f bbbd 6802 093e fe3f 3ebf bba5 ce3c
00000210: a1ee 853d e110 65be 17a9 3d3e bcfe 273e
00000220: 17ae 8abe 5ca4 3b3d 3c2e 5ebe 3469 a8bd
00000230: 57be 223e ce29 dd3e 3a45 f13e 3c81 0fbe
00000240: 553d b0bd ac7b b73d 66f2 afbe

gru_dp_fw.bias_ih_l0 f4 [21]
-0.5668122 -0.2923302 -0.14702941 -0.13817485 -0.39850348 -0.31263998 -0.15960649 0.22237177
-0.09816472 -0.28423426 0.22603785 0.2933583 0.17628221 0.1935484 0.0014807899 -0.08872016
-0.003791854 -0.13152128 -0.07457939 0.042917483 -0.104045935
00000000: 9b1a 11bf 4eac 95be e18e 16be b57d 0dbe
00000010: a608 ccbe 5912 a0be e26f 23be 6db5 633e
00000020: 960a c9bd 2787 91be 7776 673e 0f33 963e
00000030: 5383 343e 8d31 463e 1017 c23a eab2 b5bd
00000040: c180 78bb 84ad 06be 14bd 98bd 3eca 2f3d
00000050: 0916 d5bd

gru_dp_fw.bias_hh_l0 f4 [21]
-0.100826144 -0.0022977039 -0.10881284 0.19905895 0.10128824 -0.30884013 0.40856495 -0.37095195
-0.06733762 -0.235726 -0.1914343 0.14544103 -0.22235624 0.0530157 0.008232167 0.25717792
0.1855233 0.21507688 0.18294483 -0.14912003 0.22329895
00000000: f07d cebd 1395 16bb 44d9 debd 1cd6 4b3e
00000010: 3570 cf3d 4b20 9ebe 6d2f d13e 6aed bdbe
00000020: 4ee8 89bd 2862 71be 5a07 44be 7eee 143e
00000030: 5bb1 63be fe26 593d 36e0 063c d3ac 833e
00000040: d2f9 3d3e 1d3d 5c3e e455 3b3e ecb2 18be
00000050: 7ba8 643e

gru_cp_fw.weight_ih_l0 f4 [18, 6]
0.0022941013 -0.5687406 -0.11125539 0.0805086 0.08247972 -0.26248723 0.5085404 -0.40648946
-0.3241393 -0.471235 0.19454086 0.331008 -0.20395678 0.03874397 0.2282138 -0.20862068
0.4383827 -0.16343278 -0.57877064 0.16047896 -0.022836596 -0.2854695 -0.19495477 -0.0670002
0.15374108 -0.08787087 -0.20106235 0.05876393 0.13395844 0.031259235 0.27260867 0.11644667
0.16065115 -0.25481775 0.0449123 0.20681646 -0.06222233 0.12619859 0.016674528 0.057301044
0.1167086 -0.13618791 -0.40292707 -0.046849124 -0.05516167 -0.8324625 0.2948167 0.36543888
-0.23382127 -0.2987827 -0.27845928 0.48436478 -0.10327267 0.10193566 0.12304991 0.085429996
-0.27223316 -0.22718221 -0.26670915 -0.57860726 -0.7306593 0.050188437 0.1260673 0.106684394
-0.27620223 -0.062118452 -0.36916924 -0.17637718 -0.37841567 -0.019885913 0.42377165 -0.5703465
-0.047779605 -0.13037418 0.012732614 -0.030568363 0.20646366 -0.2660803 -0.19341338 -0.045782387
0.13811205 0.025679734 0.70496035 0.35913935 0.20394705 0.2036912 -0.36555573 -0.48916465
0.23312913 0.2708504 -0.15544893 0.19695428 -0.42468488 -0.031101275 -0.053905047 0.582718
0.22339247 -0.05426303 -0.027767332 -0.37353197 0.110826775 0.4220182 0.071699254 0.23950496
-0.30971703 -0.42237863 0.16016127 -0.23840933
00000000: a258 163b fc98 11bf ded9 e3bd b1e1 a43d
00000010: 21eb a83d ba64 86be b42f 023f 631f d0be
00000020: 96f5 a5be b745 f1be b835 473e e179 a93e
00000030: 0cda 50be ffb1 1e3d e1b0 693e a9a0 55be
00000040: b273 e03e ec5a 27be 502a 14bf 9954 243e
00000050: d013 bbbc 0f29 92be 39a2 47be 6737 89bd
00000060: 4d6e 1d3e a5f5 b3bd 4ae3 4dbe 72b2 703d
00000070: 672c 093e af09 003d 5d93 8b3e 977b ee3d
00000080: bc81 243e 7977 82be f6f5 373d b2c7 533e
00000090: d8dc 7ebd 343a 013e 0599 883c 80b4 6a3d
000000a0: eb04 ef3d d874 0bbe 754c cebe dee4 3fbd
000000b0: 34f1 61bd 431c 55bf 37f2 963e ce1a bb3e
000000c0: d86e 6fbe 0cfa 98be 3792 8ebe a9fe f73e
000000d0: 9f80 d3bd a5c3 d03d 9701 fc3d ecf5 ae3d
000000e0: 2562 8bbe 74a2 68be 1a8e 88be 9b1f 14bf
000000f0: 7d0c 3bbf 6492 4d3d c917 013e 597d da3d
00000100: 616a 8dbe eb6f 7ebd c003 bdbe 389c 34be
00000110: b3bf c1be c8e7 a2bc 99f8 d83e 3a02 12bf
00000120: 8cb4 43bd cf80 05be 749c 503c 816a fabc
00000130: 366b 533e ad3b 88be 280e 46be 5086 3bbd
00000140: 3f6d 0d3e 4e5e d23c 4878 343f 1de1 b73e
00000150: 7fd7 503e 6d94 503e 1f2a bbbe ca73 fabe
00000160: 67b9 6e3e e7ac 8a3e 012e 1fbe 62ae 493e
00000170: 4c70 d9be 1ac8 febc 8acb 5cbd 022d 153f
00000180: ffc0 643e e942 5ebd 5178 e3bc 953f bfbe
00000190: 26f9 e23d c512 d83e 0fd7 923d ca40 753e
000001a0: 3b93 9ebe 0342 d8be 5101 243e 9321 74be

gru_cp_fw.weight_hh_l0 f4 [18, 6]
-0.6790001 0.03820971 0.031964693 0.09469836 0.16657233 0.4654619 -0.9160469 -0.9252579
0.06652303 0.4639455 0.8633668 -0.065084435 -0.4331264 -0.32932812 -0.24913563 0.32749394
0.1329595 0.00695716 -0.28066385 -0.110997 0.11623676 -0.019434692 -0.30646402 -0.19980709
0.5416188 -0.24426907 0.034389332 0.3312077 0.09381214 -0.17572686 -0.0017414984 0.122001365
-0.1670728 -0.12140634 0.36122862 -0.051720228 -0.99731064 -0.08848772 0.018731406 0.543546
0.3668666 -0.15654787 -0.530583 -0.13456443 0.11856243 0.39175838 0.4993799 0.035098143
0.09499305 0.026230374 0.26673916 -0.17233926 0.4026134 0.046206065 -0.72623134 -0.41408554
0.5916067 0.17393327 0.20840447 -0.17032039 -0.27747095 -0.23327027 0.41462728 0.21571432
0.58005923 0.12916316 0.21255417 0.030038496 0.030942712 -0.40604168 -0.40497863 0.28651577
-0.085027635 0.11691089 -0.27457893 -0.3370386 -0.32420045 0.21177971 0.30293107 -0.051750727
-0.15373182 -0.14560583 -0.5221013 -0.24927253 -0.37661153 -0.15717328 -0.22858784 0.6000078
0.0976984 -0.2780701 -0.19254455 0.28929538 -0.23680435 0.033404592 -0.16232535 0.264184
0.25254488 0.1418784 -0.18675306 -0.038301446 0.00020420708 -0.353585 0.10311009 0.050565105
0.4378377 0.3009308 -0.030626299 -0.3697117
00000000: f3d2 2dbf c981 1c3d 69ed 023d 37f1 c13d
00000010: f091 2a3e 0651 ee3e 0d82 6abf b4dd 6cbf
00000020: 3a3d 883d 448a ed3e 9b05 5d3f fd4a 85bd
00000030: bec2 ddbe b29d a8be 691d 7fbe 49ad a73e
00000040: 8926 083e e3f8 e33b 2cb3 8fbe 6552 e3bd
00000050: 8a0d ee3d 8135 9fbc dae8 9cbe 3b9a 4cbe
00000060: 88a7 0a3f ac21 7abe d4db 0c3d 0e94 a93e
00000070: 9420 c03d bef1 33be fd42 e4ba dadb f93d
00000080: 2215 2bbe e3a3 f8bd f5f2 b83e 97d8 53bd
00000090: c04f 7fbf 0d39 b5bd 9b72 993c d525 0b3f
000000a0: f0d5 bb3e 164e 20be 4ad4 07bf 42cb 09be
000000b0: dcd0 f23d 8e94 c83e b9ae ff3e 12c3 0f3d
000000c0: b78b c23d 15e1 d63c 0992 883e b479 30be
000000d0: 5823 ce3e 9242 3d3d 4cea 39bf 0503 d4be
000000e0: 8973 173f 901b 323e fb67 553e 7868 2ebe
000000f0: ac10 8ebe 67de 6ebe 074a d43e 37e4 5c3e
00000100: c37e 143f 5943 043e cda7 593e 4b13 f63c
00000110: 927b fd3c b2e4 cfbe 5c59 cfbe 32b2 923e
00000120: f822 aebd fa6e ef3d 9c95 8cbe 5390 acbe
00000130: 9afd a5be c8dc 583e c819 9b3e 92f8 53bd
00000140: e06b 1dbe b219 15be 6ea8 05bf 4c41 7fbe
00000150: 3ad3 c0be 08f2 20be ee12 6abe 1c9a 193f
00000160: 1916 c83d 345f 8ebe 662a 45be 861e 943e
00000170: d77c 72be 41d3 083d 9e38 26be 2043 873e
00000180: 904d 813e 9248 113e 323c 3fbe fae1 1cbd
00000190: 6c20 5639 1809 b5be 622b d33d 5b1d 4f3d
000001a0: 432c e03e 9a13 9a3e 01e4 fabc da4a bdbe

gru_cp_fw.bias_ih_l0 f4 [18]
-0.014626655 -0.16949773 0.18798475 -0.54994875 -0.20992674 -0.12004649 0.08725799 0.3399835
0.39515463 0.08942408 0.2863256 -0.5162683 -0.11390035 0.11933544 -0.04709654 -0.08967372
-0.10051595 -0.06978514
00000000: a3a4 6fbc d090 2dbe 137f 403e 71c9 0cbf
00000010: 09f7 56be efda f5bd 51b4 b23d 5112 ae3e
00000020: b551 ca3e f923 b73d 4599 923e 292a 04bf
00000030: 9644 e9bd 2466 f43d 4de8 40bd dba6 b7bd
00000040: 4edb cdbd 83eb 8ebd

gru_cp_fw.bias_hh_l0 f4 [18]
0.16814317 -0.07437722 -0.4431862 -0.09873789 -0.3485657 -0.339698 0.3638723 0.2560091
0.13866729 0.50037014 0.475517 -0.14575134 0.2148402 -0.097744785 0.041789338 -0.18553507
0.13037282 0.22220618
00000000: b92d 2c3e 1553 98bd 4de9 e2be 1737 cabd
00000010: 3477 b2be e5ec adbe 784d ba3e a013 833e
00000020: ccfe 0d3e 4218 003f f776 f33e d73f 15be
00000030: 12ff 5b3e 6b2e c8bd 4c2b 2b3d e8fc 3dbe
00000040: 7480 053e 048a 633e

gru_dp_bw.weight_ih_l0 f4 [21, 7]
-0.1594642 0.43353945 -0.40769377 0.08998833 0.0015060945 0.15153487 0.13148578 -0.10708879
-0.006249985 -0.24809079 -0.38906196 0.0106796315 0.61646676 0.05000515 -0.025435632 0.16705635
-0.4987227 -0.14914857 0.26514107 -0.17974721 -0.21463762 -0.22409186 0.42194286 -0.28256154
-0.2730864 -0.027378872 -0.15778671 -0.4152594 0.2566527 0.70309645 -0.566452 0.2753262
-0.70152307 -0.03879462 0.18824907 -0.05784561 -0.09930957 -0.14677876 -0.42604142 0.37714717
-0.3512871 -0.15647979 -0.054539345 -0.108076595 -0.36822054 -0.3494099 0.31253397 0.20581776
-0.02443146 0.75475323 -0.47960824 -0.08393548 0.18242934 0.1000204 -0.43529335 -0.12942024
-0.254557 0.02184677 0.060765382 -0.011853477 -0.027883172 0.4800771 0.37659428 -0.23729388
-0.14430273 0.16245365 0.08842232 -0.17764893 -0.20803903 -0.033116665 -0.18064015 0.004647931
0.14331914 -0.13326426 -0.16330545 -0.27481854 0.07681023 0.27667 0.8378188 0.021951042
0.63161814 0.22195202 0.058265608 -0.162205 0.0070293653 -0.3175809 -0.004141827 -0.2063044
-0.1293237 -0.047492333 0.11105303 -0.23658133 -0.1369921 0.028853131 -0.0212991 0.098292604
0.19415301 -0.3822664 -0.36216378 0.18247983 0.15320607 -0.007996658 -0.07913587 0.19047622
0.10353249 0.19310224 -0.082910255 -0.00033757105 0.17665827 -0.036649626 -0.3208141 -0.07436932
-0.068787836 -0.041421544 -0.22191666 0.031049034 0.036855772 -0.07340378 0.009943094 -0.16962369
0.13810398 -0.06256118 -0.17819624 0.18155824 -0.15608911 -0.07850841 -0.4868112 -0.71347755
-0.19324087 -0.45349357 -0.006453891 -0.17724152 0.058479767 -0.03788169 -0.44700113 -0.14019972
-0.41941154 0.2276129 -0.055429745 -0.109741494 0.291012 0.07708808 0.07481943 0.02986357
-0.31180543 -0.2374794 0.6683392
00000000: 954a 23be e2f8 dd3e 3dbd d0be cd4b b83d
00000010: 2568 c53a f52b 1b3e 35a4 063e 5e51 dbbd
00000020: adcc ccbb 830b 7ebe 2133 c7be 9ff9 2e3c
00000030: c4d0 1d3f 33d2 4c3d 635e d0bc d210 2b3e
00000040: 9558 ffbe 67ba 18be 92c0 873e a70f 38be
00000050: f7c9 5bbe 5678 65be e508 d83e e8ab 90be
00000060: fbd1 8bbe a849 e0bc d792 21be e19c d4be
00000070: fc67 833e 21fe 333f 0003 11bf 8ef7 8c3e
00000080: 0497 33bf 1ce7 1ebd 5dc4 403e 85ef 6cbd
00000090: d162 cbbd 2c4d 16be 1a22 dabe 6f19 c13e
000000a0: e7db b3be 3d3c 20be a664 5fbd 4357 ddbd
000000b0: 6787 bcbe dbe5 b2be 7404 a03e e4c1 523e
000000c0: 7c24 c8bc 8237 413f 368f f5be 5de6 abbd
000000d0: c2ce 3a3e 7fd7 cc3d c5de debe bd86 04be
000000e0: 4c55 82be fff7 b23c 1fe5 783d 1635 42bc
000000f0: 406b e4bc aacc f53e f7d0 c03e 2bfd 72be
00000100: 18c4 13be 405a 263e c316 b53d 9ae9 35be
00000110: 2f08 55be 57a5 07bd bbf9 38be ac4d 983b
00000120: 41c2 123e 6d76 08be 8b39 27be 04b5 8cbe
00000130: af4e 9d3d b1a7 8d3e 4b7b 563f acd2 b33c
00000140: bab1 213f 6447 633e eba7 6e3d 1119 26be
00000150: 9756 e63b f799 a2be 2ab8 87bb 7641 53be
00000160: 6f6d 04be 5287 42bd c56f e33d 6042 72be
00000170: a847 0cbe 675d ec3c 737b aebc a24d c93d
00000180: 0cd0 463e 6cb8 c3be 886d b9be fedb 3a3e
00000190: 0de2 1c3e 6a04 03bc fd11 a2bd 330c 433e
000001a0: d808 d43d 98bc 453e dacc a9bd 05fc b0b9
000001b0: e8e5 343e eb1d 16bd bf41 a4be f14e 98bd
000001c0: a3e0 8cbd a3a9 29bd 1f3e 63be 8b5a fe3c
000001d0: 14f6 163d b954 96bd 5ce8 223c d5b1 2dbe
000001e0: 216b 0d3e 1320 80bd 1379 36be 67ea 393e
000001f0: d3d5 1fbe 04c9 a0bd 513f f9be 77a6 36bf
00000200: efe0 45be 4f30 e8be 297b d3bb cd7e 35be
00000210: 7b88 6f3d d529 1bbd 55dd e4be 8490 0fbe
00000220: 1cbd d6be 5b13 693e 4d0a 63bd 26c0 e0bd
00000230: 86ff 943e 5be0 9d3d ee3a 993d 72a4 f43c
00000240: f6a4 9fbe cd2d 73be 4718 2b3f

gru_dp_bw.weight_hh_l0 f4 [21, 7]
-0.47191325 0.18505156 0.4776625 0.17908414 -0.6755169 0.4974435 0.072103105 -0.006957449
-0.13709538 -0.21347213 -0.55828315 -0.5693474 0.19548231 0.09888107 -0.37392807 0.2801281
-0.22490513 0.06496516 -0.18258478 0.090443105 -0.1291325 -0.14018 0.23750046 0.40796608
-0.40748236 -0.07875607 -0.0046379515 -0.015642334 -0.10513876 -0.3748751 0.22895543 0.39047465
0.1958475 0.55226254 -0.6215653 -0.386408 0.41773608 0.4514143 -0.14394176 -1.1034453
0.23286848 -0.09455709 -0.29102173 0.22226684 0.28466538 -0.5767543 -0.09065449 -0.43419734
-0.12789163 0.2310772 0.6434434 -0.00015177482 -0.9143916 -0.14566915 -0.7474373 0.44908243
0.13849849 0.28034544 0.18694988 -0.17841156 -0.24608491 -0.06276649 -0.22529298 -0.015302647
0.16906396 -0.35139546 -0.22468348 -0.19365494 -0.4203217 -0.013046932 0.12027258 0.23574176
0.2538542 -0.32539386 0.17788182 -0.21072578 0.16596569 -0.27732655 -0.52456236 0.5811499
0.31069595 0.62701637 0.5253615 -0.18636748 0.24656294 0.01495612 0.606926 0.1419342
0.12607427 -0.06266759 0.09680439 0.08025261 0.29592574 0.5301053 -0.2954721 0.052610192
-0.27511695 0.2931071 0.26647708 0.3626608 -0.28347033 -0.27700087 0.19167154 -0.5489262
0.10181061 0.41784108 0.36722985 -0.0034283232 -0.30577168 0.270777 -0.21714917 0.6954524
-0.09298064 -0.19226657 -0.0053773583 0.59906566 -0.56314254 0.33145735 -0.32931706 -0.38540143
-0.07590395 -0.15036537 0.48027566 -0.3048381 0.43217874 -0.71272266 0.4594045 0.303989
0.13101047 0.17143579 0.44690207 0.12727705 -0.022297544 -0.5392421 -0.5966354 -0.018983435
0.24859653 -0.15573865 0.30795473 -0.46878108 0.47312364 -0.009987257 -0.08039139 -0.36366802
0.7697971 -0.35883573 0.4266704
00000000: 9d9e f1be 287e 3d3e 2e90 f43e d561 373e
00000010: adee 2cbf eab0 fe3e cbaa 933d 50fb e3bb
00000020: bb62 0cbe 7098 5abe a5eb 0ebf c0c0 11bf
00000030: 842c 483e 2982 ca3d 8073 bfbe f36c 8f3e
00000040: 884d 66be 740c 853d 81f7 3abe 3c3a b93d
00000050: 4f3b 04be 598b 0fbe 5233 733e eee0 d03e
00000060: 87a1 d0be dd4a a1bd f5f9 97bb 5a24 80bc
00000070: fd52 d7bd a1ef bfbe 4b73 6a3e 4bec c73e
00000080: 3f8c 483e 1461 0d3f e71e 1fbf 45d7 c5be
00000090: 81e1 d53e c61f e73e 7865 13be b23d 8dbf
000000a0: 1375 6e3e 26a7 c1bd cd00 95be eb99 633e
000000b0: a9bf 913e 2ba6 13bf 10a9 b9bd 1d4f debe
000000c0: 06f6 02be 809f 6c3e b5b8 243f be25 1fb9
000000d0: 9115 6abf 4b2a 15be 0d58 3fbf 22ee e53e
000000e0: 8cd2 0d3e 7089 8f3e ca6f 3f3e 85b1 36be
000000f0: affd 7bbe b88b 80bd 34b3 66be f4b7 7abc
00000100: 1a1f 2d3e 1bea b3be 6d13 66be 7b4d 46be
00000110: 6834 d7be cdc2 55bc 7851 f63d 4a66 713e
00000120: 2df9 813e 069a a6be a726 363e 80c8 57be
00000130: e9f2 293e bffd 8dbe b849 06bf 3dc6 143f
00000140: 8a13 9f3e 2584 203f 177e 063f 1ed7 3ebe
00000150: ff7a 7c3e 840a 753c 815f 1b3f 3357 113e
00000160: 9d19 013e de57 80bd 6141 c63d 7b5b a43d
00000170: 9483 973e fbb4 073f 1e48 97be c97d 573d
00000180: 21dc 8cbe 2212 963e af6f 883e adae b93e
00000190: 0623 91be 0fd3 8dbe 8b45 443e 6d86 0cbf
000001a0: 1582 d03d 44ef d53e 8d05 bc3e b8ad 60bb
000001b0: 1b8e 9cbe 48a3 8a3e 5a5c 5ebe 2b09 323f
000001c0: a26c bebd 87e1 44be 8d34 b0bb 5e5c 193f
000001d0: 1c2a 10bf c7b4 a93e 3f9c a8be 5653 c5be
000001e0: 8873 9bbd 61f9 19be b1e6 f53e bd13 9cbe
000001f0: 8846 dd3e fe74 36bf 1137 eb3e 72a4 9b3e
00000200: 9c27 063e dd8c 2f3e 59d0 e43e ea54 023e
00000210: 57a9 b6bc c50b 0abf 19bd 18bf 2683 9bbc
00000220: 1790 7e3e f479 1fbe 3eac 9d3e 1304 f0be
00000230: 433d f23e 98a1 23bc 3ea4 a4bd b232 babe
00000240: 6c11 453f 51b9 b7be 8b74 da3e

gru_dp_bw.bias_ih_l0 f4 [21]
-0.13471694 0.5198617 0.34415513 0.065397955 0.088802256 0.23802702 0.3828303 0.6874645
0.72710943 0.888577 1.0354631 -0.028114427 0.7660955 1.1866248 -0.08595594 -0.0060712183
-0.022591177 -0.14820454 -0.29832855 -0.30415186 -0.17787713
00000000: 3df3 09be a815 053f 1a35 b03e 5def 853d
00000010: f5dd b53d 5bbd 733e 5502 c43e acfd 2f3f
00000020: d823 3a3f c879 633f 0e8a 843f 3a50 e6bc
00000030: d61e 443f 52e3 973f ab09 b0bd 12f1 c6bb
00000040: 2211 b9bc eec2 17be 85be 98be cbb9 9bbe
00000050: 6c25 36be

gru_dp_bw.bias_hh_l0 f4 [21]
-0.1809261 0.54440653 0.28745788 0.09024556 -0.52320844 0.23495056 0.1598637 0.121627174
0.8998894 0.41288725 0.78224486 0.24590582 0.40790907 0.75962764 -0.17216659 0.054023165
-0.0217885 -0.1316535 0.2067703 0.09785995 0.16158167
00000000: b144 39be 3a5e 0b3f ae2d 933e aad2 b83d
00000010: fdf0 05bf e196 703e 4fb3 233e ab17 f93d
00000020: 275f 663f f565 d33e 3341 483f bcce 7b3e
00000030: 75d9 d03e f576 423f 704c 30be 6547 5d3d
00000040: cc7d b2bc 2dd0 06be 98bb 533e cc6a c83d
00000050: aa75 253e

gru_cp_bw.weight_ih_l0 f4 [18, 6]
0.4743892 -0.35735723 -0.025525471 0.1816864 0.36838835 0.0022561906 0.072445065 -0.28259423
-0.40197405 -0.84490585 0.07250598 -0.106170304 0.14243339 -0.6164433 0.26471397 -0.3880998
0.4829376 0.17345123 0.42518577 0.053485133 -0.33076563 0.07558382 -0.22635117 -0.024599053
0.4989754 -0.2813837 -0.13909833 -0.27209046 -0.08890786 -0.11635256 0.101954766 -0.59921867
0.21920018 -0.108873904 0.30586785 0.11274664 -0.47285542 0.18192232 0.048723724 -0.04100155
-0.21264479 0.13579383 -0.36031622 -0.07202155 -0.40171346 0.2715422 -0.20922394 0.08732537
0.538457 -0.13030788 -0.39497635 -0.15276857 0.16737865 -0.12215883 -0.32021385 -0.20882222
0.22073665 -0.105959184 -0.08582612 0.049617887 0.9210053 -0.1804559 -0.2535951 -0.22866207
-0.39427286 0.15460445 0.24758925 0.16554981 0.32247296 -0.48441556 0.08758304 -0.1753362
-0.4697241 -0.06096489 0.03331112 -0.199292 -0.15758596 -0.24126418 0.39299718 0.14306442
0.33695024 0.06649104 0.1608612 0.24680069 -0.27133694 0.21060827 0.4362226 0.21274967
0.08911196 -0.0075042425 0.17022368 0.11188543 -0.10879751 0.048762746 0.312616 0.3270098
-0.45884466 0.31376678 0.45450297 0.4026714 0.06657974 0.22976336 0.044292655 -0.14861128
0.13143113 -0.15039103 -0.17970325 -0.0024663245
00000000: 24e3 f23e 87f7 b6be cb1a d1bc 000c 3a3e
00000010: 669d bc3e 99dc 133b 145e 943d 31b0 90be
00000020: 8bcf cdbe c04b 58bf 047e 943d d16f d9bd
00000030: 0fda 113e 3acf 1dbf 9788 873e 04b5 c6be
00000040: 9943 f73e 339d 313e f3b1 d93e 3a13 5b3d
00000050: 1d5a a9be b1cb 9a3d 9ac8 67be f483 c9bc
00000060: b479 ff3e 8611 90be cb6f 0ebe 714f 8bbe
00000070: 5315 b6bd 404a eebd a9cd d03d 6566 19bf
00000080: 0376 603e 48f9 debd b69a 9c3e b6e7 e63d
00000090: 1b1a f2be d849 3a3e 8792 473d 3ef1 27bd
000000a0: 8ebf 59be 8a0d 0b3e 5e7b b8be 0980 93bd
000000b0: 63ad cdbe 9407 8b3e cd3e 56be a5d7 b23d
000000c0: 51d8 093f 6e6f 05be 573a cabe 5d6f 1cbe
000000d0: 4f65 2b3e 692e fabd 12f3 a3be 7ed5 55be
000000e0: ca08 623e 2101 d9bd 9bc5 afbd 203c 4b3d
000000f0: 01c7 6b3f 6ec9 38be 38d7 81be 6426 6abe
00000100: 22de c9be a150 1e3e 0988 7d3e e485 293e
00000110: 2d1b a53e 5105 f8be bd5e b33d 558b 33be
00000120: ad7f f0be 52b6 79bd 3e71 083d 3413 4cbe
00000130: 375e 21be f50d 77be ed36 c93e 7b7f 123e
00000140: be84 ac3e 742c 883d ccb8 243e 52b9 7c3e
00000150: adec 8abe b2a9 573e 9258 df3e 0ddb 593e
00000160: 5580 b63d 26e6 f5bb 1e4f 2e3e 3024 e53d
00000170: 3bd1 debd 72bb 473d 340f a03e d46d a73e
00000180: b0ed eabe 0aa6 a03e 9db4 e83e f22a ce3e
00000190: f55a 883d 1647 6b3e 376c 353d 8e2d 18be
000001a0: e295 063e 1b00 1abe 2104 38be 0fa2 21bb

gru_cp_bw.weight_hh_l0 f4 [18, 6]
0.7663429 -0.20784438 -0.3312157 0.37366137 -0.42018148 0.47380555 -0.30182663 0.3245299
-0.50860226 0.31084448 -0.49980116 -0.3406486 -0.4214113 0.48029205 0.19792913 0.562089
-0.5851724 -0.09123493 -0.10002102 0.2442269 -0.101203516 0.6913524 -0.47883904 -0.33614197
0.021643655 0.53506905 0.01991816 0.5483952 0.07895587 -0.13998589 -0.742289 0.38873538
0.32107246 -0.14169832 0.162763 -0.38333157 -0.11531483 0.23464242 0.11664421 0.41648182
-0.25417635 0.08161168 -0.24798672 0.01748856 0.09430466 -0.15236044 -0.114357844 0.02391333
0.585279 -0.62378556 0.023598617 -0.31201926 0.03913692 0.07316107 -0.51242906 -0.01991819
-0.09018132 -0.1902034 0.25497422 0.19953859 -0.3064481 -0.2875958 0.3268806 0.22252403
-0.24996437 -0.11635975 0.67905277 -0.40584436 -0.37706104 0.46651456 -0.45190015 0.33573824
0.28661668 -0.19779097 -0.24691324 0.33824548 -0.76637006 0.39080772 -0.43720737 0.43274856
0.27936375 -0.16911842 0.27752995 -0.2753386 -0.84817445 0.67040646 0.2228346 0.62723684
0.19679922 0.31081283 -0.6148616 0.3769629 0.45525703 -0.117359914 0.18751837 0.15230678
-0.41242242 -0.08806816 0.08684772 0.30337414 0.27073112 -0.38487726 0.40439078 -0.71680003
-0.46628612 -0.47524467 -0.059660524 0.09877465
00000000: 0c2f 443f 28d5 54be 1b95 a9be 8b50 bf3e
00000010: 0722 d7be a496 f23e 0589 9abe c828 a63e
00000020: c233 02bf 0227 9f3e f0e5 ffbe 7e69 aebe
00000030: 39c3 d7be d7e8 f53e efad 4a3e 11e5 0f3f
00000040: dccd 15bf 61d9 babd d2d7 ccbd 9e16 7a3e
00000050: ca43 cfbd 79fc 303f 642a f5be cd1a acbe
00000060: 094e b13c 49fa 083f 692b a33c a163 0c3f
00000070: 9db3 a13d 7658 0fbe a706 3ebf 5308 c73e
00000080: 9c63 a43e 5d19 11be 58ab 263e 0944 c4be
00000090: 2e2a ecbd 1a46 703e 29e3 ee3d 1b3d d53e
000000a0: 6723 82be 0624 a73d 3bf0 7dbe 2b44 8f3c
000000b0: cd22 c13d 6004 1cbe 7234 eabd e3e5 c33c
000000c0: d8d4 153f 69b0 1fbf e351 c13c fdc0 9fbe
000000d0: 094e 203d 79d5 953d 8d2e 03bf 792b a3bc
000000e0: fcb0 b8bd aec4 42be fb8b 823e d853 4c3e
000000f0: c4e6 9cbe c23f 93be e55c a73e 57dd 633e
00000100: a9f6 7fbe 054e eebd 67d6 2d3f d5ca cfbe
00000110: 250e c1be ffda ee3e 755f e7be e2e5 ab3e
00000120: 6cbf 923e b789 4abe d3d6 7cbe 832e ad3e
00000130: d430 44bf f317 c83e a5d9 dfbe 3891 dd3e
00000140: c408 8f3e 612d 2dbe 6818 8e3e 2ef9 8cbe
00000150: f621 59bf c29f 2b3f c12e 643e 9892 203f
00000160: bc85 493e dc22 9f3e 9267 1dbf 4801 c13e
00000170: 7317 e93e 655a f0bd d104 403e 4ff6 1b3e
00000180: 0829 d3be 145d b4bd 38dd b13d db53 9b3e
00000190: 459d 8a3e a20e c5be 4f0c cf3e 3580 37bf
000001a0: 0ebd eebe 4553 f3be 985e 74bd 5d4a ca3d

gru_cp_bw.bias_ih_l0 f4 [18]
0.09134202 0.3313771 0.017646411 0.37367526 0.32474205 -0.116566606 0.27093822 0.43237782
0.510141 0.4766219 0.10121763 0.50842005 -0.15916532 0.38458472 0.03797072 0.2519079
-0.21813434 0.21104985
00000000: 8611 bb3d 42aa a93e 358f 903c 5d52 bf3e
00000010: 9744 a63e 79ba eebd 6ab8 8a3e a060 dd3e
00000020: 9a98 023f c907 f43e 304b cf3d d127 023f
00000030: 3cfc 22be 4ae8 c43e 3087 1b3d 13fa 803e
00000040: 9c5e 5fbe 741d 583e

gru_cp_bw.bias_hh_l0 f4 [18]
0.10540712 -0.0011680509 0.19317636 0.35479826 0.30594072 0.13378534 0.47637248 0.64340395
0.399324 0.19668521 0.5372549 0.34985057 0.111765996 -0.36602202 -0.024309285 -0.2315656
0.24028172 -0.04653448
00000000: b0df d73d 4919 99ba 06d0 453e 1ea8 b53e
00000010: 43a4 9c3e 06ff 083e 18e7 f33e 1fb6 243f
00000020: 3274 cc3e d967 493e 8a89 093f 9d1f b33e
00000030: 92e5 e43d 3d67 bbbe 4424 c7bc 881f 6dbe
00000040: 690c 763e f09a 3ebd

fc_dp.weight f4 [1, 14]
-0.0061273915 -0.031515073 -0.026140891 0.0073281117 0.0031228373 -0.002348403 0.0396203 -0.4498254
-0.47435465 0.64537734 0.623966 0.046034817 0.4625281 -0.5011706
00000000: 49c8 c8bb f315 01bd 6c25 d6bc a820 f03b
00000010: 84a8 4c3b aae7 19bb e548 223d 844f e6be
00000020: 9dde f2be 7337 253f 3cbc 1f3f 018f 3c3d
00000030: 7cd0 ec3e b74c 00bf

fc_cp.weight f4 [1, 12]
0.022283385 0.05816938 -0.041505773 -0.06904424 -0.016947 0.0002946878 0.35670483 -0.37782946
-0.41585627 -0.43643093 -0.38250536 0.38912034
00000000: a58b b63c 0443 6e3d f501 2abd 1167 8dbd
00000010: 6fd4 8abc 5480 9a39 04a2 b63e dd72 c1be
00000020: 1deb d4be e073 dfbe bed7 c3be c83a c73e

fc_all.weight f4 [1, 25]
0.007933925 0.011144559 0.09728333 0.0021154184 0.0075496393 -0.11385924 -0.019498782 0.28856143
-0.08817507 0.08103025 0.29248267 -0.18145406 0.0024309305 -0.09048341 -0.4848432 -0.08235795
-0.0105543025 -0.0037153964 -0.06511482 0.05210475 -0.08719243 -0.06440032 -0.0934704 -0.33956894
-0.21288095
00000000: 4bfd 013c ab97 363c 7c3c c73d d5a2 0a3b
00000010: f762 f73b 092f e9bd e9bb 9fbc 53be 933e
00000020: 2295 b4bd 30f3 a53d 4ac0 953e 18cf 39be
00000030: 3f50 1f3b 5e4f b9bd 5e3d f8be 49ab a8bd
00000040: f4eb 2cbc 027e 73bb eb5a 85bd ca6b 553d
00000050: f291 b2bd 51e4 83bd 696d bfbd fbdb adbe
00000060: 77fd 59be
