related_code/embeddings/emb_weight_dp_7.npy (npy, 72480 bytes, 1 tensors)

array f8 [1292, 7]
00000000: 0000 0000 0000 0000 0000 0000 0000 0000
00000010: 0000 0000 0000 0000 0000 0000 0000 0000
00000020: 0000 0000 0000 0000 0000 0000 0000 0000
00000030: 0000 0000 0000 0000 0000 00a0 4c15 f4bf
00000040: 0000 0000 bada f13f 0000 0060 c1a8 0340
00000050: 0000 0020 c1ff dcbf 0000 0080 e09c f53f
00000060: 0000 0080 3732 ddbf 0000 0080 0d4f f13f
00000070: 0000 00a0 35cd f6bf 0000 0040 97c5 d23f
00000080: 0000 0040 1ceb fd3f 0000 0000 54e3 ffbf
00000090: 0000 0080 36ab 02c0 0000 00a0 1a2f f03f
000000a0: 0000 0080 bdfb e2bf 0000 0020 0456 f2bf
000000b0: 0000 00e0 e00b f53f 0000 0080 f98f 0d40
000000c0: 0000 00c0 2440 e0bf 0000 0000 1214 0740
000000d0: 0000 0060 5227 f5bf 0000 0040 840d f83f
000000e0: 0000 0040 d1ae e0bf 0000 0000 533f e73f
000000f0: 0000 0040 b6f3 0a40 0000 00e0 9c11 f2bf
00000100: 0000 0080 5149 0440 0000 0060 ecaf 0ec0
00000110: 0000 0020 fdf6 f43f 0000 00a0 a223 f5bf
00000120: 0000 00e0 eb40 0040 0000 00a0 3a01 0e40
00000130: 0000 0000 7a36 efbf 0000 0000 4bd9 0040
00000140: 0000 0000 b37b fcbf 0000 0060 8fc2 f73f
00000150: 0000 0080 50a5 dcbf 0000 00e0 fdf1 ee3f
00000160: 0000 00c0 3bce 0640 0000 00a0 baf2 e2bf
00000170: 0000 00a0 bdc1 0240 0000 00c0 642a 04c0
00000180: 0000 0000 5f98 f43f 0000 00c0 5eef b2bf
00000190: 0000 0000 9c33 e8bf 0000 0040 f30e 0d40
000001a0: 0000 00a0 395d e73f 0000 0060 09f9 fc3f
000001b0: 0000 00a0 5fb0 e5bf 0000 0040 3cbd f13f
000001c0: 0000 0000 f9bd d5bf 0000 0000 d061 ee3f
000001d0: 0000 0020 ebe2 0940 0000 0020 7ea9 e0bf
000001e0: 0000 00a0 7efb 0540 0000 0040 94f6 f3bf
000001f0: 0000 0060 5452 f43f 0000 00a0 210e 00c0
00000200: 0000 00c0 98bb fa3f 0000 00c0 6db4 0940
00000210: 0000 0000 6f81 efbf 0000 0040 9b55 ff3f
00000220: 0000 0080 62b9 e6bf 0000 0080 b515 f43f
00000230: 0000 0080 ab03 a8bf 0000 0060 7dae e33f
00000240: 0000 00e0 9ebc 0b40 0000 00e0 6514 a3bf
00000250: 0000 0060 984c 0840 0000 00a0 3e57 04c0
00000260: 0000 0040 8b6c fa3f 0000 0040 6de2 e4bf
00000270: 0000 00c0 86a7 fb3f 0000 0040 704e 0b40
00000280: 0000 00a0 8312 eebf 0000 0000 e70c 0240
00000290: 0000 0060 f5b9 f3bf 0000 0060 ba49 f53f
000002a0: 0000 0040 5eba c5bf 0000 0020 cb10 f03f
000002b0: 0000 00c0 c117 0e40 0000 00c0 10c7 d2bf
000002c0: 0000 00c0 29ba 0940 0000 0060 6b9a f6bf
000002d0: 0000 0080 d93d f83f 0000 0000 4d84 ffbf
000002e0: 0000 0060 3480 f03f 0000 0020 d94e 0c40
000002f0: 0000 0060 3d7c b5bf 0000 00e0 361a 0340
00000300: 0000 00e0 7970 eebf 0000 00e0 9c11 f83f
00000310: 0000 0080 f57f e1bf 0000 00c0 3385 e93f
00000320: 0000 00a0 d39e aabf 0000 00a0 218e f1bf
00000330: 0000 0060 dc46 edbf 0000 00e0 a353 d3bf
00000340: 0000 00e0 cf9b dc3f 0000 00a0 cfb9 8bbf
00000350: 0000 00c0 506b f33f 0000 0020 3a92 e43f
00000360: 0000 0060 8594 e9bf 0000 0000 679b dfbf
00000370: 0000 0000 7f6a f33f 0000 00a0 7329 e13f
00000380: 0000 0060 9fab d9bf 0000 0080 ce88 e53f
00000390: 0000 0080 40bc c23f 0000 0020 2653 dbbf
000003a0: 0000 0020 bd6f ccbf 0000 0060 e718 e2bf
000003b0: 0000 00c0 7762 e53f 0000 00a0 662c cabf
000003c0: 0000 00a0 79c7 f23f 0000 00c0 506b d23f
000003d0: 0000 00e0 ab56 dabf 0000 0000 32e6 cebf
000003e0: 0000 00e0 5f76 f2bf 0000 0040 992a f13f
000003f0: 0000 0080 fdbb b6bf 0000 0080 db68 f53f
00000400: 0000 00a0 8f6b db3f 0000 00e0 8442 bcbf
00000410: 0000 0040 5530 fabf 0000 0020 f4c1 b6bf
00000420: 0000 0040 ff04 ec3f 0000 0080 fd65 a7bf
00000430: 0000 0000 54e3 f73f 0000 0080 36ab ed3f
00000440: 0000 0000 e78c fbbf 0000 0000 486d e9bf
00000450: 0000 0080 62d6 ebbf 0000 00e0 141d d73f
00000460: 0000 00e0 a63f e5bf 0000 00c0 5d4b f63f
00000470: 0000 0000 1973 db3f 0000 00c0 463d edbf
00000480: 0000 0040 e0f3 e2bf 0000 00a0 3979 91bf
00000490: 0000 0080 ee20 e73f 0000 00c0 e9cf ebbf
000004a0: 0000 0000 18cf ee3f 0000 00c0 3e3a d93f
000004b0: 0000 00c0 8976 e4bf 0000 0040 9fc8 e9bf
000004c0: 0000 0040 622d e23f 0000 0020 1956 e23f
000004d0: 0000 0000 47c9 ecbf 0000 00a0 e61d f63f
000004e0: 0000 0000 fed4 ecbf 0000 0080 0cc8 e9bf
000004f0: 0000 0060 8863 fabf 0000 0020 431c f83f
00000500: 0000 0080 21ab e93f 0000 00a0 9f37 edbf
00000510: 0000 00e0 e00b fa3f 0000 00a0 3cba b13f
00000520: 0000 0000 91b7 a43f 0000 00a0 9bc4 fabf
00000530: 0000 0000 5f98 eabf 0000 00e0 141d f83f
00000540: 0000 0060 05a3 e5bf 0000 0000 6f01 0040
00000550: 0000 00a0 198b e53f 0000 0040 b610 b4bf
00000560: 0000 0000 3acc e8bf 0000 0000 5d6d f0bf
00000570: 0000 0000 3d9b f93f 0000 0080 30f0 bcbf
00000580: 0000 0040 ef38 f73f 0000 0080 c212 b73f
00000590: 0000 00e0 a128 e8bf 0000 00c0 1a12 d7bf
000005a0: 0000 00e0 3576 d13f 0000 00e0 e995 ea3f
000005b0: 0000 00c0 15fb f2bf 0000 00c0 7ec1 debf
000005c0: 0000 00e0 a90e ea3f 0000 0020 63ee 00c0
000005d0: 0000 00e0 3845 fabf 0000 0080 0d4f 0640
000005e0: 0000 0020 9dba ebbf 0000 00a0 08fe d13f
000005f0: 0000 00c0 d556 0040 0000 0060 5ddc fb3f
00000600: 0000 0040 0708 e5bf 0000 00c0 2e6e fbbf
00000610: 0000 0040 85ce ecbf 0000 0020 dec8 ee3f
00000620: 0000 0000 7498 cb3f 0000 0060 a4a5 d2bf
00000630: 0000 0000 071f 1040 0000 00c0 ab73 efbf
00000640: 0000 0000 289b e23f 0000 00c0 226a 923f
00000650: 0000 00e0 0209 cabf 0000 00a0 2c60 babf
00000660: 0000 0020 821c e73f 0000 00e0 ccaf ef3f
00000670: 0000 00c0 e9cf c23f 0000 00a0 2bbc edbf
00000680: 0000 00e0 41ec cc3f 0000 00a0 9196 ea3f
00000690: 0000 0060 450d d23f 0000 0060 2720 0740
000006a0: 0000 0000 19f3 0340 0000 00c0 e1e9 09c0
000006b0: 0000 0040 a64a 14c0 0000 00e0 a370 f63f
000006c0: 0000 00c0 f1b5 c73f 0000 0060 9fab f73f
000006d0: 0000 0080 a25d ec3f 0000 0000 0bd2 e83f
000006e0: 0000 00a0 777f e8bf 0000 0020 22c3 aa3f
000006f0: 0000 0020 8f19 c03f 0000 0060 c6a2 e13f
00000700: 0000 00e0 7459 d83f 0000 00e0 ed08 eebf
00000710: 0000 0000 8834 1140 0000 0080 e61e b6bf
00000720: 0000 0040 840d e0bf 0000 00e0 c56d c43f
00000730: 0000 00e0 264e d0bf 0000 0060 c22f e33f
00000740: 0000 0080 e2c7 f3bf 0000 00c0 278f 1040
00000750: 0000 0040 ee94 d2bf 0000 0020 a7e8 f2bf
00000760: 0000 00e0 d4b2 d93f 0000 0000 dd5e dabf
00000770: 0000 00e0 1934 da3f 0000 00e0 95b2 f4bf
00000780: 0000 0040 840d 1640 0000 0080 f230 02c0
00000790: 0000 00a0 218e fe3f 0000 0060 39b4 fd3f
000007a0: 0000 0080 6132 f0bf 0000 0040 150c 0140
000007b0: 0000 00e0 c9e0 debf 0000 0020 4171 0540
000007c0: 0000 00e0 8afd f4bf 0000 00c0 49ef db3f
000007d0: 0000 00a0 d634 f1bf 0000 0040 a7cb d8bf
000007e0: 0000 00c0 0bb0 e23f 0000 0020 1e6d d4bf
000007f0: 0000 00c0 1951 0a40 0000 0000 71c9 e8bf
0.0 0.0 0.0 0.0 0.0 0.0 0.0 -1.2552000284194946
1.1159000396728516 2.45740008354187 -0.453110009431839 1.3508000373840332 -0.45618999004364014 1.0817999839782715 -1.4250999689102173 0.2933099865913391
1.8698999881744385 -1.9930000305175781 -2.3336000442504883 1.0115000009536743 -0.5932300090789795 -1.1460000276565552 1.3154000043869019 3.6953001022338867
-0.507830023765564 2.8847999572753906 -1.322100043296814 1.5032999515533447 -0.521340012550354 0.7264800071716309 3.36899995803833 -1.1292999982833862
2.535799980163574 -3.835900068283081 1.3102999925613403 -1.3212000131607056 2.0316998958587646 3.7506000995635986 -0.9753999710083008 2.106100082397461
-1.7802000045776367 1.4850000143051147 -0.4475899934768677 0.9670400023460388 2.8506999015808105 -0.5921300053596497 2.344599962234497 -2.520699977874756
1.2871999740600586 -0.07396499812602997 -0.7562999725341797 3.6322999000549316 0.7301300168037415 1.8107999563217163 -0.6777799725532532 1.1087000370025635
-0.3397200107574463 0.9494400024414062 3.23580002784729 -0.5206900238990784 2.74780011177063 -1.2476999759674072 1.2700999975204468 -2.0069000720977783
1.670799970626831 3.213099956512451 -0.9845499992370605 1.958400011062622 -0.710129976272583 1.2553000450134277 -0.04690299928188324 0.6150500178337097
3.467099905014038 -0.037264999002218246 3.037400007247925 -2.54259991645813 1.6514999866485596 -0.6526399850845337 1.7283999919891357 3.413300037384033
-0.9397600293159485 2.2562999725341797 -1.2329000234603882 1.3305000066757202 -0.16975000500679016 1.00409996509552 3.7616000175476074 -0.29339998960494995
3.21589994430542 -1.4127000570297241 1.5151000022888184 -1.9697999954223633 1.0312999486923218 3.5385000705718994 -0.08392699807882309 2.3877999782562256
-0.951229989528656 1.5042999982833862 -0.5468699932098389 0.797510027885437 -0.051993001252412796 -1.0972000360488892 -0.914900004863739 -0.30197998881340027
0.44701001048088074 -0.013538000173866749 1.2137000560760498 0.6428499817848206 -0.7993800044059753 -0.49386000633239746 1.2135000228881836 0.5363100171089172
-0.4011000096797943 0.672950029373169 0.14636999368667603 -0.42695000767707825 -0.2221599966287613 -0.5655400156974792 0.6682699918746948 -0.20448000729084015
1.173699975013733 0.28780001401901245 -0.4115400016307831 -0.24140000343322754 -1.1539000272750854 1.0729000568389893 -0.08880600333213806 1.3380999565124512
0.42844000458717346 -0.11039000004529953 -1.6368000507354736 -0.08889699727296829 0.8756099939346313 -0.04569999873638153 1.4930000305175781 0.9271500110626221
-1.7218999862670898 -0.7945899963378906 -0.869920015335083 0.36114999651908875 -0.6640200018882751 1.393399953842163 0.42890000343322754 -0.9137300252914429
-0.592270016670227 -0.01706399954855442 0.7227699756622314 -0.86913001537323 0.9627799987792969 0.3941799998283386 -0.6394699811935425 -0.8057399988174438
0.5680400133132935 0.5730100274085999 -0.8995699882507324 1.3823000192642212 -0.9010000228881836 -0.8056700229644775 -1.6492999792099 1.5068999528884888
0.8021399974822998 -0.9130399823188782 1.6279000043869019 0.06924799829721451 0.040463000535964966 -1.6729999780654907 -0.8310999870300293 1.507099986076355
-0.6761500239372253 2.000699996948242 0.673229992389679 -0.07838000357151031 -0.7749300003051758 -1.0267000198364258 1.6003999710083008 -0.1130400002002716
1.4514000415802002 0.09013000130653381 -0.7549600005149841 -0.36048001050949097 0.2728399932384491 0.8307999968528748 -1.1863000392913818 -0.4805600047111511
0.8142899870872498 -2.1164000034332275 -1.6418999433517456 2.788599967956543 -0.8665300011634827 0.28112998604774475 2.0423998832702637 1.7412999868392944
-0.657230019569397 -1.714400053024292 -0.9002100229263306 0.9620199799537659 0.2155900001525879 -0.2913599908351898 4.030300140380859 -0.9828699827194214
0.5814399719238281 0.017983000725507736 -0.20340000092983246 -0.1030300036072731 0.7222300171852112 0.9902099967002869 0.1469700038433075 -0.9292200207710266
0.22596000134944916 0.8308799862861633 0.28205999732017517 2.890700101852417 2.4937000274658203 -3.2392001152038574 -5.07289981842041 1.402500033378601
0.1852400004863739 1.4794000387191772 0.886430025100708 0.7756400108337402 -0.76555997133255 0.05226999893784523 0.12578000128269196 0.5511199831962585
0.3804599940776825 -0.9385899901390076 4.301300048828125 -0.08640900254249573 -0.5016499757766724 0.15960000455379486 -0.2547700107097626 0.5995799899101257
-1.236299991607666 4.139800071716309 -0.29034000635147095 -1.1818000078201294 0.40154001116752625 -0.41203999519348145 0.40942999720573425 -1.2935999631881714
5.513199806213379 -2.273900032043457 1.9097000360488892 1.8565000295639038 -1.0123000144958496 2.1308999061584473 -0.48247000575065613 2.680299997329712
-1.311900019645691 0.43647998571395874 -1.0753999948501587 -0.38743001222610474 0.5839899778366089 -0.31916001439094543 3.289599895477295 -0.774590015411377
