related_code/embeddings/emb_weight_dp_13.npy (npy, 134496 bytes, 1 tensors)

array f8 [1292, 13]
00000000: 0000 0000 0000 0000 0000 0000 0000 0000
00000010: 0000 0000 0000 0000 0000 0000 0000 0000
00000020: 0000 0000 0000 0000 0000 0000 0000 0000
00000030: 0000 0000 0000 0000 0000 0000 0000 0000
00000040: 0000 0000 0000 0000 0000 0000 0000 0000
00000050: 0000 0000 0000 0000 0000 0000 0000 0000
00000060: 0000 0000 0000 0000 0000 0060 c5fe f7bf
00000070: 0000 0080 247a e13f 0000 0060 da37 97bf
00000080: 0000 0040 d521 e1bf 0000 0060 226c f33f
00000090: 0000 00e0 b584 f9bf 0000 00a0 a73a e23f
000000a0: 0000 0000 c58f f03f 0000 0040 b54f dfbf
000000b0: 0000 0000 d4d4 d63f 0000 00c0 0e9c edbf
000000c0: 0000 0020 3188 0040 0000 0000 d7a3 f0bf
000000d0: 0000 0000 b37b 0140 0000 0060 fe43 eabf
000000e0: 0000 0020 1d49 00c0 0000 0040 faed fabf
000000f0: 0000 0040 7c27 eb3f 0000 0080 cc23 dfbf
00000100: 0000 00a0 4acd ecbf 0000 00e0 e995 f73f
00000110: 0000 0040 70ce f53f 0000 0060 12a0 e83f
00000120: 0000 0020 97ff fdbf 0000 0080 3a3a b2bf
00000130: 0000 0060 4980 e9bf 0000 00c0 bab8 fcbf
00000140: 0000 0040 7c27 ee3f 0000 0000 d61c d4bf
00000150: 0000 0080 c45a d4bf 0000 0040 d8f0 ed3f
00000160: 0000 0000 2db2 fcbf 0000 00a0 b662 f73f
00000170: 0000 00c0 feb2 f33f 0000 0080 3507 e2bf
00000180: 0000 0080 d498 b03f 0000 0080 c2f5 f2bf
00000190: 0000 0080 58a8 0d40 0000 0040 840d fbbf
000001a0: 0000 0000 1748 f8bf 0000 0040 2575 f33f
000001b0: 0000 00a0 8026 f93f 0000 0060 d5e7 e8bf
000001c0: 0000 0040 c6dc f23f 0000 00a0 ecd8 debf
000001d0: 0000 0000 1294 0040 0000 00c0 d6fa d63f
000001e0: 0000 00e0 8173 f2bf 0000 00a0 8785 fc3f
000001f0: 0000 0040 1361 f6bf 0000 0080 286d 1240
00000200: 0000 00c0 5b20 f2bf 0000 0080 7346 f6bf
00000210: 0000 00c0 66f2 cd3f 0000 0040 8ac8 ee3f
00000220: 0000 0000 529b d43f 0000 00a0 fb00 eb3f
00000230: 0000 0000 3266 07c0 0000 0000 1214 f83f
00000240: 0000 00e0 c56d f73f 0000 0040 75c8 d1bf
00000250: 0000 0040 b4c8 fb3f 0000 0020 6519 f7bf
00000260: 0000 0080 3f35 0840 0000 0000 e561 f7bf
00000270: 0000 0020 5a64 00c0 0000 00a0 9f54 e43f
00000280: 0000 0020 f46c f23f 0000 0060 156f dcbf
00000290: 0000 0040 c4b1 f93f 0000 00c0 be2b debf
000002a0: 0000 00a0 e61d f63f 0000 00c0 7268 f33f
000002b0: 0000 0060 de71 f3bf 0000 0080 3f35 f13f
000002c0: 0000 0040 355e f7bf 0000 00c0 b88d 0740
000002d0: 0000 00c0 e9b2 efbf 0000 0040 60e5 fabf
000002e0: 0000 0080 28ed f63f 0000 00a0 b662 f6bf
000002f0: 0000 00a0 c64b f4bf 0000 00c0 989f a33f
00000300: 0000 0020 7233 b03f 0000 00e0 bce3 f93f
00000310: 0000 00c0 19d1 0340 0000 0060 b75d d63f
00000320: 0000 0040 384a cebf 0000 0000 5d6d f33f
00000330: 0000 0060 5227 fc3f 0000 00a0 9465 f4bf
00000340: 0000 0020 b072 02c0 0000 0000 5856 8a3f
00000350: 0000 00c0 aa5e 9ebf 0000 00c0 683a dbbf
00000360: 0000 0020 9e5e f43f 0000 0060 f7e4 f4bf
00000370: 0000 00a0 25e4 0040 0000 0080 6132 fe3f
00000380: 0000 00c0 fa3f dbbf 0000 0000 7a36 f03f
00000390: 0000 00a0 8785 e6bf 0000 00a0 80a6 0440
000003a0: 0000 0060 8b4f cdbf 0000 0040 1d8f e2bf
000003b0: 0000 0020 3fc6 f3bf 0000 00c0 8c62 e5bf
000003c0: 0000 00a0 ff90 f6bf 0000 0040 8b6c fa3f
000003d0: 0000 00e0 3f24 0bc0 0000 0000 93a9 fe3f
000003e0: 0000 00a0 47e1 fe3f 0000 0020 fdf6 cd3f
000003f0: 0000 00a0 f831 f23f 0000 00e0 1da7 f0bf
00000400: 0000 0040 57db 0440 0000 0080 7b2c ecbf
00000410: 0000 0040 3ee8 02c0 0000 00e0 d03f ef3f
00000420: 0000 0020 a5a0 ec3f 0000 0000 1f11 e7bf
00000430: 0000 00e0 0434 fb3f 0000 00c0 a679 f4bf
00000440: 0000 00e0 6800 fd3f 0000 00a0 e61d ff3f
00000450: 0000 00e0 0dbe fbbf 0000 0000 6b0e e13f
00000460: 0000 0040 39d1 e2bf 0000 00e0 ac7a 0a40
00000470: 0000 0020 bd8c c6bf 0000 0060 bc74 f6bf
00000480: 0000 0060 226c f0bf 0000 0080 9ecd d23f
00000490: 0000 0040 fdd9 e5bf 0000 0060 1737 0340
000004a0: 0000 0080 14ae 02c0 0000 00a0 2c43 0040
000004b0: 0000 00a0 f1d2 fe3f 0000 0040 2905 ecbf
000004c0: 0000 00c0 6779 e13f 0000 0060 ca32 fabf
000004d0: 0000 00c0 8d06 0840 0000 0040 50fc f0bf
000004e0: 0000 0080 8ee4 00c0 0000 0040 4278 e53f
000004f0: 0000 0040 46eb de3f 0000 0060 371c 71bf
00000500: 0000 00e0 51b8 f03f 0000 0020 166a f4bf
00000510: 0000 0040 80b7 fb3f 0000 0080 f90f fe3f
00000520: 0000 00c0 a2e9 dabf 0000 00a0 0a63 cb3f
00000530: 0000 0060 c1a8 dabf 0000 00c0 8f31 1140
00000540: 0000 0080 d2fb e3bf 0000 0040 d6c5 01c0
00000550: 0000 00e0 2631 d2bf 0000 0020 54a9 b93f
00000560: 0000 0060 984c f2bf 0000 0020 d9ce fd3f
00000570: 0000 0040 7b03 02c0 0000 0080 b740 f33f
00000580: 0000 0040 7958 fd3f 0000 0060 300d bbbf
00000590: 0000 0060 6b9a d93f 0000 0020 5beb e5bf
000005a0: 0000 00a0 d8df 0740 0000 00a0 6588 f8bf
000005b0: 0000 0040 2aa9 f13f 0000 00c0 4599 e03f
000005c0: 0000 00e0 0ddb da3f 0000 0020 e3df e53f
000005d0: 0000 00e0 a90e e3bf 0000 0040 fb3c b63f
000005e0: 0000 00e0 a084 e0bf 0000 0060 7897 e4bf
000005f0: 0000 00c0 a162 e33f 0000 0060 b472 af3f
00000600: 0000 0000 2b87 fbbf 0000 0080 9bfe d4bf
00000610: 0000 0080 4694 f5bf 0000 0080 588b e13f
00000620: 0000 00e0 9db5 d13f 0000 0020 51da fa3f
00000630: 0000 0020 48d0 0140 0000 0060 2c9a e03f
00000640: 0000 00c0 c117 ffbf 0000 00a0 5b3d d33f
00000650: 0000 0060 e8bc bebf 0000 00e0 2631 a0bf
00000660: 0000 0060 31ce d9bf 0000 00c0 120f e2bf
00000670: 0000 0060 5b06 6c3f 0000 0000 e02d 01c0
00000680: 0000 0040 0fee d83f 0000 0060 aa60 f13f
00000690: 0000 0060 f0a2 ec3f 0000 0000 66f7 e43f
000006a0: 0000 0020 de8f b3bf 0000 0080 01f6 b93f
000006b0: 0000 00e0 25aa d3bf 0000 0080 5660 debf
000006c0: 0000 0080 21ab d33f 0000 00c0 03ca cebf
000006d0: 0000 0040 e0f3 cbbf 0000 0000 35b5 e43f
000006e0: 0000 00a0 89b0 fbbf 0000 0020 27da ec3f
000006f0: 0000 0080 4160 f13f 0000 00c0 4002 0040
00000700: 0000 00e0 6800 f13f 0000 00a0 91b3 e6bf
00000710: 0000 0000 03ec ebbf 0000 0040 164d e2bf
00000720: 0000 0020 768a a5bf 0000 00e0 8ff7 ecbf
00000730: 0000 00e0 e3da ccbf 0000 0060 4469 fbbf
00000740: 0000 0080 4f1e f03f 0000 00e0 dee0 f5bf
00000750: 0000 00a0 d634 fc3f 0000 00e0 f0d7 d23f
00000760: 0000 0020 63ee 0240 0000 00c0 c117 f93f
00000770: 0000 0000 d864 e9bf 0000 00e0 7869 00c0
00000780: 0000 00e0 8ff7 e3bf 0000 00e0 90b8 e83f
00000790: 0000 0060 3a58 d3bf 0000 00e0 6245 dfbf
000007a0: 0000 0000 6284 ebbf 0000 0080 55bc cd3f
000007b0: 0000 00a0 1cda 01c0 0000 0020 f697 ff3f
000007c0: 0000 0020 51da f13f 0000 0080 b740 f03f
000007d0: 0000 00e0 8217 ec3f 0000 00a0 c937 edbf
000007e0: 0000 00c0 6d34 e6bf 0000 0080 96e7 dbbf
000007f0: 0000 0000 a5da e33f 0000 0020 5839 e2bf
0.0 0.0 0.0 0.0 0.0 0.0 0.0 0.0
0.0 0.0 0.0 0.0 0.0 -1.4996999502182007 0.5461599826812744 -0.02267399989068508
-0.5353800058364868 1.2138999700546265 -1.5949000120162964 0.5696600079536438 1.035099983215332 -0.48923999071121216 0.35673999786376953 -0.9253000020980835
2.066499948501587 -1.0399999618530273 2.1854000091552734 -0.8208000063896179 -2.0357000827789307 -1.6830999851226807 0.8485699892044067 -0.48655998706817627
-0.9000599980354309 1.4740999937057495 1.3629000186920166 0.769540011882782 -1.874899983406067 -0.07120099663734436 -0.7969099879264832 -1.7950999736785889
0.9423199892044067 -0.31426000595092773 -0.31804001331329346 0.9356499910354614 -1.7934999465942383 1.4615999460220337 1.2311999797821045 -0.5633800029754639
0.06483200192451477 -1.184999942779541 3.707200050354004 -1.6907999515533447 -1.5176000595092773 1.2160999774932861 1.5719000101089478 -0.7782999873161316
1.1789000034332275 -0.4819900095462799 2.0722999572753906 0.35905998945236206 -1.1532000303268433 1.7826000452041626 -1.3986999988555908 4.606599807739258
-1.1328999996185303 -1.392199993133545 0.23396000266075134 0.9619799852371216 0.32197999954223633 0.8438699841499329 -2.9249000549316406 1.5048999786376953
1.4643000364303589 -0.27785998582839966 1.7365000247955322 -1.4436999559402466 3.0260000228881836 -1.461400032043457 -2.0490000247955322 0.6353300213813782
1.1516000032424927 -0.4442799985408783 1.6059000492095947 -0.4714199900627136 1.3823000192642212 1.2130000591278076 -1.2152999639511108 1.0755000114440918
-1.4605000019073486 2.944200038909912 -0.99058997631073 -1.680999994277954 1.4328999519348145 -1.3990999460220337 -1.2684999704360962 0.03832700103521347
0.06328500062227249 1.6181000471115112 2.477099895477295 0.34946998953819275 -0.23664000630378723 1.2142000198364258 1.759600043296814 -1.2747999429702759
-2.305999994277954 0.012860000133514404 -0.0296580009162426 -0.4254400134086609 1.2731000185012817 -1.305899977684021 2.1113998889923096 1.8873000144958496
-0.4257799983024597 1.0132999420166016 -0.7038000226020813 2.5813000202178955 -0.22899000346660614 -0.5799700021743774 -1.2359000444412231 -0.6682800054550171
-1.4104000329971313 1.6514999866485596 -3.392699956893921 1.9163999557495117 1.9299999475479126 0.23409999907016754 1.1371999979019165 -1.0407999753952026
2.607100009918213 -0.8804299831390381 -2.3633999824523926 0.9765400290489197 0.8946099877357483 -0.7208399772644043 1.7001999616622925 -1.2797000408172607
1.812600016593933 1.9448000192642212 -1.7338999509811401 0.5330100059509277 -0.5880399942398071 3.3099000453948975 -0.1761700063943863 -1.403499960899353
-1.0263999700546265 0.2937999963760376 -0.6828600168228149 2.401900053024292 -2.3350000381469727 2.0327999591827393 1.9264999628067017 -0.8756300210952759
0.5460699796676636 -1.6374000310897827 3.003200054168701 -1.0615999698638916 -2.111599922180176 0.670930027961731 0.4831100106239319 -0.004177299793809652
1.0449999570846558 -1.2759000062942505 1.732300043106079 1.8789000511169434 -0.4205099940299988 0.21396000683307648 -0.41655001044273376 4.298399925231934
-0.6244900226593018 -2.22160005569458 -0.2842499911785126 0.10023999959230423 -1.1437000036239624 1.8630000352859497 -2.251699924468994 1.2032999992370605
1.8341000080108643 -0.10566999763250351 0.40005001425743103 -0.6849799752235413 2.984299898147583 -1.5333000421524048 1.1038000583648682 0.5187100172042847
0.41962000727653503 0.6835799813270569 -0.5955399870872498 0.08686800301074982 -0.5161899924278259 -0.6434900164604187 0.6057900190353394 0.06142200157046318
-1.7204999923706055 -0.3280400037765503 -1.3487000465393066 0.548259973526001 0.27671000361442566 1.6783000230789185 2.2267000675201416 0.5188199877738953
-1.9433000087738037 0.3006199896335602 -0.12007000297307968 -0.03162499889731407 -0.40321001410484314 -0.5643399953842163 0.0034209999721497297 -2.14739990234375
0.3895300030708313 1.0860999822616577 0.8948900103569031 0.6552000045776367 -0.07641399651765823 0.10141000151634216 -0.30726000666618347 -0.4746299982070923
0.3073199987411499 -0.24053999781608582 -0.21838000416755676 0.6471199989318848 -1.7305999994277954 0.9016299843788147 1.0859999656677246 2.0011000633239746
1.062600016593933 -0.7094200253486633 -0.8725600242614746 -0.57191002368927 -0.042072001844644547 -0.9052199721336365 -0.22542999684810638 -1.7131999731063843
1.0074000358581543 -1.367400050163269 1.7628999948501587 0.2944299876689911 2.3664000034332275 1.5683000087738037 -0.7935600280761719 -2.051500082015991
-0.6239699721336365 0.7725300192832947 -0.30226001143455505 -0.48860999941825867 -0.8599100112915039 0.2323099970817566 -2.2314999103546143 1.9745999574661255
1.1158000230789185 1.0157999992370605 0.8778700232505798 -0.9130600094795227 -0.6938999891281128 -0.4360100030899048 0.6204400062561035 -0.5695000290870667
