related_code/embeddings/emb_weight_cp_6.npy (npy, 29888 bytes, 1 tensors)

array f8 [620, 6]
000000 00 00 00 00 00 00 00 00 00 00 00 00 00 00 00 00
       0.0 0.0
000010 00 00 00 00 00 00 00 00 00 00 00 00 00 00 00 00
       0.0 0.0
000020 00 00 00 00 00 00 00 00 00 00 00 00 00 00 00 00
       0.0 0.0
000030 00 00 00 20 a0 89 fd 3f 00 00 00 00 b3 7b fd 3f
       1.8460999727249146 1.8427000045776367
000040 00 00 00 c0 9b 8a dc bf 00 00 00 e0 0f 06 e7 bf
       -0.44595998525619507 -0.7194899916648865
000050 00 00 00 20 6e a3 f8 bf 00 00 00 40 a2 b4 f8 3f
       -1.5398999452590942 1.544100046157837
000060 00 00 00 80 53 f4 01 40 00 00 00 e0 4f 0d 00 40
       2.24429988861084 2.006500005722046
000070 00 00 00 a0 5b 5a e3 bf 00 00 00 a0 0a 63 e3 bf
       -0.6047800183296204 -0.6058400273323059
000080 00 00 00 20 d4 9a f7 bf 00 00 00 20 75 02 f9 3f
       -1.4752999544143677 1.563099980354309
000090 00 00 00 e0 6a 2b f2 3f 00 00 00 20 e4 83 f4 3f
       1.135599970817566 1.2821999788284302
0000a0 00 00 00 40 1e 16 e6 bf 00 00 00 60 b3 ea f4 bf
       -0.6901999711990356 -1.3072999715805054
0000b0 00 00 00 a0 fa 5c bd 3f 00 00 00 60 b8 1e ff 3f
       0.11469999700784683 1.9450000524520874
0000c0 00 00 00 00 dc d7 f6 3f 00 00 00 80 48 bf f6 3f
       1.4277000427246094 1.4217000007629395
0000d0 00 00 00 00 77 84 ed bf 00 00 00 e0 a9 0e dd bf
       -0.9224200248718262 -0.4540199935436249
0000e0 00 00 00 e0 34 ef f4 bf 00 00 00 80 b9 6b f7 3f
       -1.30840003490448 1.4637999534606934
0000f0 00 00 00 00 67 7e e3 3f 00 00 00 20 39 ee d0 bf
       0.6091799736022949 -0.2645399868488312
000100 00 00 00 20 d4 1a 07 c0 00 00 00 a0 65 88 f4 bf
       -2.8880999088287354 -1.2833000421524048
000110 00 00 00 e0 96 01 97 bf 00 00 00 60 da 1b 01 40
       -0.022467000409960747 2.1386001110076904
000120 00 00 00 c0 a0 a1 e6 3f 00 00 00 80 b1 a2 e8 3f
       0.7072299718856812 0.769860029220581
000130 00 00 00 40 08 ac f4 bf 00 00 00 c0 f9 b8 d2 3f
       -1.2920000553131104 0.2925400137901306
000140 00 00 00 c0 ae 5f eb bf 00 00 00 e0 0b 93 f0 3f
       -0.855430006980896 1.0358999967575073
000150 00 00 00 e0 d7 81 ee 3f 00 00 00 a0 1c 5a f0 3f
       0.9533500075340271 1.0219999551773071
000160 00 00 00 c0 69 c1 e4 bf 00 00 00 80 69 18 ca 3f
       -0.64860999584198 0.2038699984550476
000170 00 00 00 20 e6 cb eb bf 00 00 00 c0 1e 68 ed 3f
       -0.8686400055885315 0.9189599752426147
000180 00 00 00 40 17 d4 e8 3f 00 00 00 e0 50 14 ed 3f
       0.7758899927139282 0.9087299704551697
000190 00 00 00 a0 4d 9c d6 3f 00 00 00 00 e9 b7 fe bf
       0.35328999161720276 -1.9198999404907227
0001a0 00 00 00 40 51 a0 db bf 00 00 00 a0 f8 31 fa 3f
       -0.431659996509552 1.6371999979019165
0001b0 00 00 00 e0 58 17 e2 3f 00 00 00 60 1b 2a e1 3f
       0.5653499960899353 0.5363900065422058
0001c0 00 00 00 a0 a0 f8 f7 bf 00 00 00 00 98 c0 c9 3f
       -1.4982000589370728 0.20118999481201172
0001d0 00 00 00 00 f0 16 de bf 00 00 00 00 ba da f1 3f
       -0.4701499938964844 1.1159000396728516
0001e0 00 00 00 40 52 44 de 3f 00 00 00 80 29 91 dc 3f
       0.4729200005531311 0.4463599920272827
0001f0 00 00 00 20 8e 75 fc bf 00 00 00 c0 b4 fd c7 3f
       -1.7786999940872192 0.1874299943447113
000200 00 00 00 c0 8a 37 da bf 00 00 00 00 3b 70 f3 3f
       -0.40964001417160034 1.214900016784668
000210 00 00 00 a0 8b db 04 40 00 00 00 20 bd 6f e7 bf
       2.6071999073028564 -0.7323899865150452
000220 00 00 00 a0 45 36 04 c0 00 00 00 e0 b5 84 04 c0
       -2.5264999866485596 -2.5648000240325928
000230 00 00 00 60 42 3e f5 3f 00 00 00 a0 92 3a 02 40
       1.3277000188827515 2.278599977493286
000240 00 00 00 c0 f0 11 ea bf 00 00 00 40 ea 21 ca 3f
       -0.8146899938583374 0.20416000485420227
000250 00 00 00 a0 0f fa 02 c0 00 00 00 20 09 6d e7 3f
       -2.3721001148223877 0.7320600152015686
000260 00 00 00 a0 4a cd d2 3f 00 00 00 80 8a 8e f6 3f
       0.29377999901771545 1.4098000526428223
000270 00 00 00 60 42 3e d4 bf 00 00 00 00 05 17 c3 3f
       -0.31630000472068787 0.14914000034332275
000280 00 00 00 60 76 4f fd bf 00 00 00 00 7a 36 f8 bf
       -1.8319000005722046 -1.5132999420166016
000290 00 00 00 60 79 1e bc 3f 00 00 00 60 dc c6 01 40
       0.10983999818563461 2.222100019454956
0002a0 00 00 00 80 4a ea d0 3f 00 00 00 40 c0 21 d2 3f
       0.26429998874664307 0.2833099961280823
0002b0 00 00 00 20 04 39 ec bf 00 00 00 40 08 ac 0a c0
       -0.8819599747657776 -3.3340001106262207
0002c0 00 00 00 a0 c0 ad c3 3f 00 00 00 00 5f 18 06 40
       0.15374000370502472 2.761899948120117
0002d0 00 00 00 80 99 b6 e2 bf 00 00 00 00 f7 75 da 3f
       -0.5847899913787842 0.4134500026702881
0002e0 00 00 00 20 3f c6 fb bf 00 00 00 40 47 72 f5 3f
       -1.7359000444412231 1.340399980545044
0002f0 00 00 00 20 b2 ba e4 bf 00 00 00 80 2c 7d e8 3f
       -0.6477900147438049 0.76528000831604
000300 00 00 00 40 e4 49 ee 3f 00 00 00 40 a1 10 eb 3f
       0.9465199708938599 0.8457800149917603
000310 00 00 00 40 4a 5e d3 bf 00 00 00 40 c6 dc cd bf
       -0.3026300072669983 -0.23330000042915344
000320 00 00 00 a0 d6 34 ee bf 00 00 00 a0 96 ca ed 3f
       -0.9439499974250793 0.9309800267219543
000330 00 00 00 00 38 a1 de 3f 00 00 00 00 2f fa d4 3f
       0.4785900115966797 0.3277699947357178
000340 00 00 00 a0 1a 2f 00 c0 00 00 00 c0 29 57 d6 bf
       -2.0230000019073486 -0.3490700125694275
000350 00 00 00 e0 28 79 d9 bf 00 00 00 00 29 5c f9 3f
       -0.3980199992656708 1.5850000381469727
000360 00 00 00 00 ea 5b ea 3f 00 00 00 80 df f8 da 3f
       0.8237199783325195 0.4214400053024292
000370 00 00 00 a0 f6 86 02 c0 00 00 00 40 04 1c e9 bf
       -2.3159000873565674 -0.7846699953079224
000380 00 00 00 e0 33 fb 67 bf 00 00 00 00 5f 98 ff 3f
       -0.0029273999389261007 1.9746999740600586
000390 00 00 00 80 db 68 fa 3f 00 00 00 a0 cb 62 e2 3f
       1.6505999565124512 0.5745599865913391
0003a0 00 00 00 00 10 e9 03 c0 00 00 00 e0 9a e6 f0 bf
       -2.488800048828125 -1.0563000440597534
0003b0 00 00 00 c0 57 ad dc 3f 00 00 00 20 c9 65 01 40
       0.44808000326156616 2.1747000217437744
0003c0 00 00 00 c0 ea f3 00 40 00 00 00 60 b9 a5 e5 3f
       2.1191000938415527 0.6764799952507019
0003d0 00 00 00 80 7c d0 01 c0 00 00 00 60 cc 5d fb bf
       -2.226799964904785 -1.7103999853134155
0003e0 00 00 00 a0 ce 31 c8 3f 00 00 00 a0 bb 16 03 40
       0.18901999294757843 2.3861000537872314
0003f0 00 00 00 60 e3 88 ef 3f 00 00 00 a0 52 b3 d1 3f
       0.9854599833488464 0.27656999230384827
000400 00 00 00 20 ed 0d 00 c0 00 00 00 00 e0 2d f6 bf
       -2.0067999362945557 -1.386199951171875
000410 00 00 00 a0 f5 45 de bf 00 00 00 60 9f 2b 00 40
       -0.4730199873447418 2.0213000774383545
000420 00 00 00 a0 a9 02 05 40 00 00 00 00 f2 5e e5 bf
       2.626300096511841 -0.6678400039672852
000430 00 00 00 a0 5e 29 04 c0 00 00 00 40 c6 dc 09 c0
       -2.52020001411438 -3.232800006866455
000440 00 00 00 40 a7 cb e6 bf 00 00 00 e0 81 73 03 40
       -0.7123600244522095 2.4314000606536865
000450 00 00 00 e0 48 2e f3 3f 00 00 00 80 fd 65 e5 3f
       1.198799967765808 0.6686999797821045
000460 00 00 00 20 1f f4 01 c0 00 00 00 80 ac 8b f2 bf
       -2.2441999912261963 -1.15910005569458
000470 00 00 00 80 24 97 e3 bf 00 00 00 e0 56 ec 00 40
       -0.6122000217437744 2.1154000759124756
000480 00 00 00 00 00 00 f9 3f 00 00 00 80 79 01 e7 3f
       1.5625 0.7189300060272217
000490 00 00 00 c0 7f c8 03 c0 00 00 00 e0 0b 93 f0 bf
       -2.472899913787842 -1.0358999967575073
0004a0 00 00 00 60 69 35 de bf 00 00 00 20 a9 13 01 40
       -0.4720099866390228 2.1345999240875244
0004b0 00 00 00 60 54 d2 02 40 00 00 00 60 61 4f d5 3f
       2.3526999950408936 0.33296999335289
0004c0 00 00 00 c0 fe b2 06 c0 00 00 00 20 d0 44 f6 bf
       -2.837399959564209 -1.391800045967102
0004d0 00 00 00 40 e0 d6 d1 bf 00 00 00 c0 b8 8d 01 40
       -0.2787399888038635 2.194200038909912
0004e0 00 00 00 60 cc 5d 05 40 00 00 00 40 91 27 d1 bf
       2.670799970626831 -0.2680400013923645
0004f0 00 00 00 20 6c 78 0b c0 00 00 00 00 fe d4 fe bf
       -3.433799982070923 -1.9270000457763672
000500 00 00 00 e0 c0 39 e0 bf 00 00 00 40 bf fd 02 40
       -0.5070499777793884 2.3738999366760254
000510 00 00 00 80 ad 12 ac 3f 00 00 00 80 46 77 da 3f
       0.054829999804496765 0.41352999210357666
000520 00 00 00 20 21 9f 01 c0 00 00 00 40 6d e2 de bf
       -2.202699899673462 -0.48256999254226685
000530 00 00 00 a0 3e 74 eb bf 00 00 00 c0 ee c9 fb 3f
       -0.8579400181770325 1.736799955368042
000540 00 00 00 c0 8a 37 ea 3f 00 00 00 a0 17 43 e6 3f
       0.8192800283432007 0.6956899762153625
000550 00 00 00 20 28 7e fd bf 00 00 00 20 56 d4 d0 bf
       -1.8432999849319458 -0.2629599869251251
000560 00 00 00 a0 e9 ec e0 bf 00 00 00 e0 7c 3f f9 3f
       -0.5289199948310852 1.5779999494552612
000570 00 00 00 e0 12 f2 02 40 00 00 00 60 10 58 f7 3f
       2.3682000637054443 1.4589999914169312
000580 00 00 00 a0 87 85 f7 bf 00 00 00 80 f8 6b e6 3f
       -1.4701000452041626 0.7006800174713135
000590 00 00 00 80 7d 74 e9 bf 00 00 00 80 d1 3a ee 3f
       -0.7954699993133545 0.9446799755096436
0005a0 00 00 00 20 90 a0 d8 bf 00 00 00 e0 0f 06 c2 3f
       -0.384799987077713 0.14080999791622162
0005b0 00 00 00 c0 20 30 03 c0 00 00 00 e0 05 f5 e3 bf
       -2.3984999656677246 -0.6236600279808044
0005c0 00 00 00 e0 08 a7 e9 bf 00 00 00 00 3d 9b fd 3f
       -0.801639974117279 1.8503999710083008
0005d0 00 00 00 40 24 d1 e1 3f 00 00 00 e0 a8 6a de bf
       0.5567799806594849 -0.4752599895000458
0005e0 00 00 00 20 f2 c1 05 c0 00 00 00 a0 cf d5 02 c0
       -2.7197000980377197 -2.3543999195098877
0005f0 00 00 00 c0 a6 79 f0 3f 00 00 00 c0 1e 85 05 40
       1.0297000408172607 2.690000057220459
000600 00 00 00 e0 f0 f4 f3 bf 00 00 00 a0 3a 01 f0 3f
       -1.2473000288009644 1.0003000497817993
000610 00 00 00 a0 69 fb e8 bf 00 00 00 e0 dc ed 8a 3f
       -0.7806900143623352 0.013148999772965908
000620 00 00 00 60 bc 74 f5 bf 00 00 00 c0 40 82 f6 3f
       -1.340999960899353 1.4068000316619873
000630 00 00 00 c0 fc 87 d8 3f 00 00 00 40 37 09 01 40
       0.3833000063896179 2.129499912261963
000640 00 00 00 c0 0c 71 00 40 00 00 00 a0 0f 7a 00 40
       2.0552000999450684 2.0596001148223877
000650 00 00 00 40 2e 7f 0d 40 00 00 00 80 50 c2 da 3f
       3.6870999336242676 0.4181100130081177
000660 00 00 00 80 14 2e 1e c0 00 00 00 60 42 3e 07 40
       -7.545000076293945 2.905400037765503
000670 00 00 00 00 88 f4 05 40 00 00 00 60 9f 2b 03 c0
       2.7444000244140625 -2.3963000774383545
000680 00 00 00 40 9b 55 0e 40 00 00 00 80 e4 b2 13 40
       3.791800022125244 4.924699783325195
000690 00 00 00 00 d4 d4 ca bf 00 00 00 a0 0a c6 05 40
       -0.20961999893188477 2.7216999530792236
0006a0 00 00 00 80 d0 b3 fa 3f 00 00 00 40 ca 4f b6 bf
       1.6689000129699707 -0.08715499937534332
0006b0 00 00 00 80 b9 6b 0f 40 00 00 00 00 54 e3 ff 3f
       3.9275999069213867 1.9930000305175781
0006c0 00 00 00 20 06 81 0c 40 00 00 00 c0 19 d1 0a 40
       3.562999963760376 3.352099895477295
0006d0 00 00 00 60 b3 ea f2 3f 00 00 00 e0 5c a7 e8 3f
       1.1822999715805054 0.7704300284385681
0006e0 00 00 00 e0 d0 a2 18 40 00 00 00 c0 da 8a fe 3f
       6.158999919891357 1.9089000225067139
0006f0 00 00 00 60 20 41 f0 3f 00 00 00 a0 ab ad f8 bf
       1.0159000158309937 -1.5424000024795532
000700 00 00 00 a0 d7 d8 e8 3f 00 00 00 c0 c9 fd e5 3f
       0.7764700055122375 0.6872299909591675
000710 00 00 00 20 39 0b df 3f 00 00 00 40 2d 5b ed bf
       0.4850600063800812 -0.9173799753189087
000720 00 00 00 40 08 ac f0 3f 00 00 00 20 f4 ec 0c 40
       1.0420000553131104 3.6157000064849854
000730 00 00 00 00 12 94 03 40 00 00 00 20 e7 52 ec bf
       2.4472999572753906 -0.8851199746131897
000740 00 00 00 c0 52 16 08 40 00 00 00 60 88 e3 01 40
       3.0109000205993652 2.2360999584198
000750 00 00 00 c0 1e 85 f0 3f 00 00 00 c0 dc 75 1a 40
       1.0325000286102295 6.615099906921387
000760 00 00 00 20 eb e2 0f 40 00 00 00 40 69 6f f0 bf
       3.98580002784729 -1.0271999835968018
000770 00 00 00 e0 56 ec f1 bf 00 00 00 80 3d 0a 07 40
       -1.1202000379562378 2.880000114440918
000780 00 00 00 60 c5 7e 04 c0 00 00 00 80 2f 4c de bf
       -2.5618999004364014 -0.4733999967575073
000790 00 00 00 80 a5 ac 02 40 00 00 00 60 c9 1c a3 3f
       2.3343000411987305 0.03732899948954582
0007a0 00 00 00 20 a9 13 f0 bf 00 00 00 60 b1 14 b5 bf
       -1.0047999620437622 -0.08234699815511703
0007b0 00 00 00 60 31 ce e6 3f 00 00 00 80 d1 57 d6 bf
       0.7126700282096863 -0.3491100072860718
0007c0 00 00 00 60 a5 49 dd bf 00 00 00 e0 c1 fa e8 bf
       -0.4576199948787689 -0.7806100249290466
0007d0 00 00 00 00 bc 85 00 40 00 00 00 00 5d 6d f1 3f
       2.0652999877929688 1.0892000198364258
0007e0 00 00 00 20 a0 09 15 c0 00 00 00 c0 dd 59 e6 3f
       -5.259399890899658 0.6984699964523315
0007f0 00 00 00 e0 fb c6 dd bf 00 00 00 a0 03 e7 f5 3f
       -0.4652700126171112 1.368899941444397
