related_code/embeddings/emb_weight_cp_11.npy (npy, 54688 bytes, 1 tensors)

array f8 [620, 11]
0.0 0.0 0.0 0.0 0.0 0.0 0.0 0.0
0.0 0.0 0.0 1.1591999530792236 -0.17159999907016754 0.9960600137710571 0.17225000262260437 0.8208799958229065
-2.591900110244751 -0.8124300241470337 -0.18333999812602997 0.6953499913215637 2.1756999492645264 -0.22125999629497528 1.4819999933242798 -1.141700029373169
1.12090003490448 -0.836430013179779 0.3838199973106384 -2.437299966812134 -1.1231000423431396 -0.5027999877929688 0.7756400108337402 2.5978000164031982
0.6569200158119202 0.36827999353408813 -0.7308200001716614 1.3521000146865845 0.18863999843597412 0.2768799960613251 -1.437999963760376 -1.0017000436782837
0.6166499853134155 1.6657999753952026 0.5385100245475769 0.12354999780654907 0.5094500184059143 -1.38919997215271 0.68545001745224 -0.44920000433921814
0.7478200197219849 -1.948199987411499 -1.0470000505447388 0.07365699857473373 0.27087000012397766 1.3203999996185303 1.5051000118255615 -0.6576600074768066
-0.8725299835205078 1.3259999752044678 0.8598399758338928 0.755810022354126 -0.44255998730659485 -1.121500015258789 2.9300999641418457 1.2148000001907349
0.7306100130081177 -0.7196800112724304 -0.36757999658584595 -0.4830400049686432 0.8600500226020813 -0.6328200101852417 0.5735599994659424 -0.6449499726295471
-0.04597499966621399 0.822409987449646 0.18371999263763428 1.4213000535964966 0.2566100060939789 -0.32896000146865845 -0.6287000179290771 0.8219799995422363
-0.5859699845314026 0.5971500277519226 -0.7852100133895874 0.11971999704837799 0.3054800033569336 0.4258100092411041 1.7806999683380127 0.28621000051498413
-0.46039000153541565 -1.9032000303268433 0.07682400196790695 0.9284899830818176 -0.04780400171875954 -1.7010999917984009 -0.407370001077652 -0.5257599949836731
1.983199954032898 0.6895899772644043 -0.026173999533057213 -0.28891998529434204 -0.4312500059604645 0.6250100135803223 -0.43292999267578125 0.4583500027656555
-0.8187800049781799 -0.34264999628067017 1.267300009727478 0.192780002951622 1.218500018119812 0.14294999837875366 -0.15206000208854675 -0.25352001190185547
0.8513399958610535 -0.44099000096321106 0.3126299977302551 -1.0362000465393066 -0.7300400137901306 1.524999976158142 0.02861800044775009 0.9772700071334839
0.019579000771045685 0.4056699872016907 -0.46751999855041504 2.0808000564575195 2.407399892807007 -0.7664300203323364 -1.2065999507904053 -4.683000087738037
1.503100037574768 1.0770000219345093 0.5332900285720825 -0.09554299712181091 -0.5372800230979919 -0.20976999402046204 0.9150699973106384 -1.3244999647140503
-0.30375999212265015 -0.5325400233268738 -0.44784998893737793 2.297800064086914 0.020433999598026276 0.074194997549057 -0.07436099648475647 -0.4432699978351593
-1.1394000053405762 0.593999981880188 0.5848699808120728 0.43140000104904175 -1.3050999641418457 -1.1447999477386475 2.446899890899658 1.3179999589920044
-0.303849995136261 -0.05420399829745293 -0.13476000726222992 -2.3815999031066895 0.2281000018119812 1.888700008392334 0.30963999032974243 -1.7824000120162964
-1.638700008392334 1.5391000509262085 2.5230000019073486 -0.7375900149345398 0.18365000188350677 -0.6072499752044678 0.5026199817657471 0.363070011138916
-1.4341000318527222 -0.05538799986243248 -0.8479499816894531 0.4382300078868866 1.5546000003814697 -0.7317000031471252 0.8761900067329407 -0.3860900104045868
0.5171599984169006 -1.2792999744415283 1.0083999633789062 -0.659250020980835 0.5315899848937988 -0.774150013923645 0.5698800086975098 0.46125999093055725
-0.07768099755048752 1.1411999464035034 -0.044286999851465225 -0.4210500121116638 -0.5557000041007996 0.5100600123405457 0.17528000473976135 0.677049994468689
-1.0994999408721924 -1.0511000156402588 1.9122999906539917 0.4693300127983093 0.49674999713897705 0.526669979095459 -0.3150100111961365 -0.32291001081466675
1.5404000282287598 0.47593000531196594 0.5468500256538391 -1.6713999509811401 -1.5641000270843506 1.8308000564575195 0.3560900092124939 0.40834999084472656
-0.32273000478744507 -0.24616000056266785 -0.7520700097084045 2.0660998821258545 0.7156100273132324 1.010599970817566 -1.3181999921798706 -2.3736000061035156
1.6582000255584717 0.5881900191307068 -0.05228700116276741 1.2166999578475952 0.20928999781608582 -0.3181400001049042 2.8436999320983887 1.2354999780654907
1.034000039100647 -2.7111001014709473 -2.7913999557495117 1.3884999752044678 0.20709000527858734 -0.18264999985694885 0.050383999943733215 -1.2003999948501587
-2.1445999145507812 1.3517999649047852 0.4281199872493744 0.22834999859333038 -1.350000023841858 -0.9948599934577942 1.2588000297546387 0.04432599991559982
0.41098999977111816 -0.14616000652313232 -0.18941999971866608 -2.7177000045776367 1.1813000440597534 2.3778998851776123 0.4357599914073944 -1.2414000034332275
-3.1252999305725098 1.6835999488830566 1.1988999843597412 1.4148999452590942 0.16216999292373657 1.0577000379562378 0.19708000123500824 0.044397998601198196
00000000: 0000 0000 0000 0000 0000 0000 0000 0000
00000010: 0000 0000 0000 0000 0000 0000 0000 0000
00000020: 0000 0000 0000 0000 0000 0000 0000 0000
00000030: 0000 0000 0000 0000 0000 0000 0000 0000
00000040: 0000 0000 0000 0000 0000 0000 0000 0000
00000050: 0000 0000 0000 0000 0000 0040 158c f23f
00000060: 0000 0020 fdf6 c5bf 0000 0040 b9df ef3f
00000070: 0000 00c0 490c c63f 0000 0020 a644 ea3f
00000080: 0000 0020 36bc 04c0 0000 0040 6dff e9bf
00000090: 0000 0060 af77 c7bf 0000 00a0 4e40 e63f
000000a0: 0000 0060 d567 0140 0000 0060 3f52 ccbf
000000b0: 0000 00a0 45b6 f73f 0000 0040 6744 f2bf
000000c0: 0000 00e0 34ef f13f 0000 00e0 08c4 eabf
000000d0: 0000 00c0 8190 d83f 0000 0020 977f 03c0
000000e0: 0000 00c0 37f8 f1bf 0000 0000 f016 e0bf
000000f0: 0000 0000 0bd2 e83f 0000 0060 4bc8 0440
00000100: 0000 0020 7d05 e53f 0000 0040 e691 d73f
00000110: 0000 00a0 e062 e7bf 0000 00a0 33a2 f53f
00000120: 0000 0000 5b25 c83f 0000 00e0 66b8 d13f
00000130: 0000 0040 0c02 f7bf 0000 00a0 f606 f0bf
00000140: 0000 00c0 98bb e33f 0000 00e0 1da7 fa3f
00000150: 0000 0060 793b e13f 0000 0000 f9a0 bf3f
00000160: 0000 0020 6a4d e03f 0000 00c0 293a f6bf
00000170: 0000 00e0 34ef e53f 0000 0060 b1bf dcbf
00000180: 0000 0040 24ee e73f 0000 00c0 d32b ffbf
00000190: 0000 0020 83c0 f0bf 0000 0060 2fdb b23f
000001a0: 0000 0020 ef55 d13f 0000 00c0 5b20 f53f
000001b0: 0000 00c0 e314 f83f 0000 0000 8d0b e5bf
000001c0: 0000 0000 c4eb ebbf 0000 00c0 4b37 f53f
000001d0: 0000 0020 cf83 eb3f 0000 0080 982f e83f
000001e0: 0000 0020 e752 dcbf 0000 0000 aaf1 f1bf
000001f0: 0000 0040 d870 0740 0000 0020 d26f f33f
00000200: 0000 0040 2861 e73f 0000 0060 9e07 e7bf
00000210: 0000 0040 6e86 d7bf 0000 00a0 20ea debf
00000220: 0000 00a0 8785 eb3f 0000 00c0 0f40 e4bf
00000230: 0000 0080 9a5a e23f 0000 0020 6ea3 e4bf
00000240: 0000 0000 098a a7bf 0000 00c0 2e51 ea3f
00000250: 0000 0000 2384 c73f 0000 0020 a5bd f63f
00000260: 0000 0060 4c6c d03f 0000 0040 ae0d d5bf
00000270: 0000 0080 4f1e e4bf 0000 0000 a94d ea3f
00000280: 0000 0020 44c0 e2bf 0000 0060 da1b e33f
00000290: 0000 00c0 7020 e9bf 0000 0040 f8a5 be3f
000002a0: 0000 0000 fc8c d33f 0000 00a0 7840 db3f
000002b0: 0000 0040 bf7d fc3f 0000 00c0 4351 d23f
000002c0: 0000 00a0 0777 ddbf 0000 00e0 8173 febf
000002d0: 0000 00e0 bcaa b33f 0000 00a0 30b6 ed3f
000002e0: 0000 0020 c479 a8bf 0000 00a0 b437 fbbf
000002f0: 0000 00a0 5912 dabf 0000 00a0 06d3 e0bf
00000300: 0000 00e0 2fbb ff3f 0000 0000 1f11 e63f
00000310: 0000 0060 5bcd 9abf 0000 0040 aa7d d2bf
00000320: 0000 00a0 9999 dbbf 0000 0000 1500 e43f
00000330: 0000 0000 20b5 dbbf 0000 0040 9b55 dd3f
00000340: 0000 0020 7233 eabf 0000 0040 faed d5bf
00000350: 0000 0060 dc46 f43f 0000 00e0 03ad c83f
00000360: 0000 00e0 f97e f33f 0000 0080 2f4c c23f
00000370: 0000 00c0 b376 c3bf 0000 0000 ac39 d0bf
00000380: 0000 0060 2d3e eb3f 0000 0020 2e39 dcbf
00000390: 0000 0040 2102 d43f 0000 0080 4694 f0bf
000003a0: 0000 00e0 7c5c e7bf 0000 0060 6666 f83f
000003b0: 0000 0080 094e 9d3f 0000 00c0 cb45 ef3f
000003c0: 0000 0080 840c 943f 0000 0040 7ff6 d93f
000003d0: 0000 0000 d9eb ddbf 0000 0080 7aa5 0040
000003e0: 0000 00e0 5a42 0340 0000 0040 9886 e8bf
000003f0: 0000 00c0 3b4e f3bf 0000 0060 64bb 12c0
00000400: 0000 00a0 b20c f83f 0000 0060 643b f13f
00000410: 0000 0040 b610 e13f 0000 0080 8175 b8bf
00000420: 0000 00e0 6531 e1bf 0000 0040 bed9 cabf
00000430: 0000 00e0 4048 ed3f 0000 00e0 2631 f5bf
00000440: 0000 00c0 cd70 d3bf 0000 0060 910a e1bf
00000450: 0000 0000 93a9 dcbf 0000 0000 e561 0240
00000460: 0000 0080 a6ec 943f 0000 0080 71fe b23f
00000470: 0000 0080 5209 b3bf 0000 0020 895e dcbf
00000480: 0000 0080 fb3a f2bf 0000 0040 0c02 e33f
00000490: 0000 0040 41b7 e23f 0000 00c0 0e9c db3f
000004a0: 0000 0080 b0e1 f4bf 0000 00c0 1951 f2bf
000004b0: 0000 0040 4093 0340 0000 0020 8716 f53f
000004c0: 0000 0040 4772 d3bf 0000 0060 a0c0 abbf
000004d0: 0000 00e0 d03f c1bf 0000 0040 840d 03c0
000004e0: 0000 0080 6132 cd3f 0000 0080 1d38 fe3f
000004f0: 0000 0040 24d1 d33f 0000 00e0 b584 fcbf
00000500: 0000 0080 1d38 fabf 0000 0060 27a0 f83f
00000510: 0000 00a0 1a2f 0440 0000 0060 569a e7bf
00000520: 0000 00e0 d781 c73f 0000 0080 976e e3bf
00000530: 0000 0080 7615 e03f 0000 0000 8a3c d73f
00000540: 0000 00e0 12f2 f6bf 0000 00e0 d05b acbf
00000550: 0000 0000 6822 ebbf 0000 00e0 f50b dc3f
00000560: 0000 0040 a4df f83f 0000 0020 166a e7bf
00000570: 0000 00a0 bf09 ec3f 0000 00e0 b2b5 d8bf
00000580: 0000 0020 938c e03f 0000 0040 0378 f4bf
00000590: 0000 0000 6822 f03f 0000 0080 9318 e5bf
000005a0: 0000 0000 c902 e13f 0000 0040 d6c5 e8bf
000005b0: 0000 0000 753c e23f 0000 00a0 4885 dd3f
000005c0: 0000 00e0 e6e2 b3bf 0000 00e0 5a42 f23f
000005d0: 0000 0020 c9ac a6bf 0000 00c0 7bf2 dabf
000005e0: 0000 0060 4bc8 e1bf 0000 0060 6952 e03f
000005f0: 0000 0040 936f c63f 0000 00c0 64aa e53f
00000600: 0000 0040 8d97 f1bf 0000 0040 4ed1 f0bf
00000610: 0000 00e0 c798 fe3f 0000 00c0 8009 de3f
00000620: 0000 0080 c0ca df3f 0000 0000 7bda e03f
00000630: 0000 00c0 1f29 d4bf 0000 00c0 8eaa d4bf
00000640: 0000 0080 7aa5 f83f 0000 0020 a375 de3f
00000650: 0000 00a0 cb7f e13f 0000 00e0 0dbe fabf
00000660: 0000 00c0 8d06 f9bf 0000 0000 f54a fd3f
00000670: 0000 00c0 2dca d63f 0000 0000 6822 da3f
00000680: 0000 00c0 9ba7 d4bf 0000 00c0 2b82 cfbf
00000690: 0000 0020 f510 e8bf 0000 0060 5f87 0040
000006a0: 0000 0000 47e6 e63f 0000 00e0 6a2b f03f
000006b0: 0000 00e0 5817 f5bf 0000 0000 22fd 02c0
000006c0: 0000 00c0 fc87 fa3f 0000 00e0 73d2 e23f
000006d0: 0000 00a0 5cc5 aabf 0000 0060 9a77 f33f
000006e0: 0000 00c0 03ca ca3f 0000 00e0 675c d4bf
000006f0: 0000 00c0 e5bf 0640 0000 00a0 9bc4 f33f
00000700: 0000 00a0 438b f03f 0000 0040 55b0 05c0
00000710: 0000 0080 c954 06c0 0000 00c0 4b37 f63f
00000720: 0000 00e0 ec81 ca3f 0000 0040 1361 c7bf
00000730: 0000 0080 eecb a93f 0000 00a0 d634 f3bf
00000740: 0000 0000 2428 01c0 0000 0000 f9a0 f53f
00000750: 0000 0060 5166 db3f 0000 00a0 923a cd3f
00000760: 0000 00a0 9999 f5bf 0000 00a0 e4d5 efbf
00000770: 0000 0080 0b24 f43f 0000 00c0 e5b1 a63f
00000780: 0000 0000 a94d da3f 0000 0000 5fb5 c2bf
00000790: 0000 0020 ea3e c8bf 0000 0080 d9bd 05c0
000007a0: 0000 00e0 9ae6 f23f 0000 0060 f005 0340
000007b0: 0000 00e0 7de3 db3f 0000 0040 c6dc f3bf
000007c0: 0000 0040 9d00 09c0 0000 0080 06f0 fa3f
000007d0: 0000 00c0 b12e f33f 0000 0020 6ea3 f63f
000007e0: 0000 0080 fcc1 c43f 0000 00e0 56ec f03f
000007f0: 0000 00e0 ea39 c93f 0000 00a0 55bb a63f
