trained_models/ode_birnn_attention/final_model.pt (torch_old, 65193 bytes, 39 tensors)

embed_dp.weight f4 [1292, 7]
0.0 0.0 0.0 0.0 0.0 0.0 0.0 -0.5080564
1.6096455 -1.8534659 0.86230856 1.0603341 1.3993517 -0.16127531 -0.23752728 -0.70303047
1.3209785 -0.67178035 0.82517976 0.19170417 -0.6897144 -0.89865613 -0.11713281 0.020293757
0.26760986 -2.3241072 0.42770207 -1.5307286 0.32000107 -0.21881363 0.9501837 -0.91521424
-0.5977047 -0.9098986 0.5284528 -1.3488395 -0.35965887 -0.5817685 1.0405903 -1.0702344
-0.59259367 -1.817033 0.2871111 1.2508233 0.058429755 -1.5364316 0.11414997 1.8291669
-0.16483118 -0.5660093 -2.444318 0.27326432 -1.2675557 -3.6796682 -0.5419161 -2.2230048
0.5469799 0.38679928 2.0450766 0.06951887 1.0658925 -0.82024086 0.037349794 -0.5334913
-0.846105 0.031568937 -0.0059965733 -3.0731602 -0.9052347 -2.1010847 -1.0395441 1.4495584
-1.2905837 -0.39113444 -0.47814074 1.9400144 -1.1699178 -1.984044 -0.6418197 0.42809096
-0.47033215 -0.58781135 -0.05710365 -0.29130256 0.7229851 0.9319474 1.1642469 0.6636956
0.12063361 1.1179452 0.031712502 0.2091912 -0.5395687 1.5699925 -1.3294764 -0.9864919
0.4261227 0.5915776 1.3971165 0.09048437 0.336086 0.24824941 -1.1760635 0.8368531
0.67169875 -0.22137482 0.008650941 -0.74137866 0.14702395 1.6814336 0.64290726 -2.0380728
0.16361481 2.0912225 -0.2751251 -2.1748955 0.6727425 -0.16150078 -1.8412629 0.96731913
0.51469904 0.863372 -0.56006914 0.39112604 1.3975848 -1.0520473 -0.63014334 -1.9567827
1.3964831 -0.8992788 -2.204757 1.152022 0.63573617 1.5623658 1.1299543 1.7338738
0.061349716 -0.25858474 2.35005 0.8867053 -1.0094808 0.67477685 -0.44036788 -0.37103024
0.0440348 -0.54190326 0.5263175 -0.69486606 -0.6439452 0.5646572 -0.25911462 -1.0728397
-0.8241407 -0.60100174 0.16153897 -0.09110765 0.71717143 -0.3448195 -0.7443951 -0.49877283
-0.36670414 -1.0685078 -0.67532516 0.46532747 0.08819446 0.17779958 -1.895784 0.69388735
-1.2696424 0.50494915 -0.9289988 0.95624804 0.48789874 1.6347809 -0.8949049 -0.41961995
-1.2127553 0.47408688 -0.45503584 0.2904548 -1.7158493 0.7542772 0.80082375 0.35760587
-2.3581676 -0.63923275 1.0426185 0.7351328 1.3215537 -0.3933908 -0.74571645 0.62243134
-0.5302473 -0.8541642 -0.6438436 -0.06122212 0.29305413 0.63345 0.34595078 0.0065980656
-1.4117554 -0.33400348 -0.29785937 1.1288271 1.1552818 -0.29757175 0.5246312 1.1246233
0.38293284 0.26222074 1.2182466 1.4427749 2.3647237 -0.8123915 -0.74292064 -0.78791124
0.7239456 0.4507899 0.098159246 0.5928442 -0.037222475 -2.288916 -0.9360562 0.99124765
-0.05327487 -1.5151395 1.1196537 -0.11136608 -0.2251001 -2.1400056 -1.6535126 0.51044834
-2.0098066 0.10171744 -0.9605669 1.2455622 1.9140774 1.4089092 0.6532648 -1.4488603
1.2354379 0.018124415 0.15629774 0.17349133 -0.19987181 0.5598587 -0.7484918 -0.6471446
-1.6488407 -1.655297 0.13825461 1.0823076 -0.63791054 0.253989 -0.755839 0.6762483
00000000: 0000 0000 0000 0000 0000 0000 0000 0000
00000010: 0000 0000 0000 0000 0000 0000 fc0f 02bf
00000020: dd08 ce3f 5f3e edbf 41c0 5c3f 07b9 873f
00000030: f51d b33f 5b25 25be 5a3a 73be cef9 33bf
00000040: d315 a93f ccf9 2bbf fb3e 533f 194e 443e
00000050: 1f91 30bf 540e 66bf 54e3 efbd 183f a63c
00000060: 2904 893e 2cbe 14c0 c4fb da3e eaee c3bf
00000070: 2ed7 a33e ae10 60be 3d3f 733f 7b4b 6abf
00000080: 2d03 19bf 1def 68bf af48 073f c6a6 acbf
00000090: 3525 b8be c8ee 14bf 1032 853f 71fd 88bf
000000a0: 38b4 17bf 8a94 e8bf 3a00 933e fa1a a03f
000000b0: 0a54 6f3d caa9 c4bf 76c7 e93d 2422 ea3f
000000c0: 81c9 28be fce5 10bf b56f 1cc0 4de9 8b3e
000000d0: 443f a2bf af7f 6bc0 03bb 0abf b645 0ec0
000000e0: e006 0c3f 8e0a c63e 89e2 0240 e95f 8e3d
000000f0: 2a6f 883f 4efb 51bf 19fc 183d e392 08bf
00000100: 569a 58bf 6e4e 013d e77e c4bb a8ae 44c0
00000110: 76bd 67bf 2c78 06c0 c80f 85bf 218b b93f
00000120: d931 a5bf c642 c8be ddce f4be 6452 f83f
00000130: debf 95bf 27f5 fdbf 4c4e 24bf bd2e db3e
00000140: 60cf f0be ce7a 16bf 84e5 69bd 9c25 95be
00000150: 8d15 393f 1b94 6e3f 0b06 953f f4e7 293f
00000160: c10e f73d d418 8f3f f8e4 013d 3836 563e
00000170: 2d21 0abf 84f5 c83f 482c aabf bc8a 7cbf
00000180: c12c da3e a171 173f b7d4 b23f df4f b93d
00000190: 7713 ac3e 1835 7e3e 4089 96bf 013c 563f
000001a0: 73f4 2b3f 15b0 62be adbc 0d3c feca 3dbf
000001b0: 728d 163e 3739 d73f 9295 243f c96f 02c0
000001c0: a48a 273e 97d6 0540 32dd 8cbe 7d31 0bc0
000001d0: da38 2c3f 7660 25be 81ae ebbf 3aa2 773f
000001e0: 51c3 033f f305 5d3f b160 0fbf ac41 c83e
000001f0: 0fe4 b23f 7ca9 86bf 1351 21bf db77 fabf
00000200: f5bf b23f 2337 66bf bd1a 0dc0 7575 933f
00000210: 9bbf 223f 9afb c73f 58a2 903f 94ef dd3f
00000220: d749 7b3d 3865 84be 3867 1640 1eff 623f
00000230: ab36 81bf 2dbe 2c3f e677 e1be adf7 bdbe
00000240: d65d 343d 2cba 0abf bebc 063f bee2 31bf
00000250: 98d9 24bf 608d 103f acaa 84be d052 89bf
00000260: e3fa 52bf 40db 19bf 796a 253e a696 babd
00000270: 8c98 373f 2e8c b0be ad90 3ebf 275f ffbe
00000280: a5c0 bbbe ddc4 88bf 1ce2 2cbf 673f ee3e
00000290: 4c9f b43d 1811 363e 0da9 f2bf 9aa2 313f
000002a0: a483 a2bf 5944 013f ded2 6dbf accc 743f
000002b0: ddcd f93e 8040 d13f 7d18 65bf 6dd8 d6be
000002c0: 913b 9bbf 84bb f23e 75fa e8be 7eb6 943e
000002d0: f3a0 dbbf 5018 413f c902 4d3f 1e18 b73e
000002e0: 38ec 16c0 c2a4 23bf 8674 853f aa31 3c3f
000002f0: ac28 a93f 856a c9be 46e7 3ebf a957 1f3f
00000300: 49be 07bf 81aa 5abf efd2 24bf 0cc4 7abd
00000310: 310b 963e c729 223f 7620 b13e 9634 d83b
00000320: 67b4 b4bf 8102 abbe 0681 98be 687d 903f
00000330: 46e0 933f 535b 98be 3b4e 063f a8f3 8f3f
00000340: c60f c43e cc41 863e 81ef 9b3f d9ac b83f
00000350: a257 1740 e4f8 4fbf 0c30 3ebf 8db4 49bf
00000360: 8054 393f efcd e63e b707 c93d a3c4 173f
00000370: 9876 18bd 9a7d 12c0 61a1 6fbf 68c2 7d3f
00000380: c036 5abd 17f0 c1bf d050 8f3f e613 e4bd
00000390: a480 66be daf5 08c0 4da6 d3bf beac 023f
000003a0: aca0 00c0 3c51 d03d b6e7 75bf 956e 9f3f
000003b0: 7d00 f53f 2357 b43f 5d3c 273f 4174 b9bf
000003c0: d422 9e3f a779 943c 840c 203e b6a7 313e
000003d0: 32ab 4cbe e652 0f3f 299d 3fbf 45ab 25bf
000003e0: 360d d3bf c6e0 d3bf 9e92 0d3e 0e89 8a3f
000003f0: 1b4e 23bf d90a 823e aa7e 41bf 9c1e 2d3f

embed_cp.weight f4 [620, 6]
0.0 0.0 0.0 0.0 0.0 0.0 -0.3370961 -2.0234394
1.3051721 1.0629178 0.8353705 -0.17174074 -0.28820297 -0.54222864 -0.98299026 -0.46806273
0.6242547 0.16060413 -0.70726764 2.5044036 0.41155902 -1.1903855 -0.8925152 -1.215332
0.17162926 -0.21782088 0.6123352 0.35084978 1.2302507 -0.54305553 0.23290382 -0.708278
-1.7304448 -0.1012391 -0.49003285 -0.18557087 -0.56430286 -1.2977738 0.62800694 0.88013166
0.15228857 -0.2609583 1.1949403 -0.71603006 0.3444187 -0.34662902 0.166691 0.74584466
0.54219794 -0.1307314 -2.190981 0.28496122 -0.22537817 -0.36496046 -0.04095579 0.9935259
-0.4967922 1.3068377 0.7323515 0.11301231 0.5511232 0.036244743 -0.24090892 1.8912582
0.16910781 -1.1878359 -1.2500969 1.8653458 -1.6163775 -1.2497897 0.25120175 -1.2510891
-0.13302219 -0.09719515 0.42977062 0.011458359 -0.6092406 -0.24662912 -0.32603544 -0.009771637
0.6841174 -1.2598394 -0.641407 0.18728188 -0.08890518 1.3111844 0.39691898 -0.54758614
-2.8878715 -0.91536546 0.4202865 1.7375349 -0.3367507 0.1210863 1.4628316 -0.0661108
0.17070375 1.4309158 -2.6345158 0.08941774 0.45483112 0.03900232 0.6100615 0.35836542
0.42674765 0.5446975 -1.3034588 -0.21827795 0.11099388 -0.41284654 -1.3407202 0.05256175
-0.7522129 -0.18535946 -0.28812358 -0.5006851 -2.6118145 -0.028479023 0.14238097 0.26213616
2.1622758 0.8104453 0.6089615 1.4627178 -1.0411234 -0.82598686 1.1685611 0.52530986
-1.4920307 0.6760787 1.4237828 -0.04448022 -0.83959365 -1.1186143 0.11127377 -0.5539204
0.87117684 -0.18748462 0.1707591 0.22762848 1.9594208 0.33997226 1.5405742 -0.050644968
0.07147641 -0.5360481 0.557995 0.5345961 0.49554107 0.26475754 1.9749161 -0.26534432
1.1205803 0.39760196 0.06466717 0.50187325 -0.2846903 1.4274333 1.427346 0.013949514
-2.179855 -0.92810804 -0.9787284 -0.51270175 2.8595324 0.109198086 0.37674132 0.11993967
-0.27903417 -0.22139363 0.8892214 -2.3613572 0.20207335 0.2837183 -2.39408 -0.39052495
0.8627919 0.171086 0.36654642 0.5955316 0.05918693 2.6936913 0.8757135 0.15033007
0.5605308 -2.4511154 0.1765167 -0.48474032 2.791858 0.75199956 -1.3764633 -0.40785798
-1.1326528 2.0066273 -0.55828893 -0.20240588 -0.441125 0.77081615 -0.7584338 1.1357118
-1.0795202 -1.5910077 -0.12769364 0.021497037 -2.0169222 1.0851221 0.18109186 -0.15129024
-0.77567315 0.75903106 -0.3517748 -1.9740281 0.20041618 -0.30266866 -0.48170662 0.06563321
-0.4133639 -0.49855822 -0.6117844 1.2826611 0.40986562 0.2724119 -0.050386745 0.4314277
0.07498566 -0.7708818 -0.20984648 -0.9418657 -0.46894148 -0.25360125 0.12522276 -0.77131647
-0.45502064 0.86415225 1.3866189 0.038405277 1.8803213 -1.1276 0.3322829 -1.2690103
0.03735863 1.2081923 -1.6009964 -0.8949804 2.3299272 0.18151195 -0.6334572 -0.6672734
-0.6500046 -0.24955532 -0.3885196 0.8989218 1.9952549 -1.5272353 -0.19223547 -2.036115
00000000: 0000 0000 0000 0000 0000 0000 0000 0000
00000010: 0000 0000 0000 0000 dc97 acbe 0880 01c0
00000020: e10f a73f b10d 883f d7da 553f cedc 2fbe
00000030: 578f 93be 7fcf 0abf 40a5 7bbf eba5 efbe
00000040: 28cf 1f3f 6975 243e 7e0f 35bf 2648 2040
00000050: ddb7 d23e 8d5e 98bf e07b 64bf 0090 9bbf
00000060: 95bf 2f3e 700c 5fbe 00c2 1c3f 95a2 b33e
00000070: db78 9d3f b005 0bbf 577e 6e3e b551 35bf
00000080: 377f ddbf 7256 cfbd 96e5 fabe 4a06 3ebe
00000090: 2776 10bf 741d a6bf 10c5 203f 4f50 613f
000000a0: 89f1 1b3e 549c 85be cef3 983f bf4d 37bf
000000b0: a657 b03e 5c79 b1be 0cb1 2a3e adef 3e3f
000000c0: 7ccd 0a3f 74de 05be 0839 0cc0 70e6 913e
000000d0: 89c9 66be 19dc babe 42c1 27bd b757 7e3f
000000e0: 8c5b febe 7546 a73f 637b 3b3f ff72 e73d
000000f0: 6916 0d3f 5e75 143d d4b0 76be c014 f23f
00000100: 992a 2d3e 020b 98bf 2d03 a0bf a7c3 ee3f
00000110: 75e5 cebf 1cf9 9fbf 849d 803e b023 a0bf
00000120: f836 08be 400e c7bd e50a dc3e d7bb 3b3c
00000130: 31f7 1bbf 588c 7cbe 1eee a6be 3719 20bc
00000140: 5122 2f3f 6b42 a1bf 4033 24bf d2c6 3f3e
00000150: eb13 b6bd e4d4 a73f f738 cb3e 9b2e 0cbf
00000160: e3d2 38c0 6455 6abf cb2f d73e 8b67 de3f
00000170: 966a acbe 18fc f73d 113e bb3f 1965 87bd
00000180: f7cc 2e3e 4028 b73f e89b 28c0 a620 b73d
00000190: a0df e83e e6c0 1f3d fe2c 1c3f ac7b b73e
000001a0: ab7e da3e 4c71 0b3f bdd7 a6bf 4184 5fbe
000001b0: c250 e33d 9f60 d3be b89c abbf fd4a 573d
000001c0: 0691 40bf dfce 3dbe ef84 93be e62c 00bf
000001d0: f827 27c0 d74c e9bc 51cc 113e b636 863e
000001e0: ba62 0a40 5879 4f3f e7e4 1b3f 563a bb3f
000001f0: 8843 85bf e073 53bf 6993 953f b57a 063f
00000200: ddfa bebf 7e13 2d3f 843e b63f e430 36bd
00000210: 9cef 56bf c12e 8fbf 81e3 e33d bacd 0dbf
00000220: 7205 5f3f f8fb 3fbe 79db 2e3e 7117 693e
00000230: 4dce fa3f d810 ae3e 8931 c53f 1971 4fbd
00000240: 3962 923d 733a 09bf c3d8 0e3f 4adb 083f
00000250: 8fb7 fd3e 4d8e 873e 0dca fc3f 36db 87be
00000260: 2d6f 8f3f 7c92 cb3e 3970 843d c47a 003f
00000270: edc2 91be 22b6 b63f 46b3 b63f 818c 643c
00000280: bf82 0bc0 7d98 6dbf f28d 7abf 6c40 03bf
00000290: 9402 3740 3fa3 df3d 3de4 c03e eea2 f53d
000002a0: 91dd 8ebe 03b5 62be 03a4 633f 7a20 17c0
000002b0: 51ec 4e3e 8643 913e 9b38 19c0 e3f2 c7be
000002c0: eedf 5c3f 2b31 2f3e f9ab bb3e c274 183f
000002d0: ff6d 723d 7065 2c40 c32e 603f 20f0 193e
000002e0: f27e 0f3f 13df 1cc0 cbc0 343e e22f f8be
000002f0: cdad 3240 0b83 403f f32f b0bf c3d2 d0be
00000300: c4fa 90bf 956c 0040 06ec 0ebf 7d43 4fbe
00000310: 23db e1be 3554 453f b828 42bf 015f 913f
00000320: b82d 8abf 24a6 cbbf 1fc2 02be 8e1a b03c
00000330: 4115 01c0 48e5 8a3f 2570 393e d4eb 1abe
00000340: 8492 46bf dc4f 423f d41b b4be f4ac fcbf
00000350: e639 4d3e 63f7 9abe 40a2 f6be b46a 863d
00000360: 6fa4 d3be 0643 ffbe e79d 1cbf 3d2e a43f
00000370: e8d9 d13e 9379 8b3e 5562 4ebd 17e4 dc3e
00000380: 1592 993d 8258 45bf ffe1 56be 1c1e 71bf
00000390: 1919 f0be 06d8 81be 653a 003e ff74 45bf
000003a0: 77f8 e8be 1539 5d3f ba7c b13f da4e 1d3d
000003b0: 5eae f03f 3255 90bf fc20 aa3e ee6e a2bf
000003c0: 5d05 193d 0ca6 9a3f 73ed ccbf 6f1d 65bf
000003d0: 871d 1540 45de 393e 402a 22bf 6ed2 2abf
000003e0: b466 26bf 6e8b 7fbe 0aec c6be bd1f 663f
000003f0: 8364 ff3f 727c c3bf 60d9 44be b54f 02c0

ode_dp.odeblock.odefunc.fc1.weight f4 [7, 7]
-0.43501383 0.9737055 -1.0057048 1.3487451 1.5477048 0.47390994 0.3108084 1.285876
0.4498819 -0.039039608 1.5725517 1.1596878 1.1197705 -0.11660946 -0.13159564 -0.8378979
-1.2146555 -1.113706 0.4845031 0.30579707 0.052296173 0.5373523 -0.21884884 -1.1004571
0.35784966 1.09404 0.6831545 -0.13654174 -0.19278827 -0.088729866 -0.73715764 -0.6596008
-0.045132946 0.81642056 -0.51232076 1.1812834 0.46245015 -0.8503989 0.20026092 1.0685081
-0.09445525 -0.25589877 0.4291068 -0.8979866 -1.2753874 -0.9570897 0.65626925 0.1314136
-0.36963856
00000000: 22ba debe c344 793f efba 80bf aea3 ac3f
00000010: 311b c63f 53a4 f23e 4722 9f3e 9697 a43f
00000020: ec56 e63e ffe7 1fbd 6049 c93f a670 943f
00000030: a454 8f3f f1d0 eebd 02c1 06be 7a80 56bf
00000040: d579 9bbf eb8d 8ebf ca10 f83e 6f91 9c3e
00000050: 8334 563d ec8f 093f e919 60be c7db 8cbf
00000060: 1238 b73e 8109 8c3f 37e3 2e3f 99d1 0bbe
00000070: 4a6a 45be 01b8 b5bd 5db6 3cbf 99db 28bf
00000080: 53dd 38bd f000 513f 7427 03bf 4b34 973f
00000090: 44c6 ec3e beb3 59bf 3311 4d3e e0c4 883f
000000a0: c171 c1bd 2a05 83be e3b3 db3e 73e2 65bf
000000b0: e53f a3bf d503 75bf 4301 283f 4991 063e
000000c0: 4441 bdbe

ode_dp.odeblock.odefunc.fc1.bias f4 [7]
1.5530384 0.640104 0.74808544 1.2047824 -0.03930269 1.1209353 1.1659666
00000000: f6c9 c63f dbdd 233f 8782 3f3f 4f36 9a3f
00000010: dcfb 20bd cf7a 8f3f 653e 953f

ode_dp.odeblock.odefunc.fc2.weight f4 [7, 7]
1.5951005 0.7678647 0.65233153 1.6083726 0.30884233 1.0845628 1.3365974 1.0926336
1.2988274 0.17764336 1.100269 -0.36664242 1.4014016 0.9616603 1.4053837 1.1647661
0.2694613 1.2879032 -0.06196093 0.6507259 0.43702865 -0.24865441 -0.62686133 1.3331376
0.40549883 0.13442992 0.49500093 1.3503467 0.7996815 -0.11041766 1.3340536 1.6655964
0.3354806 0.93494576 1.8474727 0.44955415 0.58472824 0.88007313 0.9677218 0.5595268
1.3805393 1.377909 1.80908 1.4438049 0.41642928 1.0744092 -0.049415674 1.0531033
0.58664006
00000000: 412c cc3f c892 443f 33ff 263f 27df cd3f
00000010: 9520 9e3e f4d2 8a3f a015 ab3f 6bdb 8b3f
00000020: fa3f a63f 24e8 353e 9dd5 8c3f 8eb8 bbbe
00000030: 2161 b33f 5f2f 763f 9de3 b33f 0e17 953f
00000040: d5f6 893e 03da a43f beca 7dbd f995 263f
00000050: 38c2 df3e 439f 7ebe fc79 20bf 41a4 aa3f
00000060: 8b9d cf3e ffa7 093e c370 fd3e 29d8 ac3f
00000070: edb7 4c3f a722 e2bd 45c2 aa3f 4332 d53f
00000080: 1dc4 ab3e 9b58 6f3f fc79 ec3f f62b e63e
00000090: c0b0 153f 794c 613f 9ebc 773f 263d 0f3f
000000a0: 83b5 b03f 525f b03f ef8f e73f 99ce b83f
000000b0: 3836 d53e 3e86 893f 1768 4abd 17cc 863f
000000c0: 0b2e 163f

ode_dp.odeblock.odefunc.fc2.bias f4 [7]
0.40351096 -0.0639963 0.29757652 -0.011933523 0.49859753 -0.3586982 -0.12116935
00000000: fd98 ce3e 7e10 83bd f35b 983e d384 43bc
00000010: 2d48 ff3e 4aa7 b7be a327 f8bd

ode_dp.odeblock.odefunc.fc3.weight f4 [7, 7]
0.21599236 -0.4103374 0.10515594 0.26697108 0.22455391 -0.009341204 -0.11340426 -0.28676474
-0.7079174 -0.22248271 0.63650167 -0.2998179 -0.20761262 -0.771948 1.2546766 0.6302578
1.0255073 0.48519632 0.99158925 0.59362733 1.2355951 -0.07380742 -0.2666948 -0.45224902
0.78375196 0.6711338 0.56489843 -0.5434529 -0.8994563 -0.8035559 -0.47469354 -0.010351818
-0.41807532 -0.92776453 -0.5767655 -0.66333866 -0.1448877 -0.56233525 0.4463879 -0.2550505
-0.26882008 -0.77016884 0.57467246 0.7840048 0.8623245 -0.1232759 0.27184966 0.41483256
0.9582836
00000000: 1a2d 5d3e be17 d2be ff5b d73d 6fb0 883e
00000010: 76f1 653e d90b 19bc 7e40 e8bd d4d2 92be
00000020: 133a 35bf 82d2 63be c6f1 223f bb81 99be
00000030: 6798 54be 629e 45bf 3e99 a03f 9358 213f
00000040: d343 833f a76b f83e cbd8 7d3f f6f7 173f
00000050: fb27 9e3f 5828 97bd 398c 88be 2f8d e7be
00000060: f8a3 483f 6dcf 2b3f 2f9d 103f bb1f 0bbf
00000070: c542 66bf d7b5 4dbf 080b f3be ac9a 29bc
00000080: f80d d6be fa81 6dbf e7a6 13bf 90d0 29bf
00000090: 715d 14be 34f5 0fbf f48c e43e fb95 82be
000000a0: c9a2 89be c929 45bf bc1d 133f 8ab4 483f
000000b0: 4cc1 5c3f 1378 fcbd e12f 8b3e ef64 d43e
000000c0: 1352 753f

ode_dp.odeblock.odefunc.fc3.bias f4 [7]
0.29882616 0.27259827 0.22700845 0.14569221 -0.2547625 0.14514214 0.24976707
00000000: beff 983e 0092 8b3e e774 683e 5730 153e
00000010: 3b70 82be 24a0 143e f0c2 7f3e

ode_cp.odeblock.odefunc.fc1.weight f4 [6, 6]
-0.3164822 0.017455664 -0.03131209 0.5250471 0.64734536 -0.12330627 -0.30585492 -0.15813152
-0.44960174 0.49347535 0.8093021 0.07193324 -0.61087996 -0.27059376 -0.34960803 -0.5352127
-0.34212515 0.7556695 -1.212314 1.0621989 -0.5277416 -0.26413092 -0.8974165 0.8452321
-0.3670145 -0.48227116 0.00048603886 0.45951065 0.5587416 -0.1453532 -1.1702387 1.7541729
-0.58229446 -0.7407559 -0.30782017 -0.3047377
00000000: f409 a2be 2eff 8e3c 1b41 00bd 7d69 063f
00000010: 6db8 253f ff87 fcbd 0499 9cbe 3bed 21be
00000020: 3332 e6be cda8 fc3e 6c2e 4f3f bc51 933d
00000030: a162 1cbf 448b 8abe d3ff b2be b303 09bf
00000040: 072b afbe 8e73 413f 1b2d 9bbf 22f6 873f
00000050: 131a 07bf 2b3c 87be 16bd 65bf 2261 583f
00000060: 53e9 bbbe 3fec f6be 08d3 fe39 fb44 eb3e
00000070: b109 0f3f 78d7 14be 62ca 95bf bd88 e03f
00000080: 4011 15bf 2ea2 3dbf 9b9a 9dbe 9406 9cbe

ode_cp.odeblock.odefunc.fc1.bias f4 [6]
0.16247918 0.019539304 -0.107201315 0.06672645 0.23216102 0.037828248
00000000: f160 263e e410 a03c 5d8c dbbd e1a7 883d
00000010: 9ebb 6d3e cbf1 1a3d

ode_cp.odeblock.odefunc.fc2.weight f4 [6, 6]
0.017228186 -0.1026702 0.27421117 -0.30327472 0.27515352 -0.56433684 0.36240277 0.41692472
-0.22775899 -0.18116394 0.6467981 -0.4994857 -0.07474569 0.08270757 0.32909948 -0.43036267
0.33691573 -0.47958085 0.021663882 0.66219026 -0.09809625 0.1589 0.051285144 0.20952988
0.27289712 -0.16375534 0.048579186 0.79786223 -0.063769124 0.8398908 -0.039424993 -0.013384042
0.651104 1.037383 0.034847323 0.75363946
00000000: 2022 8d3c c144 d2bd 6865 8c3e d346 9bbe
00000010: ece0 8c3e 6178 10bf db8c b93e 2877 d53e
00000020: a739 69be 0a83 39be 8f94 253f 97bc ffbe
00000030: 4514 99bd 9662 a93d ba7f a83e 7f58 dcbe
00000040: 3880 ac3e 9f8b f5be 7478 b13c 4d85 293f
00000050: b0e6 c8bd aeb6 223e 5f10 523d 008f 563e
00000060: 2cb9 8b3e 7baf 27be f8fa 463d b340 4c3f
00000070: 6399 82bd 1503 573f 1a7c 21bd be48 5bbc
00000080: c0ae 263f f7c8 843f 11bc 0e3d 84ee 403f

ode_cp.odeblock.odefunc.fc2.bias f4 [6]
0.14233431 0.22765309 0.32862765 -0.074628636 0.04979743 0.19680269
00000000: 16c0 113e e41d 693e e241 a83e e6d6 98bd
00000010: 64f8 4b3d a586 493e

ode_cp.odeblock.odefunc.fc3.weight f4 [6, 6]
-0.18669803 -0.24271892 0.22726169 0.49893275 0.5641208 0.6056463 -0.040057104 -0.37032855
0.22365321 -0.40060955 0.0422381 0.054744307 -0.5902681 -0.7678429 -0.6911619 -0.630068
-0.088270664 -0.4627584 0.068051554 0.34575385 0.19279662 0.50194347 0.4045643 0.52852774
0.2132697 0.64166635 0.18745354 0.24047333 -0.25634095 -0.04992533 0.19403872 0.42060384
0.4058913 -0.0074292645 -0.08593573 -0.52668303
00000000: c52d 3fbe 4f8b 78be 4ab7 683e 1d74 ff3e
00000010: 396a 103f a30b 1b3f eb12 24bd b49b bdbe
00000020: 5905 653e b21c cdbe dc01 2d3d 913b 603d
00000030: cf1b 17bf 5a91 44bf fcef 30bf 234c 21bf
00000040: 40c7 b4bd abee ecbe 9d5e 8b3d a606 b13e
00000050: 7a6c 453e 5e7f 003f 0d23 cf3e 984d 073f
00000060: 5f63 5a3e 3f44 243f d2f3 3f3e a43e 763e
00000070: 1f3f 83be 817e 4cbd 16b2 463e 6359 d73e
00000080: fcd0 cf3e 3071 f3bb 12ff afbd b3d4 06bf

ode_cp.odeblock.odefunc.fc3.bias f4 [6]
-0.1446384 0.06312492 -0.6558719 -0.014652044 -0.076807335 -0.22507975
00000000: 171c 14be a347 813d 39e7 27bf 200f 70bc
00000010: 2a4d 9dbd 4e7b 66be

gru_dp_fw.weight_ih_l0 f4 [21, 7]
-0.12256682 -0.43861657 -0.32179576 -0.0018150528 0.3420681 -0.4203994 -0.39603618 0.041484747
-0.06881055 0.1251588 0.065069824 -0.04470487 0.89726794 0.04070657 -0.5883742 0.5528111
-0.40275267 -0.14669047 -0.04188703 0.47804847 -0.1902789 -0.017544115 0.30825025 -0.345162
0.6564723 0.23131746 -0.28802842 0.0593759 -0.29398033 -0.23255306 -0.8113351 0.50087214
-0.0100200465 -0.1582593 0.05061971 -0.037685283 0.3027478 -0.40971467 0.1091959 0.047138885
0.017982688 -0.31919104 0.13465941 0.33503804 -0.3269327 0.20276627 -0.031547904 -0.09682482
0.35148558 -0.06951503 0.5577784 0.5967413 -0.015374627 0.0752799 0.22549659 0.5404541
-0.071421735 -0.056310527 -0.092517234 0.45588765 0.2243216 -0.58817905 0.39240262 0.08736275
-0.08910036 0.33137605 0.271395 -0.17881748 0.21166119 0.059700903 0.15808858 0.2761615
0.14521758 0.22246012 -0.11038281 0.08240843 -0.06905377 0.06417628 -0.056805983 -0.4915871
-0.09335941 0.08262543 0.27440274 0.20391148 -0.18673445 -0.21078327 0.1817539 -0.175563
0.52540356 -0.1706814 0.9825626 -0.37365785 -0.15463832 0.028025592 -0.55787635 0.050894566
0.9643855 -0.29327077 0.15286598 0.0459919 -0.11765394 0.08150754 0.11904261 0.12255283
0.033333253 0.082315765 -0.20691146 -0.088881135 0.00962195 -0.1308404 -0.011506078 -0.2941986
0.04154509 0.2088987 -0.057628598 0.13006596 0.14200354 -0.06737517 0.12111325 -0.0025443113
0.21024293 -0.05218559 0.31569815 0.19853954 0.06758411 0.06976391 -0.121138364 -0.19573058
0.74060136 -0.1526671 -0.19169256 -0.06917955 -0.07166422 0.084710516 -0.07626974 0.12042063
-0.28285542 -0.12731467 0.16721871 -0.06499004 -0.1587097 -0.041269053 -0.095151216 -0.235203
-0.29514438 0.19767423 -0.17887808
00000000: 5004 fbbd 5a92 e0be 6ac2 a4be 11e7 edba
00000010: 8d23 af3e 973e d7be 41c5 cabe e9eb 293d
00000020: 8cec 8cbd a129 003e 5443 853d 741c 37bd
00000030: 5ab3 653f efbb 263d b19f 16bf 0785 0d3f
00000040: 9935 cebe 0736 16be bc91 2bbd c5c2 f43e
00000050: 79d8 42be adb8 8fbc fad2 9d3e 13b9 b0be
00000060: 920e 283f 7cde 6c3e 7678 93be 2534 733d
00000070: 9784 96be 6422 6ebe a8b3 4fbf 2839 003f
00000080: 1f2b 24bc ba0e 22be 9d56 4f3d e25b 1abd
00000090: c201 9b3e 1fc6 d1be 1aa2 df3d b414 413d
000000a0: 6e50 933c 026d a3be 28e4 093e 1b8a ab3e
000000b0: b963 a7be f6a1 4f3e 6038 01bd 174c c6bd
000000c0: ebf5 b33e e55d 8ebd 91ca 0e3f 0ac4 183f
000000d0: dce5 7bbc 592c 9a3d 94e8 663e 335b 0a3f
000000e0: 8f45 92bd dea5 66bd ad79 bdbd 1b6a e93e
000000f0: 90b4 653e e792 16bf ffe8 c83e 3eeb b23d
00000100: 407a b6bd 1faa a93e 49f4 8a3e ee1b 37be
00000110: b6bd 583e ef88 743d f9e1 213e 0a65 8d3e
00000120: ebb3 143e 96cc 633e 6210 e2bd c0c5 a83d
00000130: 106c 8dbd da6e 833d 64ad 68bd 4eb1 fbbe
00000140: 3833 bfbd 8537 a93d 847e 8c3e 2cce 503e
00000150: 5137 3fbe 92d7 57be b21d 3a3e c9c6 33be
00000160: d980 063f 1bc7 2ebe 3989 7b3f 1550 bfbe
00000170: 8259 1ebe ed95 e53c fcd0 0ebf d276 503d
00000180: f8e1 763f 9627 96be e688 1c3e 0162 3c3d
00000190: 8df4 f0bd 6ded a63d 9dcc f33d fafc fa3d
000001a0: 7388 083d 2b95 a83d 99e0 53be 5007 b6bd
000001b0: 62a5 1d3c 07fb 05be fd83 3cbc 33a1 96be
000001c0: 2f2b 2a3d 8ae9 553e f70b 6cbd 0330 053e
000001d0: 6069 113e fefb 89bd 390a f83d 76be 26bb
000001e0: ec49 573e 8fc0 55bd 30a3 a13e f34d 4b3e
000001f0: 8a69 8a3d 61e0 8e3d 6417 f8bd 996d 48be
00000200: 0d98 3d3f c454 1cbe 0e4b 44be 02ae 8dbd
00000210: b1c4 92bd b57c ad3d 4f33 9cbd 179f f63d
00000220: 6dd2 90be c75e 02be 623b 2b3e 8019 85bd
00000230: cc84 22be bd09 29bd a4de c2bd 0ed9 70be
00000240: 2a1d 97be 1d6b 4a3e d12b 37be

gru_dp_fw.weight_hh_l0 f4 [21, 7]
1.501943 -0.48034295 -0.49811128 -0.07847012 -0.2238586 0.16852067 -0.17349225 0.47238815
-0.40739354 -0.020437468 0.1292613 -0.216888 0.2627071 -0.22390044 -0.48260868 0.15592727
-0.05841946 -0.5143439 0.033460464 -0.024364388 -0.35193202 0.64477193 0.1502602 -0.20451026
-0.3563767 -0.19496217 -0.42909145 0.064555205 0.012923571 0.08525607 -0.31646585 0.13903487
-0.013436189 -0.13870089 -0.45941055 0.018828392 -0.27315554 -0.506049 -0.21846949 -0.11102735
0.1943119 -0.035607006 0.7010709 0.20350732 -0.54695296 -0.23677315 0.07294578 -0.012876941
-0.4905575 0.5955492 -0.103410594 -0.6045526 -0.2487269 0.04475819 -0.12763007 -0.14690617
-0.67514104 -0.0647747 0.07617536 0.163323 0.29856488 0.23480986 0.24792492 -0.044802286
-0.027509818 0.83029306 0.6530097 -0.45168403 -0.7623284 0.6040212 -1.0440482 -0.031736176
0.09048332 0.2565751 -0.11152684 -0.40346935 0.18363664 -1.119977 0.12362176 0.38542137
0.65124327 -0.0752822 -0.31339929 0.34213886 -0.6101027 0.01661414 0.73307097 0.3043325
-0.09650719 -0.484602 0.18478055 0.14843445 -0.04019485 0.11195981 0.32274604 -0.73255235
-0.2553767 -0.13209878 1.6820902 -1.2476019 -0.58779347 -0.22792074 0.13895474 0.46400663
-0.9291619 -0.8588468 0.95641273 0.20250113 0.1969468 0.29236245 -0.05210607 0.577453
0.8074789 -0.79850245 -0.22749785 0.0812956 -0.18732515 -0.3758257 -0.22162819 0.6409175
-0.6607042 0.34273523 -0.17163624 -0.1999369 -0.09134664 -0.47566673 -0.5515156 0.8833113
-0.27333072 -0.24345909 -0.17143467 0.41823307 -0.049969487 -0.8244941 0.7495214 0.039915156
-0.15728708 0.19242091 -0.35838866 0.3189064 -0.6311567 -0.012278873 0.20241259 0.05211664
0.015370461 -0.050449703 0.020637687
00000000: ab3f c03f 83ef f5be 7108 ffbe f1b4 a0bd
00000010: 303b 65be af90 2c3e f4a7 31be dcdc f13e
00000020: e395 d0be 7a6c a7bc 135d 043e e317 5ebe
00000030: 8c81 863e 2846 65be 7c18 f7be 66ab 1f3e
00000040: 3e49 6fbd 0bac 03bf d70d 093d d397 c7bc
00000050: 6f30 b4be c60f 253f cfdd 193e 236b 51be
00000060: 0277 b6be 2aa4 47be e0b1 dbbe 8535 843d
00000070: 63bd 533c bc9a ae3d d007 a2be 285f 0e3e
00000080: 7623 5cbc 9b07 0ebe dc37 ebbe 003e 9a3c
00000090: 0bdb 8bbe 6d8c 01bf 77b6 5fbe 4f62 e3bd
000000a0: b3f9 463e a7d8 11bd 6279 333f 3964 503e
000000b0: 1c05 0cbf a974 72be 9964 953d cef9 52bc
000000c0: 5a2a fbbe ea75 183f efc8 d3bd f6c3 1abf
000000d0: 44b2 7ebe 5d54 373d 75b1 02be 926e 16be
000000e0: 0bd6 2cbf 99a8 84bd d401 9c3d 253e 273e
000000f0: 7fdd 983e ff71 703e 08e0 7d3e 9a82 37bd
00000100: 455c e1bc 168e 543f a52b 273f 2143 e7be
00000110: f427 43bf 22a1 1a3f 5fa3 85bf cbfd 01bd
00000120: 524f b93d d05d 833e 2f68 e4bd 8993 cebe
00000130: 3e0b 3c3e 685b 8fbf 682d fd3d f355 c53e
00000140: e1b7 263f 8e2d 9abd df75 a0be d32c af3e
00000150: b12f 1cbf 601a 883c 8aaa 3b3f 78d1 9b3e
00000160: 90a5 c5bd c11d f8be 1d37 3d3e 33ff 173e
00000170: 5ba3 24bd 2f4b e53d f83e a53e 8d88 3bbf
00000180: bcc0 82be e744 07be bb4e d73f 6bb1 9fbf
00000190: a279 16bf 0e64 69be 274a 0e3e 4792 ed3e
000001a0: 8edd 6dbf 62dd 5bbf 77d7 743f 755c 4f3e
000001b0: 6cac 493e 88b0 953e 2d6d 55bd f6d3 133f
000001c0: f0b6 4e3f a86a 4cbf 32f5 68be 4f7e a63d
000001d0: 2ad2 3fbe 3a6c c0be 80f2 62be 2b13 243f
000001e0: e923 29bf fe7a af3e 69c1 2fbe 42bc 4cbe
000001f0: f213 bbbd 978a f3be 2030 0dbf b020 623f
00000200: 01f2 8bbe 574d 79be 928c 2fbe a522 d63e
00000210: ceac 4cbd 0c12 53bf a2e0 3f3f 137e 233d
00000220: dd0f 21be fd09 453e b87e b7be b347 a33e
00000230: 7c93 21bf 532d 49bc 3f45 4f3e 4278 553d
00000240: 63d4 7b3c 59a4 4ebd 5e10 a93c

gru_dp_fw.bias_ih_l0 f4 [21]
0.5292058 0.022216527 0.18033355 -0.075882494 -0.072504885 0.7728447 0.44022384 0.94202495
-0.26972187 -0.61469275 -0.5798756 0.23767482 -0.29153994 0.30476803 -0.19221193 0.12840024
-0.13437444 -0.46550092 0.17217389 0.37267464 -0.53069794
00000000: 087a 073f 6fff b53c 5ca9 383e 4868 9bbd
00000010: 717d 94bd 26d9 453f 0565 e13e 8c28 713f
00000020: fc18 8abe 815c 1dbf ba72 14bf 0761 733e
00000030: b944 95be 8e0a 9c3e 34d3 44be 5a7b 033e
00000040: 7499 09be 2356 eebe 5a4e 303e 36cf be3e
00000050: d2db 07bf

gru_dp_fw.bias_hh_l0 f4 [21]
0.60571563 0.15115826 0.648285 0.3560666 0.09956676 0.58664346 0.44880265 0.7144334
0.34598443 -0.3372544 -0.17332561 0.030435512 0.01998937 -0.19731814 -0.15899892 0.1725436
-0.24873054 0.13041149 -0.22864701 0.29067722 -0.7509471
00000000: 2e10 1b3f 3bc9 1a3e 01f6 253f 5d4e b63e
00000010: a8e9 cb3d 442e 163f 76c9 e53e 1be5 363f
00000020: df24 b13e 9cac acbe 457c 31be e553 f93c
00000030: bfc0 a33c c40d 4abe 9dd0 22be 45af 303e
00000040: 38b3 7ebe 978a 053e 7122 6abe a5d3 943e
00000050: 123e 40bf

gru_cp_fw.weight_ih_l0 f4 [18, 6]
0.5723257 0.16423564 -0.13925813 0.18314534 -0.38488662 -0.13833846 -0.045483164 -0.32222152
-0.3969913 0.50065917 0.788402 -0.3483423 0.38768557 0.2333763 -0.37915748 0.3471821
0.16887487 -0.11283041 -0.65652853 -0.60537255 0.53217256 0.11889451 0.08664158 0.11496884
0.092298724 0.060902733 -0.41545793 -0.10234996 -0.3695253 -0.2662657 0.45424178 -0.15933646
0.2246402 0.56409013 1.023591 -0.0792785 0.5803486 -0.16150056 -0.10353269 0.027507178
0.25437933 0.09304427 0.1381012 -0.11459199 0.07035888 0.2976005 -0.41367412 -0.4046143
-0.073036686 -0.06958078 0.067582875 0.19727322 0.10656336 0.15449987 0.713626 -0.2700936
-0.14768043 -0.22264197 0.19474682 0.5913697 -0.35975948 0.19320546 0.15236783 -0.5828701
0.31731805 0.082686655 0.7575585 -0.29901582 -0.170834 -0.17961444 0.03633262 -0.28360534
0.11562223 0.5225624 -0.08730395 0.17618066 -0.23359857 -0.12603475 -0.29213312 -0.20877732
-0.21283522 -0.11629124 -0.35449335 0.074436 0.59469295 0.00659466 0.12822899 0.24698189
-0.0979919 -0.2321349 0.8160432 0.034796387 0.2698708 -0.06747222 -0.116796754 -0.3605253
-0.022903902 0.013034148 0.070741385 -0.21889733 -0.27090773 -0.49469218 -0.61974907 -0.053273678
-0.20903914 -0.03328488 0.1421715 0.45528787
00000000: f083 123f 632d 283e af99 0ebe 748a 3b3e
00000010: dc0f c5be 99a8 0dbe 8e4c 3abd 38fa a4be
00000020: 7242 cbbe 332b 003f b7d4 493f ec59 b2be
00000030: b97e c63e 32fa 6e3e ee20 c2be dac1 b13e
00000040: 89ed 2c3e a113 e7bd 4112 28bf b2f9 1abf
00000050: 763c 083f f77e f33d 2471 b13d c874 eb3d
00000060: 1d07 bd3d 2575 793d e7b6 d4be db9c d1bd
00000070: 6c32 bdbe fa53 88be 6192 e83e 1929 23be
00000080: 1508 663e 3668 103f 0805 833f c45c a2bd
00000090: ba91 143f 6760 25be f208 d4bd bc56 e13c
000000a0: 023e 823e ff8d be3d 676a 0d3e 35af eabd
000000b0: 5118 903d 185f 983e 18cd d3be 9b29 cfbe
000000c0: 4294 95bd 5e80 8ebd e468 8a3d fe01 4a3e
000000d0: e43d da3d 3735 1e3e 32b0 363f b549 8abe
000000e0: 8a39 17be 42fc 63be b66b 473e 0164 173f
000000f0: 6532 b8be a7d7 453e 5006 1c3e fa36 15bf
00000100: 8377 a23e 9f57 a93d 5bef 413f 9a18 99be
00000110: 1cef 2ebe d9ec 37be 83d1 143d b834 91be
00000120: 59cb ec3d a6c6 053f 6acc b2bd b468 343e
00000130: 7734 6fbe 410f 01be 7992 95be b9c9 55be
00000140: 7af1 59be 1a2a eebd 2780 b5be e771 983d
00000150: cc3d 183f 0518 d83b 764e 033e d2e8 7c3e
00000160: faaf c8bd c5b4 6dbe 35e8 503f a886 0e3d
00000170: 812c 8a3e e02e 8abd 2333 efbd c696 b8be
00000180: f7a0 bbbc 2e8d 553c dce0 903d 9f26 60be
00000190: 6bb4 8abe 4b48 fdbe e0a7 1ebf 8035 5abd
000001a0: 5b0e 56be ba55 08bd 6895 113e 7e1b e93e

gru_cp_fw.weight_hh_l0 f4 [18, 6]
-0.11357728 0.12507321 0.057641722 -0.30092236 0.20321174 0.5750828 0.081471734 0.03835715
-0.20264019 0.37340447 0.097325884 0.26426002 -0.23315619 -0.23543781 0.6113008 -0.26166466
-0.17946716 0.21640459 -0.51481694 -0.61052555 -0.116306946 -0.23442444 0.3432477 0.3491456
0.041950382 0.40888858 0.6683803 -0.19864726 0.01411975 0.075152844 -0.04016201 -0.069361955
0.1782909 0.13741839 0.5227443 0.26824385 0.16909912 0.1435704 0.12452877 -0.7105384
0.037696026 -0.07778167 0.49089834 -0.46474016 0.4475797 0.46663308 -0.15695216 0.2683112
0.105693325 -0.6527137 0.38389033 0.6066563 0.09788471 -0.22540082 -0.0044873897 -0.22741173
0.8567233 0.036273662 -0.06793949 0.31119856 1.2751159e-05 0.15282373 -0.242338 -0.78255993
-0.23451 -0.15975954 -0.4035239 -0.12759514 0.23245217 -0.14768024 -0.6319234 0.1023534
0.31999296 -0.28123632 -0.5277042 0.7098748 -0.2728661 -0.43584675 -0.17776886 0.25545806
-0.31832936 -0.35638705 -0.5707738 0.6695403 0.060068134 -0.10757282 0.7781327 -0.29696336
-0.19590785 -0.12470134 0.3629177 -0.29175314 -0.534103 0.17564492 0.025146764 -0.27627024
0.535296 -0.32221186 -0.49082205 0.041376203 0.23509552 0.11476809 -0.10391972 0.038075943
0.2445352 -0.73811257 -0.020052992 0.30058798
00000000: 349b e8bd 3113 003e ba19 6c3d 7f12 9abe
00000010: bd16 503e a038 133f a7da a63d 631c 1d3d
00000020: e980 4fbe df2e bf3e cb52 c73d 174d 873e
00000030: 7fc0 6ebe 9c16 71be 367e 1c3f e9f8 85be
00000040: 3dc6 37be 2a99 5d3e 0bcb 03bf 674b 1cbf
00000050: 5632 eebd f60c 70be 2abe af3e 36c3 b23e
00000060: 2ad4 2b3d d859 d13e f91a 2b3f 306a 4bbe
00000070: 8656 673c bce9 993d eb80 24bd a40d 8ebd
00000080: e491 363e 68b7 0c3e 92d2 053f 4257 893e
00000090: 5228 2d3e 1e04 133e f108 ff3d d8e5 35bf
000000a0: 2667 1a3d ff4b 9fbd 0757 fb3e 6cf2 edbe
000000b0: 2b29 e53e 88ea ee3e 11b8 20be 1660 893e
000000c0: be75 d83d 3f18 27bf 468d c43e d44d 1b3f
000000d0: c777 c83d 79cf 66be f40a 93bb 9fde 68be
000000e0: 3852 5b3f b193 143d dc23 8bbd 6b55 9f3e
000000f0: d0ed 5537 d37d 1c3e 7427 78be d955 48bf
00000100: 6423 70be 0198 23be af9a cebe 4da8 02be
00000110: f107 6e3e 7d39 17be bbc5 21bf a99e d13d
00000120: 1ed6 a33e 35fe 8fbe 9f17 07bf 5bba 353f
00000130: 1bb5 8bbe 4e27 dfbe 0a09 36be 66cb 823e
00000140: 11fc a2be 5d78 b6be 3b1e 12bf fe66 2b3f
00000150: 010a 763d 234f dcbd b433 473f 950b 98be
00000160: 119c 48be 6b63 ffbd 59d0 b93e ab60 95be
00000170: f9ba 08bf 43dc 333e 9600 ce3c 4b73 8dbe
00000180: 2909 093f f4f8 a4be 074d fbbe 187a 293d
00000190: e1bc 703e 880b eb3d ddd3 d4bd 85f5 1b3d
000001a0: 6f67 7a3e f2f4 3cbf 2c46 a4bc abe6 993e

gru_cp_fw.bias_ih_l0 f4 [18]
0.4158447 0.110544026 0.29991677 0.06874608 0.024045521 -0.23545004 0.3246853 -0.11297653
0.8887982 0.8829642 -0.101587415 -0.033466134 -0.20840932 0.16714749 0.5912829 0.15696749
0.3936381 -0.014545907
00000000: 99e9 d43e e864 e23d b18e 993e bfca 8c3d
00000010: 1dfb c43c d119 71be 273d a63e 3d60 e7bd
00000020: 4788 633f f109 623f 100d d0bd c913 09bd
00000030: 4169 55be b628 2b3e 515e 173f 16bc 203e
00000040: ef8a c93e f551 6ebc

gru_cp_fw.bias_hh_l0 f4 [18]
0.49713373 0.35109475 0.09282175 0.11429204 0.13705136 0.035885807 -0.21558943 -0.1448923
0.57640314 0.4998745 -0.1349609 0.4937992 0.19149055 0.0064144363 0.62647283 -0.29953632
-0.2590572 -0.2911369
00000000: 5088 fe3e b1c2 b33e 5419 be3d f211 ea3d
00000010: 3157 0c3e fffc 123d 7ac3 5cbe a65e 14be
00000020: 288f 133f 8def ff3e 3133 0abe 40d3 fc3e
00000030: 1916 443e 3130 d23b 8660 203f d35c 99be
00000040: 25a3 84be e50f 95be

gru_dp_bw.weight_ih_l0 f4 [21, 7]
0.129276 -0.4951258 -0.26234302 0.4910094 -0.030414788 -0.22710748 -0.12698746 0.21509418
0.16629402 -0.5451541 -0.028501261 0.22285907 -0.45184407 -0.020112429 -0.35835028 0.057509564
-0.036022704 -0.19110858 -0.22298795 0.10100652 0.12197728 0.12557894 -0.12960742 -1.0972439
0.22573766 -0.17884988 0.01280166 -0.34266207 0.25557342 -0.3567872 -0.25854135 -0.5008262
0.10177765 0.3439161 -0.06614746 -0.22786544 0.22069879 0.32291874 0.68312794 0.16588219
0.52271926 -0.68455607 0.097008236 0.24765174 -0.31932038 0.3871351 -0.5217857 0.1380239
-0.52488494 0.15726487 -0.21311443 -0.2814544 0.21813527 0.3004255 -0.38618526 0.053161625
0.029299874 -0.19338322 -0.059655186 -0.29623237 0.024143182 -0.23852158 0.024010397 -0.3534637
-0.477021 0.29021835 -0.035431102 -0.25466067 -0.03606552 0.455541 0.18221648 -0.014274881
0.30329695 -0.2687307 0.18331547 -0.29374513 0.35899204 0.49335206 0.16983336 0.18908632
0.006875086 0.03819099 0.37046733 -0.16604055 -0.18558115 -0.018582905 0.24694313 0.42197073
-0.19563374 0.14655891 0.09515453 -0.16298273 0.37176138 -0.4129076 -0.22359917 0.047088403
-0.22975627 0.13344425 0.17208345 0.41207436 0.19070739 -0.076818146 0.08907544 0.7440844
0.062900834 0.07437231 -0.113654576 0.27671465 -0.262661 -0.2071999 0.15724024 -0.13424794
-0.4697633 -0.8481475 0.29114443 -0.17562085 -0.5254848 -0.407845 0.39470038 -0.32569125
0.07049671 -0.62353915 0.50092137 0.08774055 0.44934705 -0.20944956 -0.3383578 -0.09586807
0.18344381 0.030401243 0.16340366 -0.19260626 -0.20908667 0.09180579 -0.15486589 -0.26409647
-0.54063827 0.16590329 -0.35865423 0.55752873 0.15674303 -0.26509613 0.16058515 0.057714537
0.10102061 0.2850544 0.006563546
00000000: ee60 043e 2181 fdbe d351 86be 9665 fb3e
00000010: 6f28 f9bc dd8e 68be 0009 02be a641 5c3e
00000020: fb48 2a3e 388f 0bbf 7a7b e9bc 2b35 643e
00000030: 1b58 e7be d2c2 a4bc b079 b7be 268f 6b3d
00000040: 8b8c 13bd f8b1 43be f456 64be 82dc ce3d
00000050: 39cf f93d c497 003e cfb7 04be 7d72 8cbf
00000060: c627 673e 6c24 37be 0ebe 513c 6771 afbe
00000070: 85da 823e d0ac b6be 885f 84be 2536 00bf
00000080: cd70 d03d c515 b03e 5278 87bd 8f55 69be
00000090: ddfe 613e 9b55 a53e 79e1 2e3f 05dd 293e
000000a0: eed0 053f 113f 2fbf 41ac c63d 6b98 7d3e
000000b0: f67d a3be 9236 c63e bf93 05bf 2356 0d3e
000000c0: dc5e 06bf 0b0a 213e ab3a 5abe cb1a 90be
000000d0: da5e 5f3e 5fd1 993e 13ba c5be 01c0 593d
000000e0: 4a06 f03c 4006 46be ff58 74bd c5ab 97be
000000f0: ecc7 c53c 003f 74be 74b1 c43c 32f9 b4be
00000100: 193c f4be 8097 943e 3420 11bd e262 82be
00000110: 70b9 13bd ac3c e93e f596 3a3e 31e1 69bc
00000120: bd49 9b3e 1297 89be 0db7 3b3e c365 96be
00000130: cecd b73e a498 fc3e cce8 2d3e d89f 413e
00000140: 6748 e13b 286e 1c3d e5ad bd3e 8906 2abe
00000150: fc08 3ebe 2d3b 98bc a9de 7c3e 8c0c d83e
00000160: 3654 48be 8a13 163e 61e0 c23d f2e4 26be
00000170: 8257 be3e a068 d3be 2ef7 64be c5df 403d
00000180: 3a45 6bbe 9ca5 083e a536 303e 69fb d23e
00000190: cc48 433e d552 9dbd 2f6d b63d 517c 3e3f
000001a0: 27d2 803d 8250 983d bbc3 e8bd 8bad 8d3e
000001b0: 817b 86be 362c 54be 9603 213e 4b78 09be
000001c0: d184 f0be 3220 59bf e210 953e f4d5 33be
000001d0: 2c86 06bf 0fd1 d0be 2b16 ca3e 01c1 a6be
000001e0: 9460 903d 43a0 1fbf 623c 003f 51b1 b33d
000001f0: d110 e63e f279 56be 3c3d adbe 7b56 c4bd
00000200: b2d8 3b3e 070c f93c 4a53 273e 933a 45be
00000210: d11a 56be ad04 bc3d 2a95 1ebe a737 87be
00000220: 4567 0abf 8de2 293e 87a1 b7be 34ba 0e3f
00000230: 3f81 203e aeba 87be 6f70 243e 1466 6c3d
00000240: e5e3 ce3d a6f2 913e 0413 d73b

gru_dp_bw.weight_hh_l0 f4 [21, 7]
-0.3775179 -0.11008417 -0.019613078 0.31854254 -0.019124415 0.0005827765 -0.12258857 -0.35575792
0.10949663 0.03236405 -0.08263528 -0.14536244 -0.28519997 -0.32828632 -0.20456645 0.07423931
-0.43862063 -0.36296073 -0.023444314 0.10796226 0.05201728 -0.43790412 0.16217062 -0.29329222
0.34568512 -0.26084936 -0.23837388 0.13051765 -0.176071 -0.26323122 0.22025584 -0.06473332
0.19638298 -0.51025516 -0.15944031 -0.0010271529 0.1157133 0.033114348 -0.42901045 0.19276813
-0.34901178 -0.22613196 0.12381045 0.38690126 0.2578528 0.090622194 -0.20424946 -0.3879735
-0.27093142 -0.25333703 0.31875017 0.08517173 0.2464116 -0.16822965 0.040089272 0.3904068
-0.1634144 -0.20670159 0.43116325 -0.69189364 -0.27958998 -0.58194906 -0.24383073 0.120944336
0.19220564 -0.19322522 0.21175103 0.1426163 0.24778809 0.052217398 0.2698857 -0.5904095
0.37182602 0.037375364 0.322887 0.037522536 0.010270627 -0.82810754 0.8102452 -0.39916983
0.26996657 -0.34468475 -0.11127369 -0.35997888 -0.42917067 0.5110714 -0.09406088 -0.22346249
-0.48192367 0.2224696 0.1305004 0.35833353 0.17298903 -0.02806151 0.43500587 -0.27934274
-0.02783515 0.122129865 -0.04850738 -0.020265596 -0.24840796 0.72431976 0.29615244 0.09020667
0.44185635 -0.44271827 -0.37827364 0.030258046 -0.1677288 -0.5339478 -0.4625847 -0.6959491
-0.15364553 -0.113593526 0.65096956 -0.076398 -0.26013836 -0.24270554 -0.1471549 0.04976421
0.19489075 -0.42546785 0.3166366 0.50662094 0.6861391 0.47240788 0.5066264 0.032346655
-0.509765 0.6209363 0.26281354 0.29099178 0.48434588 0.6690988 0.13307361 -0.58084434
0.5654557 0.4673355 0.45375395 0.04427513 0.09113355 0.19794348 -0.39753217 0.46536863
0.39828178 0.8865651 -0.12057026
00000000: 074a c1be cf73 e1bd 9bab a0bc 0218 a33e
00000010: ceaa 9cbc 78c5 183a b70f fbbd e725 b6be
00000020: c53f e03d 2b90 043d b03c a9bd e4d9 14be
00000030: bb05 92be 2515 a8be de79 51be c80a 983d
00000040: e292 e0be fdd5 b9be 4a0e c0bc 511b dd3d
00000050: 1210 553d f834 e0be 0e10 263e 662a 96be
00000060: a4fd b03e 0c8e 85be 4818 74be 6ba6 053e
00000070: f54b 34be 3ec6 86be bf8a 613e e792 84bd
00000080: 9f18 493e 15a0 02bf 5244 23be 88a1 86ba
00000090: 18fb ec3d e9a2 073d 42a7 dbbe 0265 453e
000000a0: acb1 b2be 238f 67be 5590 fd3d ec17 c63e
000000b0: 4805 843e 2198 b93d c526 51be 76a4 c6be
000000c0: 86b7 8abe 64b5 81be 3933 a33e 846e ae3d
000000d0: 5353 7c3e 6544 2cbe a634 243d 66e3 c73e
000000e0: 1b56 27be 95a9 53be 6ec1 dc3e f11f 31bf
000000f0: 6b26 8fbe 9dfa 14bf c3ae 79be aab1 f73d
00000100: 8ed1 443e d5dc 45be 43d5 583e 020a 123e
00000110: 29bc 7d3e e9e1 553d 752e 8a3e 1425 17bf
00000120: fb5f be3e e916 193d 7251 a53e 3bb1 193d
00000130: 2246 283c dbfe 53bf 3b6c 4f3f fd5f ccbe
00000140: 0f39 8a3e 857a b0be 76e3 e3bd 274f b8be
00000150: 42bc dbbe 93d5 023f fea2 c0bd 5ad3 64be
00000160: b3be f6be 12cf 633e e6a1 053e 7e77 b73e
00000170: 0924 313e 40e1 e5bc 17b9 de3e 0306 8fbe
00000180: 8a06 e4bc 391f fa3d adaf 46bd 0904 a6bc
00000190: a85e 7ebe 056d 393f 4ba1 973e 46be b83d
000001a0: ff3a e23e f8ab e2be 15ad c1be b9df f73c
000001b0: 19c1 2bbe ceb0 08bf e7d7 ecbe b829 32bf
000001c0: 4155 1dbe b9a3 e8bd f1a5 263f 8e76 9cbd
000001d0: db30 85be cd87 78be c6af 16be 8ed5 4b3d
000001e0: 7191 473e ecd6 d9be 311e a23e e9b1 013f
000001f0: d0a6 2f3f 72df f13e 45b2 013f ed7d 043d
00000200: f67f 02bf aef5 1e3f 7f8f 863e e0fc 943e
00000210: 2ffc f73e 0f4a 2b3f 7344 083e 37b2 14bf
00000220: b4c1 103f 9946 ef3e 7052 e83e d759 353d
00000230: 3aa4 ba3d b2b1 4a3e 5689 cbbe cc44 ee3e
00000240: 97eb cb3e eef5 623f 8aed f6bd

gru_dp_bw.bias_ih_l0 f4 [21]
0.40267676 0.040746752 -0.38961267 0.12721862 0.64762217 -0.102510214 -0.06397939 0.5526081
-0.4769459 1.0033525 0.78542876 -0.04753886 0.13558945 0.26256675 0.05740371 -0.29766184
0.27391404 -0.25954828 0.1381188 0.081422284 0.066937715
00000000: a62b ce3e 11e6 263d 507b c7be 9945 023e
00000010: 91ca 253f e0f0 d1bd a007 83bd b977 0d3f
00000020: 4132 f4be db6d 803f dc11 493f 1cb8 42bd
00000030: f6d7 0a3e 266f 863e 2720 6b3d 2267 98be
00000040: 763e 8c3e 83e3 84be 046f 0d3e bac0 a63d
00000050: a416 893d

gru_dp_bw.bias_hh_l0 f4 [21]
0.5788848 0.49414283 -0.20039256 0.07441945 0.38871506 0.5807147 0.52078044 0.46369246
-0.28347465 0.49644592 0.89010656 7.965998e-05 0.57002115 0.3173749 -0.040598333 0.33788815
0.21215361 0.49041364 0.017740354 0.09226412 -0.24252102
00000000: cb31 143f 4a00 fd3e b533 4dbe 3969 983d
00000010: a905 c73e b8a9 143f de51 053f 1969 ed3e
00000020: 9723 91be 292e fe3e 06de 633f 200f a738
00000030: e8ec 113f f77e a23e 704a 26bd adff ac3e
00000040: cc3e 593e 7f17 fb3e 3854 913c f9f4 bc3d
00000050: 6e57 78be

gru_cp_bw.weight_ih_l0 f4 [18, 6]
0.009719819 0.043831494 0.111759886 -0.274822 -0.21859354 -0.173743 0.30724648 0.056545522
0.26187003 -0.3621287 -0.30678314 0.09300541 -0.060261965 -0.19796973 0.3390426 0.47916985
-0.2668371 -0.2548177 -0.2926617 -0.07068507 0.39778507 0.00070952345 0.14400807 0.15668856
-0.21987548 0.19471316 0.0046363873 -0.071020454 -0.18978913 -0.062865496 0.22746214 0.11910039
-0.09539986 -0.029419318 -0.1956595 -0.69763064 -1.1933514 0.11749923 0.18234977 0.413657
0.500523 -0.26652905 0.7594432 0.13257053 -0.23543239 -0.01703123 -0.15064855 0.41199133
-0.8871868 0.21968573 -0.26354396 0.24907137 0.10334151 0.4195092 -0.56962216 -0.24940512
0.22785392 -0.10593579 0.6578465 -0.3992104 0.31819585 0.10775711 0.31845486 0.34025803
-0.48689312 -0.2605154 -0.2723494 0.14449674 0.49102497 0.4990382 0.035691634 -0.47657618
-0.27950588 0.15684767 -0.028588085 0.40855357 -0.088039584 -0.546996 -0.82617277 -0.2927154
-0.13309222 0.30595756 0.021127988 0.29098576 0.22939463 -0.35615617 0.04905515 -0.5738052
0.10608175 0.21260786 -0.32407174 0.09472023 -0.06438252 -0.059715502 -0.20338532 -0.6604944
-0.29409212 -0.22346291 0.12792753 -0.09608998 -0.42010003 0.29479307 -0.073974565 0.29314816
-0.27415195 0.4788857 0.011808187 -0.09454651
00000000: e03f 1f3c a788 333d 5ee2 e43d 78b5 8cbe
00000010: fcd6 5fbe afe9 31be 694f 9d3e 479c 673d
00000020: d413 863e ef68 b9be ae12 9dbe 9f79 be3d
00000030: 40d5 76bd 94b8 4abe fe96 ad3e c055 f53e
00000040: df9e 88be 7777 82be c1d7 95be 55c3 90bd
00000050: 7caa cb3e 50ff 393a da76 133e f772 203e
00000060: 0a27 61be e362 473e d6ec 973b 2c73 91bd
00000070: 1558 42be a0bf 80bd d6eb 683e e8ea f33d
00000080: 0061 c3bd c800 f1bc f75a 48be ec97 32bf
00000090: bdbf 98bf 70a3 f03d e6b9 3a3e daca d33e
000000a0: 4622 003f 7f76 88be df6a 423f 92c0 073e
000000b0: 3015 71be 1485 8bbc 9d43 1abe 87f0 d23e
000000c0: ad1e 63bf 4cf5 603e 3cef 86be 910c 7f3e
000000d0: b7a4 d33d e9c9 d63e c2d2 11bf 0e64 7fbe
000000e0: 8a52 693e ddf4 d8bd a168 283f 4e65 ccbe
000000f0: 91ea a23e c2af dc3d 840c a33e 4d36 ae3e
00000100: 0e4a f9be 4662 85be 6171 8bbe f4f6 133e
00000110: a067 fb3e ef81 ff3e 6431 123d cb01 f4be
00000120: 651b 8fbe ad9c 203e 8f31 eabc ef2d d13e
00000130: 194e b4bd ee07 0cbf 0f80 53bf cbde 95be
00000140: 5449 08be 78a6 9c3e 9a14 ad3c 16fc 943e
00000150: 6de6 6a3e 1a5a b6be 0eee 483d e6e4 12bf
00000160: 6341 d93d e0b5 593e bbec a5be aefc c13d
00000170: fcda 83bd 3e98 74bd 3e44 50be 2916 29bf
00000180: 3e93 96be 76d3 64be 6fff 023e d3ca c4bd
00000190: 5a17 d7be 1eef 963e fa7f 97bd 8417 963e
000001a0: a55d 8cbe 8230 f53e 2077 413c 9aa1 c1bd

gru_cp_bw.weight_hh_l0 f4 [18, 6]
-0.32004714 -0.045225065 0.14897417 -0.050698496 -0.14538823 -0.060724325 -0.57377785 -0.095908724
0.49352628 -0.8171302 0.18887424 -1.0288352 -0.23606798 -0.4348478 0.8087831 -0.68234015
0.08913995 -0.28213763 -0.17809136 -0.38441524 0.13933873 -0.5007268 0.024715228 -0.09136539
-0.5388922 0.50213456 0.5890234 -0.74123126 0.48477685 -0.019693729 -0.043744817 -0.064455144
0.110840455 -0.1621851 -0.4203998 0.3210123 -0.40947583 -0.3606629 0.44270384 -0.6333842
0.33538496 -0.23429169 0.2519225 0.61614645 0.027398782 -0.49223742 0.316688 0.22421928
-0.38255155 0.14584082 0.041464947 -0.19529223 0.18036635 -0.79001236 -0.3516701 -0.16025998
-0.03248555 -0.19341438 -0.0065725097 -0.08162997 -0.23392949 -0.5794246 0.39140397 0.17995073
-0.55659485 -0.08035341 0.43751946 -0.5669522 0.2794457 0.46236944 -0.27115217 -0.27217397
0.21021429 -0.44262153 0.31429788 0.13449451 -0.35718006 0.25304785 -0.37233984 -0.14080445
0.13586141 -0.606276 0.33346587 -0.13715887 -0.37930685 0.10249044 0.034706023 -0.34555247
0.73473465 -0.40548885 0.49161467 -0.15358877 0.20964047 0.49344143 -0.3304662 0.08107062
-0.55943465 0.32139277 0.12181692 -0.3054377 0.56407106 0.275638 0.4934798 -0.010214761
0.38918975 0.43941602 -0.34808737 0.12909599
00000000: 38dd a3be eb3d 39bd af8c 183e 3aa9 4fbd
00000010: a7e0 14be 12ba 78bd 1be3 12bf cb6b c4bd
00000020: 7aaf fc3e 722f 51bf 4068 413e dfb0 83bf
00000030: cebb 71be 5fa4 debe 690c 4f3f d8ad 2ebf
00000040: 028f b63d 5874 90be 955d 36be 13d2 c4be
00000050: d0ae 0e3e a22f 00bf 9777 ca3c c71d bbbd
00000060: d7f4 09bf e48b 003f 3dca 163f 55c1 3dbf
00000070: ac34 f83e be54 a1bc c42d 33bd 0f01 84bd
00000080: 5200 e33d da13 26be a53e d7be b95b a43e
00000090: d1a6 d1be cfa8 b8be 14aa e23e 7825 22bf
000000a0: 94b7 ab3e 29ea 6fbe fcfb 803e c6bb 1d3f
000000b0: 6973 e03c 8b06 fcbe ee24 a23e bd99 653e
000000c0: ccdd c3be 4c57 153e 26d7 293d b0fa 47be
000000d0: f5b1 383e 403e 4abf 1a0e b4be 311b 24be
000000e0: 910f 05bd 6b0e 46be 355e d7bb 9d2d a7bd
000000f0: 368b 6fbe 2c55 14bf 1a66 c83e 0145 383e
00000100: 007d 0ebf 5490 a4bd 8d02 e03e c823 11bf
00000110: 8213 8f3e b0bb ec3e 75d4 8abe 635a 8bbe
00000120: 6a42 573e 4a9f e2be a7eb a03e eeb8 093e
00000130: 4ee0 b6be 7d8f 813e 54a3 bebe 0b2f 10be
00000140: 411f 0b3e e734 1bbf 0abc aa3e 6073 0cbe
00000150: 8234 c2be 82e6 d13d e727 0e3d 41ec b0be
00000160: 9217 3c3f 3c9c cfbe ebb4 fb3e 6046 1dbe
00000170: feab 563e 5ba4 fc3e de32 a9be 5a08 a63d
00000180: 1c37 0fbf 988d a43e 267b f93d 5562 9cbe
00000190: f666 103f 6d20 8d3e 62a9 fc3e d05b 27bc
000001a0: e143 c73e 23fb e03e 8238 b2be bd31 043e

gru_cp_bw.bias_ih_l0 f4 [18]
-0.022846997 -0.3984045 -0.34567127 -0.30462298 0.10738324 -0.0413606 0.17420089 -0.32151842
-0.40239915 1.0916709 -0.04602875 0.44819248 0.02695165 -0.16797811 0.0066549554 -0.007919255
-0.019120064 0.17979155
00000000: a029 bbbc adfb cbbe d3fb b0be 8bf7 9bbe
00000010: beeb db3d bc69 29bd b861 323e 109e a4be
00000020: 4307 cebe dfbb 8b3f a488 3cbd 7c79 e53e
00000030: b5c9 dc3c 7402 2cbe d011 da3b c3bf 01bc
00000040: aea1 9cbc 471b 383e

gru_cp_bw.bias_hh_l0 f4 [18]
-0.1561644 -0.016363448 0.005372399 0.2293831 -0.2772343 -0.11931634 -0.0062698424 -0.24136479
0.05669139 0.89812267 0.024536839 0.43821117 0.086552456 0.09313225 -0.26693407 0.23756945
0.39348248 0.27567756
00000000: 8fe9 1fbe a30c 86bc f30a b03b 67e3 6a3e
00000010: a7f1 8dbe 205c f4bd 4073 cdbb 5528 77be
00000020: 3b35 683d 5eeb 653f 7b01 c93c 375d e03e
00000030: 6a42 b13d 1fbc be3d 95ab 88be 6845 733e
00000040: 8976 c93e 9c25 8d3e

attention_dp.context f4 [14]
-0.7183129 0.9556258 -0.6540469 -0.13693483 -1.4823157 1.5871382 0.13270517 0.29466417
0.6245228 0.019040493 -0.923566 0.9343992 -0.0029285187 0.050854605
00000000: 5be3 37bf e4a3 743f 9e6f 27bf a538 0cbe
00000010: 85bc bdbf 5827 cb3f dde3 073e 39de 963e
00000020: bae0 1f3f cffa 9b3c d26e 6cbf c934 6f3f
00000030: 64ec 3fbb eb4c 503d
