trained_models/mce_birnn_attention/final_model.pt (torch_old, 10185 bytes, 25 tensors)

gru_dp_fw.weight_ih_l0 f4 [21, 7]
-0.2551584 -0.09429919 0.4396095 -0.23810162 0.14258192 0.019545222 0.20954797 -0.7359811
-0.085416295 -0.39270195 -0.11827151 0.08892164 0.060186002 0.37431893 0.06696306 -0.4167211
-0.12300948 0.07428824 0.23301592 -0.15098067 0.3679772 -0.21474363 0.13156474 0.84061515
0.12085176 0.43842646 -0.46666935 0.1918246 0.12171661 -0.5655169 -0.31496647 0.050557934
0.48614222 0.074656986 0.24682003 -0.34256834 -0.5129323 0.23276237 -0.07540995 0.22662573
-0.2830786 0.14922576 0.45055348 -0.17265663 -0.35677525 0.060300466 -0.28014138 0.38668892
-0.052405152 0.06251498 -0.2606812 -0.19365203 -0.025751026 -0.20875585 -0.5968186 -0.8384142
0.14777869 0.01869358 0.28967717 -0.32234558 0.50618875 -0.08138383 0.031043027 -0.20092793
0.23135531 0.08313913 0.1034976 0.16363133 -0.26579928 -0.18761979 -0.34385964 0.22479473
-0.02419928 -0.16023773 -0.030369088 0.11964705 -0.18031237 -0.0910588 0.539514 0.18258534
0.037833087 -0.45718503 0.085073866 -0.2860532 0.25672016 0.057792265 0.23284361 0.32933286
-0.11170927 -0.31800377 -0.16253379 -0.0004682003 0.18723504 0.13625444 0.0627394 -0.049361777
-0.40396076 0.3172235 0.039961703 -0.27026784 0.0474315 0.1783966 0.2802595 -0.29159668
0.045831237 -0.13850394 0.04571433 0.49516982 0.2122205 0.3311748 0.02932415 0.018364837
-0.053007316 0.04025052 -0.04937067 -0.13358597 -0.041268226 0.1344462 0.081588015 0.18180543
0.15069467 0.007204128 0.07950495 -0.02563789 0.008455339 0.03113438 -0.006188316 -0.027013117
-0.011914404 -0.033459034 -0.07751504 0.034520343 -0.11940283 -0.0006067386 -0.20935337 -0.06213924
-0.1916044 -0.057700936 0.19654317 -0.029501975 0.15621866 -0.14772265 -0.27653232 0.08388706
-0.28465074 0.19741042 0.14874892
00000000: 1fa4 82be ef1f c1bd 7f14 e13e e9d0 73be
00000010: ff00 123e 4d1d a03c be93 563e 4269 3cbf
00000020: bdee aebd 3b10 c9be 5538 f2bd 8c1c b63d
00000030: 9985 763d bba6 bf3e ee23 893d 785c d5be
00000040: 65ec fbbd 6f24 983d ba9b 6e3e ad9a 1abe
00000050: 8267 bc3e c1e5 5bbe e8b8 063e 8e32 573f
00000060: 2181 f73d 6f79 e03e 49ef eebe ab6d 443e
00000070: 8f46 f93d b7c5 10bf 4943 a1be d615 4f3d
00000080: a2e7 f83e c3e5 983d 64be 7c3e 1e65 afbe
00000090: 884f 03bf 4259 6e3e 8870 9abd 9310 683e
000000a0: aeef 90be a3ce 183e f2ae e63e e6cc 30be
000000b0: 3fab b6be 9ffd 763d b16e 8fbe 17fc c53e
000000c0: c9a6 56bd db07 803d 0278 85be b84c 46be
000000d0: d1f3 d2bc 18c4 55be 1bc9 18bf 50a2 56bf
000000e0: 4c53 173e 4723 993c 9150 943e 7b0a a5be
000000f0: 9695 013f 91ac a6bd f24d fe3c 0dc0 4dbe
00000100: 68e8 6c3e d944 aa3d 8df6 d33d f98e 273e
00000110: d816 88be 671f 40be 5f0e b0be 9730 663e
00000120: 923d c6bc 5c15 24be 98c8 f8bc 8309 f53d
00000130: cea3 38be 097d babd 971d 0a3f a7f7 3a3e
00000140: def6 1a3d 2814 eabe 353b ae3d 9175 92be
00000150: d370 833e 95b7 6c3d 8e6e 6e3e 519e a83e
00000160: d4c7 e4bd 64d1 a2be 426f 26be c878 f5b9
00000170: 8bba 3f3e 4986 0b3e 847d 803d 932f 4abd
00000180: f2d3 cebe 1e6b a23e e2ae 233d 8c60 8abe
00000190: 8847 423d 99ad 363e 2c7e 8f3e 294c 95be
000001a0: 89b9 3b3d fad3 0dbe f33e 3b3d e686 fd3e
000001b0: 5550 593e be8f a93e 3339 f03c db71 963c
000001c0: 331e 59bd bbdd 243d e638 4abd c3ca 08be
000001d0: df08 29bd 44ac 093e 9e17 a73d 342b 3a3e
000001e0: b44f 1a3e 9b10 ec3b 7ed3 a23d 8d06 d2bc
000001f0: 4388 0a3c 870d ff3c 5bc7 cabb 9d4a ddbc
00000200: a234 43bc 570c 09bd 35c0 9ebd 3465 0d3d
00000210: 7989 f4bd 8a0d 1fba bb60 56be b785 7ebd
00000220: f233 44be d157 6cbd 9d42 493e 20ae f1bc
00000230: c9f7 1f3e 9b44 17be a595 8dbe fbcc ab3d
00000240: bebd 91be f525 4a3e a351 183e

gru_dp_fw.weight_hh_l0 f4 [21, 7]
0.12255799 0.8168383 0.40550268 0.29476064 0.322636 -0.52792186 -0.81591594 -0.06324969
-0.23479399 -0.68317276 -0.14837027 0.077158175 -0.4028232 0.46527743 0.5917623 0.34630907
0.6588616 -0.6149271 -0.1883547 0.3296951 -0.04301564 -0.09876193 0.7382055 0.0013056867
-0.22952762 -0.5502534 -0.10791096 -0.9119307 0.681481 0.5627927 0.568463 -0.07676113
1.1112384 -0.43033758 -0.026315317 0.060450684 0.07294667 0.3785421 -0.57393676 -0.15335986
0.43004385 0.053883098 0.48833612 0.03166424 0.55965465 -0.28973377 0.47341913 -0.26449987
-0.1818048 -0.048373144 -0.20742483 -0.29584754 0.6727643 0.101334244 0.05315412 0.24033885
-0.2053444 0.06970267 -0.59156805 -0.2449288 -0.6217314 0.16573495 -0.27460968 -0.42881435
-0.048914332 -0.43333757 -0.36421227 0.04500913 0.2933126 0.18623263 0.7154292 -0.12662168
0.53994006 0.15167631 0.3297208 -0.5220314 -0.46219566 -0.11627814 0.45561546 0.5572951
0.41691706 0.39703855 0.22237666 -0.48500937 -0.26057926 -0.13439949 -0.32123664 0.7095934
-0.28263626 -1.1574433 0.5223869 0.41242754 -0.60793346 0.08970656 1.0711659 -0.09937907
-0.8941241 -1.2665502 0.018196728 1.0123446 0.4928242 -0.7125074 0.6394316 -0.4631934
-0.26617786 -0.080185115 0.97557503 -0.23512615 -0.33813772 -0.18739201 -0.08659165 -0.46308532
0.39662436 0.75262904 -0.09448913 -0.9559424 -0.027842745 0.07575324 -0.33227247 0.44845554
-1.1401033 0.020426845 0.96072626 0.6899286 -0.767089 0.43133774 0.5337882 0.6407696
1.0851953 -1.0151494 0.5024896 -0.47297588 0.17548871 0.26687267 -0.56131655 -0.5628557
1.3061545 -0.14546116 -0.28689817 0.26593897 -0.81796443 0.019526215 -0.45566225 0.48551533
-0.03976419 0.07980821 0.49346355
00000000: afff fa3d 511c 513f 0c9e cf3e deea 963e
00000010: 8c30 a53e e325 07bf dedf 50bf 0e89 81bd
00000020: d66d 70be 69e4 2ebf 60ee 17be 1b05 9e3d
00000030: d83e cebe d838 ee3e bc7d 173f 6c4f b13e
00000040: 27ab 283f dd6b 1dbf 0ee0 40be cccd a83e
00000050: 2b31 30bd b243 cabd 09fb 3c3f 9323 ab3a
00000060: 4a09 6bbe 68dd 0cbf 6c00 ddbd 4a74 69bf
00000070: 8a75 2e3f 2f13 103f cb86 113f f034 9dbd
00000080: 0f3d 8e3f 3555 dcbe 3893 d7bc 239b 773d
00000090: 1065 953d 45d0 c13e 85ed 12bf 5e0a 1dbe
000000a0: b52e dc3e 86b4 5c3d 3107 fa3e 5db2 013d
000000b0: 8745 0f3f fc57 94be fe63 f23e 876c 87be
000000c0: 0a2b 3abe eb22 46bd 2d67 54be 5479 97be
000000d0: 483a 2c3f 5488 cf3d 22b8 593d 631b 763e
000000e0: cd45 52be 46c0 8e3d 0171 17bf 9ece 7abe
000000f0: ca29 1fbf 6cb6 293e a499 8cbe 8e8d dbbe
00000100: 655a 48bd 6cde ddbe 087a babe 7e5b 383d
00000110: 122d 963e c4b3 3e3e 5e26 373f 1da9 01be
00000120: 8339 0a3f 0951 1b3e 2ad1 a83e daa3 05bf
00000130: e9a4 ecbe 3c23 eebd 6e46 e93e e4aa 0e3f
00000140: 2776 d53e a348 cb3e b5b6 633e 2653 f8be
00000150: a56a 85be 05a0 09be 2179 a4be eaa7 353f
00000160: b3b5 90be 1a27 94bf 26bb 053f b429 d33e
00000170: 87a1 1bbf 13b8 b73d f71b 893f 4187 cbbd
00000180: 51e5 64bf 511e a2bf 4e11 953c 8294 813f
00000190: 7453 fc3e e366 36bf cab1 233f af27 edbe
000001a0: 7748 88be 1838 a4bd 49bf 793f e9c4 70be
000001b0: 6320 adbe b1e3 3fbe f756 b1bd 8519 edbe
000001c0: 5912 cb3e 4cac 403f 8483 c1bd a4b8 74bf
000001d0: 7816 e4bc 8424 9b3d 9e1f aabe f79b e53e
000001e0: e8ee 91bf 3356 a73c 28f2 753f 299f 303f
000001f0: f25f 44bf 4dd8 dc3e 58a6 083f 7a09 243f
00000200: aee7 8a3f 6af0 81bf 29a3 003f e529 f2be
00000210: 50b3 333e 89a3 883e 71b2 0fbf 5017 10bf
00000220: 1230 a73f c5f3 14be 51e4 92be 2729 883e
00000230: 1e66 51bf 71f5 9f3c 904c e9be 7795 f83e
00000240: c6df 22bd 7d72 a33d 41a7 fc3e

gru_dp_fw.bias_ih_l0 f4 [21]
0.5470036 0.3286363 0.39317665 0.034312658 0.017158836 0.6769016 0.36341107 -0.27850008
0.5263958 -0.059566766 0.28709105 -0.61921626 -0.53189635 0.21643406 -0.2519995 0.31908903
-0.37399694 -0.21052606 -0.14312817 0.4148314 0.4223414
00000000: 6e08 0c3f 0443 a83e 734e c93e 6e8b 0c3d
00000010: b090 8c3c 6c49 2d3f 0411 ba3e 9097 8ebe
00000020: e0c1 063f 48fc 73bd 99fd 923e f584 1ebf
00000030: 5c2a 08bf e4a0 5d3e 1406 81be a35f a33e
00000040: 877c bfbe 2594 57be 3190 12be c864 d43e
00000050: 223d d83e

gru_dp_fw.bias_hh_l0 f4 [21]
0.5525482 0.17133586 0.86995596 0.28279436 0.35639268 0.874158 -0.01564868 -0.67066675
0.4933416 0.25612637 0.529066 -0.009483069 -0.39104334 -0.34541968 -0.4046819 -0.36269888
-0.24562739 -0.357459 -0.21115826 0.44638437 0.20923828
00000000: cd73 0d3f ab72 2f3e 6fb5 5e3f 6cca 903e
00000010: 1a79 b63e d2c8 5f3f a931 80bc d1b0 2bbf
00000020: 4597 fc3e ff22 833e df70 073f e05e 1bbc
00000030: d536 c8be d9da b0be 7732 cfbe abb3 b9be
00000040: bf85 7bbe de04 b7be df39 58be 7e8c e43e
00000050: 8f42 563e

gru_cp_fw.weight_ih_l0 f4 [18, 6]
0.56923276 0.6504233 -0.1725761 -0.13173102 -0.21772163 0.55092394 0.35713652 0.7198759
-0.42257142 0.24646163 -0.14721192 -0.200272 0.14627919 0.43513104 -0.40645522 -0.5553417
-0.66102755 0.97587544 0.0072017354 0.25784928 -0.43061888 -0.5554102 -0.7640921 0.6662839
0.21524589 -0.14792311 0.10986362 -0.12103454 -0.17970699 -0.0810164 -0.09595083 0.23026444
0.5418316 -0.0909474 0.112884305 0.012849842 0.058399968 -0.40918803 0.2578862 -0.30569628
-0.16502815 0.010684976 0.060541037 -0.14823788 0.14481978 -0.20910954 0.0925323 0.37029287
-0.16263303 -0.36148193 0.21289434 0.23853087 -0.38601884 0.002962805 -0.19151562 -0.5010616
-0.20268562 0.038777556 -0.14565209 0.20148154 -0.4100926 0.17556413 -0.1925694 0.22131264
0.07281728 0.14831457 0.35436922 -0.32648915 -0.29976624 -0.11605049 0.042282604 0.08423201
-0.27352914 0.15034752 -0.1462757 -0.16130014 0.1879211 0.13009946 -0.3559421 0.14214079
-0.25889468 -0.24231248 -0.2268502 0.22436777 -0.11023803 0.16453974 -0.039342247 -0.23703822
0.24565725 0.031214776 -0.2706903 0.16227673 0.40033904 -0.11508764 0.23726527 -0.21396863
0.24502207 -0.11820686 -0.0054256637 -0.11245524 0.056060433 -0.10877343 -0.2249788 0.016654257
0.1969469 0.093881674 -0.15577863 -0.1820022
00000000: 3db9 113f 2482 263f cab7 30be 7fe4 06be
00000010: 6bf2 5ebe 5a09 0d3f 99da b63e c949 383f
00000020: 485b d8be 7060 7c3e b9be 16be 1a14 4dbe
00000030: 36ca 153e 7fc9 de3e e61a d0be e02a 0ebf
00000040: 1a39 29bf f9d2 793f 89fc eb3b d204 843e
00000050: 147a dcbe 5d2f 0ebf 8a9b 43bf 9591 2a3f
00000060: 6b69 5c3e 2879 17be 2d00 e13d f5e0 f7bd
00000070: 1c05 38be edeb a5bd de81 c4bd 71ca 6b3e
00000080: 7ab5 0a3f a142 babd e32f e73d 2588 523c
00000090: ce34 6f3d 1881 d1be a909 843e 3984 9cbe
000000a0: 24fd 28be 0a10 2f3c e1f9 773d accb 17be
000000b0: a34b 143e d020 56be 9381 bd3d 0797 bd3e
000000c0: 4689 26be 2914 b9be f900 5a3e 7041 743e
000000d0: 43a4 c5be 9f2b 423b ac1c 44be 9345 00bf
000000e0: d28c 4fbe 37d5 1e3d d225 15be 2d51 4e3e
000000f0: a8f7 d1be 15c7 333e ea30 45be c89f 623e
00000100: 3a21 953d c6df 173e e26f b53e 9629 a7be
00000110: f67a 99be e1ab edbd 8630 2d3d d581 ac3d
00000120: 030c 8cbe b3f4 193e 4cc9 15be dd2b 25be
00000130: 646e 403e cb38 053e 0b3e b6be 5b8d 113e
00000140: d88d 84be c320 78be 6b4b 68be aac0 653e
00000150: 7ac4 e1bd 1b7d 283e 5625 21bd 26ba 72be
00000160: 938d 7b3e 21b6 ff3c eb97 8abe df2b 263e
00000170: 3df9 cc3e 12b3 ebbd abf5 723e 981a 5bbe
00000180: 11e7 7a3e 7016 f2bd c4c9 b1bb ef4e e6bd
00000190: a09f 653d 9bc4 debd d860 66be 826e 883c
000001a0: 73ac 493e 0945 c03d 6f84 1fbe c95e 3abe

gru_cp_fw.weight_hh_l0 f4 [18, 6]
-0.6361053 0.27209684 -0.13406478 -0.0021654728 -0.010004029 -0.0053113666 -0.13837038 -0.10457718
0.0026223767 0.05753406 -0.45205328 -0.598885 -0.28061315 0.69213206 -0.27127564 -0.13218345
0.121247485 0.104103394 0.56833094 0.22475536 -0.32675433 -0.7556985 0.2969204 -0.20917533
0.6140962 0.08227735 0.14122163 0.42098078 0.7784286 -0.4765012 -0.056317672 0.6011827
0.32911095 -0.354514 0.7039796 -0.17301027 -0.10054922 0.73351294 -0.14455937 -0.3011984
-0.61919075 0.52268547 0.3023588 -0.22853877 -0.36295366 0.00042657144 -0.41482812 0.15528846
0.61942995 -0.1844413 0.030779857 0.3380767 -0.03432486 -0.23531953 0.11977112 -0.02397765
0.62296456 0.8144741 1.4740684 -0.3991137 -0.12752527 -0.1761546 -0.6361852 -0.59485656
0.5115564 -1.2708102 0.15692027 0.030816123 0.0037817333 0.10779494 0.55674005 -0.08125463
0.45678306 -0.1504725 -0.46878898 0.29844335 -1.0361043 0.2875721 -0.072286926 0.45446512
-0.67501384 -0.5703652 -0.40162456 -0.034607206 -0.4113633 0.20254254 0.19880459 0.114106946
1.1994689 -0.7859129 -0.8177538 -0.22447293 0.30312344 0.27453932 0.71765757 -0.63285005
-0.33523455 -0.68474823 -0.16466688 0.39256787 0.8441229 -0.6563273 0.16355954 0.27196303
-0.19920251 0.07007275 -0.38929343 1.0175371
00000000: ccd7 22bf 4750 8b3e 4748 09be 9bea 0dbb
00000010: f0e7 23bc f90a aebb f7b0 0dbe 902c d6bd
00000020: 2edc 2b3b d6a8 6b3d 8773 e7be 8750 19bf
00000030: 87ac 8fbe 912f 313f a4e4 8abe 195b 07be
00000040: 9a50 f83d 2934 d53d 237e 113f 4526 663e
00000050: 584c a7be 7575 41bf f305 983e 0f32 56be
00000060: 6935 1d3f 0781 a83d 679c 103e cb8a d73e
00000070: 1947 473f f7f7 f3be 5cad 66bd 1ce7 193f
00000080: 3b81 a83e dc82 b5be 0238 343f 9b29 31be
00000090: c0ec cdbd 81c7 3b3f 5f07 14be ad36 9abe
000000a0: 4983 1ebf b7ce 053f c6ce 9a3e 1106 6abe
000000b0: 10d5 b9be 73a5 df39 5a64 d4be f003 1f3e
000000c0: f692 1e3f 2ede 3cbe 0a26 fc3c 6418 ad3e
000000d0: 3998 0cbd 9af7 70be 904a f53d c76c c4bc
000000e0: 9b7a 1f3f 6081 503f 46ae bc3f a258 ccbe
000000f0: fc95 02be df61 34be 09dd 22bf 8548 18bf
00000100: 5cf5 023f e9a9 a2bf b5af 203e 1872 fc3c
00000110: f5d6 773b 98c3 dc3d 8486 0e3f d468 a6bd
00000120: 78df e93e 7715 1abe 1c05 f0be 91cd 983e
00000130: 119f 84bf a63c 933e 2b0b 94bd a7af e83e
00000140: b5cd 2cbf 7403 12bf bca1 cdbe 49c0 0dbd
00000150: 369e d2be 5067 4f3e 6e93 4b3e e7b0 e93d
00000160: 3288 993f 9631 49bf 5058 51bf 3bdc 65be
00000170: ff32 9b3e 6b90 8c3e 68b8 373f 7602 22bf
00000180: dda3 abbe a94b 2fbf 6f9e 28be a8fe c83e
00000190: 7018 583f 1105 28bf 277c 273e bd3e 8b3e
000001a0: befb 4bbe 4d82 8f3d 7851 c7be a83e 823f

gru_cp_fw.bias_ih_l0 f4 [18]
-0.040298507 0.43070173 0.29251313 0.34507892 0.5128982 0.6267184 -0.2989617 0.27551565
0.3684434 -0.45096612 1.4847436 0.5470605 0.36268073 -0.2329249 -0.508029 0.28031164
-0.13943122 -0.39624605
00000000: 0c10 25bd f084 dc3e 48c4 953e 2fae b03e
00000010: 4c4d 033f 9e70 203f 8211 99be 6310 8d3e
00000020: 9da4 bc3e 08e5 e6be 140c be3f 280c 0c3f
00000030: 4ab1 b93e dd83 6ebe 300e 02bf 0285 8f3e
00000040: 0fc7 0ebe c3e0 cabe

gru_cp_fw.bias_hh_l0 f4 [18]
-0.3775291 -0.2887746 0.2341818 0.58826596 0.57689947 0.15414563 -0.74755085 0.3575991
0.13060051 -0.17461416 1.4423865 0.46448043 -0.15770306 -0.23765083 -0.31287536 -0.12067903
0.32501072 -0.590571
00000000: 7f4b c1be 44da 93be 5bcd 6f3e 9998 163f
00000010: afaf 133f 5ad8 1d3e 7e5f 3fbf 3b17 b73e
00000020: 24bc 053e 0ece 32be 1fa0 b83f 61d0 ed3e
00000030: e97c 21be bd5a 73be 3331 a0be 9126 f7bd
00000040: ce67 a63e a92f 17bf

gru_dp_bw.weight_ih_l0 f4 [21, 7]
0.38118306 -0.22405837 0.28325278 0.106568806 0.5552163 -0.17258579 -0.043972548 0.33688512
-0.33096138 -0.059740644 -0.36613774 -0.37429136 -0.11567873 -0.06155295 -0.19311424 0.71827066
0.6734955 -0.02111632 0.74634457 0.19200681 -0.19960885 0.37965146 0.21726958 0.27523148
0.91312635 -0.05038609 0.034240346 0.35452384 0.29138044 -0.58708656 0.49297914 -0.010920511
0.45428693 0.7553546 0.1465368 0.2775548 -0.5333895 0.49479648 0.13513249 0.6676439
-0.14247288 0.018394025 -0.21440247 -0.33823296 0.3918313 0.61421037 0.59438676 -0.1082714
0.75451475 0.016090937 -0.13458326 0.017364545 -0.3685175 0.014974087 -0.29485422 0.18562973
0.0750748 -0.042616475 0.19856511 0.07369101 0.24141903 0.022577783 -0.050029553 -0.25276977
-0.052072093 -0.06588621 -0.115195304 -0.1515958 0.041417476 -0.14058512 0.1368511 0.3798955
-0.08368158 0.112744026 -0.058690455 -0.046794113 0.036278687 -0.083850496 -0.114248075 -0.16094959
-0.21929185 -0.10665944 -0.13597444 0.18490985 -0.1617778 0.023850255 0.24709117 -0.38170102
-0.22180319 0.004675582 -0.25256154 -0.2264871 0.076436326 0.037537977 0.15155824 -0.0057349396
-0.120104484 0.13893747 -0.0785833 0.21219857 0.17902662 0.049137946 -0.039689902 -0.25838158
0.026479783 0.06804554 -0.049178086 -0.39403915 -0.14301625 -0.6616221 -0.01701485 -0.18587048
-0.1532359 0.70305246 -0.021900535 0.080774955 -0.1709056 0.11239865 -0.20839477 -0.37399286
-0.73174775 0.07119567 -0.37028643 0.09676897 0.08294578 -0.043169893 0.09162454 -0.25891647
-0.11277882 -0.093315504 -0.17139584 0.19877405 0.09722204 0.2976235 -0.122438096 0.22843374
-0.12944257 0.009372835 0.13226773 -0.20397346 -0.10655033 -0.22897282 -0.3614569 -0.005731706
0.06591462 -0.1622219 0.21257527
00000000: 6d2a c33e 8f6f 65be 8206 913e bf40 da3d
00000010: a822 0e3f 54ba 30be 8f1c 34bd 357c ac3e
00000020: c573 a9be 9bb2 74bd 6876 bbbe 1ea3 bfbe
00000030: f8e8 ecbd f21e 7cbd bdbf 45be 96e0 373f
00000040: 336a 2c3f 22fc acbc 7010 3f3f 6f9d 443e
00000050: 4366 4cbe ad61 c23e eb7b 5e3e 24eb 8c3e
00000060: a6c2 693f a561 4ebd 9b3f 0c3d 2684 b53e
00000070: d12f 953e 4e4b 16bf c367 fc3e f1eb 32bc
00000080: 4c98 e83e eb5e 413f be0d 163e aa1b 8e3e
00000090: 378c 08bf f755 fd3e 2c60 0a3e b6ea 2a3f
000000a0: 69e4 11be 11af 963c 528c 5bbe df2c adbe
000000b0: 1d9e c83e e43c 1d3f bb29 183f 65bd ddbd
000000c0: e127 413f 24d1 833c 32d0 09be 1740 8e3c
000000d0: 53ae bcbe df55 753c 22f7 96be b815 3e3e
000000e0: d1c0 993d 9d8e 2ebd a754 4b3e 50eb 963d
000000f0: 8d36 773e 0bf5 b83c caeb 4cbd 0a6b 81be
00000100: 8c49 55bd 59ef 86bd 84eb ebbd ee3b 1bbe
00000110: 5fa5 293d 8cf5 0fbe b222 0c3e aa81 c23e
00000120: 4061 abbd 57e6 e63d 6765 70bd 2fab 3fbd
00000130: f698 143d cfb9 abbd e5fa e9bd f8cf 24be
00000140: 0b8e 60be 4470 dabd e23c 0bbe 0259 3d3e
00000150: 14a9 25be 9c61 c33c 7805 7d3e 516e c3be
00000160: 6020 63be a035 993b bf4f 81be 3cec 67be
00000170: a68a 9c3d 6cc1 193d 1532 1b3e 29ec bbbb
00000180: 57f9 f5bd a045 0e3e 48f0 a0bd 954a 593e
00000190: c152 373e df44 493d e191 22bd 974a 84be
000001a0: 21ec d83c 765b 8b3d f66e 49bd 80bf c9be
000001b0: da72 12be 1160 29bf ba62 8bbc d554 3ebe
000001c0: dfe9 1cbe 3ffb 333f c068 b3bc 576d a53d
000001d0: e101 2fbe 4331 e63d 7065 55be fe7b bfbe
000001e0: d253 3bbf 09cf 913d 2f96 bdbe cf2e c63d
000001f0: 7adf a93d ead2 30bd a6a5 bb3d b390 84be
00000200: 95f8 e6bd 331c bfbd 6482 2fbe 6d8b 4b3e
00000210: 591c c73d 1b62 983e d3c0 fabd 89ea 693e
00000220: 988c 04be 8590 193c 3171 073e 6bde 50be
00000230: 0f37 dabd da77 6abe e110 b9be 09d1 bbbb
00000240: 3ffe 863d 7f1d 26be 55ad 593e

gru_dp_bw.weight_hh_l0 f4 [21, 7]
-0.06262711 0.10709527 0.18219328 0.08756973 -0.06781416 1.0029774 0.030250316 0.037820283
-0.23712671 0.22129452 -0.4490001 0.14389637 0.69602746 0.33362833 0.33196482 -0.6842763
0.44906014 0.03036318 0.31683743 0.3951177 0.25455102 -0.13512301 0.5208115 0.65887445
-0.26675543 -0.23220357 0.49675703 0.1148554 0.1513312 -0.4251283 0.42665365 0.030871583
-0.26313615 0.55156016 0.18678379 -0.3122206 0.098673955 0.31806055 0.2426844 0.2034037
0.40626487 0.04664109 -0.05625787 -0.04244049 0.47204295 -0.3073066 -0.24620342 -0.13598116
0.22282764 0.080189675 0.11428668 0.46406257 -0.22124647 -0.00011087487 0.61905986 0.2676359
0.15167344 -0.39085478 0.6053792 -0.47984996 -0.18717061 0.72983456 -0.2071911 -0.3678398
0.2552918 -0.030914402 -0.08919501 -0.106704935 0.5387823 0.5384733 -0.37020174 -0.23272583
-0.17408068 -0.07932775 0.63891065 -0.014580901 0.22301023 0.069783956 0.21482846 0.7169975
0.10719807 -0.117242284 0.99227905 -0.15926716 -0.12408413 0.50937575 0.71831965 0.451881
0.44731912 -0.28508562 0.6862006 -0.35264793 0.07775376 0.41067392 -0.19725242 0.3516026
0.9523692 -0.5175525 -0.17494997 -0.6451842 -0.7072695 0.6281493 -0.17111215 -0.4876223
-0.235916 -0.50716347 0.38945368 0.16446811 -0.21018256 0.5510064 0.27896726 0.5091314
0.17307091 0.038561758 0.37710786 -0.72515845 0.42216444 0.4895588 0.47125137 0.3202792
0.24080218 -0.379784 0.3313748 -0.14809735 -0.6665378 -0.33114156 0.056568768 -0.1860383
0.52656466 -0.84041667 0.054364003 0.4074907 -0.041170582 0.2302309 -0.17713504 0.7560598
-0.5172091 0.021571804 0.5750895 0.3499882 0.115702145 0.056089938 0.43186426 -0.50444776
0.47175476 0.9247077 0.05336863
00000000: a442 80bd c454 db3d e090 3a3e c257 b33d
00000010: 26e2 8abd 9061 803f 83cf f73c 71e9 1a3d
00000020: 58d1 72be 089b 623e 57e3 e5be 9259 133e
00000030: db2e 323f 55d1 aa3e 4bf7 a93e bb2c 2fbf
00000040: 36eb e53e 34bc f83c 8438 a23e de4c ca3e
00000050: 8354 823e b05d 0abe e753 053f ffab 283f
00000060: 2b94 88be c6c6 6dbe f056 fe3e 4f39 eb3d
00000070: 91f6 1a3e 6baa d9be 5972 da3e 67e6 fc3c
00000080: c8b9 86be 0c33 0d3f 4044 3f3e 61db 9fbe
00000090: 9215 ca3d d5d8 a23e 4282 783e 0f49 503e
000000a0: f301 d03e ba0a 3f3d a76e 66bd 14d6 2dbd
000000b0: 9daf f13e 4a57 9dbe c01c 7cbe a53e 0bbe
000000c0: ee2c 643e 7c3a a43d 230f ea3d 9c99 ed3e
000000d0: 6f8e 62be 7e85 e8b8 b57a 1e3f 9307 893e
000000e0: 4850 1b3e 1e1e c8be 22fa 1a3f e5ae f5be
000000f0: a7a9 3fbe 70d6 3a3f e729 54be 8055 bcbe
00000100: 9bb5 823e 3340 fdbc e0ab b6bd 1e88 dabd
00000110: a3ed 093f 63d9 093f 158b bdbe ae4f 6ebe
00000120: 3542 32be 9676 a2bd a68f 233f bbe4 6ebc
00000130: cb5c 643e e4ea 8e3d fefb 5b3e 268d 373f
00000140: a98a db3d b91c f0bd 0006 7e3f ee16 23be
00000150: d21f febd 7366 023f cce3 373f f25c e73e
00000160: 0307 e53e bef6 91be d8aa 2f3f 458e b4be
00000170: 5d3d 9f3d da43 d23e 8afc 49be 4205 b43e
00000180: 78ce 733f 527e 04bf 1626 33be cb2a 25bf
00000190: 9d0f 35bf 64ce 203f 0638 2fbe a1a9 f9be
000001a0: f793 71be 77d5 01bf 7966 c73e 546a 283e
000001b0: 193a 57be c10e 0d3f ccd4 8e3e 6f56 023f
000001c0: 8039 313e eff2 1d3d 4814 c13e fca3 39bf
000001d0: f025 d83e 73a7 fa3e dc47 f13e a3fb a33e
000001e0: d994 763e 0c73 c2be f5a9 a93e d5a6 17be
000001f0: 39a2 2abf 638b a9be a7b4 673d d380 3ebe
00000200: f1cc 063f 8c25 57bf caac 5e3d 9fa2 d03e
00000210: 7ca2 28bd a6c1 6b3e e362 35be 238d 413f
00000220: d167 04bf 5ab7 b03c 1139 133f a731 b33e
00000230: 3ff5 ec3d 90be 653d 501d dd3e 7d23 01bf
00000240: d789 f13e a5b9 6c3f 1199 5a3d

gru_dp_bw.bias_ih_l0 f4 [21]
0.07738775 0.22528476 0.49952254 -0.31981155 0.18332629 0.50012785 0.41206884 -0.13319218
0.39244577 0.5421642 0.16669954 -0.026395677 0.49490172 0.39815724 0.0401211 -0.26727062
0.063584715 -0.21686313 -0.02017407 -0.13275017 0.035525206
00000000: 787d 9e3d 0cb1 663e 6bc1 ff3e 57be a3be
00000010: e3b9 3b3e 6108 003f b0fa d23e 8863 08be
00000020: a7ee c83e 46cb 0a3f 49b3 2a3e bf3b d8bc
00000030: c263 fd3e 44db cb3e 0656 243d b2d7 88be
00000040: b438 823d 5e11 5ebe 1744 a5bc a9ef 07be
00000050: e182 113d

gru_dp_bw.bias_hh_l0 f4 [21]
0.06782414 -0.2737878 0.30520785 0.39835727 0.5671948 0.557077 -0.11841885 0.15577263
0.3601525 0.29091355 0.6638872 0.0521181 0.5280204 0.3353364 0.12307554 -0.030014023
-0.14716762 0.29965505 0.33637777 0.014823902 -0.24769092
00000000: 62e7 8a3d ea2d 8cbe 3444 9c3e 7cf5 cb3e
00000010: ae33 113f 999c 0e3f 9585 f2bd dc82 1f3e
00000020: e965 b83e 9ff2 943e 83f4 293f ca79 553d
00000030: 582c 073f 36b1 ab3e 070f fc3d f8df f5bc
00000040: 1cb3 16be 636c 993e b539 ac3e f4df 723c
00000050: b0a2 7dbe

gru_cp_bw.weight_ih_l0 f4 [18, 6]
-0.12377042 0.14090455 0.44752198 -0.15180159 -0.015113421 -0.15434186 0.015463025 0.093312316
-0.14557563 -0.23781039 0.01961133 0.09414834 -0.8910987 -0.11834712 0.450828 0.31266743
0.5994218 -0.23253444 0.2792165 -0.08524558 0.42975554 -0.13580917 -0.5105615 0.16240075
-0.28657454 0.09133088 -0.03352539 -0.01101777 0.15357046 0.101653956 -0.07747552 -0.009811359
0.09493009 -0.23172167 -0.0029334172 0.0005860161 0.27040824 0.34376606 0.26551124 -0.38415867
-0.5628532 0.11193864 -0.5266042 -0.30549005 0.29172605 -0.1915992 -0.2765011 0.006957285
-0.1080424 -0.33755922 0.056807835 -0.41453812 -0.43024918 -0.111203395 -0.5227167 0.4766104
-0.17701289 0.12603217 0.25870442 0.2583485 0.112413704 0.32676044 0.31844315 -0.3228548
0.17129053 -0.49024966 -0.2527097 -0.3995228 -0.12981604 0.40837723 0.2668024 -0.8798908
-0.11823292 0.45521086 0.027114734 0.032031827 -0.6373272 -0.086512364 -0.3197273 0.19298628
-0.42700642 -0.28554565 -0.25171083 0.15601021 0.41490376 0.06660098 0.22780398 0.20612921
0.2865513 -0.28097263 -0.29976118 0.32518584 0.008617532 -0.33522427 -0.20413114 0.26172644
-0.34486252 -0.3736241 0.14111622 0.09896906 0.03272213 -0.43547642 -0.13157879 0.26256216
0.3578363 -0.38672042 -0.12472632 -0.3313026
00000000: 597b fdbd 4849 103e 9a21 e53e e071 1bbe
00000010: 489e 77bc cb0b 1ebe a158 7d3c 871a bf3d
00000020: c711 15be 9184 73be f1a7 a03c d8d0 c03d
00000030: 0b1f 64bf fa5f f2bd edd2 e63e f215 a03e
00000040: b573 193f 821d 6ebe 77f5 8e3e 3c95 aebd
00000050: eb08 dc3e 8f11 0bbe 29b4 02bf 624c 263e
00000060: e6b9 92be af0b bb3d eb51 09bd e083 34bc
00000070: 9341 1d3e f32f d03d 7cab 9ebd d3bf 20bc
00000080: b56a c23d 7248 6dbe 933e 40bb e09e 193a
00000090: f372 8a3e 1b02 b03e 17f1 873e 72b0 c4be
000000a0: 2617 10bf 1640 e53d 88cf 06bf 3169 9cbe
000000b0: 1e5d 953e 9532 44be 8d91 8dbe f0f9 e33b
000000c0: 5545 ddbd 90d4 acbe 55af 683d 573e d4be
000000d0: 9f49 dcbe 9bbe e3bd c3d0 05bf 4706 f43e
000000e0: de42 35be 940e 013e e874 843e 4146 843e
000000f0: 2839 e63d 254d a73e fb0a a33e 394d a5be
00000100: c966 2f3e 0102 fbbe 2a63 81be 418e ccbe
00000110: 7fee 04be d216 d13e 539a 883e 8640 61bf
00000120: 1a24 f2bd 6611 e93e b81f de3c ce33 033d
00000130: e027 23bf 652d b1bd 4cb3 a3be 329e 453e
00000140: 96a0 dabe 0a33 92be 3ee0 80be 24c1 1f3e
00000150: 446e d43e 1866 883d 7245 693e 8913 533e
00000160: dab6 923e a5db 8fbe 4c7a 99be c27e a63e
00000170: 8d30 0d3c 84a2 abbe c107 51be 0201 863e
00000180: d291 b0be a84b bfbe c580 103e 4ab0 ca3d
00000190: a407 063d c4f6 debe 97bc 06be 8c6e 863e
000001a0: 5236 b73e 3800 c6be 8370 ffbd 7fa0 a9be

gru_cp_bw.weight_hh_l0 f4 [18, 6]
0.008472435 0.29866362 -0.4504859 0.19850065 0.30973977 -0.35624984 0.45479566 0.04036296
-0.10357849 0.013654601 -0.105018236 -0.17189077 -0.60438174 -0.53567445 0.69346994 -0.39070287
0.061382554 0.3231886 0.15837505 -0.38814828 0.43668175 -0.27456138 0.13329841 -0.14437743
0.084128916 0.24507762 -0.04958034 0.8970269 0.21704409 -0.05682934 0.60049 -0.07213191
-0.39889455 -0.048114225 -0.055588316 -0.4430276 -0.27086964 0.25999516 -0.23788138 0.08046779
0.2166268 0.32413217 -0.56202304 -0.26641625 -0.4874572 0.04775305 0.32404894 -0.39188066
-0.32349598 -0.13113415 0.47410995 -0.28262237 0.530242 -0.58678055 -0.04826751 0.009019016
0.26479077 -0.14507969 0.5679465 0.34966606 -0.21416442 -0.611404 0.543135 -0.124078356
-0.43260285 0.5104394 -0.27131167 -0.2622701 0.20425911 0.16439874 0.62769926 -0.0071195075
0.16331096 0.5217779 -0.15163219 0.027713137 -0.30084935 -0.4017285 -0.6599763 0.12719592
-0.24288492 0.039121583 0.12453287 0.39819342 -0.17862083 0.08364795 0.36766574 -0.11459949
0.47425437 0.05294313 -0.5328409 0.6122761 -0.72152317 0.01873689 0.15529323 -0.17241801
-0.56770563 -0.5154045 0.38627943 0.07653451 0.3849183 0.62949026 0.10685421 -0.3122868
-0.12121801 0.1891458 -0.24609847 0.13890398
00000000: f8cf 0a3c 70ea 983e 16a6 e6be c143 4b3e
00000010: 3696 9e3e 6166 b6be fada e83e a253 253d
00000020: f620 d4bd 8cb7 5f3c cd13 d7bd 2204 30be
00000030: c3b8 1abf f621 09bf 3f87 313f 350a c8be
00000040: 466c 7b3d fa78 a53e 122d 223e 5fbb c6be
00000050: c094 df3e 4f93 8cbe 617f 083e add7 13be
00000060: c84b ac3d a1f5 7a3e c114 4bbd 8ea3 653f
00000070: ce40 5e3e e2c5 68bd b6b9 193f e5b9 93bd
00000080: e83b ccbe 6c13 45bd 93b0 63bd 83d4 e2be
00000090: 6daf 8abe 161e 853e 2d97 73be 4ccc a43d
000000a0: 6ad3 5d3e a7f4 a53e bee0 0fbf b667 88be
000000b0: fd93 f9be b498 433d bee9 a53e 95a4 c8be
000000c0: 44a1 a5be 0848 06be 8abe f23e e1b3 90be
000000d0: f1bd 073f 4037 16bf 27b4 45bd 7fc4 133c
000000e0: a892 873e c58f 14be f164 113f 6e07 b33e
000000f0: eb4d 5bbe f984 1cbf e50a 0b3f cb1c febd
00000100: 1f7e ddbe 28ac 023f 5de9 8abe 4448 86be
00000110: 4d29 513e 2558 283e e6b0 203f c24a e9bb
00000120: fd3a 273e 3d93 053f 7845 1bbe a906 e33c
00000130: ed08 9abe 5caf cdbe 35f4 28bf a63f 023e
00000140: d3b6 78be f43d 203d 170b ff3d 02e0 cb3e
00000150: 61e8 36be 9e4f ab3d af3e bc3e 23b3 eabd
00000160: 78d1 f23e e5da 583d 4368 08bf 20be 1c3f
00000170: beb5 38bf 1b7e 993c 3005 1f3e 598e 30be
00000180: 2855 11bf 8df1 03bf 6bc6 c53e 20be 9c3d
00000190: 0314 c53e 4626 213f 61d6 da3d 0ee4 9fbe
000001a0: 2641 f8bd 70af 413e 3d01 7cbe d83c 0e3e

gru_cp_bw.bias_ih_l0 f4 [18]
-0.19305773 -0.062412944 -0.4183184 0.08129614 0.26431262 -0.22166581 -0.36681134 -0.4176527
-0.7649378 -0.15582344 0.21102004 -0.4355954 -0.08417364 -0.25891697 0.04329265 0.26614326
-0.22375537 0.4886117
00000000: edb0 45be b7a4 7fbd d42d d6be 977e a63d
00000010: fc53 873e 5dfc 62be b2ce bbbe 93d6 d5be
00000020: f7d2 43bf 2e90 1fbe a315 583e 5c06 dfbe
00000030: 3b63 acbd c490 84be a253 313d ee43 883e
00000040: 2120 65be 502b fa3e

gru_cp_bw.bias_hh_l0 f4 [18]
-0.121564426 -0.36659202 -0.091644384 0.42321855 0.33627415 -0.62125623 0.10696026 -0.3758141
-1.0095357 -0.51920885 0.61967295 -0.057411984 -0.36889958 -0.26597184 0.23260593 -0.40047407
-0.083032966 -0.1329227
00000000: c5f6 f8bd f3b1 bbbe 0db0 bbbd 1ab0 d83e
00000010: 202c ac3e a60a 1fbf fb0d db3d b56a c0be
00000020: 7738 81bf dfea 04bf e3a2 1e3f d428 6bbd
00000030: 68e0 bcbe 762d 88be 4030 6e3e f00a cdbe
00000040: 300d aabd e31c 08be

attention_dp.context f4 [14]
1.1937752 -0.18019344 -0.658137 0.3591771 0.7256608 0.28603867 0.33630994 0.43706453
-0.8554861 0.62103426 -0.9508255 0.33565265 -0.6716896 -1.6200042
00000000: a0cd 983f a184 38be ab7b 28bf 10e6 b73e
00000010: e8c4 393f a973 923e d130 ac3e ecc6 df3e
00000020: 2301 5bbf 1afc 1e3f 4d69 73bf aada ab3e
00000030: daf3 2bbf 4c5c cfbf

attention_dp.linear_hidden.weight f4 [14, 14]
-0.5507925 -0.10656016 -0.33818808 -0.67813337 -0.10865358 -0.24004065 0.34871024 0.14481576
-0.5234123 -0.41114777 0.24320264 -0.41562334 -0.061427597 -0.047514983 -0.019506652 -0.019666972
-0.2809364 0.38425988 -0.42203987 0.12248713 0.2166816 -0.0100575695 -0.23951323 -0.29694062
0.17073806 -0.22394769 -0.07560293 -0.55956244 -0.46669888 -0.13751395 -0.047864854 -0.19002227
-0.4959756 0.35062867 -0.06827436 0.076430574 -0.32154933 0.2853538 -0.18518052 0.19111656
-0.03484083 0.37859303 -0.57539743 0.4228564 -0.23246393 -0.41543376 0.04347147 -0.16789101
-0.09659183 0.3002678 -0.41375157 -0.22238386 0.096372694 -0.51083267 -0.336085 -0.3067402
-0.18990967 0.21205138 0.23724549 -0.6553424 0.3487997 -0.362688 0.19773127 -0.18866889
0.09203937 0.32792076 0.013392318 0.1683246 0.14460392 -0.12771745 -0.021726815 0.4402773
0.05586454 -0.5621704 0.03264739 -0.31129193 0.05653593 -0.019668968 0.03128301 0.35870323
0.25754747 0.22341433 0.25657094 -0.044294123 0.3594501 0.1199859 -0.09320452 0.090971954
0.35069633 -0.19119388 0.015439805 -0.013120491 -0.0016248066 0.102816835 -0.1537298 -0.18120691
-0.18699886 -0.14820348 0.25544393 0.22123633 0.072408736 0.33399278 0.4942792 -0.18389274
-0.14935523 -0.03601507 -0.023204321 -0.13188471 -0.13991475 -0.182647 -0.16528049 -0.10943534
0.4851983 -0.39130387 0.15655257 0.44839004 -0.0399778 0.3328115 0.29033652 -0.31632185
0.31983384 0.021505425 0.06344058 0.12154094 0.44471663 0.21859454 0.44228077 0.015402397
0.0022963206 0.010096165 0.21751186 -0.31245816 -0.16444972 0.063026644 0.32450855 -0.3321551
-0.12701723 0.0050352225 -0.13252647 -0.32498303 0.033086203 -0.22552215 -0.035392374 0.5873729
-0.15637513 0.08529384 -0.2721575 -0.21311599 0.08983621 -0.36399937 -0.03856779 0.24715328
-0.1226427 -0.18108197 -0.068998404 0.15060516 0.08693419 -0.43551046 -0.16232891 -0.0794347
0.27592853 0.16949412 -0.14334066 -0.16530609 0.37665558 0.108105876 0.045098748 0.19283448
0.111302756 -0.25733218 0.11857445 0.008906416 -0.28358954 0.27862895 0.14097853 -0.18641698
0.011034974 0.06853999 -0.15780532 -0.2430472 -0.035184834 -0.03742274 -0.03284436 0.14505899
0.1861227 0.29319546 0.11176643 0.21608381 0.03341118 -0.22964321 0.1815711 0.024707263
-0.4360704 0.21742344 -0.17561121 -0.255936
00000000: bd00 0dbf 373c dabd fd26 adbe 269a 2dbf
00000010: c585 debd 37cd 75be 268a b23e 954a 143e
00000020: 59fe 05bf f681 d2be 1d0a 793e 95cc d4be
00000030: 819b 7bbd 129f 42bd 6acc 9fbc a11c a1bc
00000040: e5d6 8fbe b6bd c43e 9c15 d8be 88da fa3d
00000050: c8e1 5d3e 81c8 24bc f542 75be 9a08 98be
00000060: f5d5 2e3e 8b52 65be b5d5 9abd 7c3f 0fbf
00000070: 28f3 eebe 75d0 0cbe f00d 44bd 3395 42be
00000080: 84f0 fdbe 9a85 b33e 6dd3 8bbd a287 9c3d
00000090: 1da2 a4be e519 923e f69f 3dbe 0fb4 433e
000000a0: 42b5 0ebd f2d6 c13e 3f4d 13bf a280 d83e
000000b0: 060b 6ebe bcb3 d4be 240f 323d 9feb 2bbe
000000c0: f0d1 c5bd b3bc 993e 3fd7 d3be 98b8 63be
000000d0: 0c5f c53d eec5 02bf 5513 acbe 0d0d 9dbe
000000e0: ae77 42be ff23 593e 7bf0 723e 85c4 27bf
000000f0: e095 b23e 3eb2 b9be 117a 4a3e 6b32 41be
00000100: 237f bc3d 3be5 a73e 746b 5b3c 495d 2c3e
00000110: 0d13 143e 5dc8 02be 6ffc b1bc 076c e13e
00000120: 37d2 643d 66ea 0fbf 45b9 053d a861 9fbe
00000130: 3892 673d d120 a1bc 9d22 003d f3a7 b73e
00000140: 43dd 833e bac6 643e 445d 833e c16d 35bd
00000150: d809 b83e 2bbb f53d 03e2 bebd 814f ba3d
00000160: 788e b33e 54c8 43be 3cf7 7c3c 54f7 56bc
00000170: 76f7 d4ba a291 d23d 586b 1dbe 4e8e 39be
00000180: a17c 3fbe a7c2 17be 8cc9 823e c78b 623e
00000190: 084b 943d 1a01 ab3e 2a12 fd3e 614e 3cbe
000001a0: 94f0 18be 8a84 13bd fd16 bebc c90c 07be
000001b0: d045 0fbe d107 3bbe 4a3f 29be a31f e0bd
000001c0: e96b f83e fb58 c8be 514f 203e 6193 e53e
000001d0: c3bf 23bd 4566 aa3e fda6 943e f0f4 a1be
000001e0: 43c1 a33e 252c b03c 23ed 813d 75ea f83d
000001f0: e6b1 e33e 3fd7 5f3e a072 e23e 565a 7c3c
00000200: de7d 163b 636a 253c 6ebb 5e3e 84fa 9fbe
00000210: 8265 28be 1d14 813d fc25 a63e 3c10 aabe
00000220: ce10 02be 82fe a43b 05b5 07be 2d64 a6be
00000230: 6685 073d 47ef 66be 98f7 10bd 125e 163f
00000240: cd20 20be 89ae ae3d 3a58 8bbe 143b 5abe
00000250: 0cfc b73d 205e babe 42f9 1dbd c015 7d3e
00000260: 192c fbbd 8d6d 39be 094f 8dbd 3d38 1a3e
00000270: 8d0a b23d 3afb debe 8d39 26be a9ae a2bd
00000280: 8146 8d3e de8f 2d3e e5c7 12be 0046 29be
00000290: 00d9 c03e 9d66 dd3d 77b9 383d 6776 453e
000002a0: b3f2 e33d 0bc1 83be 29d7 f23d 37ec 113c
000002b0: a632 91be 74a8 8e3e ad5c 103e 18e4 3ebe
000002c0: 09cc 343c b25e 8c3d b897 21be 5de1 78be
000002d0: f91d 10bd 9648 19bd cf87 06bd 588a 143e
000002e0: f396 3e3e b71d 963e cce5 e43d 1345 5d3e
000002f0: 29da 083d 9727 6bbe c6ed 393e e366 ca3c
00000300: 9f44 dfbe 40a4 5e3e 6dd3 33be 0b0a 83be

attention_dp.linear_hidden.bias f4 [14]
0.46977994 -0.5189881 1.0920813 0.21089908 0.20533156 0.115965374 -0.67968893 -0.86623484
0.022061875 -0.8642354 -0.31543872 0.40526825 0.52453244 -0.09028211
00000000: ff86 f03e 67dc 04bf 52c9 8b3f eef5 573e
00000010: 7042 523e 417f ed3d 1800 2ebf 91c1 5dbf
00000020: 1bbb b43c 883e 5dbf 2f81 a1be 527f cf3e
00000030: c247 063f d4e5 b8bd

attention_cp.context f4 [12]
-0.29532126 -1.0251215 -0.35312685 -0.19908415 0.7557554 -0.39573509 0.15972759 0.7235189
-0.95236707 -1.8113576 -0.19016789 -0.06859655
00000000: 5934 97be 2e37 83bf 0bcd b4be b7dc 4bbe
00000010: 3079 413f ca9d cabe a18f 233e 8938 393f
00000020: 54ce 73bf 91da e7bf 5fbb 42be 597c 8cbd

attention_cp.linear_hidden.weight f4 [12, 12]
-0.100274585 0.14734745 0.5592001 0.34033257 0.053786162 0.2431542 -0.22328569 0.25668237
0.0015634578 0.2748972 0.36506167 0.27835158 0.5463145 0.3166564 -0.2638488 0.3685492
-0.43015492 0.2888514 -0.39188808 -0.2930086 0.24246445 -0.14865486 0.75329673 0.7251831
0.06298016 0.0041907313 0.6424667 0.39808235 0.19521347 0.0653585 -0.09845172 -0.14385937
-0.23486467 0.24630417 0.21375605 0.41098985 0.39322037 0.1449611 -0.26833332 -0.24677439
-0.17052989 -0.36037907 -0.14469755 0.25162026 -0.5813609 0.607864 -0.5214092 -0.2805776
0.47432825 -0.20416993 -0.65484834 -0.4461554 -0.18872027 0.17878522 -0.036638025 -0.18339297
0.49731928 -0.3554103 -0.56573254 -0.009849824 -0.22242075 0.29586852 0.05992708 0.2513048
0.4322356 -0.535007 0.17213933 -0.17765585 0.103044644 -0.02271483 -0.16312286 0.16466805
0.042461805 0.32420173 0.28222764 0.16931458 -0.63289773 0.66982996 0.260021 -0.06839349
-0.07865548 -0.0324684 0.1607021 -0.1865372 -0.19063392 0.07239862 0.26613492 0.12819263
0.42179725 -0.017666217 0.0028880606 -0.34967664 0.47188222 -0.30169544 0.44825754 0.40112013
-0.022243988 0.35157308 0.6400345 0.23194402 0.43567467 -0.22423995 -0.13928919 0.27054018
-0.16596173 0.34307238 0.5410845 -0.036119673 -0.004859851 0.25785777 0.48761654 0.35563836
0.14193079 -0.021408856 -0.3544984 0.30635107 0.08708156 0.3382765 0.45136967 0.27515888
-0.18044546 0.029785581 0.41258848 0.35522825 -0.1330796 0.1761207 -0.093760885 0.014149278
-0.01727246 0.20164381 0.49189728 -0.0022187477 0.20280813 -0.06611909 0.022979286 -0.13950223
-0.06256567 0.18713892 -0.100083716 0.110229865 0.17673233 0.07095509 0.26851928 0.4278124
00000000: c35c cdbd 40e2 163e bd27 0f3f 1240 ae3e
00000010: e14e 5c3d 6afd 783e 01a5 64be df6b 833e
00000020: f0ec cc3a 53bf 8c3e 5de9 ba3e 1984 8e3e
00000030: 44db 0b3f ca20 a23e 3117 87be 7bb2 bc3e
00000040: 443d dcbe 55e4 933e 8ea5 c8be 3905 96be
00000050: 9a48 783e fb38 18be 0ed8 403f 9aa5 393f
00000060: befb 803d 6752 893b b378 243f 73d1 cb3e
00000070: 0ae6 473e adda 853d 0ea1 c9bd df4f 13be
00000080: 5d80 70be 2937 7c3e dee2 5a3e 436d d23e
00000090: 2e54 c93e af70 143e fc62 89be 6db2 7cbe
000000a0: 639f 2ebe 9b83 b8be 982b 14be 5fd4 803e
000000b0: 11d4 14bf fa9c 1b3f 137b 05bf dea7 8fbe
000000c0: 27db f23e ec11 51be 24a4 27bf 7b6e e4be
000000d0: e33f 41be 7913 373e c111 16bd 5ecb 3bbe
000000e0: a2a0 fe3e 57f8 b5be d9d3 10bf 2861 21bc
000000f0: 44c2 63be 147c 973e 1976 753d 06ab 803e
00000100: fc4d dd3e 38f6 08bf 4b45 303e 6aeb 35be
00000110: 1209 d33d 7314 babc ae09 27be be9e 283e
00000120: 6eec 2d3d c5fd a53e 2480 903e cd60 2d3e
00000130: 9605 22bf fa79 2b3f 7921 853e e311 8cbd
00000140: 2016 a1bd 96fd 04bd 178f 243e 9c03 3fbe
00000150: 8a35 43be ba45 943d d642 883e ee44 033e
00000160: cff5 d73e beb8 90bc 9e45 3d3b d108 b3be
00000170: 8c9a f13e d377 9abe 0382 e53e 9e5f cd3e
00000180: 0639 b6bc 6301 b43e 4dd9 233f bc82 6d3e
00000190: c010 df3e 289f 65be d3a1 0ebe 3e84 8a3e
000001a0: dff1 29be 2fa7 af3e 8484 0a3f 39f2 13bd
000001b0: 633f 9fbb ef05 843e e0a8 f93e 3b16 b63e
000001c0: 4e56 113e a061 afbc d080 b5be 0cda 9c3e
000001d0: d157 b23d 9432 ad3e ed19 e73e a0e1 8c3e
000001e0: b2c6 38be e400 f43c cc3e d33e 7ae0 b53e
000001f0: 0546 08be fc58 343e b505 c0bd 60d2 673c
00000200: f97e 8dbc b77b 4e3e f6d9 fb3e 6968 11bb
00000210: efac 4f3e 7269 87bd 0e3f bc3c acd9 0ebe
00000220: 6e22 80bd 58a1 3f3e b1f8 ccbd 32c0 e13d
00000230: 52f9 343e e750 913d 5c7b 893e 3a0a db3e

attention_cp.linear_hidden.bias f4 [12]
-0.42406398 -0.24329501 -0.3810465 0.6547168 0.85038185 0.13453498 -0.097412616 -0.69624084
-0.6451996 -0.539748 -0.19304664 -0.6808128
00000000: ea1e d9be 5422 79be 8718 c3be 859b 273f
00000010: a0b2 593f 8ac3 093e 4480 c7bd d73c 32bf
00000020: cd2b 25bf ed2c 0abf 05ae 45be bf49 2ebf

fc_dp.weight f4 [1, 14]
-0.18328172 -0.23475799 -0.38378516 0.047086284 -0.27539352 0.38018167 0.3041007 -0.373339
0.33368915 0.29981452 -0.12342634 0.37047425 0.26695427 0.2946994
00000000: 34ae 3bbe 6664 70be 7d7f c4be 8cdd 403d
00000010: 6100 8dbe 2ca7 c23e 16b3 9b3e 4a26 bfbe
00000020: 4ed9 aa3e 4a81 993e f3c6 fcbd cdae bd3e
00000030: 3bae 883e d7e2 963e

fc_cp.weight f4 [1, 12]
0.37223005 0.2799673 -0.31165388 -0.30986002 -0.13641982 0.019321246 0.21223804 0.3246587
-0.34148207 0.3405154 -0.006667616 -0.043987893
00000000: f094 be3e e057 8f3e 1991 9fbe f9a5 9ebe
00000010: a3b1 0bbe 9747 9e3c ee54 593e aa39 a63e
00000020: bdd6 aebe 0958 ae3e 047c dabb a62c 34bd

fc_all.weight f4 [1, 25]
0.0048307264 0.033048525 0.09870571 0.0014594294 0.00616714 -0.108969666 -0.01985801 0.38530746
-0.08014261 0.07952155 0.27599013 -0.18831326 0.015975786 -0.1059286 -0.51479894 -0.07086395
0.013243674 -0.009075212 -0.038243696 0.042500414 -0.05651697 -0.05925332 -0.09411721 -0.25799233
-0.18284337
00000000: 124b 9e3b e45d 073d 3826 ca3d 534a bf3a
00000010: b815 ca3b 7d2b dfbd 44ad a2bc 0547 c53e
00000020: cf21 a4bd 32dc a23d 944e 8d3e 31d5 40be
00000030: a7df 823c 18f1 d8bd ddc9 03bf 1e21 91bd
00000040: fffb 583c 33b0 14bc 6ca5 1cbd ea14 2e3d
00000050: 577e 67bd 9cb3 72bd 86c0 c0bd 9217 84be
00000060: 4b3b 3bbe
