trained_models/attention_concat_time/final_model.pt (torch_old, 90607 bytes, 11 tensors)

embed_dp.weight f4 [1292, 12]
0	0x00000000	0.0
1	0x00000000	0.0
2	0x00000000	0.0
3	0x00000000	0.0
4	0x00000000	0.0
5	0x00000000	0.0
6	0x00000000	0.0
7	0x00000000	0.0
8	0x00000000	0.0
9	0x00000000	0.0
10	0x00000000	0.0
11	0x00000000	0.0
12	0x3f89d3df	1.0767783
13	0x3ebb5293	0.36586437
14	0x3fd491ba	1.6606972
15	0xbfa59870	-1.2937145
16	0x3e6746e2	0.22585633
17	0xbf0512de	-0.51981914
18	0xbfdb3f11	-1.7128621
19	0xbf9b2310	-1.2120075
20	0xbf694492	-0.91120255
21	0x3fb22969	1.3918887
22	0x3ed708cc	0.419989
23	0xbf512031	-0.81689745
24	0x3f47a829	0.7799097
25	0x3f5b48fd	0.85658246
26	0x3e7cdd17	0.24693714
27	0x3f95d09c	1.1704288
28	0xbfa0a10d	-1.2549149
29	0x408a6560	4.324875
30	0x3e4a3d13	0.1974986
31	0xbfcd4d00	-1.6039124
32	0x3f56e081	0.83936316
33	0xbc333053	-0.010936814
34	0xbf7163c6	-0.9429287
35	0x3fcba170	1.5908642
36	0x40044235	2.066541
37	0x3dbe5746	0.0929399
38	0xbefa0550	-0.48832178
39	0xbf2bc0ac	-0.6709087
40	0x3c3d2fd8	0.011547051
41	0xbff4d9a0	-1.9128914
42	0xbf684f6a	-0.90746176
43	0x3debf2e1	0.11520935
44	0xbf4e4a71	-0.8058234
45	0xbf8dc8d2	-1.107691
46	0xbf134bd1	-0.5753756
47	0xbfa0ab7f	-1.2552336
48	0xbf856ec2	-1.0424426
49	0xbf251d8a	-0.644982
50	0x3fd1c800	1.638916
51	0xbf7d46fe	-0.9893645
52	0x3f97c565	1.1857115
53	0xbeeb5326	-0.45961875
54	0xbffea854	-1.989512
55	0xbf9e3ac6	-1.2361686
56	0xbf631ddd	-0.8871744
57	0xbfa636e9	-1.2985507
58	0xbf8b9ea3	-1.0907787
59	0x3db4f665	0.088360585
60	0xbfee0572	-1.8595412
61	0x3faf4940	1.3694229
62	0xbf297845	-0.6619914
63	0x400a140d	2.1574738
64	0x3ea6c1e2	0.32569796
65	0xbfc3a0d9	-1.5283462
66	0x3ecac486	0.3960306
67	0x3dc0b6d4	0.09409872
68	0x3d8cc802	0.06874086
69	0xbe12b58b	-0.14327066
70	0x3f30eb4c	0.69109035
71	0x3e135c25	0.14390619
72	0x3ea48cf1	0.3213878
73	0xbfdc88df	-1.722927
74	0xbf3d0dd2	-0.73849213
75	0xbef6d366	-0.4820816
76	0xbeff922e	-0.49916214
77	0xbef870a9	-0.48523453
78	0xbff7f3df	-1.9371299
79	0xbfd4f06a	-1.6635869
80	0xbfde0339	-1.7344733
81	0x3ecf5aa1	0.40498832
82	0x3d9f5498	0.07779807
83	0xbd572b7e	-0.05253171
84	0xbd909786	-0.07060151
85	0x3bfb4cc4	0.0076690633
86	0xbeaea4aa	-0.34110004
87	0xbf86637b	-1.0499109
88	0x3f7953b5	0.9739335
89	0x3faf0e00	1.3676147
90	0xbfb6a924	-1.4270368
91	0xbf833e89	-1.0253459
92	0xbfb14afa	-1.3851006
93	0x3fb1a740	1.3879166
94	0xc0315715	-2.77094
95	0x3fc97128	1.5737658
96	0xbfd1a5f6	-1.6378772
97	0xbe6dadd6	-0.23210844
98	0xc03e0a0d	-2.9693635
99	0xbe83b689	-0.257252
100	0xbf4d9f6d	-0.8032139
101	0x3f19eb0b	0.6012427
102	0x3d19787d	0.037468422
103	0x3f8af756	1.0856731
104	0xbf622b16	-0.88346994
105	0xbfcb5fa4	-1.5888562
106	0x3f59ab6e	0.85027206
107	0xbf139d39	-0.5766178
108	0x3fbc448e	1.4708421
109	0xbf45496f	-0.77065176
110	0xbf753276	-0.9578012
111	0x3eb92472	0.36160618
112	0xbbb0c790	-0.0053948835
113	0x3fefdc6b	1.8739141
114	0xbf66586e	-0.89978683
115	0xc0001dad	-2.0018113
116	0x3e969587	0.29410955
117	0xbf44d29a	-0.7688385
118	0x3ee17428	0.44033933
119	0x3dfac7bd	0.12245128
120	0xbff8c584	-1.9435277
121	0x3f037dea	0.51364005
122	0xbe92166c	-0.28532732
123	0xbf8330ad	-1.024923
124	0xbf9b29dc	-1.212215
125	0xbe2097cd	-0.15682907
126	0xc009ab45	-2.1510785
127	0xbf216306	-0.6304172
128	0xbea4d695	-0.32194963
129	0xbfed2449	-1.8526698
130	0xbf5b0e7c	-0.85568976
131	0xbed68469	-0.41897896
132	0xbfaf31b6	-1.3687046
133	0xbe4bf941	-0.19919302
134	0xbf8e812d	-1.1133171
135	0x3eaec923	0.3413783
136	0xbda56be7	-0.08077221
137	0x3f8c303a	1.0952218
138	0x3ed4daf1	0.4157329
139	0xbfd176f8	-1.6364431
140	0xbe63f9a8	-0.22263205
141	0x3e6c2a77	0.23063074
142	0xbf057a18	-0.52139425
143	0x3efc56f0	0.49285078
144	0x3e0a3ec2	0.13500503
145	0xbf282f67	-0.6569733
146	0x3ecaa9f7	0.39582798
147	0x3e9783b6	0.29592675
148	0x3f376a4e	0.71646583
149	0xbf601f9b	-0.87548226
150	0xbf374b9f	-0.71599764
151	0x3e3752b3	0.17902641
152	0x3ec5946d	0.38589802
153	0xbc85db30	-0.016339868
154	0x3e64aef0	0.22332358
155	0xc015c3e5	-2.3400815
156	0x3f17bcc3	0.592724
157	0xbf7aa488	-0.97907305
158	0xbec54f0d	-0.38536873
159	0xbe77ae08	-0.24187481
160	0xbf23a907	-0.6392979
161	0x3f18084a	0.5938765
162	0xbf8aaa9d	-1.0833317
163	0xbf477867	-0.77918094
164	0x3fb70cbe	1.4300764
165	0x3f1bc6da	0.608503
166	0xbe8507ec	-0.25982606
167	0xbf94fea9	-1.1640216
168	0x3faae82d	1.3352104
169	0xbedd473b	-0.43218407
170	0xbf74b6d0	-0.9559145
171	0xbe3d2325	-0.18470438
172	0x3ee0cc7b	0.43906006
173	0xbd75629a	-0.059908487
174	0x3c8303ae	0.015992966
175	0xbe314971	-0.17313172
176	0x3f1df2d6	0.61698663
177	0x3f8f69d0	1.1204166
178	0x3b85467f	0.0040672417
179	0x4013d2ac	2.3097334
180	0x3fdaad2c	1.7084098
181	0x3e1048d5	0.14090283
182	0xbeed5b14	-0.4635855
183	0xbe6d9988	-0.23203099
184	0xbef18d2d	-0.4717802
185	0xbf11442a	-0.56744635
186	0x3e978007	0.29589865
187	0xbf8953ba	-1.0728676
188	0xbcc41ed1	-0.023940476
189	0xbf05df59	-0.52293926
190	0x3f016ff9	0.5056148
191	0xc0438862	-3.0551991
192	0x3e58e7a6	0.21182117
193	0x3f95d683	1.1706089
194	0x3faa6545	1.3312155
195	0xbc0f82f3	-0.008759248
196	0x3e1e7019	0.1547245
197	0xbe5b8e76	-0.21441063
198	0x3faf74ec	1.3707557
199	0x3eed8385	0.46389404
200	0xbf3d934c	-0.7405288
201	0x3f81ab69	1.0130435
202	0x3f1a59e2	0.602934
203	0x3f1d223d	0.6138037
204	0xbffd6f51	-1.9799596
205	0xbf3cd164	-0.73757005
206	0xbfb3d358	-1.4048872
207	0xbf915212	-1.1353171
208	0xbf4d60ee	-0.8022603
209	0xbe66b1c5	-0.22528751
210	0xbf9f043d	-1.2423168
211	0x3edc8191	0.430676
212	0xc0011f2b	-2.0175273
213	0xbcee9181	-0.029122116
214	0xbd58f150	-0.05296451
215	0xbfc789f9	-1.5588981
216	0x3f4bdf9c	0.79638076
217	0x3de27a10	0.11058438
218	0x3fa741b7	1.306693
219	0x3fa0bab5	1.2556978
220	0xbf4ba1ce	-0.7954377
221	0xbe9ab7d4	-0.30218375
222	0xbf7f7e5e	-0.99802196
223	0xc00cf56a	-2.202479
224	0xbef12438	-0.47097945
225	0xbe877455	-0.26455942
226	0x3f092f67	0.53587955
227	0xbfc61ec7	-1.5478142
228	0x3e00b9a3	0.12570815
229	0xbfdb1789	-1.7116557
230	0xbe450243	-0.19239144
231	0xbf0e743b	-0.55646104
232	0xbe19d658	-0.15023172
233	0xbf058791	-0.5215998
234	0xbd30f4ee	-0.043202333
235	0x3f243b71	0.641532
236	0xbf0f7afd	-0.5604704
237	0x3fa94698	1.3224669
238	0x3f95cf82	1.1703951
239	0xbf18f5d6	-0.59750116
240	0xbdd7f6eb	-0.10545143
241	0x3df4e384	0.11957458
242	0x3dd06256	0.10175006
243	0xbecc10a8	-0.39856458
244	0xbeec91cf	-0.46204993
245	0xbf5083e6	-0.8145126
246	0xbf73ed74	-0.952842
247	0xbee38658	-0.44438434
248	0xc023803e	-2.5547023
249	0x3ea86dc7	0.32896253
250	0x3fb20ca6	1.391011
251	0x3ee6e3ff	0.45095822
252	0x3fc3e1e6	1.5303314
253	0xbddccafe	-0.10780905
254	0xbea3c519	-0.3198631
255	0x3e908852	0.28229004

embed_cp.weight f4 [620, 10]
0	0x00000000	0.0
1	0x00000000	0.0
2	0x00000000	0.0
3	0x00000000	0.0
4	0x00000000	0.0
5	0x00000000	0.0
6	0x00000000	0.0
7	0x00000000	0.0
8	0x00000000	0.0
9	0x00000000	0.0
10	0xbf9477c7	-1.1599053
11	0x3f07f1fd	0.5310362
12	0xbdd00883	-0.101578735
13	0x3e3adf87	0.18249331
14	0x3f5112d4	0.81669354
15	0xbf0a0913	-0.53920096
16	0x3f66eb33	0.90202636
17	0xc01fc026	-2.4961028
18	0xbde4fbac	-0.11180815
19	0x40077652	2.1165967
20	0xbec0eba8	-0.3767979
21	0xbfcebf06	-1.6152046
22	0x40031ebf	2.0487516
23	0x3ebd11cc	0.3692764
24	0x3eadb7f0	0.33929396
25	0xbf557a6a	-0.83389914
26	0xbd37d9a9	-0.04488531
27	0xbffc11ef	-1.9692973
28	0x3ebfa4ce	0.37430423
29	0x3e4aad40	0.19792652
30	0x3f98e198	1.1943846
31	0x3fb45154	1.4087319
32	0x3d116e72	0.03550572
33	0xbfbbdfa5	-1.4677626
34	0x3e2fb7ec	0.17160004
35	0x3f8f7966	1.1208923
36	0xbefbd5ba	-0.49186498
37	0x3f83123f	1.0239943
38	0x3f16e515	0.589433
39	0x400fead6	2.2487082
40	0xbfd759f8	-1.6824331
41	0x3fd00975	1.6252886
42	0x3cfd44b8	0.030916557
43	0x3f383a8a	0.71964324
44	0x3fb01264	1.3755612
45	0x3f940130	1.1562862
46	0x3f29e095	0.6635831
47	0xbed1b54e	-0.40958637
48	0xc0411bb7	-3.0173166
49	0xbec0a86b	-0.37628493
50	0x3fe338f7	1.7751759
51	0x3f3faeb8	0.74875975
52	0xbec761df	-0.38941857
53	0x3f9f0c75	1.2425677
54	0x3f8c031e	1.0938451
55	0x3fbb566f	1.4635752
56	0x3ea70584	0.32621396
57	0x3f7d126a	0.9885622
58	0x3eff8e98	0.49913478
59	0xbe9c2df1	-0.305038
60	0xbf03bf6d	-0.5146397
61	0x3f160044	0.58594155
62	0x3f7631ad	0.9616955
63	0xbfb0553c	-1.3776011
64	0x3fcb8b46	1.5901878
65	0xbfa1bb4b	-1.2635282
66	0xbfbbfcd2	-1.468653
67	0xbe7a0432	-0.24415663
68	0xbf3ab08b	-0.72925633
69	0x3f462d21	0.7741261
70	0xbe9bdab5	-0.30440298
71	0xbef0f8f5	-0.4706494
72	0x3f952e64	1.1654782
73	0x3e73c2cd	0.2380478
74	0xbee067f6	-0.43829316
75	0x3e93d8ca	0.28876334
76	0x3f50129f	0.81278414
77	0xbf165459	-0.58722454
78	0x3f3a4018	0.7275405
79	0xbed82b07	-0.42220327
80	0xbe99b36b	-0.30019698
81	0x3ea38027	0.3193371
82	0x3d496cc8	0.049176008
83	0xbea26085	-0.31714264
84	0x3f7d544f	0.9895677
85	0x3f6f6bed	0.93524057
86	0xbfedb06b	-1.8569463
87	0x3f91304a	1.1342862
88	0xbeceae5e	-0.40367407
89	0x3e9537f4	0.2914425
90	0x3dc9362b	0.09824785
91	0x3f93bcaf	1.1541957
92	0x3e0a1301	0.13483812
93	0xbe1bfbed	-0.15232821
94	0xbfc0d85e	-1.506603
95	0x3f844fae	1.0336816
96	0x3d1834c3	0.037159692
97	0x3ea08981	0.31354907
98	0xbf2f0bde	-0.6837748
99	0x3f12fb9a	0.57415164
100	0x3ebb70e1	0.36609557
101	0xbd44ee41	-0.04807878
102	0xbf3518e2	-0.70741093
103	0x3f78f45c	0.9724786
104	0xbff87eb2	-1.9413664
105	0x3ea0530b	0.31313357
106	0xbf564adb	-0.8370797
107	0x3f3f6b3c	0.74773
108	0x3f8b05a5	1.0861098
109	0x3eef6a1f	0.4676065
110	0x3f561f37	0.8364138
111	0x3fd4f51b	1.66373
112	0xbf03a23b	-0.5141942
113	0x3eae263f	0.34013554
114	0xbf5c457f	-0.8604354
115	0xbf771c41	-0.9652749
116	0xbfc3b7b6	-1.5290439
117	0x401357fd	2.3022454
118	0xbcc7e18c	-0.024399541
119	0x3fed4cf0	1.8539104
120	0xbf2df9aa	-0.6795908
121	0xbeda372b	-0.42620215
122	0x3fd3eac1	1.6556016
123	0xbeceaf4a	-0.4036811
124	0x3ef1eb6e	0.4724993
125	0x3f2e1f83	0.68016833
126	0xbc90d322	-0.017678801
127	0x3f44546c	0.7669132
128	0xbfad5f2f	-1.3544673
129	0x3ee3bf21	0.44481757
130	0xbdf052ec	-0.11734566
131	0x3e3f623e	0.1868982
132	0x3dadf079	0.08493132
133	0xbe4bac7b	-0.19890015
134	0x3f5b3bd0	0.8563814
135	0xbee7767c	-0.45207584
136	0x3f8d7281	1.1050569
137	0x3f6bc146	0.92091787
138	0xbf06c905	-0.5265048
139	0x3f3f9f95	0.7485288
140	0x3fb985f4	1.4494004
141	0x3f8edb0c	1.1160598
142	0x3ebcbab9	0.36861208
143	0x3f040701	0.5157319
144	0xbeb01b26	-0.34395713
145	0x3f3516a1	0.70737654
146	0xbedf07d8	-0.43560672
147	0x3ff3c018	1.9042997
148	0x3f8af734	1.085669
149	0xbbbc01b7	-0.005737509
150	0x3f3e119c	0.7424562
151	0x3eb0500a	0.34436065
152	0xbf94082f	-1.1564997
153	0x3e80dfd0	0.25170755
154	0xbf0190bd	-0.5061148
155	0x3f068338	0.52543974
156	0xbe8f1063	-0.2794219
157	0x3eb7044b	0.35745463
158	0x3e98e739	0.2986391
159	0x3f9d3ef6	1.2284839
160	0x3fd99896	1.699969
161	0x3fd9bb1f	1.701023
162	0x3f5ca3ae	0.86187255
163	0xbf05bf99	-0.5224548
164	0x3fc13ff3	1.5097641
165	0xbc87db55	-0.016584078
166	0xbf578ca0	-0.8419895
167	0xbf89b5de	-1.0758626
168	0xbfcd9889	-1.6062175
169	0x3e69cfa7	0.2283312
170	0x3f3c661d	0.7359331
171	0x3da29be3	0.07939889
172	0x3fdb2c34	1.7122865
173	0x3f98e93a	1.1946175
174	0x4003d097	2.0596063
175	0x3fac7ee6	1.3476226
176	0x3f5747b7	0.84093803
177	0xbef24501	-0.4731827
178	0xbe283125	-0.16424997
179	0x3f36542f	0.71222204
180	0xbed2571b	-0.4108208
181	0x3f6366d2	0.88828766
182	0x3f765440	0.96222305
183	0x3f6dae56	0.9284414
184	0x3f43a235	0.76419383
185	0x3f089d1e	0.5336474
186	0xbff8f734	-1.945044
187	0x3f9db94e	1.2322176
188	0x3d0041e9	0.031312857
189	0xbf68089e	-0.9063815
190	0xbf0a06fb	-0.539169
191	0x3d6917c3	0.056907427
192	0x40015623	2.0208824
193	0xbf099c79	-0.53754383
194	0xbed48c3b	-0.41513237
195	0xbec00350	-0.37502527
196	0xbeea3174	-0.45740855
197	0xbf03da4c	-0.5150497
198	0xbe91166b	-0.28337416
199	0xbf2cf474	-0.67560506
200	0x3fc4fdfb	1.5390009
201	0xbf042bbe	-0.51629245
202	0x3f79f8c2	0.976452
203	0x3ff9026e	1.9453866
204	0x3f732ef4	0.9499352
205	0x3eeedbe1	0.4665213
206	0x3f5317f6	0.82458436
207	0x3f16579f	0.5872745
208	0xbfdbdecd	-1.7177368
209	0x3fb2a533	1.3956665
210	0x3e00ad2d	0.12566061
211	0x3e51375d	0.20431276
212	0x3da6c747	0.08143478
213	0x3f2b9e4b	0.6703841
214	0x3f9fb1d4	1.2476144
215	0xbe5822dd	-0.2110705
216	0xbf6ec59a	-0.93270266
217	0x3e793e42	0.24340156
218	0x3e2f7576	0.17134652
219	0x3ee3587b	0.44403443
220	0x3d5f6714	0.054541662
221	0x3f8b4c1f	1.0882605
222	0xbe88ce6d	-0.2671999
223	0xbff17a8c	-1.8865523
224	0xbfad816f	-1.3555125
225	0xbf15bd5b	-0.5849206
226	0x3fb02b0a	1.3763134
227	0xbf593e1b	-0.8486039
228	0xbfd53245	-1.6655966
229	0x3fc07f68	1.5038881
230	0x3f79c5f7	0.97567695
231	0x3f33e260	0.70267296
232	0xbe2717d8	-0.1631769
233	0xbdb6e942	-0.08931209
234	0xbffe1ba4	-1.9852185
235	0x3e7edf3e	0.24889848
236	0xbcdd7246	-0.027032029
237	0xbe4c662e	-0.19960853
238	0xbe854cf2	-0.26035267
239	0x3e528400	0.20558167
240	0xbc59f356	-0.013302645
241	0x3fcb9ea4	1.5907788
242	0xbec46784	-0.38360226
243	0xbf251f26	-0.64500654
244	0x3f096d15	0.5368207
245	0x3facaa79	1.3489524
246	0x401c7da5	2.4451687
247	0xbe4b47c8	-0.19851601
248	0xbf880cda	-1.0628922
249	0x3f83bb1c	1.0291476
250	0xbfc3b8e1	-1.5290796
251	0xbd4c0654	-0.049810722
252	0xbee5c6e2	-0.44878298
253	0x3e543558	0.20723474
254	0x3f256e11	0.64621073
255	0xc0035b3f	-2.0524442

attention_dp.context f4 [13]
0	0x401d8808	2.4614277
1	0x3ec8adba	0.39195043
2	0xbe9d0659	-0.30668905
3	0x3f9815a6	1.1881607
4	0x3ea19020	0.3155527
5	0x3f36a833	0.713504
6	0x3e626127	0.22107373
7	0x3ec63862	0.38714892
8	0x3fe487f2	1.7853987
9	0x3ea448be	0.32086748
10	0x3f59b5a9	0.85042816
11	0xbee5d948	-0.44892335
12	0x3fbec20d	1.490297

attention_dp.linear_hidden.weight f4 [13, 13]
0	0xbc40bc4f	-0.011763646
1	0xbcbcafef	-0.02303311
2	0x3ab4a861	0.0013783091
3	0xbeb5fe75	-0.35545698
4	0x3e1dfa18	0.15427434
5	0xbeb282e2	-0.3486548
6	0x3d413d69	0.047177706
7	0x3e75fca7	0.2402216
8	0x3d726282	0.059175976
9	0x3db67301	0.08908654
10	0x3e87dac6	0.26534098
11	0xbf1c265b	-0.60996026
12	0xbe76292b	-0.24039142
13	0x3ee2c68a	0.44292098
14	0x3eab09c6	0.33405894
15	0x3e1b9c37	0.1519631
16	0x3e71c6d2	0.23611
17	0xbd8421c2	-0.06451751
18	0xbbb25485	-0.0054422044
19	0x3e81a5b8	0.25321746
20	0xbd9b7ab7	-0.075917654
21	0x3e1f770f	0.15572761
22	0x3de16e6b	0.11007389
23	0x3ea1c11f	0.31592652
24	0xbd588980	-0.052865505
25	0xbe8741e7	-0.26417467
26	0xbec97272	-0.39345127
27	0x3e90e67c	0.28300846
28	0xbe47eb02	-0.19523242
29	0x3ea06906	0.31330127
30	0xbe3359ea	-0.17514768
31	0xbca06170	-0.019577712
32	0xbe20b7b4	-0.15695077
33	0x3de57588	0.11204058
34	0x3cb32307	0.021867288
35	0xbd7152e1	-0.05891693
36	0x3ed1b997	0.40961906
37	0xbd1007e2	-0.035163768
38	0x3f2e1d67	0.68013614
39	0x3f000e2c	0.50021625
40	0xbea77349	-0.32705143
41	0x3e4b1d5a	0.19835415
42	0x3ebe8941	0.3721409
43	0x3ebc49d1	0.36775067
44	0x3ed6437a	0.41848356
45	0x3de79c77	0.1130914
46	0xbd39ee80	-0.045393467
47	0x3dc58eb7	0.09646361
48	0x3e8bbdcd	0.27293244
49	0xbe406a55	-0.18790562
50	0xbd6c8985	-0.057748336
51	0x3b965e26	0.00458886
52	0xbe2840be	-0.16430947
53	0xbd612f53	-0.054976773
54	0x3e0c9529	0.13728775
55	0xbe887dd4	-0.266585
56	0x3dd33066	0.10311966
57	0xbf04ba47	-0.51846737
58	0x3d7a7072	0.061142392
59	0x3f00f415	0.5037244
60	0xbdc16010	-0.094421506
61	0x3e41e861	0.18936302
62	0x3eed778f	0.46380278
63	0x3e28b892	0.16476658
64	0xbea87d61	-0.32908157
65	0xbf0b2692	-0.5435573
66	0xbd8651e5	-0.06558589
67	0x3e574b25	0.21024759
68	0xbdbca486	-0.09211068
69	0x3e084ad9	0.13309802
70	0xbd903764	-0.07041815
71	0x3e38e5db	0.18056433
72	0x3cebf243	0.028802043
73	0x3dcd6d17	0.10030573
74	0xbdee48b0	-0.11634958
75	0xbf13c898	-0.57727957
76	0x3ea4ba95	0.321736
77	0xbd258e38	-0.040418833
78	0xbef61dd2	-0.48069626
79	0x3da7ad07	0.08187299
80	0xbd7f5f78	-0.062346905
81	0xbed1f1d0	-0.410048
82	0x3de56691	0.112012036
83	0xbf087cab	-0.5331523
84	0x3c36b91a	0.01115253
85	0x3e8cea60	0.27522564
86	0x3d6f5333	0.058428954
87	0x3daa4ff3	0.0831603
88	0x3e395862	0.18100122
89	0xbcf91e64	-0.03041
90	0xbe87ea04	-0.26545727
91	0xbe9958b0	-0.29950476
92	0xbe2dd470	-0.1697557
93	0x3de0ee13	0.10982909
94	0xbef11ef2	-0.47093922
95	0xbe024c78	-0.12724483
96	0xbe89b117	-0.2689292
97	0x3d391858	0.04518923
98	0xbdd8a903	-0.105791114
99	0xbcdda7d1	-0.02705756
100	0x3e106db6	0.14104351
101	0x3e3dc09b	0.18530504
102	0xbde8733e	-0.11350106
103	0xbe8831ac	-0.26600397
104	0xbd91fedf	-0.07128691
105	0xbea65d88	-0.32493234
106	0x3e21cd7c	0.15801042
107	0x3eda4cd9	0.42636755
108	0x3ec93f20	0.39305973
109	0x3f000943	0.5001413
110	0x3e86574c	0.26238477
111	0xbcbf4376	-0.023347598
112	0x3dfd47eb	0.12367233
113	0x3e3a41b4	0.18189126
114	0xbe8f4ffc	-0.2799071
115	0x3ec2e832	0.38067776
116	0xbecbe6c5	-0.398245
117	0x3ed9acd8	0.42514682
118	0xbed8869b	-0.42290196
119	0x3ee701ed	0.45118657
120	0xbe657bbf	-0.22410487
121	0x3dd65fcc	0.104674906
122	0x3da70040	0.081543446
123	0x3deb862a	0.11500199
124	0x3e1a1365	0.15046461
125	0x3aabf8ad	0.0013120376
126	0xbe936bdc	-0.28793228
127	0x3c8312ac	0.016000114
128	0x3ed4eff5	0.41589323
129	0xbebf1171	-0.37317994
130	0xbed09183	-0.40736017
131	0xbc970ce6	-0.018438768
132	0xbd566bf3	-0.052349042
133	0xbebe230c	-0.37136114
134	0x3d358b36	0.044322215
135	0xbec187ca	-0.3779891
136	0xbd7c0d62	-0.0615362
137	0x3ebbf5e5	0.3671104
138	0x3db0d40c	0.08634195
139	0x3d1e6e81	0.038679603
140	0x3e9dca44	0.3081838
141	0xbf3c9d61	-0.7367764
142	0xbe762310	-0.24036813
143	0x3d50f676	0.051016293
144	0x3ea2f8a1	0.31830314
145	0xbe0ff078	-0.14056575
146	0xbecc38c2	-0.39887053
147	0xbe549f12	-0.20763806
148	0xbecd5d15	-0.40110078
149	0xbe0c273a	-0.13686839
150	0x3dd0a73b	0.10188147
151	0xbd92d091	-0.07168687
152	0xbe43e61a	-0.19130746
153	0xbe555847	-0.20834456
154	0xbe2db716	-0.16964373
155	0xbd553bee	-0.052059107
156	0x3eca5e48	0.39525056
157	0xbef7ef6b	-0.4842485
158	0x3e412626	0.18862209
159	0x3e69df61	0.22839119
160	0x3e90a690	0.28252077
161	0x3e80451d	0.2505273
162	0x3e8b635a	0.27224237
163	0x3cc2080e	0.023685481
164	0x3e1c4826	0.15261897
165	0x3e429402	0.19001773
166	0xbee86516	-0.45389622
167	0x3ee72fcd	0.45153657
168	0xbc863565	-0.016382882

attention_dp.linear_hidden.bias f4 [13]
0	0xbf27ef2f	-0.6559934
1	0xbe51e1c9	-0.20496286
2	0xbeb3b34a	-0.35097724
3	0x3ea0950c	0.31363714
4	0xbf0fc79f	-0.5616397
5	0x3cb5f31d	0.022210652
6	0xbe4c50c8	-0.1995269
7	0xbdd13e63	-0.102169774
8	0x3ebdb04f	0.37048575
9	0x3dba1661	0.090863
10	0xbf1632fa	-0.58671534
11	0xbeb7d0fc	-0.3590163
12	0x3ed36c74	0.4129368

attention_cp.context f4 [11]
0	0xbe4ee284	-0.20203596
1	0xbeb297cd	-0.3488144
2	0xbf9285b2	-1.144705
3	0x3f6c3eda	0.92283404
4	0x3eb95dc6	0.36204356
5	0x3ee55df7	0.44798252
6	0xbd6a41e6	-0.057191752
7	0xbf5f9578	-0.87337446
8	0x3e7f04f3	0.24904232
9	0x3f9f6229	1.2451831
10	0x3e81dc99	0.25363615

attention_cp.linear_hidden.weight f4 [11, 11]
0	0x3c7b9dfe	0.0153574925
1	0x3d8372df	0.06418394
2	0x3df40ead	0.11916862
3	0x3e697b0d	0.22800846
4	0x3e7b5075	0.2454241
5	0x3e728f8e	0.23687574
6	0x3e6936aa	0.22774759
7	0xbe5aa2b6	-0.21351132
8	0xbde72b41	-0.11287547
9	0x3e24bc5b	0.16087477
10	0x3f6d5de1	0.9272137
11	0x3e4fe77a	0.20303145
12	0xbd899808	-0.06718451
13	0x3e3c31c1	0.18378355
14	0x3cd28ba7	0.025701357
15	0x3e094a4a	0.13407245
16	0xbe78f445	-0.24311931
17	0xbe4f431d	-0.20240445
18	0xbe0bffda	-0.13671818
19	0x3d8a8210	0.06763089
20	0xbee91eb5	-0.4553124
21	0xbe84dc82	-0.25949484
22	0x3d61f5be	0.055166
23	0x3ed8719e	0.42274183
24	0x3e1c5d2f	0.15269922
25	0x3d29dfa0	0.04147303
26	0x3f21e613	0.6324169
27	0x3e648d8f	0.22319625
28	0x3e721782	0.2364178
29	0xbe3ae6d2	-0.18252113
30	0xbe96ca2c	-0.2945112
31	0x3e16f15c	0.14740509
32	0x3c7357c9	0.014852473
33	0xbe1b0d5c	-0.15141815
34	0xbe02f08f	-0.12787078
35	0xbdd93111	-0.10605062
36	0x3bfb3967	0.007666755
37	0x3e0c3861	0.13693382
38	0x3d24b2d2	0.0402096
39	0x3ea80780	0.32818222
40	0xbe820c36	-0.2539994
41	0xbc944e0e	-0.018103626
42	0x3e045eb5	0.12926753
43	0xbf57e02a	-0.8432642
44	0xbddf6d6e	-0.10909544
45	0xbe4c8092	-0.1997092
46	0xbe187899	-0.14889754
47	0xbdf188ee	-0.117936954
48	0x3e34051a	0.17580071
49	0xbeb29fb9	-0.34887484
50	0xbd3880f2	-0.045044847
51	0xbeab36a2	-0.3344012
52	0xbe445bb7	-0.19175611
53	0xbe7f44ce	-0.2492859
54	0xbe971320	-0.2950678
55	0x3dda67c6	0.106643245
56	0xbda4a696	-0.08039586
57	0xbd1463ab	-0.036227863
58	0x3e144b32	0.1448181
59	0x3dae00fc	0.084962815
60	0xbe035395	-0.12824853
61	0x3e5a3f35	0.21313174
62	0x3ed357c3	0.41277894
63	0xbeae263c	-0.34013546
64	0x3ec4e0bc	0.3845271
65	0xbfd38766	-1.6525695
66	0x3d4ea903	0.05045415
67	0x3e3d2807	0.184723
68	0xbf167f17	-0.58787674
69	0x3d3af2f3	0.04564185
70	0xbeeb743a	-0.4598711
71	0x3c8008d6	0.015629213
72	0x3dbeb35c	0.09311554
73	0xbe431dcb	-0.19054334
74	0x3f14bbd0	0.5809908
75	0x3b9f2414	0.004856596
76	0x3f8ac85a	1.0842392
77	0x3e8e4091	0.27783635
78	0xbc8a83a6	-0.016908478
79	0xbcd172b0	-0.025567383
80	0xbd1f0545	-0.038823385
81	0xbd092513	-0.033482622
82	0x3aa71792	0.0012748113
83	0x3ebd5b32	0.3698364
84	0xbcf14772	-0.029453013
85	0xbe4fccc5	-0.20292957
86	0x3e81bf59	0.253413
87	0x3dfe4acb	0.124166094
88	0x3ea0fac4	0.3144132
89	0xbe896fb6	-0.2684304
90	0xbebecfe2	-0.37267977
91	0xbcad1959	-0.02113025
92	0x3ec880ea	0.39160854
93	0xbe89db67	-0.26925203
94	0xbd3142ad	-0.043276478
95	0x3e33eb9a	0.17570344
96	0x3e332be7	0.17497216
97	0xbdc76dd5	-0.09737746
98	0xbe144a0b	-0.1448137
99	0x3eb618d1	0.35565808
100	0x395ebbca	0.00021241527
101	0xbe1e8504	-0.15480429
102	0xbd8d61ae	-0.069033965
103	0xbf1ef74f	-0.6209611
104	0x3e1d264b	0.15346639
105	0x3e3f1e7a	0.1866397
106	0x3d956b7c	0.07295892
107	0x3cb2684e	0.021778252
108	0xbd5d0b37	-0.053965773
109	0x3f06c7bb	0.52648515
110	0xbd866e44	-0.06564
111	0x3e8af88c	0.2714275
112	0x3f116b16	0.56804025
113	0x3e5e08a3	0.21682982
114	0x3df30a8f	0.11867248
115	0xbce93e75	-0.028472165
116	0xbeb391b7	-0.3507211
117	0x3e8003e3	0.25002965
118	0x3d3762bd	0.0447719
119	0xbc328115	-0.010895033
120	0xbfaf9c8b	-1.3719648

attention_cp.linear_hidden.bias f4 [11]
0	0xbebf69ce	-0.3738541
1	0xbe7d1bd3	-0.24717645
2	0xbf424535	-0.7588685
3	0x3e2440b4	0.16040307
4	0xbe2c39bb	-0.16818897
5	0xbf1e21c1	-0.61770254
6	0x3f161b17	0.58635086
7	0xbeda1f46	-0.42601985
8	0x3ee41e69	0.4455445
9	0x3f1bca24	0.6085532
10	0xbeb199f9	-0.34687784

fc_dp.weight f4 [1, 13]
0	0xbea26107	-0.3171465
1	0xbdec47ca	-0.1153713
2	0x3d4037d4	0.04692824
3	0xbea5dcae	-0.32394928
4	0x3e281049	0.16412462
5	0xbea128dc	-0.31476486
6	0x3d755ddc	0.059903964
7	0x3e8b241f	0.27175996
8	0x3d75a086	0.05996754
9	0x3d2dc83b	0.042427283
10	0x3e68f12a	0.22748247
11	0xbec8b7b4	-0.39202654
12	0xbdae7353	-0.0851809

fc_cp.weight f4 [1, 11]
0	0x3f002da2	0.5006963
1	0x3e7f89b1	0.24954869
2	0xbd6f9a37	-0.05849668
3	0x3ec60422	0.38675028
4	0xbc8baf3e	-0.017051335
5	0x3ee740aa	0.45166522
6	0xbec42ddd	-0.3831624
7	0x3eb54b87	0.35409185
8	0x3d808cf1	0.062768824
9	0x3ec03009	0.37536648
10	0xbf0fc711	-0.56163126

fc_all.weight f4 [1, 25]
0	0x3c46c7da	0.012132609
1	0x3ca6c915	0.020359555
2	0x3deb38f8	0.11485475
3	0x3b07f31c	0.002074427
4	0x3c67214c	0.01410706
5	0xbde6e663	-0.112744115
6	0xbd167192	-0.036729403
7	0x3ebf3c59	0.3735073
8	0xbd93a73d	-0.072096325
9	0x3d930b5f	0.07179903
10	0x3e5c4241	0.21509649
11	0xbe5e6ecf	-0.21721958
12	0x3c1ab8b7	0.0094434535
13	0xbdb653cf	-0.08902704
14	0xbeffd44d	-0.4996666
15	0xbde386db	-0.11109706
16	0x3bf8d999	0.007594299
17	0xbc605739	-0.0136926705
18	0xbdad633f	-0.08466195
19	0x3d064edf	0.03279006
20	0xbd7ec3b3	-0.062198352
21	0xbd99dec8	-0.07513195
22	0xbdcac59c	-0.09900972
23	0x3e2e393b	0.17014019
24	0xbea5d6d7	-0.32390472
