trained_models/ode_attention/final_model.pt (torch_old, 104270 bytes, 23 tensors)

embed_dp.weight f4 [1292, 13]
0.0 0.0 0.0 0.0 0.0 0.0 0.0 0.0
0.0 0.0 0.0 0.0 0.0 -2.1971805 1.8503009 -0.29084936
-0.6315947 -0.3418052 -0.41944456 0.35127917 -0.65590745 0.18724214 1.280062 -0.499744
-1.2692302 0.2482447 0.29086074 -1.5608602 1.6444445 1.4336357 -0.8886317 -1.1780345
2.0987756 -0.58754045 1.8627768 -1.6151911 -0.8576894 1.2358061 0.8137825 1.2582377
-0.5874912 -0.86311424 0.40064573 0.799936 0.13885298 0.90562296 0.26138613 2.6432502
-1.3525198 -0.6974186 2.3313046 -0.24339369 0.40403423 -0.4675161 1.9836034 -0.35140264
0.84752476 1.4346137 -0.89029425 -0.27523395 -0.8269868 1.1223445 -0.76551336 -1.3935572
-1.0048292 -0.05499575 2.1994298 -0.45062482 -1.180086 -1.0607659 -0.025242925 -0.90759283
-0.6802481 2.5865428 -0.95184267 -0.4072043 -1.4078066 0.87442285 -1.159427 0.72864187
0.80473673 -1.3134425 0.8591719 0.08773936 0.8753406 1.0860159 0.17634432 0.6284023
0.3485292 1.7630213 0.8149604 0.6387993 -1.5140951 3.570271 -1.2942967 -2.1226873
1.3041756 1.4580264 0.033839904 1.486031 -0.8499509 -0.7494937 0.29929322 2.3461766
-0.5191764 -0.36542746 -1.5049698 1.1283319 0.5149199 -0.7239759 1.7329005 -1.0314442
-1.7012403 2.416034 -0.014015121 0.011186137 0.19116072 2.1133316 1.2857237 2.9169574
-0.9047306 -1.1514263 0.16051443 -0.3417734 -1.5728859 0.23513559 -0.015804812 0.5541193
3.1165655 2.065648 -0.5243882 0.088928156 -1.4289329 0.7168851 -1.425839 -2.0832431
1.7618271 -1.4868209 0.46610272 1.2765529 -1.0700152 -0.04699941 -0.40141428 -0.5508733
-2.1710508 0.17705199 2.2848637 -0.57007796 0.28592598 0.6854667 1.2951099 -1.5896481
-0.074273616 -0.35703266 -0.42333043 1.1521313 0.9860903 -0.36315116 -0.8861888 0.2654145
-0.42514738 -1.3147229 -1.696454 1.5516455 0.11889485 -0.024940006 -1.0464782 0.933024
1.8560121 -0.44076574 -1.2420211 0.06883489 1.0712727 0.35209703 0.2481231 0.8476474
-0.46273914 -0.120671995 -0.623188 -1.2223493 0.38128272 0.5747493 -1.1163181 1.0742252
-0.0016935318 -1.5947616 1.1124394 0.63269424 -0.87713325 -1.0294797 -0.2827302 -0.92008936
0.14997047 0.6021294 -0.9608838 0.15681674 -0.2960446 -0.6636988 0.96204966 -0.48026907
0.04438739 0.13901484 0.7473692 -0.010106349 -1.9023273 0.7671163 -0.6239857 0.44140464
-1.0288045 -1.8620787 0.015313272 0.023636494 1.0155306 0.27885857 0.09495628 0.08732111
0.025288062 -0.71586764 0.7811778 -0.8240035 1.8493401 -0.55540997 0.511573 0.80373776
-0.5106891 -0.9997069 -1.4467647 1.1677818 -0.43961656 0.1271887 -0.91840506 -0.29299447
-0.5441801 0.17697605 0.47649857 -0.36873358 -0.6779058 -1.7275355 0.9839393 0.6247296
1.0500914 -0.15116501 -0.46031162 0.5083735 -0.13229139 -2.486392 0.24797079 0.16370712
-0.4162026 1.039734 -0.7325623 0.4603664 -2.1072917 0.69082093 2.209191 -0.20386916
00000000: 0000 0000 0000 0000 0000 0000 0000 0000
00000010: 0000 0000 0000 0000 0000 0000 0000 0000
00000020: 0000 0000 0000 0000 0000 0000 0000 0000
00000030: 0000 0000 9b9e 0cc0 a9d6 ec3f 35ea 94be
00000040: 31b0 21bf 1701 afbe 70c1 d6be ddda b33e
00000050: 8de9 27bf 67bc 3f3e 12d9 a33f 72de ffbe
00000060: 2376 a2bf dc33 7e3e b3eb 943e 44ca c7bf
00000070: 287d d23f 6081 b73f 5e7d 63bf d6c9 96bf
00000080: 5752 0640 0d69 16bf 786f ee3f 95be cebf
00000090: 8891 5bbf e52e 9e3f 0d54 503f ef0d a13f
000000a0: d365 16bf 0ef5 5cbf 7021 cd3e 9bc8 4c3f
000000b0: 7a2f 0e3e e8d6 673f 67d4 853e 032b 2940
000000c0: 5e1f adbf 068a 32bf 1834 1540 323c 79be
000000d0: 93dd ce3e 455e efbe b7e6 fd3f 0ceb b3be
000000e0: 62f7 583f 6ca1 b73f 53ea 63bf 77eb 8cbe
000000f0: 68b5 53bf fca8 8f3f aff8 43bf 1560 b2bf
00000100: 3e9e 80bf 3943 61bd 75c3 0c40 4cb8 e6be
00000110: 0f0d 97bf 2dc7 87bf 40ca cebc 0158 68bf
00000120: bd24 2ebf eb89 2540 f6ab 73bf 157d d0be
00000130: 0233 b4bf 2dda 5f3f 1b68 94bf 4688 3a3f
00000140: 3a03 4e3f e21e a8bf b1f2 5b3f b2b0 b33d
00000150: 5216 603f 9202 8b3f 9b93 343e f9de 203f
00000160: 6b72 b23e afaa e13f 3fa1 503f 5a88 233f
00000170: decd c1bf 527f 6440 84ab a5bf 1cda 07c0
00000180: 3aef a63f 9ca0 ba3f b69b 0a3d 4436 be3f
00000190: 6296 59bf d2de 3fbf f63c 993e c227 1640
000001a0: bfe8 04bf 4f19 bbbe daa2 c0bf 2e6d 903f
000001b0: cad1 033f 7c56 39bf afcf dd3f 5d06 84bf
000001c0: 3ec2 d9bf 4da0 1a40 ae9f 65bc 0f46 373c
000001d0: a3bf 433e d340 0740 9892 a43f 6eaf 3a40
000001e0: 6d9c 67bf f061 93bf e55d 243e ecfc aebe
000001f0: 5354 c9bf 62c7 703e 1879 81bc c3da 0d3f
00000200: cf75 4740 9433 0440 4e3e 06bf f71f b63d
00000210: 46e7 b6bf c885 373f e481 b6bf db53 05c0
00000220: 8d83 e13f 2650 bebf 04a5 ee3e 1666 a33f
00000230: 42f6 88bf 7482 40bd 2c86 cdbe 0806 0dbf
00000240: 7ff2 0ac0 1e4d 353e 353b 1240 a1f0 11bf
00000250: e464 923e bf7a 2f3f 29c6 a53f 9779 cbbf
00000260: c41c 98bd fccc b6be c4be d8be 0a79 933f
00000270: 6a70 7c3f f3ee b9be 45dd 62bf 69e4 873e
00000280: ebac d9be d748 a8bf 6825 d9bf 529c c63f
00000290: 257f f33d fc4e ccbc fff2 85bf a9da 6e3f
000002a0: ce91 ed3f 0cac e1be 8cfa 9ebf 4ff9 8c3d
000002b0: 771f 893f 1046 b43e fb13 7e3e 6cff 583f
000002c0: 25ec ecbe e122 f7bd 4089 1fbf f175 9cbf
000002d0: 7d37 c33e c522 133f 83e3 8ebf 3680 893f
000002e0: 7ff9 ddba 2621 ccbf 6a64 8e3f 40f8 213f
000002f0: ce8b 60bf fec5 83bf 03c2 90be fa8a 6bbf
00000300: dc91 193e 2725 1a3f 7bfc 75bf 9194 203e
00000310: 2893 97be 2ae8 29bf e348 763f d4e5 f5be
00000320: 8dcf 353d e859 0e3e 9753 3f3f 1a95 25bc
00000330: 767f f3bf bc61 443f 87bd 1fbf caff e13e
00000340: deaf 83bf 9858 eebf 85e4 7a3c 52a1 c13c
00000350: e8fc 813f 8dc6 8e3e 7078 c23d 69d5 b23d
00000360: e928 cf3c 1a43 37bf 45fb 473f e5f1 52bf
00000370: 2db7 ec3f 592f 0ebf 73f6 023f c2c1 4d3f
00000380: 85bc 02bf cbec 7fbf 962f b9bf e079 953f
00000390: 6c15 e1be c13d 023e 981c 6bbf 5f03 96be
000003a0: 634f 0bbf 3639 353e 9ff7 f33e a6ca bcbe
000003b0: 3c8b 2dbf e21f ddbf 72e3 7b3f 47ee 1f3f
000003c0: 6569 863f 00cb 1abe f7ad ebbe c424 023f
000003d0: 6577 07be 0c21 1fc0 0eec 7d3e d7a2 273e
000003e0: 8218 d5be 0116 853f 3489 3bbf 25b5 eb3e
000003f0: dedd 06c0 a4d9 303f 6363 0d40 14c3 50be

embed_cp.weight f4 [620, 11]
0.0 0.0 0.0 0.0 0.0 0.0 0.0 0.0
0.0 0.0 0.0 0.86710006 -0.62894166 -0.83185184 0.40878814 -0.80155504
0.16219197 0.17411095 -0.13691495 -0.16011444 -0.8698516 0.3041138 0.19956979 0.48365113
1.5957359 0.04371071 -0.85625565 -0.33659813 0.3379168 0.4387339 -1.0856407 0.07291433
1.2704301 0.27686512 -1.4186901 -1.6467384 -0.7534779 -0.7022893 0.9252028 0.65287185
0.9320187 0.30992448 -0.17217153 0.4995407 0.46803528 1.3725415 -1.4041564 -0.5663997
0.3022596 -0.84174037 1.2227715 -1.413926 -1.0480742 0.010598086 -0.09939211 0.61068314
2.275621 0.092897885 -1.0207503 0.9339341 2.7261405 -0.62406284 1.7408636 0.8632667
-1.6226082 0.9234793 0.34045285 -0.17263167 -1.887565 -0.13367341 -1.3486553 -0.35797077
-0.21993114 -0.23738794 1.6424687 -0.14631648 0.1343567 -0.6758433 0.25780255 -2.4006703
-0.16674955 -0.40621743 0.16153026 0.35197884 1.4286662 -1.0368996 -1.603286 -1.202786
0.6024263 -0.7988968 -0.72371984 0.6129929 -1.2424958 1.1019086 -0.5847947 0.4382962
-1.7033385 0.9396088 0.15728109 0.027315283 0.2649931 0.0068635265 -0.7640177 1.4291127
2.113215 -1.8207213 -0.27212584 -1.7629411 -0.38334516 1.1507112 1.276285 -0.24603897
0.34168375 -0.19798344 0.98932487 0.3049166 2.0581586 -1.460703 -0.1756425 0.12291664
-1.4440364 1.6347741 -0.61746836 0.22331767 -0.09504253 0.1982232 -0.09700527 0.6539707
1.0167432 1.3586736 0.7326336 -3.5246382 -1.0033109 -0.853265 -1.0915226 -0.18843213
-0.33149725 -1.7603384 1.7731562 -1.4457339 0.54030734 0.6703611 1.4187799 -0.24552424
-0.7559273 -0.28301796 0.58866656 0.7530148 -0.16028178 0.40957385 -0.7404764 0.4025731
-0.516231 -0.020907663 0.7427444 2.3777266 0.7090396 -0.7503253 1.0004169 0.70783436
1.1997294 -0.44426754 1.3780154 0.4174025 -0.055299234 1.7644238 0.68802327 -0.07687154
0.62543315 1.11326 -0.4913353 1.7267811 -0.9689423 0.30097795 0.21963003 -0.29697928
1.0136285 1.3943422 0.9681246 0.14961529 0.4920436 -0.40357447 1.0045754 -1.3934162
0.9574766 0.8555262 -1.07695 0.2538973 0.23201299 -0.6948934 -1.2289377 -0.67194873
1.3960252 1.239152 -0.6736913 0.146347 0.6852264 1.3500297 0.59288776 -0.3745545
0.32089758 -0.07378385 3.5735633 0.09786453 0.28071994 -0.46895888 0.1970383 0.89503247
-0.44576582 -0.12032571 0.029096033 0.83353823 -0.6593682 -0.25744274 0.9865615 -0.6791304
0.86958164 0.99034446 -1.529756 -0.6351862 -0.6278551 1.0703155 -1.8374518 0.61904985
0.40647763 0.87309706 0.3811957 0.12259245 1.3186007 0.25857317 -0.32254082 0.61921686
-0.13288526 -1.3298861 0.65148586 1.7413181 -0.18242788 1.9497389 -1.7861248 -0.6420444
0.24939059 -0.31992403 -0.28326678 -0.33776242 -1.7641538 -0.083980374 1.4386256 0.08620734
0.10704604 -0.35168222 -0.8365148 1.1680446 0.2891222 0.1688034 1.5793455 -0.5623775
00000000: 0000 0000 0000 0000 0000 0000 0000 0000
00000010: 0000 0000 0000 0000 0000 0000 0000 0000
00000020: 0000 0000 0000 0000 0000 0000 45fa 5d3f
00000030: 5202 21bf 3ef4 54bf ae4c d13e b632 4dbf
00000040: a715 263e 244a 323e 6f33 0cbe 0af5 23be
00000050: 98ae 5ebf ceb4 9b3e 065c 4c3e 1fa1 f73e
00000060: 1341 cc3f 000a 333d 9233 5bbf 9756 acbe
00000070: 6e03 ad3e bba1 e03e 46f6 8abf 1c54 953d
00000080: 749d a23f 44c1 8d3e a397 b5bf 53c8 d2bf
00000090: ede3 40bf 3bc9 33bf 17da 6c3f 9c22 273f
000000a0: c798 6e3f 6cae 9e3e bc4d 30be ccc3 ff3e
000000b0: 52a2 ef3e 71af af3f 66bb b3bf 92ff 10bf
000000c0: c5c1 9a3e 4c7c 57bf c783 9c3f 87fb b4bf
000000d0: 4c27 86bf 98a3 2d3c 178e cbbd bb55 1c3f
000000e0: c6a3 1140 3f41 be3d f2a7 82bf 4e16 6f3f
000000f0: 1679 2e40 95c2 1fbf 9ed4 de3f 0cff 5c3f
00000100: a0b1 cfbf 2469 6c3f d64f ae3e 5bc6 30be
00000110: bb9b f1bf afe1 08be bda0 acbf f247 b7be
00000120: a135 61be d315 73be 6a3c d23f fdd3 15be
00000130: ce94 093e 1104 2dbf b2fe 833e 95a4 19c0
00000140: 65c0 2abe bbfb cfbe 3068 253e 9236 b43e
00000150: 89de b63f 20b9 84bf 7a38 cdbf e4f4 99bf
00000160: 9c38 1a3f 8084 4cbf b445 39bf 1aed 1c3f
00000170: 1a0a 9fbf 570b 8d3f 1bb5 15bf 5c68 e03e
00000180: ff06 dabf 348a 703f 4b0e 213e 4dc4 df3c
00000190: 2dad 873e 6fe7 e03b aa96 43bf 2aed b63f
000001a0: ea3e 0740 650d e9bf 1454 8bbe 0ea8 e1bf
000001b0: d145 c4be 814a 933f 4f5d a33f a4f1 7bbe
000001c0: 2cf1 ae3e 2cbc 4abe 6544 7d3f 071e 9c3e
000001d0: dfb8 0340 51f8 babf a1db 33be b8bb fb3d
000001e0: 2fd6 b8bf 4740 d13f 6812 1ebf 63ad 643e
000001f0: a8a5 c2bd 06fb 4a3e b3aa c6bd a06a 273f
00000200: a424 823f 04e9 ad3f e08d 3b3f ac93 61c0
00000210: 7e6c 80bf 936f 5abf 03b7 8bbf 5af4 40be
00000220: 02ba a9be c552 e1bf c8f6 e23f cf0d b9bf
00000230: 9551 0a3f c99c 2b3f 949a b53f b56a 7bbe
00000240: 7484 41bf bbe7 90be dab2 163f 94c5 403f
00000250: e820 24be aab3 d13e dd8f 3dbf 101e ce3e
00000260: b727 04bf 8c46 abbc 7f24 3e3f ac2c 1840
00000270: 9f83 353f 5215 40bf a90d 803f a234 353f
00000280: bc90 993f 0977 e3be cf62 b03f c8b5 d53e
00000290: 7381 62bd a4d8 e13f 4b22 303f d36e 9dbd
000002a0: 631c 203f 4e7f 8e3f 4d90 fbbe 2a07 dd3f
000002b0: 9a0c 78bf c819 9a3e b2e6 603e ab0d 98be
000002c0: 94be 813f ce79 b23f 04d7 773f c034 193e
000002d0: 24ed fb3e 50a1 cebe ed95 803f 765b b2bf
000002e0: 301d 753f c403 5b3f 7fd9 89bf d4fe 813e
000002f0: d094 6d3e 89e4 31bf d54d 9dbf d504 2cbf
00000300: f4b0 b23f 889c 9e3f 0877 2cbf fddb 153e
00000310: ff6a 2f3f c6cd ac3f 7ec7 173f 9cc5 bfbe
00000320: b04c a43e fd1b 97bd 43b5 6440 336d c83d
00000330: 86ba 8f3e 611b f0be 68c4 493e d920 653f
00000340: 6b3b e4be 536d f6bd ce5a ee3c c362 553f
00000350: 5bcc 28bf 89cf 83be 4b8f 7c3f 7ddb 2dbf
00000360: e79c 5e3f 3787 7d3f 0bcf c3bf 909b 22bf
00000370: 1dbb 20bf 1900 893f 9f31 ebbf 0d7a 1e3f
00000380: d61d d03e 4a83 5f3f 152c c33e c011 fb3d
00000390: e8c7 a83f b463 843e 1224 a5be ff84 1e3f
000003a0: 1313 08be b539 aabf c7c7 263f 83e3 de3f
000003b0: 60ce 3abe 0b91 f93f bd9f e4bf 065d 24bf
000003c0: 3f60 7f3e 15cd a3be 5808 91be 32ef acbe
000003d0: cbcf e1bf e7fd abbd e224 b83f 798d b03d
000003e0: f43a db3d b10f b4be d525 56bf 7c82 953f
000003f0: d307 943e ccda 2c3e fe27 ca3f f9f7 0fbf

ode_dp.odeblock.odefunc.fc1.weight f4 [13, 13]
-0.44180477 -0.10032376 0.7514791 -0.45968115 0.049561176 -0.59229636 -0.45398274 -0.093445964
-0.32511595 0.009124032 0.090388685 0.20367526 -0.18776053 0.8854986 -0.41224402 -0.21649584
0.23523389 -0.4188545 -0.5061869 1.1973487 0.79601103 0.11802453 -0.56672263 -0.17731835
0.20962863 0.12686399 -0.16862099 -0.006806314 0.5946559 -0.10188487 0.5903234 0.038043205
-0.05672648 0.33544388 -0.5547361 -0.5135196 0.07032972 -0.18394712 -0.029368164 -0.39294934
-0.23303954 0.3646237 -0.17786913 -0.053638726 -0.05489178 -0.6406858 -0.08593463 -0.623664
-0.021415982 0.11486327 0.278238 -0.4206427 -0.3165323 0.07359805 0.5667517 -0.3894343
0.096301004 -0.461967 -0.26680973 -0.07216523 -0.22777672 -0.67081296 0.33134818 0.46668434
-0.48710698 -0.72319716 -0.114747696 0.80433834 -0.41711047 0.09633743 -0.45981964 -0.34031948
-0.2229195 -0.30158368 -0.4141577 0.1719457 0.18152048 -0.16397549 0.07845578 -0.08728586
0.21102579 0.13726684 0.25315198 -0.15883943 -0.5358427 0.28595555 -0.82167536 -0.06595595
-0.31102374 -0.053108934 0.4590731 0.15867758 -0.3005633 0.0370401 0.49662167 0.042066835
0.23808551 1.1170787 0.20531145 0.24943872 -0.03091175 -0.21971789 0.45091867 0.07687387
-0.9377893 -0.12119456 0.88746184 -0.6113054 -0.13731253 -0.6352794 -0.27397618 -0.21360262
-0.37232205 -0.6839516 0.40668306 0.3692257 -0.5802294 -0.49135566 0.06184526 0.50341076
-0.36131588 0.06159245 -0.52849805 -0.4669067 -0.04608049 -0.49482644 -0.5034407 0.13240829
0.32462898 -0.69557494 -0.21581392 0.02281446 -0.43400925 -0.5285095 -0.08024939 1.1624149
-0.5448618 -0.13611698 0.9199754 0.6632423 -0.3869819 -1.2150669 -0.2904272 -0.42559454
0.016708171 0.8435185 -0.28585878 0.13859513 -0.76709986 -0.5021198 -0.25216338 -0.2935778
0.09858818 -0.0063647204 0.51256543 -0.042467862 -0.26484382 -0.1485205 0.69775945 -0.41254085
0.22951317 -0.36026552 -0.20299534 -0.20378235 -0.3183932 -0.2894537 0.42637917 0.42622283
-0.024587361
00000000: 3c34 e2be 8b76 cdbd ef60 403f 545b ebbe
00000010: a900 4b3d bca0 17bf 6d70 e8be 9960 bfbd
00000020: 9975 a6be f77c 153c b41d b93d 3f90 503e
00000030: 4c44 40be 09b0 623f a611 d3be 16b1 5dbe
00000040: 27e1 703e 1974 d6be 7795 01bf b942 993f
00000050: 61c7 4b3f d8b6 f13d bc14 11bf f192 35be
00000060: e3a8 563e a2e8 013e fbaa 2cbe 8007 dfbb
00000070: 5e3b 183f 04a9 d0bd 6f1f 173f 31d3 1b3d
00000080: 075a 68bd 4dbf ab3e 2f03 0ebf 0576 03bf
00000090: 0709 903d a25c 3cbe 8195 f0bc a830 c9be
000000a0: eba1 6ebe f5af ba3e 5323 36be 48b4 5bbd
000000b0: 34d6 60bd fc03 24bf 7ffe afbd 72a8 1fbf
000000c0: 9270 afbc 6f3d eb3d 3675 8e3e 7b5e d7be
000000d0: 8610 a2be 93ba 963d a416 113f ef63 c7be
000000e0: 7639 c53d f086 ecbe 499b 88be 5dcb 93bd
000000f0: 4d3e 69be 66ba 2bbf 78a6 a93e 40f1 ee3e
00000100: 1666 f9be 7323 39bf d700 ebbd 1ee9 4d3f
00000110: 818f d5be 8f4c c53d 7b6d ebbe 5b3e aebe
00000120: 0245 64be 2d69 9abe 7a0c d4be 8912 303e
00000130: 81e0 393e 31e9 27be 6dad a03d eec2 b2bd
00000140: 2517 583e ae8f 0c3e 239d 813e cea6 22be
00000150: fd2c 09bf c468 923e 5159 52bf ea13 87bd
00000160: 813e 9fbe c188 59bd a10b eb3e 607c 223e
00000170: 6fe3 99be 5cb7 173d 3245 fe3e 464e 2c3d
00000180: b0cc 733e 6ffc 8e3f 2a3d 523e dd6c 7f3e
00000190: a33a fdbc bafd 60be d0de e63e 0c70 9d3d
000001a0: f612 70bf da34 f8bd b330 633f 837e 1cbf
000001b0: a89b 0cbe aca1 22bf 9b46 8cbe a5ba 5abe
000001c0: ffa0 bebe 7417 2fbf c338 d03e 270b bd3e
000001d0: ea89 14bf f892 fbbe 7551 7d3d 87df 003f
000001e0: 65fe b8be 5d48 7c3d a64b 07bf 650e efbe
000001f0: e5be 3cbd e459 fdbe 7de1 00bf 0a96 073e
00000200: c535 a63e 3311 32bf 53fe 5cbe 64e5 ba3c
00000210: 7636 debe 664c 07bf cb59 a4bd 03ca 943f
00000220: 107c 0bbf 4062 0bbe 8283 6b3f 3fca 293f
00000230: 7e22 c6be 5087 9bbf e0b2 94be 87e7 d9be
00000240: 93df 883c d4f0 573f 155c 92be e2eb 0d3e
00000250: a860 44bf ec8a 00bf 8f1b 81be d44f 96be
00000260: 9ae8 c93d 258f d0bb 7d37 033f c8f2 2dbd
00000270: 9c99 87be c215 18be 5da0 323f 8e38 d3be
00000280: 8005 6b3e b974 b8be 03de 4fbe 52ac 50be
00000290: 6f04 a3be 4633 94be 5f4e da3e e139 da3e
000002a0: 6f6b c9bc

ode_dp.odeblock.odefunc.fc1.bias f4 [13]
0.19545954 0.08259918 -0.47708476 0.056979835 0.19486186 0.2749946 -0.17160784 -0.13711488
0.4269371 0.3016682 0.2846497 -0.0650881 -0.13309133
00000000: 8c26 483e c229 a93d 7444 f4be b063 693d
00000010: de89 473e 18cc 8c3e f7b9 2fbe d867 0cbe
00000020: 8097 da3e 4174 9a3e 9bbd 913e e94c 85bd
00000030: 1849 08be

ode_dp.odeblock.odefunc.fc2.weight f4 [13, 13]
0.43370134 -0.37590402 0.13435496 -0.0031621347 0.10575301 -0.015925355 -0.070462465 -0.13827635
0.26419386 0.25694194 -0.49550068 0.10733558 0.39343745 0.19400397 -0.5750246 0.19141987
0.50557274 0.34123373 0.34905848 0.19629924 -0.2617147 0.31881154 0.5107996 -0.51914024
0.54515195 -0.003389657 -0.35158184 -0.2928436 0.0839343 -0.15334693 -0.13582744 -0.21475022
-0.17228667 -0.4000486 -0.052247815 0.3017332 -0.35424513 -0.0058674524 -0.04799323 0.12234409
0.108777046 0.19586754 0.3043377 0.006941362 -0.16135508 0.19269088 -0.0024948642 -0.36256304
-0.24594243 -0.07234817 -0.31943333 -0.03292691 -0.054590736 -0.18105103 0.16531074 0.1702997
0.112267785 0.31620982 -0.12273711 -0.24691686 0.36255187 -0.071415514 -0.43248317 -0.1691769
0.095778264 0.18079442 0.16538693 -0.10482655 0.3096365 -0.19166613 -0.23999819 -0.030501993
0.4466388 -0.20915088 -0.21288176 0.77167803 -0.3062989 -0.096286304 -0.46040797 -0.05023909
-0.08534962 -0.05933351 -0.13707541 -0.40101448 -0.5077276 -0.36178252 -0.12904966 -0.18186723
-0.10085052 -0.38148403 -0.15834111 0.3702111 -0.56057364 -0.032782655 0.011098334 0.046891227
0.26789686 -0.014794831 -0.59669524 0.4189903 0.3610511 -0.45405212 0.30401602 -0.19144681
0.2569855 -0.3615395 -0.013326896 0.059971023 -0.043372337 -0.015062683 0.111734666 -0.5192289
0.35391638 0.2982422 -0.3991214 -0.05894382 0.12937246 -0.10533206 0.21315387 -0.10152292
-0.32731086 -0.23289134 -0.33444875 -0.2223706 0.07008898 0.020297896 0.02277251 -0.44847566
-0.040743355 -0.2700495 0.20383659 -0.6005617 0.44801977 -0.21963418 -0.07879919 0.2983648
0.19085906 -0.35551935 -0.06514198 -0.33561692 -0.18474966 0.19758442 0.11858524 -0.03696855
-0.022788571 -0.04745383 0.076889 -0.3876486 0.08579131 -0.34393722 0.29986703 -0.18464334
0.048048913 0.71282053 -0.3911487 -0.3841895 0.5096682 -0.42344958 0.002269266 0.5526982
0.3225807 0.48319075 -0.08740235 -0.26533905 0.7228657 0.26259983 -0.5455719 0.33287528
0.3723079
00000000: 1a0e de3e 7e76 c0be 5994 093e d13b 4fbb
00000010: 0995 d83d e475 82bc a04e 90bd 5198 0dbe
00000020: 6b44 873e e58d 833e 44b2 fdbe c2d2 db3d
00000030: a270 c93e faa8 463e d034 13bf 9203 443e
00000040: 376d 013f 30b6 ae3e cbb7 b23e ab02 493e
00000050: 78ff 85be 443b a33e c3c3 023f 60e6 04bf
00000060: 148f 0b3f 0225 5ebb 8902 b4be 99ef 95be
00000070: bfe5 ab3d fa06 1dbe 5916 0bbe 7be7 5bbe
00000080: eb6b 30be 2cd3 ccbe ce01 56bd c67c 9a3e
00000090: 9e5f b5be c243 c0bb 8d94 44bd 8a8f fa3d
000000a0: 80c6 de3d 8091 483e 27d2 9b3e 5d74 e33b
000000b0: 443a 25be c250 453e e080 23bb dda1 b9be
000000c0: 55d8 7bbe 472b 94bd c48c a3be 5ede 06bd
000000d0: 899a 5fbd 7165 39be 3847 293e 0b63 2e3e
000000e0: a7ec e53d 41e6 a13e 985d fbbd c6d7 7cbe
000000f0: 66a0 b93e 4c42 92bd 6f6e ddbe b63c 2dbe
00000100: 6527 c43d 2c22 393e 315b 293e 4daf d6bd
00000110: ad88 9e3e 2044 44be 16c2 75be 51df f9bc
00000120: d7ad e43e a62b 56be adfd 59be b18c 453f
00000130: 36d3 9cbe c131 c5bd 98ba ebbe 81c7 4dbd
00000140: c8cb aebd b207 73bd 7f5d 0cbe c551 cdbe
00000150: 70fa 01bf 8f3b b9be 9825 04be 673b 3abe
00000160: b88a cebd e051 c3be 2c24 22be 4f8c bd3e
00000170: c181 0fbf 1b47 06bd c9d5 353c 0411 403d
00000180: c729 893e 0566 72bc 05c1 18bf e685 d63e
00000190: b1db b83e 8579 e8be fda7 9b3e a20a 44be
000001a0: 9a93 833e b51b b9be 0e59 5abc 2da4 753d
000001b0: 31a7 31bd 79c9 76bc 25d5 e43d 2fec 04bf
000001c0: 8734 b53e 34b3 983e a459 ccbe 136f 71bd
000001d0: 377a 043e 56b8 d7bd 0245 5a3e 40eb cfbd
000001e0: 4a95 a7be 117b 6ebe de3c abbe 1eb5 63be
000001f0: d08a 8f3d c647 a63c 6a8d ba3c 9a9e e5be
00000200: 81e2 26bd ee43 8abe 8aba 503e 69be 19bf
00000210: d962 e53e c8e7 60be 7861 a1bd 45c3 983e
00000220: 8f70 433e a206 b6be 2969 85bd fbd5 abbe
00000230: 042f 3dbe 9253 4a3e d1dc f23d 566c 17bd
00000240: 19af babc f25e 42bd fb77 9d3d e179 c6be
00000250: 5bb3 af3d 8a18 b0be 2c88 993e 2513 3dbe
00000260: f0ce 443d 687b 363f a444 c8be 7cb4 c4be
00000270: 9d79 023f 62ce d8be f7b7 143b a17d 0d3f
00000280: 4c29 a53e c764 f73e 0100 b3bd 85da 87be
00000290: ba0d 393f 7c73 863e 9aaa 0bbf a16e aa3e
000002a0: 249f be3e

ode_dp.odeblock.odefunc.fc2.bias f4 [13]
-0.21713668 0.13824587 -0.13053864 -0.17476918 -0.25544128 0.56645447 -0.43323597 0.06160056
-0.2888936 -0.24702682 -0.24845263 0.36760613 0.2439774
00000000: 1459 5ebe 5390 0d3e ecab 05be b1f6 32be
00000010: 33c9 82be 2903 113f 1bd1 ddbe de50 7c3d
00000020: dde9 93be 99f4 7cbe 5e6a 7ebe df36 bc3e
00000030: 36d5 793e

ode_dp.odeblock.odefunc.fc3.weight f4 [13, 13]
-0.38096827 -0.4395873 -0.0670845 0.15154943 0.11634133 0.34646848 0.38125446 0.0045408807
-0.3312528 0.2281538 -0.0538459 0.63623244 -0.25059193 0.20300439 0.24297918 -0.027133945
-0.36379555 0.22470234 -0.24979536 -0.22609948 -0.23091291 -0.19905436 -0.17997925 0.22422282
-0.52365357 0.12588125 -0.3476367 -0.37991878 0.2249983 0.02858773 -0.3201706 0.33689958
0.068657205 -0.36631745 0.11500748 0.26066 -0.22885811 0.3323749 -0.21940511 -0.07414617
-0.2368789 -0.24906988 -0.05822837 0.00072742393 0.15278211 0.17355128 -0.35131004 -0.160842
0.09739037 -0.1661725 0.3151491 -0.25820202 -0.086903855 0.15810679 -0.077111416 0.049174003
0.0480218 -0.18003689 -0.07748329 0.4357496 0.35252383 -0.24789979 -0.23742498 -0.44057176
0.28883773 0.14834279 0.27374464 0.40221378 0.016196858 0.03738775 -0.07403571 -0.03027167
0.14956547 0.35595688 -0.0750499 -0.036191877 -0.08534548 0.3543035 -0.096438706 -0.12641348
-0.2852109 0.3868493 -0.14368108 0.18139337 0.09959571 -0.058626905 0.07188341 0.12721583
0.038329594 0.38362247 -0.29647818 0.04048106 -0.16804335 -0.16966029 -0.36413503 -0.33161664
-0.48626453 -0.06783967 -0.38789052 -0.10123062 -0.01298358 -0.38764173 -0.20706397 0.07375121
-0.103545606 0.20359041 0.18461551 0.45466834 0.088386446 0.2765914 0.0077054864 -0.12344705
-0.065797485 0.22573282 0.3136384 -0.28438163 0.2304174 0.15426134 0.19128527 -0.0010392196
-0.1000039 0.36032885 -0.66149694 -0.004452274 -0.053728763 0.075954586 0.31033152 -0.16153072
-0.31916702 0.41614392 0.27919087 0.14292341 0.16295895 -0.15424356 0.16750327 0.11409833
-0.23252082 0.09336534 -0.04079592 0.17478582 0.08050383 0.24040447 0.4069337 -0.27337694
-0.21470602 0.109924436 0.033931505 0.0035278178 0.3382079 0.10694565 -0.25517222 0.024210028
-0.2419997 0.20103154 0.4795515 -0.42019394 0.06323767 0.0018986178 0.27103898 0.28096634
-0.15374152 0.5158661 0.37997007 -0.25863585 -0.30657318 0.40304628 -0.19049294 0.55118567
-0.40077093
00000000: 460e c3be 9611 e1be 9963 89bd c62f 1b3e
00000010: 5d44 ee3d 5164 b13e c933 c33e abcb 943b
00000020: f899 a9be 26a1 693e 858d 5cbd 21e0 223f
00000030: 964d 80be 62e0 4f3e 89cf 783e 0248 debc
00000040: 6943 babe 5f18 663e 5bca 7fbe 9f86 67be
00000050: 6f74 6cbe e8d4 4bbe 7b4c 38be ab9a 653e
00000060: 290e 06bf 04e7 003e 70fd b1be b784 c2be
00000070: f465 663e d130 ea3c 67ed a3be 1a7e ac3e
00000080: 269c 8c3d f68d bbbe 0b89 eb3d 3a75 853e
00000090: c859 6abe 0b2d aa3e bcab 60be f2d9 97bd
000000a0: 6290 72be 2d0c 7fbe df80 6ebd 98b0 3e3a
000000b0: ea72 1c3e 6db7 313e e9de b3be c4b3 24be
000000c0: 9a74 c73d 2029 2abe 395b a13e 0e33 84be
000000d0: a6fa b1bd bfe6 213e 97ec 9dbd ae6a 493d
000000e0: 82b2 443d 975b 38be 8faf 9ebd 921a df3e
000000f0: 017e b43e 71d9 7dbe 891f 73be 9f92 e1be
00000100: 8ae2 933e 2ce7 173e 4228 8c3e f7ee cd3e
00000110: 46af 843c e623 193d 09a0 97bd 4bfc f7bc
00000120: b127 193e fb3f b63e c3b3 99bd ef3d 14bd
00000130: 9cc9 aebd 4567 b53e a881 c5bd 8972 01be
00000140: 2a07 92be 1d11 c63e 2221 13be 2fbf 393e
00000150: d6f8 cb3d c422 70bd 9c37 933d de44 023e
00000160: 7eff 1c3d 2a6a c43e fdcb 97be 78cf 253d
00000170: 8e13 2cbe 6dbb 2dbe e86f babe a8c9 a9be
00000180: aaf7 f8be 86ef 8abd 9699 c6be 0052 cfbd
00000190: 15b9 54bc fa78 c6be 9408 54be e00a 973d
000001a0: b80f d4bd 017a 503e d90b 3d3e 4aca e83e
000001b0: f403 b53d 639d 8d3e 4e7e fc3b cfd1 fcbd
000001c0: d5c0 86bd 8126 673e 3695 a03e 789a 91be
000001d0: 8af2 6b3e aff6 1d3e 49e0 433e 6c36 88ba
000001e0: d8ce ccbd 067d b83e dd57 29bf 62e4 91bb
000001f0: b112 5cbd 148e 9b3d c6e3 9e3e 4f68 25be
00000200: dc69 a3be d110 d53e 1bf2 8e3e 845a 123e
00000210: b6de 263e 06f2 1dbe fa85 2b3e 63ac e93d
00000220: f019 6ebe 5436 bf3d 9f19 27bd 0efb 323e
00000230: 31df a43d 972c 763e 9d59 d03e 10f8 8bbe
00000240: e5db 5bbe 1020 e13d c3fb 0a3d f632 673b
00000250: 9629 ad3e 5206 db3d efa5 82be 1c54 c63c
00000260: c5ce 77be 36db 4d3e c687 f53e a923 d7be
00000270: c082 813d 0bdb f83a 9fc5 8a3e d2da 8f3e
00000280: 6b6e 1dbe cd0f 043f 708b c23e eb6b 84be
00000290: 29f7 9cbe 155c ce3e 9510 43be 811a 0d3f
000002a0: d931 cdbe

ode_dp.odeblock.odefunc.fc3.bias f4 [13]
-0.009746648 0.0031889738 0.24767406 -0.25072038 -0.21509577 -0.052917752 -0.07805434 -0.31265387
0.28706467 0.07160399 0.3033214 0.13876846 -0.067847304
00000000: 68b0 1fbc 1afe 503b 459e 7d3e 6c5e 80be
00000010: 1142 5cbe 49c0 58bd f4da 9fbd 2b14 a0be
00000020: 24fa 923e 1da5 923d f14c 9b3e 5219 0e3e
00000030: 87f3 8abd

ode_cp.odeblock.odefunc.fc1.weight f4 [11, 11]
0.21313624 0.080203444 -0.30559337 0.78831226 -0.5388299 -0.55096024 0.44487685 -0.5354452
-0.2568335 -0.3589696 -0.1555365 -0.3430607 0.51626825 -0.17267099 0.24653462 -0.33029792
-0.2935875 0.42481118 -0.5957697 -0.15627189 -1.1975341 -0.22030534 -0.26393047 0.4779279
-1.1251732 0.75743294 -0.019649446 -0.6792964 0.29245144 -0.5030166 -0.51829636 -0.8797594
-0.37379792 0.014886807 0.72101825 -0.26582685 0.76314056 -0.0104419375 -0.4681023 0.56602234
-0.7423861 -0.61655253 -1.1082454 -0.043323025 0.2884927 0.18399933 -0.5596235 0.9020014
-0.93404764 -0.43883333 0.2472886 -0.17462951 -0.70041907 -0.027831929 -0.07117194 0.7141333
0.68489474 0.16283526 -0.9697187 -0.077382006 0.8905244 0.5245719 0.034023527 0.8205184
1.2764628 -0.19249697 -0.10354577 0.2198679 -0.6841621 0.3771956 -0.27645445 -0.063110545
0.3622361 -0.7164113 -0.6320717 -0.8414195 -0.4729479 -0.09766452 0.54939854 -0.65261286
0.6401122 -0.29630324 -0.42837653 0.35714588 -0.44171593 -0.46318474 -0.8667099 -0.22217704
-0.35238925 0.43492693 -0.75444967 0.6178291 -0.2867002 -0.3884864 0.6053353 -0.5404314
-0.23166808 -0.79250544 -0.12598911 0.026707796 0.55739874 -0.33772123 0.5763053 -0.4881832
-0.66516376 0.61356664 -0.6595477 -0.27174726 -1.0890065 0.07248624 0.2595243 0.6960098
-0.13984588 -0.09293604 -0.2290233 -0.10106404 0.102745235 -0.09722327 0.34466976 0.13111527
-0.058793593
00000000: 6340 5a3e b441 a43d bc76 9cbe d5ce 493f
00000010: c2f0 09bf bb0b 0dbf e6c6 e33e f012 09bf
00000020: ae7f 83be ddca b7be f644 1fbe a7a5 afbe
00000030: 282a 043f aad0 30be 9273 7c3e cf1c a9be
00000040: 1a51 96be da80 d93e 5d84 18bf bd05 20be
00000050: cc48 99bf b997 61be e521 87be f7b2 f43e
00000060: ad05 90bf 20e7 413f e0f7 a0bc 5ee6 2dbf
00000070: 32bc 953e b2c5 00bf 12af 04bf e937 61bf
00000080: 7162 bfbe cbe7 733c a794 383f 751a 88be
00000090: 2e5d 433f a914 2bbc 1bab efbe d7e6 103f
000000a0: 040d 3ebf 63d6 1dbf fcda 8dbf 7c73 31bd
000000b0: 51b5 933e 526a 3c3e 7c43 0fbf 90e9 663f
000000c0: bf1d 6fbf c3ae e0be 3939 7d3e 14d2 32be
000000d0: aa4e 33bf c9ff e3bc 98c2 91bd 71d1 363f
000000e0: 4355 2f3f 49be 263e 7c3f 78bf 757a 9ebd
000000f0: 68f9 633f 584a 063f 415c 0b3d 7e0d 523f
00000100: 2263 a33f ed1d 45be ce0f d4bd 0d25 613e
00000110: 3f25 2fbf c81f c13e 708b 8dbe 1a40 81bd
00000120: 0377 b93e bb66 37bf 73cf 21bf 4567 57bf
00000130: 3a26 f2be 5604 c8bd 62a5 0c3f a311 27bf
00000140: 65de 233f 0fb5 97be 2b54 dbbe d3db b63e
00000150: 9728 e2be 8d26 edbe b3e0 5dbf 6182 63be
00000160: 5d6c b4be beae de3e 9d23 41bf 0c2a 1e3f
00000170: 5eca 92be b0e7 c6be 41f7 1a3f b659 0abf
00000180: 663a 6dbe a3e1 4abf 4a03 01be 4fca da3c
00000190: afb1 0e3f cce9 acbe bf88 133f 26f3 f9be
000001a0: 2c48 2abf b412 1d3f 1ed8 28bf 7522 8bbe
000001b0: 9164 8bbf aa73 943d 5ee0 843e b32d 323f
000001c0: c233 0fbe 4055 bebd 1585 6abe aafa cebd
000001d0: 186c d23d fe1c c7bd 8e78 b03e 1543 063e
000001e0: 8dd1 70bd

ode_cp.odeblock.odefunc.fc1.bias f4 [11]
-0.042873513 0.2004391 0.16728713 0.41644105 0.34865305 0.285947 0.32237616 0.3544064
0.10526708 0.4085697 -0.08030688
00000000: 239c 2fbd e83f 4d3e 514d 2b3e c337 d53e
00000010: a782 b23e a567 923e 7d0e a53e c174 b53e
00000020: 4496 d73d 0c30 d13e ef77 a4bd

ode_cp.odeblock.odefunc.fc2.weight f4 [11, 11]
0.3223273 0.24894133 0.45643774 0.44642934 0.33966014 -0.36943102 0.087388985 0.50772804
0.40873834 0.34869966 -0.00093932304 0.2070343 -0.32020167 -0.21546297 -0.38157523 -0.14230807
0.66345674 0.09160657 -0.25378832 0.13244657 -0.29834634 0.47496647 0.33368233 0.25079292
0.7767544 0.61238116 0.31207296 -0.5911721 0.44550455 0.7277665 0.24001697 0.41834447
-0.12766677 0.28680658 -0.21399713 0.5343796 0.07290167 0.35803843 -0.630151 -0.03857983
0.105116 0.3571951 0.11191434 0.21248971 -0.14662376 0.20375344 -0.4384201 -0.25639504
0.042190306 0.1195792 -0.1827774 -0.29281557 0.042685352 0.009512254 0.036631953 0.04708706
0.17680332 -0.22539501 -0.18711056 -0.13017216 0.53324914 -0.36162162 -0.19001444 -0.15776592
-0.08404761 0.19534028 0.4644836 0.76859874 0.52955055 0.57631695 0.1040865 -0.68691826
0.7826756 0.32320765 0.69865227 0.5966943 -0.2511359 -0.16856234 -0.0643793 -0.10178142
-0.15517874 0.101685695 -0.34797958 0.06924535 0.36946726 -0.122351676 0.076980956 -0.020796953
0.10382785 0.5177822 0.2574513 0.59022385 -0.29292458 -0.53387696 0.585099 0.55578506
0.20186606 0.3139437 0.19229525 -0.09180464 0.34331918 0.17456518 0.431224 -0.25659695
-0.51118004 0.31452757 0.5428177 0.6765239 0.40288246 0.14524037 -0.31321403 0.123381615
0.013587012 -0.26000372 -0.23345956 0.17252116 -0.40587822 -0.003145503 -0.31604093 -0.31596264
-0.16917229
00000000: 1508 a53e 7aea 7e3e 35b2 e93e 6392 e43e
00000010: efe7 ad3e 1026 bdbe fff8 b23d 77fa 013f
00000020: 2746 d13e c388 b23e e73c 76ba cd00 543e
00000030: 79f1 a3be 53a2 5cbe d45d c3be 35b9 11be
00000040: 4dd8 293f 3a9c bb3d 8bf0 81be 13a0 073e
00000050: dac0 98be ce2e f33e 69d8 aa3e ee67 803e
00000060: 60d9 463f 03c5 1c3f 07c8 9f3e 0e57 17bf
00000070: 2c19 e43e e84e 3a3f 02c7 753e 3f31 d63e
00000080: 14bb 02be 50d8 923e 1022 5bbe 1acd 083f
00000090: 794d 953d d050 b73e 9351 21bf e205 1ebd
000000a0: 0f47 d73d 47e2 b63e 5833 e53d e796 593e
000000b0: 8a24 16be bea4 503e 9978 e0be 3646 83be
000000c0: becf 2c3d f1e5 f43d 002a 3bbe eceb 95be
000000d0: d6d6 2e3d 49d9 1b3c 630b 163d 5cde 403d
000000e0: ee0b 353e f3cd 66be e999 3fbe da4b 05be
000000f0: 0483 083f 7826 b9be 2593 42be 648d 21be
00000100: 2721 acbd 4807 483e cbd0 ed3e e3c2 443f
00000110: a090 073f 8289 133f 4e2b d53d e0d9 2fbf
00000120: 6e5d 483f 797b a53e e0da 323f f5c0 183f
00000130: e294 80be 9b9b 2cbe 4bd9 83bd c772 d0bd
00000140: 2de7 1ebe 9740 d03d 612a b2be 82d0 8d3d
00000150: d02a bd3e 8493 fabd 31a8 9d3d 5f5e aabc
00000160: b2a3 d43d 608d 043f a8d0 833e e918 173f
00000170: 36fa 95be 29ac 08bf 0cc9 153f ee47 0e3f
00000180: fab5 4e3e 3bbd a03e 0ce9 443e 1204 bcbd
00000190: 88c7 af3e 37c1 323e 64c9 dc3e ad60 83be
000001a0: b2dc 02bf c209 a13e 1af6 0a3f ac30 2d3f
000001b0: 9c46 ce3e e4b9 143e 975d a0be 80af fc3d
000001c0: 0f9c 5e3c 351f 85be 0610 6fbe 63a9 303e
000001d0: 45cf cfbe c924 4ebb 1ed0 a1be dbc5 a1be
000001e0: 803b 2dbe

ode_cp.odeblock.odefunc.fc2.bias f4 [11]
-0.21604519 0.0907217 0.06203248 -0.0033228477 0.17583844 -0.0836258 0.17265107 0.009748572
-0.19882376 -0.09156066 0.17205721
00000000: f33a 5dbe 4ccc b93d c515 7e3d 22c4 59bb
00000010: fe0e 343e 0144 abbd 71cb 303e 79b8 1f3c
00000020: 7598 4bbe 2884 bbbd c42f 303e

ode_cp.odeblock.odefunc.fc3.weight f4 [11, 11]
-0.22006358 0.3360452 -0.39246538 -0.33035532 0.29498494 0.3256866 -0.09595858 -0.020163363
-0.0035528669 0.0935481 0.54605335 -0.64431894 0.61865157 -0.6614369 -0.29054317 0.22389057
0.37265587 -0.59340954 -0.14536348 -0.61530113 -0.83296514 0.25673348 0.030557754 -0.2918697
0.37089577 -0.013325543 -0.5564524 0.2000193 -0.019373173 0.008290344 -0.0023799308 0.06053356
-0.30044913 -0.0722536 -0.16373688 0.04913171 0.3003066 0.33937973 -0.065787815 0.23445638
0.117660984 -0.028103597 -0.049505785 -0.04047057 0.0926547 0.14828572 -0.13989598 -0.38062587
0.20033929 0.18222956 0.11947096 -0.2150204 0.2673834 -0.124392815 0.10443927 -0.16922303
-0.009432871 -0.10541639 -0.12343775 0.2893889 0.19001633 0.19951761 0.1023216 0.30711988
-0.12686597 -0.119120985 -0.51522744 0.48118597 -0.36409596 -0.25759977 0.3564083 0.492104
-0.48660165 0.058813486 -0.08383739 -0.46352506 0.53144574 0.3601451 -0.5457257 0.33084354
0.4388256 -0.36330745 -0.46136224 0.569573 0.08276971 0.1688189 0.3053423 -0.1395948
-0.07822975 -0.026666911 -0.17520536 -0.33512163 -0.30204615 0.11415593 0.012106318 -0.31814578
-0.41621396 -0.0027120477 0.2585287 -0.18142582 0.048504766 0.12888086 0.0102260085 0.05732352
-0.09913011 0.070675805 0.39528316 -0.10433896 0.39657685 0.06774846 0.6813941 -0.28955072
0.8096269 0.34233057 0.052051086 -0.38428995 0.80380046 0.23729016 0.74572605 0.46096125
-0.058481544
00000000: 5958 61be 1e0e ac3e 39f1 c8be 5524 a9be
00000010: 4408 973e 65c0 a63e ef85 c4bd a32d a5bc
00000020: 37d7 68bb 2596 bf3d 27ca 0b3f 16f2 24bf
00000030: f35f 1e3f ee53 29bf 13c2 94be 9243 653e
00000040: c0cc be3e b0e9 17bf 2ada 14be 6084 1dbf
00000050: 343d 55bf 9272 833e 4154 fa3c f26f 95be
00000060: 0de6 bd3e 6153 5abc aa73 0ebf dcd1 4c3e
00000070: 7db4 9ebc 39d4 073c 9df8 1bbb 0af2 773d
00000080: 78d4 99be b2f9 93bd a4aa 27be 553e 493d
00000090: c9c1 993e 2ec3 ad3e c3bb 86bd 5515 703e
000000a0: 3ef8 f03d 8439 e6bc 94c6 4abd 78c4 25bd
000000b0: bfc1 bd3d 36d8 173e e440 0fbe 65e1 c2be
000000c0: be25 4d3e 639a 3a3e 31ad f43d 4f2e 5cbe
000000d0: 7ae6 883e a9c1 febd 42e4 d53d cd48 2dbe
000000e0: 548c 1abc 8ce4 d7bd eecc fcbd c82a 943e
000000f0: a493 423e 584e 4c3e fd8d d13d d13e 9d3e
00000100: 27e9 01be b4f5 f3bd f2e5 03bf 025e f63e
00000110: c96a babe 1ee4 83be 267b b63e 0ef5 fb3e
00000120: da23 f9be 69e6 703d f0b2 abbd 2853 edbe
00000130: d40c 083f f064 b83e aeb4 0bbf 5364 a93e
00000140: c0ad e03e 6f03 babe ac37 ecbe 89cf 113f
00000150: 2a83 a93d ddde 2c3e d355 9c3e f0f1 0ebe
00000160: eb36 a0bd 9174 dabc 0969 33be 1095 abbe
00000170: cba5 9abe 96ca e93d 9459 463c 01e4 a2be
00000180: ff19 d5be 9cbc 31bb e05d 843e b1c7 39be
00000190: efac 463d 58f9 033e fd8a 273c 11cc 6a3d
000001a0: ba04 cbbd 7abe 903d 8e62 ca3e aaaf d5bd
000001b0: 1f0c cb3e b4bf 8a3d d86f 2e3f fe3f 94be
000001c0: b543 4f3f f445 af3e 8533 553d a7c1 c4be
000001d0: dec5 4d3f 31fc 723e e7e7 3e3f 1d03 ec3e
000001e0: 588a 6fbd

ode_cp.odeblock.odefunc.fc3.bias f4 [11]
-0.20297737 -0.09792349 0.0023991915 0.40522206 0.11477739 -0.023223836 0.13663499 -0.3968042
0.032841545 -0.11763531 -0.13121235
00000000: 4dd9 4fbe 1c8c c8bd c13b 1d3b 4479 cf3e
00000010: 6910 eb3d ea3f bebc 0bea 0b3e ec29 cbbe
00000020: db84 063d c8ea f0bd 885c 06be

attention_dp.context f4 [13]
-1.1476599 -0.34310627 0.4554093 -1.2269062 -1.1102767 0.6196618 0.32415915 -0.328659
0.060676683 0.54206896 -0.11185763 0.7961432 0.40087608
00000000: 85e6 92bf a0ab afbe 682b e93e 430b 9dbf
00000010: 8c1d 8ebf 28a2 1e3f 30f8 a53e fe45 a8be
00000020: 1d88 783d 08c5 0a3f 9d15 e5bd 0ad0 4b3f
00000030: a13f cd3e

attention_dp.linear_hidden.weight f4 [13, 13]
-0.23427816 -0.025002679 -0.17012966 -0.10152495 0.08424337 0.16412531 -0.13610859 -0.16994274
-0.15171285 -0.22770855 -0.25093165 -0.07454048 -0.02844417 0.3830136 -0.18745725 0.39896017
0.31298596 -0.8430728 -0.16153084 0.31498307 0.11278271 -0.054849043 -0.35124362 -0.12161212
0.57239765 0.31926292 0.030146897 0.12914039 0.12397346 -0.29991484 -0.141357 0.10350446
-0.04925843 0.09929884 0.18981104 0.43515328 -0.13195647 0.053698484 0.14345613 -0.042267617
-0.13250567 -0.15059042 -0.14822336 0.28475654 -0.37307253 0.11045811 0.20568012 -0.42441037
0.1491786 -0.20114447 0.07946567 -0.022087814 0.29987994 -0.2915147 0.1713223 0.2989619
0.11040797 -0.056940034 0.2234679 0.34741795 0.011655145 0.04554252 -0.127781 -0.024095828
0.059786167 0.01499271 -0.017788226 -0.01283592 -0.06582284 0.6180946 0.17419831 -0.24653876
-0.23933083 -0.13823916 0.104278594 0.11128619 0.22260348 0.08662565 -0.39631376 0.021802649
-0.5786138 0.29220304 0.1810966 -0.1254316 -0.030552717 0.20947973 -0.3680367 0.0957011
-0.27341342 -0.22607128 -0.27434102 -0.17700301 0.5004359 -0.008533474 -0.25283659 -0.25100297
-0.049189102 -0.13945422 -0.29178703 -0.14512752 -0.1683293 0.25290298 0.04141266 0.047458686
-0.081456035 -0.2595179 0.021927718 0.057039417 -0.051307894 -0.050136566 -0.004117525 -0.8528774
0.25432566 -0.24846879 0.07777 0.111114755 0.046011955 0.09970159 -0.1012063 -0.06610264
-0.0358574 -0.009122629 0.019357197 0.28441373 0.16331398 -0.063837364 -0.16578592 -0.45226568
-0.4312431 0.09163984 0.053500827 -0.051415846 0.025917117 0.05011504 0.100819334 0.043590017
-0.034355227 0.99975985 -0.06716412 0.18426539 0.33877394 -0.07485383 -0.038801108 -0.43826172
0.11895465 -0.6645621 -0.40469632 0.5457507 0.056095302 -0.3365699 -0.012989458 -0.2637775
0.14143026 0.10717515 -0.4386629 -0.580367 0.021648629 -0.63687855 -0.02862099 -0.06424322
-0.12600899 0.109269015 0.22530061 0.10242794 -0.05210797 -0.19123276 -0.04512004 0.060102873
-0.20352168
00000000: 9de6 6fbe 6bd2 ccbc 7836 2ebe 50ec cfbd
00000010: ca87 ac3d 7710 283e 0d60 0bbe 7805 2ebe
00000020: 9d5a 1bbe 6e2c 69be 1d7a 80be aea8 98bd
00000030: bf03 e9bc 5c1a c43e cbf4 3fbe 8244 cc3e
00000040: b23f a03e 9ed3 57bf 5768 25be 7645 a13e
00000050: 9ffa e63d 64a9 60bd 34d6 b3be c60f f9bd
00000060: a788 123f 6e76 a33e a0f6 f63c 613d 043e
00000070: cce5 fd3d 708e 99be e4bf 10be 25fa d33d
00000080: 35c3 49bd 315d cb3d d35d 423e 69cc de3e
00000090: 991f 07be f1f2 5b3d 2ae6 123e cf20 2dbd
000000a0: 91af 07be 6034 1abe ddc7 17be 9ccb 913e
000000b0: 5d03 bfbe dd37 e23d cf9d 523e 514c d9be
000000c0: 46c2 183e d1f8 4dbe e6be a23d 81f1 b4bc
000000d0: dd89 993e 6a41 95be 1d6f 2f3e 8911 993e
000000e0: 931d e23d f439 69bd c5d4 643e c4e0 b13e
000000f0: 39f5 3e3c cb8a 3a3d 06d9 02be 9d64 c5bc
00000100: 57e2 743d fca3 753c 9db8 91bc c04d 52bc
00000110: 20ce 86bd 733b 1e3f 0b61 323e a874 7cbe
00000120: 2413 75be 918e 0dbe 0490 d53d 04ea e33d
00000130: 2bf2 633e ca68 b13d a3e9 cabe 789b b23c
00000140: 0920 14bf a39b 953e 6371 393e 2471 00be
00000150: b149 fabc db81 563e 4e6f bcbe f0fe c33d
00000160: d8fc 8bbe 3b7f 67be 6d76 8cbe 4740 35be
00000170: 911c 003f fccf 0bbc cc73 81be 7683 80be
00000180: 837a 49bd 16cd 0ebe 1c65 95be 4f9c 14be
00000190: 845e 2cbe 807c 813e 52a0 293d 0a64 423d
000001a0: 6cd2 a6bd 88df 84be c2a1 b33c 2aa2 693d
000001b0: 3a28 52bd 005c 4dbd 4eec 86bb 2c56 5abf
000001c0: f936 823e 9a6e 7ebe e145 9f3d 2290 e33d
000001d0: 0877 3c3d 5930 cc3d 4045 cfbd d260 87bd
000001e0: 36df 12bd 1477 15bc fc92 9e3c ad9e 913e
000001f0: c83b 273e 2abd 82bd c9c3 29be 5e8f e7be
00000200: e5cb dcbe abad bb3d af23 5b3d 6c99 52bd
00000210: 2250 d43c 6e45 4d3d 5e7a ce3d 728b 323d
00000220: 11b8 0cbd 43f0 7f3f 588d 89bd 11b0 3c3e
00000230: c773 ad3e f74c 99bd e9ed 1ebd d763 e0be
00000240: 7f9e f33d be20 2abf 5b34 cfbe 51b6 0b3f
00000250: 30c4 653d e452 acbe bcd1 54bc d80d 87be
00000260: 18d3 103e a57e db3d 6c98 e0be ef92 14bf
00000270: 7758 b13c 790a 23bf 9176 eabc f391 83bd
00000280: 8008 01be 6fc8 df3d 34b5 663e bdc5 d13d
00000290: 2b6f 55bd 85d2 43be cbcf 38bd 6e2e 763d
000002a0: fd67 50be

attention_dp.linear_hidden.bias f4 [13]
-0.54116577 0.6161869 0.6936331 -0.44925395 0.15652846 0.035813857 -0.5709353 -0.09565436
0.44908828 -0.107316695 -0.67293495 -0.822874 -0.47556943
00000000: d789 0abf 6dbe 1d3f f091 313f 9d04 e6be
00000010: ff48 203e 8db1 123d d128 12bf 6fe6 c3bd
00000020: e6ee e53e dbc8 dbbd 7745 2cbf dfa7 52bf
00000030: d67d f3be

attention_cp.context f4 [11]
0.073030725 -1.6911471 -0.31115437 -0.20377205 -1.2643621 -0.0967465 -0.55237603 -0.042384233
-0.8024718 1.078542 -0.54395425
00000000: 2291 953d 8277 d8bf a04f 9fbe 9fa9 50be
00000010: 9ed6 a1bf 0723 c6bd 8468 0dbf 179b 2dbd
00000020: cb6e 4dbf aa0d 8a3f 9640 0bbf

attention_cp.linear_hidden.weight f4 [11, 11]
-0.24133047 -0.058632728 0.08873317 0.030268729 0.34413072 0.006429125 -0.19137038 -0.036707565
0.14603676 0.49972656 -0.0412544 0.12054544 0.33694035 -0.104768224 -0.31086925 -0.09078161
0.17213869 -0.127744 0.09500647 0.123297594 -0.0512876 0.1275392 -0.072510324 -0.39796257
-0.056839377 -0.13889064 0.14163265 0.13902718 0.28842387 0.19429591 -0.022817265 0.1489914
-0.1186584 -0.13063762 -0.10138932 0.39168566 0.31697807 0.08937495 -1.0347226 0.2479618
-0.09864437 0.07863775 -0.13251959 -0.09959926 0.35264838 -0.31258363 -0.3146719 -0.04895291
0.011606421 0.002783161 0.38480905 -0.2196033 0.24105005 -0.03314351 0.017195888 0.06451569
-0.43871227 0.25685668 -0.15396616 0.12418358 -0.2859946 0.35700747 0.011593165 -0.28115368
-0.061204594 -0.10071097 -0.017268483 -0.18377846 -0.0014417375 0.36585757 -0.3195026 -0.20257272
0.008570163 -0.052570432 -0.61349416 0.08830628 0.41197893 -0.07124582 0.27132967 0.4374572
0.15552053 -0.12828022 -0.035416067 -0.062957555 -0.41629907 -0.062282775 0.11115918 0.41524187
-0.2949769 -0.27266294 0.10524084 0.12913202 0.097718626 -0.16580687 0.14374468 -0.19539434
-0.31906715 0.18305255 0.21309522 0.06960012 0.12677905 0.1940016 -0.24770252 -0.22128294
-0.3673683 0.35538155 -0.17755237 -0.05785757 0.094224945 -0.0041225445 -0.18932135 0.12548956
0.4762264 -0.28195402 0.22791918 -0.32341012 0.018538352 -0.020446476 -0.11713608 0.14020722
-0.07719942
00000000: 561f 77be df28 70bd bcb9 b53d 20f6 f73c
00000010: e731 b03e 69ab d23b 99f6 43be ac5a 16bd
00000020: a98a 153e 29dc ff3e 60fa 28bd 87e0 f63d
00000030: 7283 ac3e b990 d6bd 412a 9fbe b5eb b9bd
00000040: 2045 303e 53cf 02be c192 c23d 7383 fc3d
00000050: f212 52bd a399 023e 4b80 94bd c0c1 cbbe
00000060: 68d0 68bd 5939 0ebe 2608 113e 245d 0e3e
00000070: 4bac 933e 82f5 463e 46eb babc 3491 183e
00000080: 2d03 f3bd dec5 05be 34a5 cfbd 068b c83e
00000090: f34a a23e 370a b73d ca71 84bf b3e9 7d3e
000000a0: 0f06 cabd d40c a13d 37b3 07be b2fa cbbd
000000b0: 548e b43e f60a a0be ad1c a1be d982 48bd
000000c0: dc28 3e3c b165 363b b105 c53e b0df 60be
000000d0: d3d5 763e 7dc1 07bd 64de 8c3c cd20 843d
000000e0: e59e e0be b882 833e 4ea9 1dbe f653 fe3d
000000f0: e26d 92be afc9 b63e 42f1 3d3c 60f3 8fbe
00000100: abb1 7abd 8e41 cebd a276 8dbc 6c30 3cbe
00000110: aff8 bcba af51 bb3e d895 a3be 396f 4fbe
00000120: de69 0c3c 1854 57bd f40d 1dbf ecd9 b43d
00000130: e7ee d23e 54e9 91bd b9eb 8a3e 64fa df3e
00000140: c640 1f3e e45b 03be 7010 11bd e4ef 80bd
00000150: 2725 d5be 391c 7fbd 6da7 e33d 959a d43e
00000160: 3607 97be 7a9a 8bbe 8288 d73d 2f3b 043e
00000170: b420 c83d 47c9 29be ce31 133e 7415 48be
00000180: c55c a3be 2172 3b3e a235 5a3e 828a 8e3d
00000190: 5ed2 013e 5ba8 463e bba5 7dbe ff97 62be
000001a0: b317 bcbe 92f4 b53e 4ad0 35be 0ffc 6cbd
000001b0: 02f9 c03d 6916 87bb 75dd 41be 5680 003e
000001c0: f2d3 f33e 475c 90be a563 693e 0396 a5be
000001d0: bedd 973c 5e7f a7bc 0be5 efbd 7b92 0f3e
000001e0: bb1a 9ebd

attention_cp.linear_hidden.bias f4 [11]
-0.3455015 0.04421986 -0.3389046 0.49340868 -0.03131358 0.024087025 -0.07642434 0.20523089
-0.025241354 0.13662983 0.70413536
00000000: 93e5 b0be e21f 353d e784 adbe 10a0 fc3e
00000010: ab42 00bd 2752 c53c 5d84 9cbd 0c28 523e
00000020: f5c6 cebc b1e8 0b3e 3742 343f

fc_dp.weight f4 [1, 13]
-0.36400837 0.08735928 -0.45016173 -0.2475808 0.40432203 0.11342185 -0.328236 -0.12218124
0.0018182278 0.28018117 0.11747652 -0.3372878 -0.4314283
00000000: 4e5f babe 6ce9 b23d 997b e6be d285 7dbe
00000010: 4c03 cf3e b749 e83d 8d0e a8be 283a fabd
00000020: 9a51 ee3a e873 8f3e 8897 f03d fdb0 acbe
00000030: 2ce4 dcbe

fc_cp.weight f4 [1, 11]
-0.43751556 -0.25753367 0.104618244 0.35403883 -0.36316168 -0.22124465 -0.34929255 0.34514043
-0.23528841 -0.24765342 -0.031552278
00000000: 0a02 e0be 74db 83be 1742 d63d 9444 b53e
00000010: 54f0 b9be f58d 62be 79d6 b2be 3fb6 b03e
00000020: 72ef 70be dc98 7dbe f63c 01bd

fc_all.weight f4 [1, 25]
0.0029727607 0.026969593 0.114909664 -0.00052555354 0.014376036 -0.08977814 -0.024324961 0.42784092
-0.09585114 0.066031605 0.16357756 -0.19029583 -0.002860201 -0.11069566 -0.53828365 -0.04611022
0.005908656 0.0006799372 -0.050941635 0.020729356 -0.048107654 -0.073281646 -0.055569574 0.21380667
0.29560465
00000000: a6d2 423b 56ef dc3c c255 eb3d 4dc5 09ba
00000010: 7789 6b3c 9add b7bd 2445 c7bc f70d db3e
00000020: 9a4d c4bd 943b 873d e080 273e e9dc 42be
00000030: 3672 3bbb 68b4 e2bd f5cc 09bf 12de 3cbd
00000040: 669d c13b d03d 323a 2da8 50bd 9cd0 a93c
00000050: 880c 45bd b014 96bd ec9c 63bd 23f0 5a3e
00000060: 7e59 973e
