trained_models/birnn_ode_decay_attention/final_model.pt (torch_old, 70229 bytes, 55 tensors)

embed_dp.weight f4 [1292, 7]
0	0x00000000	0.0
1	0x00000000	0.0
2	0x00000000	0.0
3	0x00000000	0.0
4	0x00000000	0.0
5	0x00000000	0.0
6	0x00000000	0.0
7	0xbff9621d	-1.9483067
8	0xbf4ce45f	-0.80035967
9	0xbfca43ba	-1.5801919
10	0xbe841a73	-0.2580143
11	0x3ef5f63f	0.48039433
12	0x3e5687cf	0.20950244
13	0xbfd06446	-1.6280601
14	0x3f2c36e8	0.6727128
15	0xbf156a81	-0.5836564
16	0x3fac4421	1.3458291
17	0x3f3e6d2f	0.7438535
18	0xbf8dca79	-1.1077415
19	0xbf8e8b46	-1.1136253
20	0xbee3c8a0	-0.44489002
21	0x3e02b7ab	0.12765376
22	0x3e46c4de	0.19411036
23	0x3f8de287	1.1084756
24	0x3f381c89	0.7191854
25	0xbe5d427a	-0.2160739
26	0xbf406854	-0.7515919
27	0x3f8b8202	1.089905
28	0x3f27e435	0.6558259
29	0x3f014552	0.504964
30	0x3f43fd8e	0.7655877
31	0xbf35bfc7	-0.70995754
32	0xbe2bc172	-0.16773012
33	0x3f7e85e0	0.9942303
34	0x3ef54583	0.47904596
35	0x3d2c4279	0.04205558
36	0x3f6e474e	0.9307755
37	0xbf6fe804	-0.937134
38	0xbf8b1ff9	-1.0869132
39	0x3d8eadc2	0.069667354
40	0x3f32360c	0.6961372
41	0x3f2789b8	0.6544452
42	0xbfa8205a	-1.3134873
43	0xbca4e07d	-0.020126576
44	0x3e086306	0.13319024
45	0xbe21d341	-0.15803243
46	0x3fb82aad	1.4388024
47	0x3f1cd95f	0.6126918
48	0x3e3baf6c	0.18328637
49	0x3ced138c	0.028939985
50	0x4004f04e	2.077167
51	0x3fecc097	1.8496274
52	0x3f951d41	1.1649553
53	0x3e01f33b	0.12690441
54	0xbfc742f2	-1.5567305
55	0x3f7585fd	0.95907575
56	0x3f43d1ca	0.7649199
57	0x3eab1e38	0.33421493
58	0x3f833dad	1.0253197
59	0xbfdb8625	-1.7150313
60	0xc007d2f8	-2.1222515
61	0x3e8802ef	0.26564738
62	0xbfabc2fd	-1.3418881
63	0xbe11aa00	-0.14225006
64	0x4043d750	3.0600166
65	0x3ffcfd49	1.9764796
66	0x3f912f11	1.1342489
67	0xbf0ce4d3	-0.5503666
68	0xbf064f25	-0.52464515
69	0x3c8c139b	0.017099192
70	0xbe07a164	-0.1324516
71	0x3d9cd856	0.0765845
72	0xbf7e7fe8	-0.9941392
73	0x3fb9f9a3	1.4529308
74	0xbe252f42	-0.16131309
75	0xbf470331	-0.77739245
76	0xbf9654b9	-1.1744605
77	0xbe83f22e	-0.25770706
78	0x3fa89571	1.3170606
79	0x3e688ace	0.227092
80	0xbf15a2f8	-0.58451796
81	0x3e2ac4f1	0.1667669
82	0xbf48afca	-0.7839323
83	0x3f3d600a	0.7397467
84	0x3f970616	1.1798732
85	0x40177338	2.3664074
86	0xbfd0bb1a	-1.6307099
87	0xbf2ffd30	-0.6874571
88	0x3f512452	0.81696045
89	0x3fb06db6	1.3783481
90	0x3efbd8e0	0.491889
91	0x3f93367f	1.1501006
92	0x3fa97bf5	1.3240954
93	0x3de48b8f	0.11159431
94	0x3c716ff6	0.014736166
95	0x3ec6a3f8	0.38796973
96	0xbf0bc8ea	-0.54603446
97	0xbf3fe77a	-0.7496258
98	0xbd6b4439	-0.05743811
99	0xbfc8715a	-1.5659592
100	0x3e7880af	0.24267839
101	0xbf0a57d2	-0.54040253
102	0x3ff52ff1	1.9155256
103	0xbecab777	-0.39593098
104	0xbea31ae1	-0.31856444
105	0x3eb0f42e	0.34561294
106	0x3e1de674	0.15419942
107	0x3ff05969	1.8777286
108	0x3e54ffe3	0.20800738
109	0xbf956735	-1.1672121
110	0xbfe6bcfd	-1.8026425
111	0xbf6c6cb9	-0.923534
112	0x3f2d9c1e	0.6781634
113	0x3f932202	1.1494753
114	0xbf1780c7	-0.59180874
115	0x3f6b843c	0.9199865
116	0xbf19c838	-0.60071135
117	0xbdbd1d1d	-0.092340685
118	0xbd7db6dc	-0.061941966
119	0xbed68e12	-0.41905266
120	0x3eaba0db	0.3352116
121	0x3f646e4a	0.8923079
122	0x3e3989da	0.18118992
123	0xbf0cce5b	-0.55002373
124	0xbe088338	-0.13331306
125	0xbdf519d1	-0.11967815
126	0xbf228490	-0.63483524
127	0x3ea04105	0.31299606
128	0x3ee45fad	0.44604245
129	0x3fcadd3c	1.5848765
130	0xbc092338	-0.008370213
131	0xbf6f99a8	-0.93593836
132	0x3f91205c	1.1338
133	0xbf1d10eb	-0.6135394
134	0xc0271a9d	-2.6109993
135	0xbf2d6388	-0.6773
136	0x3f25444e	0.6455735
137	0x3f4ab0d7	0.79176086
138	0x3f94281a	1.1574738
139	0xbf4faead	-0.8112591
140	0xbfb1099d	-1.3831059
141	0x3f98b695	1.193072
142	0xbfc9fdf8	-1.578063
143	0x3f5e1c34	0.86761785
144	0xbe041faa	-0.12902704
145	0xbfaaae85	-1.3334509
146	0x3f8a06ee	1.0783365
147	0xbd4e8225	-0.050417084
148	0x3dff01b7	0.12451499
149	0xbe807610	-0.25090075
150	0x3dcf61e7	0.10126095
151	0xbf0979ff	-0.53701776
152	0x3e72190d	0.23642369
153	0x3f4d6941	0.8023873
154	0x3f2eb7be	0.6824912
155	0xbe8755d8	-0.2643268
156	0x3fa19f77	1.262679
157	0x3f6e5c6a	0.9310976
158	0xbec155df	-0.37760827
159	0x3e73d9fb	0.23813622
160	0x3fcfe2cd	1.6241089
161	0xbf2a464c	-0.66513515
162	0x3eb7a849	0.3587058
163	0x3fe3021c	1.7735019
164	0xbfb5706c	-1.4174933
165	0x3d49a751	0.04923183
166	0x3fb6c736	1.4279544
167	0x3f5b2aa3	0.85611933
168	0xbf825b07	-1.0184029
169	0xbf4f805c	-0.81055236
170	0xbff15ef9	-1.8857108
171	0xbfa0543d	-1.2525707
172	0x3f761e9e	0.9614047
173	0xbe9f6e3e	-0.31138796
174	0x3e3e2990	0.18570542
175	0xbee8bde0	-0.45457363
176	0x3f5a3e1a	0.8525101
177	0xbebd78ff	-0.37006375
178	0x3d9c778c	0.07639989
179	0xbe993650	-0.2992425
180	0x3f59352c	0.8484676
181	0xbf86987b	-1.0515283
182	0xbf302a88	-0.688149
183	0xbf8dd1d9	-1.1079665
184	0xbeb544b1	-0.3540397
185	0xbfba2931	-1.4543821
186	0x3fa66191	1.2998525
187	0xbf201093	-0.6252529
188	0x3df82287	0.121159606
189	0x3f00a0e5	0.50245506
190	0xbe2968bd	-0.1654386
191	0x3f9c1beb	1.219602
192	0x3e6e97a8	0.2330004
193	0x3ee2603f	0.44214055
194	0xbf09653f	-0.53670114
195	0x3f641f4f	0.89110273
196	0x3f747db4	0.9550431
197	0x3d1856b2	0.037192054
198	0x3f202d49	0.625691
199	0x3f8ad86f	1.08473
200	0x3fb4ac9f	1.411518
201	0xbfcb059c	-1.5861087
202	0x3f9a2533	1.2042602
203	0xbcbb6846	-0.02287687
204	0x3f6e342e	0.9304837
205	0x3e5d121a	0.21588936
206	0xbfb09c3e	-1.3797681
207	0x3eafbb77	0.34322712
208	0x3e959f89	0.29223278
209	0xbfb208c1	-1.3908921
210	0x3e368327	0.17823468
211	0x3fb1166d	1.3834969
212	0x3fda24d0	1.7042484
213	0xbee768fa	-0.45197278
214	0x3e2e84d1	0.17042853
215	0xbfaf04ce	-1.3673341
216	0xc025c256	-2.5899863
217	0x3f3e851f	0.74421877
218	0xbf2cf648	-0.67563295
219	0x400c6e31	2.1942255
220	0x3f7134dc	0.9422128
221	0xbf064756	-0.524526
222	0xbf2ad65e	-0.6673335
223	0xbf32dea9	-0.69871
224	0x3f8ce659	1.1007797
225	0x3f6dd6ba	0.9290577
226	0xbfa53596	-1.2906978
227	0x3f8f0d63	1.117596
228	0x3fc21d4f	1.5165194
229	0xbf987bc1	-1.1912767
230	0xbfea3c91	-1.8299733
231	0xbfafe825	-1.374272
232	0xbfde8928	-1.7385607
233	0xbd539ac1	-0.051661257
234	0xbb37ca9a	-0.0028044344
235	0x3fb1c180	1.3887177
236	0x3fb14e79	1.3852073
237	0x3f9817e1	1.1882287
238	0x3fa1ff2a	1.2655995
239	0xbf973233	-1.1812195
240	0xbf1479a6	-0.5799812
241	0x3f3ec0e1	0.7451306
242	0xbfe662bd	-1.7998883
243	0xbe084217	-0.13306461
244	0x3cc6b169	0.024254518
245	0xbf4d4dba	-0.80196726
246	0x3fd4ad43	1.6615375
247	0xbfb5f6d2	-1.4215949
248	0x3f33e1ca	0.702664
249	0xbedd409c	-0.43213356
250	0x3e9bf62d	0.30461255
251	0x3edb5cf4	0.42844355
252	0x3fa0116f	1.250532
253	0xbf4180e1	-0.7558728
254	0xbe875893	-0.26434764
255	0x3f3b1859	0.73084027

embed_cp.weight f4 [620, 6]
0	0x00000000	0.0
1	0x00000000	0.0
2	0x00000000	0.0
3	0x00000000	0.0
4	0x00000000	0.0
5	0x00000000	0.0
6	0x3ebe1256	0.37123364
7	0xbe15ef75	-0.14642127
8	0x3c72178c	0.014776122
9	0x3e006942	0.12540153
10	0xbe9ba720	-0.30400944
11	0x3f1f8a11	0.6232005
12	0x3f3f354c	0.746907
13	0xbf8a5b0b	-1.0809034
14	0xbf3ec797	-0.745233
15	0x3ebb802a	0.3662122
16	0xbe3af3cf	-0.18257068
17	0xbcba0a20	-0.022709906
18	0xbf42cf27	-0.7609734
19	0xbea0ac7b	-0.31381592
20	0xbe613297	-0.21991955
21	0x3e2f0505	0.17091759
22	0x3fc95fe1	1.5732385
23	0x3defb1ff	0.11703872
24	0x3e86ed30	0.26352835
25	0xbfc15578	-1.5104208
26	0xbe456bbd	-0.1927938
27	0xbf10545d	-0.5637873
28	0xbf68d757	-0.9095358
29	0x3ee14d97	0.4400451
30	0xbed2a2d9	-0.41139868
31	0xc023ca6b	-2.5592296
32	0xbf6c8c7d	-0.9240187
33	0xbfa37e5d	-1.2772938
34	0xbfd3febe	-1.6562116
35	0x3ff971b0	1.948782
36	0xbf4ee0e5	-0.8081191
37	0xbeec74a6	-0.46182746
38	0x3f4b2cea	0.7936541
39	0x3ecd6306	0.4011461
40	0xbe0ef6f4	-0.13961393
41	0x3f1f2d53	0.62178534
42	0x3d71e243	0.05905367
43	0xbf51c308	-0.8193822
44	0x3f2c78c6	0.67371786
45	0x3dce1740	0.10063028
46	0x3d81805c	0.06323311
47	0xbf8b5ab9	-1.0887061
48	0x3fac4460	1.3458366
49	0xbd4a7465	-0.04942741
50	0xbf9da563	-1.2316097
51	0xc00cd1a6	-2.200296
52	0x3f157b16	0.5839094
53	0x3f232b06	0.63737524
54	0xbfa5b939	-1.294715
55	0xbf13117a	-0.5744854
56	0x3fc8ca8b	1.5686811
57	0xc034e3b1	-2.8263972
58	0x3fd64a28	1.6741381
59	0x3f18f4aa	0.5974833
60	0xbf8305d4	-1.0236154
61	0xbfdfc21d	-1.7481114
62	0xbf87a61a	-1.0597565
63	0xc0187a7d	-2.382476
64	0x400a9dcd	2.1658814
65	0x3f996b8a	1.1985943
66	0xbfc0c004	-1.5058599
67	0x3f43f809	0.76550347
68	0xbfca4930	-1.5803585
69	0xbf930cdd	-1.14883
70	0x3fdd3e61	1.7284662
71	0x3d3793d4	0.044818714
72	0xbf62d1e1	-0.886015
73	0x3f18de6f	0.59714407
74	0x3f59160c	0.84799266
75	0x3e567ed6	0.20946822
76	0xbfee907a	-1.8637841
77	0xbe21d29e	-0.15803
78	0xbf895116	-1.072787
79	0xbd9a0d7c	-0.07522103
80	0xbcc10fdc	-0.023567133
81	0x3dafaa3c	0.085773915
82	0xbe3a7166	-0.1820732
83	0xbe9840be	-0.29736894
84	0xbfac423f	-1.3457717
85	0x4029e375	2.6545079
86	0xbfc19f82	-1.5126803
87	0x407ad920	3.9195023
88	0x3f2fcff1	0.6867667
89	0x3f4132e2	0.75468266
90	0x3e5507de	0.20803782
91	0x3edc8d96	0.43076771
92	0xbf38ddd4	-0.7221348
93	0xbfa1833f	-1.2618178
94	0x3ff7808f	1.9336108
95	0x3f8a90fc	1.0825496
96	0xbf704ae8	-0.938643
97	0x40432bb3	3.0495422
98	0xbf762a35	-0.9615815
99	0x3f09ae34	0.5378144
100	0xbfc606ad	-1.5470787
101	0xbe51c72f	-0.20486139
102	0xbfe1bcc4	-1.7635732
103	0x3f701874	0.9378731
104	0xbfef2dc1	-1.8685838
105	0xbfdbeb15	-1.7181116
106	0x3fd8afa4	1.6928601
107	0xbdd20340	-0.10254526
108	0xbf76d218	-0.9641433
109	0x3efa5b25	0.48897663
110	0x3f474da7	0.77852863
111	0xbfe75fcc	-1.807611
112	0x3f2855ae	0.65755737
113	0x3ed5fbb0	0.41793585
114	0xbd8e42f7	-0.06946366
115	0xbeda4869	-0.4263337
116	0x3f9b72d6	1.214442
117	0xbf61f332	-0.8826171
118	0x3f644b1d	0.89177114
119	0x3de19979	0.11015601
120	0xbfe1a4da	-1.7628434
121	0x3f5478f3	0.82997054
122	0x3ee0b5f1	0.4388881
123	0xc029847a	-2.6487107
124	0xbfa703d9	-1.3048049
125	0x3f9f7cba	1.2459939
126	0xbf106510	-0.5640421
127	0xbf3b41f7	-0.7314753
128	0xbf3c8702	-0.73643506
129	0x3e9756e8	0.29558492
130	0x3f563d23	0.8368704
131	0x3f3b06c5	0.73057204
132	0x3f7ebd94	0.99508023
133	0x3f5598e0	0.83436394
134	0xc02ce619	-2.701544
135	0xbef4458f	-0.4770932
136	0x3da8eaec	0.08247933
137	0xbf7d75df	-0.9900798
138	0xc0230ed4	-2.54778
139	0xc000beae	-2.0116382
140	0xbebc81cf	-0.36817786
141	0xbe125d5b	-0.14293425
142	0xbf8aceef	-1.0844401
143	0x3fe299c8	1.770318
144	0x3fb288a1	1.3947946
145	0xbfdf18bb	-1.7429422
146	0xbe510e25	-0.20415552
147	0xbe6fba7d	-0.23410983
148	0x3e543a70	0.20725417
149	0xbe315ecc	-0.17321318
150	0x3f3a0972	0.7267066
151	0xbfb70d4b	-1.4300932
152	0xbd829026	-0.063751504
153	0xbf53a144	-0.82667947
154	0xbc5e2f3b	-0.013561065
155	0x3daf267e	0.08552264
156	0xbfb8ce43	-1.4437946
157	0xbda681a2	-0.08130194
158	0xbec667ff	-0.38751218
159	0x3e6ac1ab	0.22925441
160	0x400c4e86	2.1922927
161	0x3f023638	0.5086398
162	0x3fa34878	1.2756491
163	0x3f87385d	1.0564076
164	0xbe7a0566	-0.24416122
165	0xbf3a863d	-0.7286108
166	0x3ecb5049	0.3970969
167	0x3f5a203a	0.85205424
168	0x3fd78a04	1.6838994
169	0x3edc469b	0.43022618
170	0x3f1b532e	0.606738
171	0x3d899ce9	0.06719381
172	0x3bc37cd9	0.0059658107
173	0xc0436c70	-3.0534935
174	0xbd23b609	-0.039968524
175	0xbf8e6018	-1.1123075
176	0xbde42258	-0.11139363
177	0x3f169ed9	0.5883613
178	0x3c8681e6	0.016419362
179	0xbdad9ba1	-0.084769495
180	0xbfc87ff8	-1.5664053
181	0xbf21b3d9	-0.6316505
182	0xbfb11ac6	-1.3836296
183	0xc0326514	-2.7874193
184	0xc03a75c5	-2.913438
185	0x3d02429a	0.031801797
186	0x3f36f4b9	0.7146717
187	0xbd2a3945	-0.041558523
188	0x3e9b38a0	0.3031664
189	0xbff21d12	-1.8915122
190	0x3ddebc25	0.108757295
191	0x3fa7f91b	1.3122896
192	0xbf5f2e8e	-0.8718041
193	0x3f356545	0.7085765
194	0xbff597ba	-1.9186928
195	0x3e31a1aa	0.17346826
196	0x3e88653d	0.2663974
197	0x3faa18d3	1.3288826
198	0xbf9031c1	-1.1265184
199	0xbd654bf9	-0.055980656
200	0xbfdcd423	-1.7252239
201	0xbe8ebb75	-0.27877393
202	0x3da92f26	0.08260946
203	0x3ee07fea	0.4384759
204	0xbf210e84	-0.62912774
205	0xbec6dc43	-0.3883992
206	0x3f42d68b	0.76108617
207	0x3ea1a521	0.31571296
208	0xbf2a43ec	-0.6650989
209	0xbf2c807b	-0.67383546
210	0xbf397510	-0.7244425
211	0xbf007ae6	-0.5018753
212	0x3e53b015	0.20672639
213	0x3f87385b	1.0564073
214	0x3f058c26	0.52166975
215	0x3f016c6b	0.5055606
216	0x3f67c1a1	0.9052983
217	0x3f111c87	0.56684154
218	0xbdb14843	-0.08656361
219	0xbebece0a	-0.3726657
220	0x3f360bc4	0.711117
221	0x3ee7dc47	0.45285246
222	0xbdba73c8	-0.09104115
223	0x3eee879a	0.4658783
224	0xbf30baff	-0.69035333
225	0x3f0a100b	0.5393073
226	0xbe1776a4	-0.14791352
227	0xbf31fd75	-0.6952737
228	0xbe9245c1	-0.28568843
229	0xbf258638	-0.64657927
230	0x3f831a5f	1.0242423
231	0xbe223265	-0.15839536
232	0x3e957aaf	0.29195163
233	0xbf2389df	-0.6388225
234	0x3faf2b14	1.3685021
235	0x3f3abcb7	0.72944206
236	0xbe7f8513	-0.24953108
237	0xbf8c0f0c	-1.0942092
238	0x3e6fccd4	0.2341798
239	0x3ef9cf34	0.48790896
240	0xbfb7c3b8	-1.4356604
241	0xbf02bf50	-0.5107317
242	0xbfb87d06	-1.4413154
243	0xbf8e4b6f	-1.111677
244	0xbfb9b015	-1.4506861
245	0xbe4e085c	-0.20120376
246	0x3fbdc958	1.482707
247	0x3df79e25	0.120907106
248	0xbfd723ff	-1.680786
249	0xbe61a4f2	-0.22035578
250	0xbc9fa878	-0.019489512
251	0xbc85c283	-0.016328102
252	0xbd18d8ec	-0.037316248
253	0xbf9df7e2	-1.2341273
254	0xbfba4839	-1.4553291
255	0xbc9a2b6c	-0.018819533

gru_dp_fw.decays f4 [7]
0	0x00000000	0.0
1	0x00000000	0.0
2	0x00000000	0.0
3	0x00000000	0.0
4	0x00000000	0.0
5	0x00000000	0.0
6	0x00000000	0.0

gru_dp_fw.gru_cell.weight_ih f4 [21, 7]
0	0x3e2c0604	0.1679917
1	0x3de47d15	0.1115667
2	0x3cc55b83	0.024091488
3	0xbeca4d13	-0.39511928
4	0xbe17f7d4	-0.14840633
5	0xbeeb9ca1	-0.46017936
6	0xbed3169e	-0.41228193
7	0x3e8e0617	0.2773902
8	0x3e8b6e02	0.27232367
9	0x3ec5f00e	0.3865971
10	0xbca0ccb6	-0.019628864
11	0x3e8aa98b	0.27082476
12	0x3e84a364	0.25905907
13	0xbedb5a35	-0.4284226
14	0x3e2e3725	0.17013223
15	0x3d8bf148	0.0683313
16	0x3e9dd6a9	0.30827835
17	0x3de5b917	0.11216944
18	0x3c0b190d	0.008489859
19	0xbef223fc	-0.4729308
20	0xbe21bd3c	-0.15794843
21	0x3eec4a1a	0.46150285
22	0xbea3cf27	-0.31993982
23	0x3d0117e6	0.031516932
24	0xbe9b37c4	-0.30315983
25	0x3e548598	0.20754087
26	0xbd783f0f	-0.060607012
27	0xbed73fd5	-0.42040887
28	0x3e9ab308	0.30214715
29	0x3d1c3276	0.03813406
30	0xbe1dbfa3	-0.15405135
31	0xbe754130	-0.23950648
32	0xbdd176d0	-0.1022774
33	0xbead27d4	-0.3381945
34	0xbd49efa1	-0.049300794
35	0x3e37b262	0.17939141
36	0xbee4ab15	-0.44661775
37	0xbe4d8674	-0.20070821
38	0x3ec144cb	0.37747797
39	0xbecf3bec	-0.40475404
40	0xbd3b30cf	-0.045700844
41	0xbd1d2d0a	-0.03837303
42	0x3e4ef35e	0.20210025
43	0xbdaedb71	-0.08537949
44	0x3e279bbd	0.16368003
45	0xbe658ea0	-0.22417688
46	0xbde4d30f	-0.11173069
47	0xbe52b057	-0.20575081
48	0xbe3d6c5b	-0.18498366
49	0x3e36340d	0.17793293
50	0x3dd56cfb	0.10421177
51	0xbe98f232	-0.2987228
52	0x3d2df86e	0.04247325
53	0x3e16be3f	0.1472101
54	0x3e52eb0b	0.20597474
55	0xbd8fc408	-0.07019812
56	0xbf0672e7	-0.5251908
57	0xbe810cb5	-0.25205007
58	0xbc386f51	-0.011257009
59	0xbd505a94	-0.050867632
60	0xbe068617	-0.13137089
61	0x3d1f6085	0.038910408
62	0x3e92611f	0.28589723
63	0x3e3f26a4	0.18667084
64	0xbe9512c7	-0.29115888
65	0xbe84ee71	-0.25963166
66	0x3b1bf0a8	0.0023794565
67	0x3e835d2d	0.25657025
68	0x3e2fb121	0.17157413
69	0xbc05339a	-0.008129979
70	0x3e843b7d	0.25826636
71	0x3e1a1e9a	0.15050736
72	0x3d82f681	0.06394673
73	0x3ea63632	0.32463223
74	0xbedfa76b	-0.43682417
75	0xbe8d3db4	-0.27586138
76	0x3e0f96cf	0.14022373
77	0xbe0b6296	-0.13611826
78	0xbda0b2d5	-0.078466095
79	0xbe5e543d	-0.21711822
80	0xbe91c52e	-0.2847075
81	0x3e95fb8d	0.2929348
82	0x3e5a5ca0	0.21324396
83	0xbe74b42f	-0.2389686
84	0x3e6cca43	0.23124032
85	0x3ea78f27	0.32726404
86	0x3d485e1f	0.048917886
87	0xbf1bfdb4	-0.60933995
88	0xbd1f8718	-0.038947195
89	0x3e4a5ad7	0.19761215
90	0x3e82c5f1	0.25541642
91	0xbe8cd51c	-0.2750634
92	0x3e27e1fc	0.163948
93	0xbe6e9576	-0.23299202
94	0xbde88b07	-0.11354642
95	0x3e863a06	0.26216143
96	0xbd0c6701	-0.03427792
97	0xbe2279b4	-0.15866739
98	0x3cc6b2f0	0.024255246
99	0xbcd1b51b	-0.025599053
100	0x3e9a97e9	0.30194023
101	0xbcfcc6f9	-0.030856596
102	0x3cf1d6d8	0.02952139
103	0xbdca4216	-0.09875886
104	0x3e327610	0.1742785
105	0x3e529145	0.20563228
106	0xbe5c62f7	-0.21522127
107	0xbc4fe448	-0.012688704
108	0xbdebf582	-0.11521436
109	0xbdb701b9	-0.089358754
110	0x3c970a40	0.018437505
111	0xbe05b6e3	-0.13058047
112	0xbe916b7b	-0.28402314
113	0xbde55689	-0.11198146
114	0xbe12a7cd	-0.14321823
115	0xbe03a256	-0.12854895
116	0xbda0614f	-0.0783106
117	0x3de74dc4	0.112941295
118	0x3d190da5	0.037366528
119	0xbe84bbe6	-0.25924605
120	0xbd9ab857	-0.07554691
121	0xbe26d395	-0.1629165
122	0x3e2c5464	0.16829067
123	0x3e89a498	0.26883388
124	0x3e161e6f	0.14660047
125	0xbe1cd1e9	-0.1531445
126	0xbd3899d5	-0.04506858
127	0x3bbaecb7	0.005704488
128	0xbe1171e0	-0.14203596
129	0xbdc7e28c	-0.09760007
130	0xbe9de577	-0.3083913
131	0x3dd6d080	0.10488987
132	0xbe2f5beb	-0.17124908
133	0x3e6871cb	0.22699659
134	0xbd0fc468	-0.035099417
135	0x3e0fdf6a	0.1405007
136	0x3d896d93	0.06710353
137	0xbdcecdab	-0.10097822
138	0xb96e9564	-0.00022753101
139	0x3e8d85e3	0.2764121
140	0x3d96c592	0.07361902
141	0xbe7f3680	-0.24923134
142	0xbe8a3a8f	-0.26997802
143	0xbe410a6c	-0.18851632
144	0xbc352445	-0.011056011
145	0x3e735a10	0.23764825
146	0x3e079037	0.13238607

gru_dp_fw.gru_cell.weight_hh f4 [21, 7]
0	0xbe3140fd	-0.17309947
1	0x3e539e30	0.20665812
2	0xbd186a0b	-0.037210505
3	0x3f28d870	0.6595526
4	0xbe8ae716	-0.2712943
5	0x3eaa09f5	0.33210722
6	0x3e7b9120	0.2456708
7	0x3ee40ca0	0.44540882
8	0x3f5f082f	0.8712186
9	0x3db0c9c5	0.086322345
10	0x3e4bca7a	0.19901457
11	0x3e3a0150	0.18164563
12	0x3d8a29d9	0.06746263
13	0x3d9ed66d	0.07755742
14	0xbd904582	-0.070445076
15	0x3f97c115	1.1855799
16	0x3f083666	0.53208005
17	0xbe041f34	-0.12902528
18	0xbe0d9390	-0.13825822
19	0x3ea2914c	0.31751478
20	0x3efc29c2	0.4925061
21	0xbe23d4df	-0.15999173
22	0x3ed23c1d	0.41061488
23	0x3e63de69	0.22252811
24	0xbcdfcc2c	-0.027319036
25	0xbdc6c5eb	-0.097057186
26	0xbd62a90f	-0.055337008
27	0x3ddcc37f	0.107794754
28	0xbd803250	-0.06259596
29	0x3f654de7	0.89571995
30	0x3e102fdd	0.14080758
31	0x3f0f1226	0.5588707
32	0xbe8d47a4	-0.2759372
33	0x3dc2953b	0.0950112
34	0x3ea37714	0.31926787
35	0xbea43497	-0.32071373
36	0x3d163262	0.036669143
37	0xbe67e8c5	-0.22647388
38	0x3ef0d4d6	0.4703738
39	0xbe565e3d	-0.20934387
40	0xbe4b6661	-0.19863273
41	0x3db50740	0.088392735
42	0x3e3f9607	0.18709575
43	0x3f734d81	0.95040137
44	0x3f11fe94	0.5702908
45	0x3ec6ea81	0.38850787
46	0xbe94fe33	-0.2910019
47	0xbf11ab62	-0.56902134
48	0x3eb77d57	0.35837814
49	0xbf169847	-0.58826107
50	0xbeb78bb5	-0.35848776
51	0xbf158408	-0.5840459
52	0xbe89e263	-0.26930532
53	0x3f234457	0.63776153
54	0xbe4b9c9b	-0.19883959
55	0xbe40a468	-0.18812716
56	0xbe1c9d85	-0.15294464
57	0x3eac9c11	0.3371282
58	0x3e65fb96	0.22459254
59	0xbdf4cc3a	-0.119530156
60	0x3d8e507e	0.069489464
61	0x3efb8f4d	0.49132767
62	0x3de15fdf	0.11004614
63	0xbdefa023	-0.117004655
64	0x3dd285b7	0.1027941
65	0x3e9f2d2e	0.31089157
66	0x3e97a2c0	0.29616356
67	0x3f0b79d2	0.5448276
68	0xbe36e4bf	-0.17860697
69	0xbefd3899	-0.49457243
70	0xbea2e4a5	-0.31815067
71	0xbd92184a	-0.07133539
72	0x3e5a11c6	0.21295843
73	0x3f129bd0	0.57269
74	0x3ec17436	0.37783974
75	0xbefa9abf	-0.48946187
76	0x3e52f314	0.2060054
77	0xbdf167d3	-0.11787381
78	0xbe2563e1	-0.16151382
79	0x3e1267a1	0.14297344
80	0xbeeb0837	-0.45904705
81	0x3e90ab27	0.2825558
82	0xbe8b5000	-0.27209473
83	0xbf24e987	-0.64418834
84	0xbefcfac0	-0.49410057
85	0xbed28b4d	-0.41121903
86	0xbddc79aa	-0.10765393
87	0x3f1c21ff	0.60989374
88	0x3d81befc	0.063352555
89	0xbef490a9	-0.47766617
90	0x3cd7ab30	0.026326746
91	0xbd3a8f11	-0.045546595
92	0x3d8bf4f8	0.068338335
93	0x3e01e41d	0.12684675
94	0x3e8fcd6c	0.28086412
95	0xbcb2c791	-0.021823676
96	0xbd37b408	-0.044849426
97	0x3f05ad53	0.52217597
98	0xbeb39871	-0.3507724
99	0xbf0f0f75	-0.5588296
100	0xbf5f3f0f	-0.87205595
101	0xbe6db07b	-0.23211853
102	0xbd8ae278	-0.06781477
103	0x3ecbefb3	0.39831313
104	0xbf204274	-0.626014
105	0x3e9a8f47	0.30187437
106	0x3fa08064	1.2539182
107	0x3f8a88da	1.0823014
108	0x3f178877	0.59192604
109	0xbf0afcde	-0.54292095
110	0x3ea7c308	0.32765985
111	0x3e0a1e9c	0.13488239
112	0x3d972fdf	0.073821776
113	0x3f812e7d	1.0092312
114	0x3f0ca787	0.54943126
115	0x3e77ca58	0.24198282
116	0xbe8924d6	-0.26785916
117	0xbe4169d3	-0.18888025
118	0x3f0e8cc9	0.5568357
119	0x3df4a958	0.11946362
120	0x3ee6ec91	0.4510236
121	0x3f4cc36d	0.79985696
122	0x3f05d29c	0.5227449
123	0x3e8f50c2	0.279913
124	0x3db8ac1c	0.09017202
125	0x3e032698	0.12807691
126	0xbd557128	-0.052109867
127	0x3f6ddfd8	0.92919683
128	0x3f707582	0.939293
129	0x3e86803b	0.26269707
130	0xbea02ad5	-0.31282678
131	0xbeb7c843	-0.35894975
132	0x3edfe84f	0.43731925
133	0x3dcecfe2	0.10098244
134	0xbf3d4f31	-0.7394896
135	0xbf4b620d	-0.7944649
136	0xbe07bfa1	-0.13256694
137	0xbeae6ca7	-0.3406727
138	0x3de6c92b	0.112688385
139	0xbe813106	-0.25232714
140	0xbe0d92e5	-0.13825567
141	0x3f49f09e	0.7888278
142	0x3ee7b95d	0.45258608
143	0x3f4b9706	0.7952732
144	0xbe887971	-0.26655152
145	0xbe42cf8a	-0.19024482
146	0xbdb42af5	-0.08797256

gru_dp_fw.gru_cell.bias_ih f4 [21]
0	0x3ef127ae	0.47100586
1	0x3efe2ce4	0.49643624
2	0xbd09a3ae	-0.033603363
3	0x3e330c85	0.17485245
4	0x3f047c7c	0.5175245
5	0x3ea26a75	0.31721845
6	0xbe921a3c	-0.2853564
7	0xbdcbfcf2	-0.09960355
8	0x3f398f90	0.72484684
9	0x3f0d762c	0.5525844
10	0xbdfe9759	-0.12431211
11	0xbd9f02bb	-0.07764193
12	0xbe7c24d8	-0.2462343
13	0x3daedbe5	0.08538035
14	0x3dfdd9d6	0.123950645
15	0x3e4a8b98	0.19779813
16	0xbe5b6af4	-0.21427518
17	0xbde28e94	-0.11062351
18	0xbec60dd8	-0.38682437
19	0x3e0fde55	0.14049657
20	0xbedbdb6f	-0.42940852

gru_dp_fw.gru_cell.bias_hh f4 [21]
0	0x3f411925	0.7542899
1	0x3eabd54a	0.33561164
2	0x3eadd2af	0.339498
3	0x3d091ca0	0.033474565
4	0x3f4a2683	0.78965014
5	0x3f025cd9	0.50922924
6	0xbe11a3c2	-0.14222625
7	0xbe0d855a	-0.13820401
8	0x3e5d15fa	0.21590415
9	0x3f56abd5	0.83855945
10	0xbdaeb42c	-0.08530459
11	0xbeef0fba	-0.46691686
12	0xbe884ecf	-0.26622626
13	0x3d4d937e	0.050189488
14	0x3eb51730	0.35369253
15	0x3e6bfc69	0.23045506
16	0x3e7f70ad	0.24945326
17	0xbe5f96a5	-0.2183481
18	0xbde72223	-0.11285808
19	0x3edc17f5	0.42987028
20	0x3e8c23ad	0.27370968

gru_dp_fw.ode_net.odeblock.odefunc.fc1.weight f4 [7, 7]
0	0x3d0cdcd2	0.03439028
1	0x3e5ff271	0.21869828
2	0x3e53a8b6	0.20669827
3	0xbe52e59a	-0.20595399
4	0x3e334d1b	0.17509882
5	0xbd833f3f	-0.064085476
6	0x3c497da7	0.012298024
7	0xbf668ca5	-0.90058357
8	0x3fe12d37	1.7591923
9	0x3f1f8220	0.6230793
10	0xbdca2188	-0.09869677
11	0x3f8f2380	1.1182709
12	0xbe951117	-0.291146
13	0xbeddc212	-0.43312126
14	0x3dfc6001	0.12322999
15	0x3f29b156	0.6628622
16	0x3dfd181d	0.12358115
17	0xbe344662	-0.17604974
18	0x3eea92f0	0.4581523
19	0x3cd028a5	0.025410006
20	0x3e91d6d6	0.2848422
21	0xbf937e0e	-1.1522844
22	0x3fd3d44d	1.6549164
23	0x3f8d7f7b	1.1054529
24	0xbdfbdf48	-0.12298447
25	0x3f5e6db4	0.86886144
26	0xbf040090	-0.5156336
27	0xbdefca5b	-0.11708518
28	0xbe10cdaa	-0.14140955
29	0x3f5c7338	0.8611331
30	0x3d9a4a86	0.075337455
31	0xbe1316f5	-0.14364226
32	0x3cc0ccaf	0.0235351
33	0x3ea5973c	0.32341945
34	0xbe292a78	-0.16520107
35	0xbf1d5bf2	-0.6146842
36	0x3f94561c	1.1588778
37	0x3f286c4d	0.65790254
38	0xbf252d1f	-0.64521974
39	0x3f25ec19	0.6481338
40	0xbf305aac	-0.68888354
41	0xbe566ac0	-0.2093916
42	0xbf12f856	-0.5741018
43	0x3f62f2e2	0.8865186
44	0x3e6cbb2c	0.23118275
45	0x3e95793a	0.2919405
46	0x3f050c8f	0.5197229
47	0xbf0af159	-0.5427452
48	0xbe937094	-0.28796828

gru_dp_fw.ode_net.odeblock.odefunc.fc1.bias f4 [7]
0	0xbe4e0914	-0.2012065
1	0x3fad7108	1.3550119
2	0x3ece9e6d	0.40355244
3	0x3fdc6e10	1.7221088
4	0x3ef9c79d	0.48785105
5	0x3f9a4d07	1.2054757
6	0x3f4a4d72	0.7902442

gru_dp_fw.ode_net.odeblock.odefunc.fc2.weight f4 [7, 7]
0	0xbdf70397	-0.120612316
1	0x3fde3ecf	1.7362918
2	0x3f358f14	0.70921445
3	0x3fae7097	1.362811
4	0x3ebcd9b9	0.3688486
5	0x3f7f65f3	0.9976494
6	0x3f7043ba	0.9385334
7	0xbd62a02c	-0.055328533
8	0x3fd7c06f	1.6855601
9	0x3f5c4f1b	0.86058205
10	0x3f99fda3	1.2030529
11	0x3eac7672	0.33684117
12	0x3fb5d6de	1.4206197
13	0x3fbc0887	1.4690102
14	0x3dca025f	0.098637335
15	0x3fdf689d	1.74538
16	0x3ec0a7e5	0.37628093
17	0x3fd297fa	1.645263
18	0x3e82ef90	0.25573397
19	0x3fc8b546	1.568032
20	0x3f909485	1.1295325
21	0x3e16c090	0.14721894
22	0x3fb62e53	1.4232887
23	0xbe6cdd5f	-0.23131321
24	0x3fc77277	1.5581807
25	0xbd92aac7	-0.071614794
26	0x3f4e8f5c	0.806875
27	0x3f108b14	0.56462216
28	0x3e99a68b	0.30009875
29	0x3fcd0147	1.6016015
30	0x3e21dba2	0.1580644
31	0x3f91acd7	1.1380872
32	0xbdbaa129	-0.0911277
33	0x3fb41f16	1.4071987
34	0x3f3d5faf	0.73974127
35	0xbde3b222	-0.111179605
36	0x3f85e3d9	1.0460159
37	0x3e7fcf02	0.24981311
38	0x3fa038f7	1.2517384
39	0xbe1f9fad	-0.15588255
40	0x3f2e18fd	0.6800688
41	0x3f6bc020	0.92090034
42	0xbd3743ef	-0.04474252
43	0xbee07e7c	-0.438465
44	0xbeff354a	-0.49845344
45	0xbeec9292	-0.46205574
46	0xbdb98beb	-0.0905989
47	0xbf216713	-0.63047904
48	0x3e1efe4a	0.15526691

gru_dp_fw.ode_net.odeblock.odefunc.fc2.bias f4 [7]
0	0x3e93899e	0.2881593
1	0x3d7db749	0.061942372
2	0xbd873db0	-0.06603563
3	0x3ec781b0	0.3896613
4	0xbc45e952	-0.012079554
5	0xbd4e8fbe	-0.050430052
6	0x3eb88b98	0.36044002

gru_dp_fw.ode_net.odeblock.odefunc.fc3.weight f4 [7, 7]
0	0x3cad3c2a	0.021146853
1	0xbd9df630	-0.07712972
2	0x3e8c3e6e	0.2739138
3	0xbe5bb656	-0.21456274
4	0xbdf3a7ed	-0.11897264
5	0x3e109fec	0.14123505
6	0x3e81c8b1	0.25348428
7	0xbf68d498	-0.9094939
8	0xbf990245	-1.1953818
9	0xbf8d6528	-1.1046495
10	0xbf375627	-0.71615833
11	0xbf51a47c	-0.8189161
12	0xbf8a9e48	-1.0829554
13	0x3ed5f99a	0.41791993
14	0xbf7ec29c	-0.995157
15	0xbf88c2a3	-1.0684398
16	0xbf830793	-1.0236686
17	0xbf39364c	-0.72348475
18	0xbf44c3aa	-0.7686106
19	0xbf35a5bc	-0.70956016
20	0x3efc7aa7	0.49312326
21	0xbf454573	-0.77059096
22	0xbf58c22c	-0.8467128
23	0xbf7f9a7b	-0.99845093
24	0xbf5656d4	-0.8372624
25	0xbefbd592	-0.4918638
26	0xbf587ed9	-0.84568554
27	0x3e9c7ea0	0.30565357
28	0x3e795b88	0.24351323
29	0x3f319f17	0.69383377
30	0x3ef0bbbc	0.4701823
31	0xbe3e8c6d	-0.18608256
32	0x3e6c422f	0.23072122
33	0x3e46b1eb	0.19403808
34	0xbe38df21	-0.18053867
35	0x3e02b83b	0.12765591
36	0xbe622a94	-0.22086555
37	0xbea81215	-0.32826295
38	0x3edad2dd	0.42739
39	0xbe9b2b5c	-0.30306518
40	0x3ed7df8b	0.42162737
41	0x3f400f37	0.75023216
42	0xbf7d019e	-0.9883059
43	0xbf93b9ac	-1.1541038
44	0xbf9b5717	-1.2135953
45	0xbf4ba1ae	-0.7954358
46	0xbf0e7a85	-0.556557
47	0xbf7445b6	-0.9541887
48	0xbd9cee51	-0.07662643

gru_dp_fw.ode_net.odeblock.odefunc.fc3.bias f4 [7]
0	0x3deff9f0	0.11717594
1	0x3defa887	0.11702066
2	0xbdd299ed	-0.10283265
3	0xbf20d84a	-0.6283003
4	0x3ce7b5ff	0.028285025
5	0x3f11c70b	0.5694434
6	0xbef0b5e9	-0.47013786

gru_cp_fw.decays f4 [6]
0	0x0000af67	6.2923e-41
1	0x00000000	0.0
2	0x0000af69	6.2925e-41
3	0x00000000	0.0
4	0x0000af6a	6.2927e-41
5	0x00000000	0.0

gru_cp_fw.gru_cell.weight_ih f4 [18, 6]
0	0x3e9b09ba	0.30280858
1	0x3d884f71	0.06655777
2	0x3e2dccc5	0.16972645
3	0x3dbd7339	0.092504926
4	0xbedb1c4f	-0.42795035
5	0x3ee5bcc4	0.4487058
6	0x3c2a4a8d	0.010393751
7	0xbe47c50b	-0.1950876
8	0x3e158735	0.14602359
9	0xbe50d581	-0.20393945
10	0xbf06c7fe	-0.52648914
11	0x3b25c06c	0.0025291694
12	0x3ea096d9	0.31365088
13	0x3ddc1145	0.107454814
14	0xbe56cbd5	-0.20976193
15	0xbf489a02	-0.7836
16	0x3e247cfc	0.16063303
17	0x3d8bf2a4	0.068333894
18	0x3ee8f3b7	0.4549844
19	0x3ce83761	0.02834672
20	0x3ddb3769	0.10703928
21	0x3e6c8fdd	0.23101754
22	0xbf44c659	-0.76865155
23	0xbed32f99	-0.41247252
24	0x3e9b86ad	0.30376187
25	0xbc714de8	-0.014728047
26	0xbc6f822f	-0.0146184405
27	0x3d0d4e6c	0.034498617
28	0x3ee6bfc7	0.4506819
29	0xbe1ea544	-0.15492731
30	0x3ef835cf	0.48478553
31	0xbcc566b0	-0.024096817
32	0x3e4ec415	0.20191987
33	0x3d396012	0.045257635
34	0xbd956519	-0.072946735
35	0xbe528df0	-0.20561957
36	0xbe2c315b	-0.16815703
37	0x3dbd2535	0.09235612
38	0x3ec9bca9	0.3940175
39	0x3dfcc859	0.12342901
40	0x3f0f4960	0.55971336
41	0xbd8b273c	-0.06794593
42	0x3e639fc0	0.22228909
43	0xbdb8e28e	-0.09027587
44	0x3e054920	0.13016176
45	0x3dbbf00c	0.09176645
46	0x3f0a7454	0.5408375
47	0x3e3529cf	0.1769173
48	0xbe9ad279	-0.30238703
49	0xbed98096	-0.42480916
50	0x3e935198	0.2877319
51	0x3ea1fe74	0.31639445
52	0xbe269582	-0.1626797
53	0x3e2f469d	0.1711678
54	0xbdb1a10c	-0.086732954
55	0x3e51390b	0.20431916
56	0xbe808d32	-0.25107723
57	0xbd581def	-0.052762922
58	0x3f049463	0.5178892
59	0x3e658a00	0.22415924
60	0xbd26a5ae	-0.04068535
61	0xbedf0ee8	-0.4356606
62	0x3de275e1	0.1105764
63	0xbf519bff	-0.81878656
64	0xbecbb9e1	-0.39790252
65	0x3ec9840f	0.39358565
66	0x3e0cc32f	0.13746332
67	0xbe8709d2	-0.2637468
68	0xbd9d4606	-0.076793715
69	0xbe817678	-0.25285697
70	0xbdf17453	-0.11789765
71	0xbe62ed35	-0.221608
72	0xbeef6ebf	-0.4676418
73	0x3d8477a2	0.06468131
74	0x3e6df6cb	0.23238675
75	0xbdd86ee6	-0.10568027
76	0xbe398b92	-0.18119648
77	0x3e7c418d	0.2463438
78	0x3e8695b3	0.26286086
79	0xbd840541	-0.064463146
80	0x3c0fb3d6	0.008770904
81	0x3eabb23e	0.33534425
82	0x3ee20d6c	0.44150865
83	0xbe99a62a	-0.30009586
84	0xbd534424	-0.051578656
85	0x3e8772bc	0.26454723
86	0xbc53494a	-0.012895891
87	0xbe9195fe	-0.28434747
88	0x3e131e39	0.14366998
89	0x3dfba3fd	0.12287138
90	0xbdc9a4b7	-0.0984587
91	0xbe5aed79	-0.21379651
92	0xbeefc8b4	-0.46832812
93	0xbe956808	-0.29180932
94	0xbecb23b7	-0.39675686
95	0x3e57d42c	0.21077031
96	0xbdbd3fb4	-0.09240666
97	0x3e8d7727	0.2762997
98	0xbe0f5691	-0.13997866
99	0xbcd38b9c	-0.025823407
100	0x3e8024cc	0.25028074
101	0xbc3c1456	-0.011479458
102	0xbe943f04	-0.28954327
103	0x3db4e595	0.08832852
104	0xbcaf9082	-0.021431211
105	0xbcf506ab	-0.029910406
106	0x3e80065b	0.2500485
107	0x3eeb0f6c	0.45910203

gru_cp_fw.gru_cell.weight_hh f4 [18, 6]
0	0xbec79afe	-0.38985437
1	0x3d5a2558	0.05325827
2	0x3efc7569	0.49308327
3	0x3e546011	0.20739771
4	0x3e81e077	0.25366566
5	0xbdeff68b	-0.11716946
6	0x3c8259e7	0.01591201
7	0xbeae892b	-0.34089026
8	0xbe59daa9	-0.21274818
9	0xbde5d7e3	-0.11222818
10	0xbe48d650	-0.19613004
11	0xbeb90d30	-0.36142874
12	0x3e3ff1b9	0.18744554
13	0x3e9db07c	0.3079871
14	0x3e84dde4	0.2595054
15	0xbe89e60b	-0.2693332
16	0xbf0dd0b2	-0.5539657
17	0x3db53423	0.08847835
18	0x3ed4f7a8	0.41595197
19	0xbf1032bb	-0.5632741
20	0x3db9594c	0.09050235
21	0x3e9c55d2	0.30534226
22	0x3ed445f2	0.41459614
23	0x3ec661ba	0.38746434
24	0xbcf029c4	-0.02931679
25	0x3e2d904b	0.16949575
26	0x3e5682d0	0.20948339
27	0x3cc3a561	0.02388257
28	0xbf1b3024	-0.6062033
29	0x3de0be48	0.10973793
30	0x3e1e19da	0.15439549
31	0xbedf3e32	-0.4360214
32	0x3dcbc7c6	0.09950213
33	0x3eb2b889	0.34906414
34	0xbd8fa0ac	-0.070130676
35	0x3ed8ac96	0.42319173
36	0x3d985ae3	0.0743921
37	0x3e8181a2	0.25294214
38	0x3d3b3d75	0.045712907
39	0x3e39e501	0.18153764
40	0xbe4b75ee	-0.19869205
41	0x3ebabfeb	0.36474547
42	0xbd614dc5	-0.055005807
43	0xbee15ece	-0.44017643
44	0x3ec8ac09	0.39193752
45	0x3e968cb2	0.29404217
46	0xbe68b6ff	-0.22726057
47	0x3dfb76a2	0.12278487
48	0x3d45f0ba	0.048325278
49	0x3e7fe8d8	0.24991167
50	0x3e6b53f1	0.2298124
51	0xbe0dc40d	-0.13844319
52	0x3e918aa8	0.284261
53	0x3d39a60a	0.045324363
54	0x3d0624c5	0.03274991
55	0x3de980e5	0.11401538
56	0x3f17a839	0.5924106
57	0x3e3a75db	0.18209021
58	0xbf099e79	-0.53757435
59	0x3e8b865f	0.27250955
60	0x3f0ad7e9	0.542357
61	0xbd0e2319	-0.03470144
62	0xbc884498	-0.01663427
63	0x3e5eaa57	0.21744667
64	0xbe8a613e	-0.27027315
65	0x3cc02dfd	0.023459429
66	0x3de7cf24	0.11318806
67	0xbeff4166	-0.49854583
68	0x3d60c98f	0.05487972
69	0x3d3f65bd	0.046727885
70	0x3f39c69e	0.7256869
71	0x3e77548d	0.24153347
72	0xbe45ef79	-0.19329633
73	0xbe0a3d02	-0.13499835
74	0x3d6457bd	0.055747736
75	0x3f334bcf	0.7003755
76	0x3d1d6d4c	0.03843431
77	0x3d7ac279	0.06122062
78	0xbe4d0233	-0.2002037
79	0x3f137080	0.57593536
80	0xbf26f979	-0.65224415
81	0xbeaf694d	-0.34260026
82	0xbef078d7	-0.46967193
83	0xbe5d2327	-0.21595441
84	0x3d6d4da2	0.057935365
85	0xbed70e32	-0.42003018
86	0x3dc8e344	0.098089725
87	0x3f8329c0	1.0247116
88	0x3f16a853	0.5885059
89	0x3c85d9d0	0.016339213
90	0xbdad0c45	-0.08449606
91	0xbedd9d09	-0.4328387
92	0x3dbbed37	0.091761045
93	0x3f1bc338	0.60844755
94	0x3f1f76b9	0.6229053
95	0x3ed1cd25	0.40976825
96	0x3ddeed76	0.10885136
97	0xbe76239f	-0.24037026
98	0x3f37ee2d	0.718478
99	0x3f2f8818	0.6856704
100	0x3ecbb1de	0.3978414
101	0x3e98b43b	0.29825005
102	0x3ee28be5	0.44247356
103	0xbe8a9af7	-0.27071354
104	0x3dbaeec2	0.09127571
105	0x3f25e2a9	0.6479898
106	0x3efe6a3a	0.4969042
107	0x3e62ddc2	0.22154906

gru_cp_fw.gru_cell.bias_ih f4 [18]
0	0xbbff5bdd	-0.0077929334
1	0x3f272ca1	0.65302473
2	0x3d79424d	0.060854245
3	0x3f0c55df	0.5481853
4	0x3ef9d252	0.48793274
5	0x3e79b553	0.24385576
6	0x3d3dba82	0.046320446
7	0x3d500437	0.05078527
8	0x3c9bb722	0.019008223
9	0x3e484438	0.19557273
10	0x3f4fc0c5	0.8115352
11	0x3e0a324d	0.1349575
12	0xbe14efad	-0.14544554
13	0x3e427637	0.18990408
14	0xbeb6be99	-0.3569229
15	0xbe47628b	-0.19471185
16	0xbe9f4b22	-0.3111201
17	0xbe52083c	-0.20510954

gru_cp_fw.gru_cell.bias_hh f4 [18]
0	0xbd1625c5	-0.036657114
1	0x3f060676	0.5235361
2	0x3ee89d08	0.45432305
3	0x3cae93e5	0.021310756
4	0x3f380857	0.71887726
5	0x3ef71c27	0.48263666
6	0x3e1af04c	0.15130728
7	0x3eaf1fa7	0.34203836
8	0x3edf58f1	0.43622544
9	0x3eea3edf	0.45751092
10	0x3f154499	0.58307797
11	0xbda62d42	-0.08114101
12	0x3d3e471c	0.046454534
13	0x3ea63732	0.32463986
14	0x3d83f225	0.0644267
15	0xbe07072b	-0.13186328
16	0xbeb494ef	-0.35269877
17	0xbe0c9f10	-0.13732553

gru_cp_fw.ode_net.odeblock.odefunc.fc1.weight f4 [6, 6]
0	0x3f0bb54e	0.54573524
1	0xbed963a2	-0.42458826
2	0x3f52e8e8	0.82386637
3	0xbd8bf45c	-0.06833717
4	0xbd254a49	-0.040354047
5	0x3f3dd00a	0.7414557
6	0x3f315905	0.6927646
7	0x3e7df442	0.24800208
8	0x3ef5e541	0.4802647
9	0x3c3833f1	0.011242853
10	0x3e93637f	0.28786847
11	0x3e533011	0.20623805
12	0x3e5a6752	0.21328476
13	0x3e635dc6	0.2220374
14	0x3e91fb0f	0.28511855
15	0x3e40edee	0.18840763
16	0xbe51cc99	-0.20488204
17	0x3f4c1d1b	0.7973191
18	0x3de8b3e0	0.113624334
19	0x3d76028a	0.060061015
20	0x3f8c8866	1.0979125
21	0x3dd736d3	0.10508504
22	0x3ef566bf	0.47929952
23	0x3f226539	0.63435704
24	0x3ebfeb80	0.3748436
25	0xbeec6b7f	-0.46175763
26	0x3f5ce4cb	0.8628661
27	0x3eb055ee	0.3444056
28	0x3eaf6862	0.34259325
29	0x3f0eea05	0.55825835
30	0x3f81a54e	1.0128572
31	0x3e966c60	0.2937956
32	0x3f1b6e98	0.6071563
33	0xbdc3e423	-0.09564998
34	0xbe636c61	-0.22209312
35	0x3f29d1aa	0.66335547

gru_cp_fw.ode_net.odeblock.odefunc.fc1.bias f4 [6]
0	0x3f95106b	1.1645635
1	0x3ecd37fe	0.4008178
2	0x3f15392d	0.5829037
3	0x3f04d4a1	0.51886946
4	0x3f99eb2f	1.2024897
5	0x3f1918c8	0.5980344

gru_cp_fw.ode_net.odeblock.odefunc.fc2.weight f4 [6, 6]
0	0x3ee61343	0.4493657
1	0x3f6f087e	0.93372333
2	0x3eb64af2	0.35604054
3	0x3f6ef1eb	0.9333789
4	0x3f26cd84	0.6515734
5	0x3f5dafad	0.86596185
6	0x3f306240	0.6889992
7	0x3edd28db	0.43195233
8	0x3de7c25d	0.11316369
9	0x3f201132	0.6252624
10	0x3f587f3d	0.8456915
11	0x3edeeb96	0.43539113
12	0x3f28284d	0.65686494
13	0x3cecb098	0.0288928
14	0x3f2616fc	0.6487882
15	0x3f26741c	0.6502092
16	0x3d82b778	0.0638265
17	0x3f363f9b	0.71190804
18	0x3f9328f2	1.149687
19	0x3f0c6167	0.54836124
20	0x3f445b05	0.76701385
21	0x3efb0e4b	0.49034342
22	0x3f7941bc	0.9736593
23	0x3f8e21d4	1.1104074
24	0x3f38da34	0.7220795
25	0x3f22ef20	0.63646126
26	0x3df4455f	0.11927294
27	0x3e092461	0.13392784
28	0x3f2ad671	0.6673346
29	0x3e63cf13	0.22246961
30	0x3f0f9bf7	0.5609736
31	0x3ec5129e	0.38490766
32	0x3e422223	0.18958335
33	0x3f72f258	0.9490104
34	0x3f0a5137	0.54030174
35	0x3eb5d0c9	0.35510853

gru_cp_fw.ode_net.odeblock.odefunc.fc2.bias f4 [6]
0	0x3ede7817	0.43450996
1	0x3f4efe50	0.808568
2	0x3e5962ae	0.2122905
3	0x3f840bdb	1.0316118
4	0x3e58b5b4	0.21163064
5	0x3f7c576a	0.98570883

gru_cp_fw.ode_net.odeblock.odefunc.fc3.weight f4 [6, 6]
0	0xbdd2853f	-0.10279321
1	0x3dd88cab	0.10573705
2	0x3cf58950	0.029972702
3	0xbdb8cc82	-0.09023382
4	0x3ec47fbd	0.38378707
5	0xbdac6481	-0.08417607
6	0xbf32ec31	-0.6989165
7	0xbf44da09	-0.76895195
8	0xbeff9d27	-0.49924585
9	0xbf566d63	-0.8376066
10	0xbe0aa661	-0.13540031
11	0xbf22dcb1	-0.63618
12	0x3edef43c	0.4354571
13	0x3ed0d93c	0.40790737
14	0x3e8dac97	0.27670738
15	0x3f5a3263	0.85233134
16	0x3ee245e1	0.44193938
17	0x3e524cd1	0.20537116
18	0x3f44df6c	0.76903415
19	0x3f499490	0.78742313
20	0x3f1a1cb3	0.6020004
21	0x3f4c2124	0.7973807
22	0x3ef1d87b	0.47235474
23	0x3f69ea99	0.9137359
24	0x3f85e2a7	1.0459794
25	0x3f2543e4	0.6455672
26	0x3f549bb3	0.8305008
27	0x3f93edd1	1.1556951
28	0x3f4ac082	0.79199994
29	0x3f9f7015	1.245608
30	0x3ed8452f	0.42240283
31	0x3f29f3d2	0.66387665
32	0x3c9b6225	0.018967697
33	0x3ddaf023	0.10690334
34	0x3efdefc1	0.4959698
35	0x3f463264	0.7742064

gru_cp_fw.ode_net.odeblock.odefunc.fc3.bias f4 [6]
0	0xbe7e7559	-0.24849452
1	0xbd7b152d	-0.06129949
2	0x3f51a0d2	0.8188602
3	0x3f1fff27	0.62498707
4	0x3ec8223a	0.39088613
5	0x3f07abfa	0.5299679

gru_dp_bw.decays f4 [7]
0	0xa0d63b78	-3.6292363e-19
1	0x00007fea	4.5887e-41
2	0xa0d63b78	-3.6292363e-19
3	0x00007fea	4.5887e-41
4	0x00000000	0.0
5	0x00000000	0.0
6	0x00000000	0.0

gru_dp_bw.gru_cell.weight_ih f4 [21, 7]
0	0xbecd8714	-0.4014212
1	0x3d448fb7	0.04798862
2	0xbdf89c0c	-0.121391386
3	0x3d7d3efe	0.061827652
4	0x3e8bd45c	0.27310455
5	0xbf17ed76	-0.5934671
6	0x3d0f587d	0.0349965
7	0x3f6fb3f2	0.9363395
8	0x3f31d5a0	0.6946659
9	0x3ecfe77d	0.406063
10	0xbf133be3	-0.57513255
11	0xbf016081	-0.5053788
12	0x3eb9e61d	0.36308375
13	0x3e4f4a64	0.20243222
14	0x3df73bf8	0.12071985
15	0x3d1220d8	0.035675853
16	0x3bed745c	0.007246537
17	0xbdf51200	-0.11966324
18	0xbf06b504	-0.5261996
19	0xbc97bffa	-0.018524159
20	0x3f1498e9	0.5804582
21	0xbebb35ea	-0.3656457
22	0xbba806e6	-0.0051277755
23	0x3d922db1	0.07137621
24	0x3e75e56b	0.24013297
25	0x3efd21d7	0.4943988
26	0x3f324dfe	0.69650257
27	0x3f034da6	0.5129036
28	0x3ea2b70c	0.3178028
29	0xbf058d96	-0.5216917
30	0x3dbfcd1c	0.093652934
31	0x3d0e2b33	0.034709167
32	0xbc99d11c	-0.018776469
33	0xbdfb8d9c	-0.12282869
34	0x3f0d07de	0.5509013
35	0xbf0b606e	-0.54444015
36	0xbece3132	-0.40271908
37	0x3edd59b2	0.43232495
38	0x3e58d75a	0.211759
39	0x3e96d836	0.2946183
40	0x3e122128	0.1427046
41	0xbec1d8ca	-0.3786071
42	0x3da1df10	0.07903874
43	0x3f59eeaf	0.8512983
44	0xbdade5a7	-0.08491068
45	0x3f0f1e0b	0.55905217
46	0xbf3b4202	-0.73147595
47	0xbe9a0679	-0.30083063
48	0x3e8ac44b	0.27102885
49	0xbf2abbe8	-0.6669297
50	0xbdf3799c	-0.118884295
51	0x3b682a90	0.003542576
52	0x3ed0fd42	0.4081822
53	0xbe29a670	-0.16567397
54	0xbe26aacc	-0.16276091
55	0xbe3d11d9	-0.1846384
56	0x3e81068d	0.2520031
57	0x3e1b6d45	0.15178402
58	0xbdc5626d	-0.09637914
59	0xbe639367	-0.22224198
60	0xbea83eb0	-0.32860327
61	0xbe91be14	-0.2846533
62	0xbc942457	-0.018083734
63	0xbedef538	-0.43546462
64	0xbe9bac82	-0.3040505
65	0x3e3a2052	0.18176392
66	0xbda72368	-0.0816105
67	0x3e802ac3	0.25032625
68	0x3e790219	0.24317206
69	0x3e7e5a48	0.24839127
70	0x3d6c7ab0	0.05773419
71	0x3eb6f3d8	0.35732913
72	0x3f1d5f69	0.6147371
73	0xbea355a2	-0.3190127
74	0x3ee14c06	0.44003314
75	0xbd7b0b57	-0.06129011
76	0x3ec6a56b	0.3879808
77	0x3eaeebd9	0.34164312
78	0xbdbb5423	-0.09146907
79	0xbe9d36c0	-0.30705833
80	0xbea3375f	-0.31878182
81	0xbebb3d7c	-0.36570346
82	0xbe85135b	-0.2599133
83	0x3e9aa8fa	0.30207044
84	0xbd90c680	-0.07069111
85	0xbdf8db1c	-0.12151167
86	0xbd98e470	-0.07465446
87	0xbdee14a2	-0.11625029
88	0x3f0f9ae7	0.5609574
89	0xbe91a9be	-0.28449816
90	0xbeb1840c	-0.34671056
91	0x3e53c711	0.20681407
92	0x3daa6be0	0.08321357
93	0x3d852bc5	0.06502489
94	0xbd8eb3d7	-0.069678955
95	0xbdc1fb2a	-0.09471734
96	0x3e491a62	0.1963897
97	0x3e6f7fde	0.23388621
98	0xbeba71da	-0.36414987
99	0x3e0bceeb	0.13653152
100	0x3e42670f	0.18984626
101	0xbe57183e	-0.21005341
102	0xbdfdc586	-0.1239119
103	0xbe614334	-0.21998292
104	0x3e153afc	0.14573282
105	0x3f40627a	0.75150263
106	0x3f112dba	0.567104
107	0x3e1c46ce	0.15261385
108	0xbe7b2249	-0.24524797
109	0xbf2e7422	-0.68145955
110	0xbeff90ac	-0.49915063
111	0xbb93e34f	-0.0045131813
112	0x3e93f775	0.28899732
113	0xbe38e6b1	-0.18056752
114	0xbed16f57	-0.40905258
115	0xbe984472	-0.2973972
116	0xbe6ae629	-0.22939362
117	0xbe96c6b0	-0.29448462
118	0xbf2b2c29	-0.6686426
119	0x3da4877a	0.080336526
120	0xbe72fa95	-0.23728402
121	0xbf01d56a	-0.5071627
122	0x3eae9808	0.34100366
123	0xbf13fbde	-0.57806194
124	0xbd2deb41	-0.042460684
125	0xbe935418	-0.28775096
126	0xbea15028	-0.31506467
127	0x3dac2e12	0.08407225
128	0xbd1f0515	-0.038823206
129	0xbed1e092	-0.40991646
130	0x3f054826	0.52063215
131	0x3de1c5cc	0.11024055
132	0xbe70d7ca	-0.23519817
133	0x3ce4c59e	0.027926262
134	0x3e45f4c5	0.19331653
135	0xbe643589	-0.22286047
136	0xbe20ec33	-0.15715103
137	0xbeca85c3	-0.39555177
138	0x3e588909	0.21146025
139	0x3df15763	0.11784246
140	0x3f05410a	0.52052367
141	0x3f1312ae	0.5745038
142	0x3e8331c7	0.25623915
143	0x3ec34aa3	0.3814288
144	0xbe02e757	-0.12783562
145	0x3dae1dc1	0.08501769
146	0x3ed03315	0.40663972

gru_dp_bw.gru_cell.weight_hh f4 [21, 7]
0	0x3e603619	0.21895637
1	0x3f42661d	0.7593706
2	0x3de813b5	0.11331884
3	0xbe9a4f8e	-0.3013882
4	0xbeebd88e	-0.46063656
5	0xbe109a23	-0.14121298
6	0x3f1f96e2	0.62339604
7	0x3c02f7e2	0.00799367
8	0xbd602ce2	-0.054730304
9	0xbe37240e	-0.17884848
10	0xbeeb27ae	-0.4592871
11	0x3defdedd	0.1171243
12	0xbd9552a3	-0.07291152
13	0x3e423ea0	0.18969202
14	0x3e02d17b	0.12775223
15	0x3db5674b	0.08857592
16	0x3bc0bbd1	0.0058817645
17	0xbece3af4	-0.40279353
18	0xbeb9cc1e	-0.36288542
19	0xbf2137e9	-0.6297594
20	0xbe324642	-0.17409614
21	0x3ddcbed7	0.10778587
22	0x3e099c61	0.1343856
23	0x3cb8ccd6	0.02255861
24	0xbf41f13d	-0.75758725
25	0xbedc9fab	-0.43090567
26	0x3e34a959	0.17642726
27	0xbe78a1f9	-0.24280538
28	0x3f0cff2e	0.55076873
29	0x3ecdd670	0.40202665
30	0x3e8b037d	0.271511
31	0xbde3469b	-0.11097451
32	0x3e6bcfdd	0.23028512
33	0xbee17546	-0.44034785
34	0x3da9eeb9	0.08297486
35	0x3e48d9e2	0.19614366
36	0x3ea10209	0.31446865
37	0x3c89ea3f	0.01683533
38	0x3d4bc5c8	0.049749166
39	0xbf0d03ce	-0.5508393
40	0xbee2a518	-0.44266582
41	0x3e76bdf7	0.24095903
42	0x3db0aeeb	0.08627113
43	0x3f07f5d1	0.5310946
44	0x3eb3a699	0.3508804
45	0x3e292fd4	0.16522151
46	0x3d186664	0.037207022
47	0xbe8d0086	-0.27539462
48	0xbb028774	-0.0019917162
49	0xbeccab80	-0.39974594
50	0xbe00a02d	-0.12561102
51	0xbdbbb3cd	-0.09165154
52	0xbee1a669	-0.44072273
53	0xbf1e7cd4	-0.6190922
54	0xbec3d55d	-0.3824872
55	0x3dbbc280	0.09167957
56	0x3ddf5b49	0.10906083
57	0xbe8b56a1	-0.2721453
58	0xbf2dd857	-0.67908233
59	0xbe0bc30d	-0.13648625
60	0xbe1c202d	-0.15246649
61	0xbe8848b2	-0.26617962
62	0xbeb686e4	-0.35649788
63	0xbe5d1896	-0.2159141
64	0x3d228481	0.039677147
65	0x3e76b6d8	0.24093187
66	0x3e87963e	0.26481813
67	0xbe2a8ea1	-0.16655971
68	0xbedadf23	-0.42748365
69	0xbde78738	-0.11305088
70	0x3defd352	0.11710228
71	0x3e82b396	0.25527638
72	0xbf0fe0e7	-0.5620255
73	0x3f19cebc	0.60081077
74	0xbf364969	-0.71205765
75	0x3d1eaba4	0.038737908
76	0x3c8b4f55	0.017005602
77	0xbea1abad	-0.3157629
78	0x3e086245	0.13318737
79	0x3e594cca	0.21220699
80	0x3dd8e920	0.1059134
81	0x3e0dc06a	0.13842931
82	0xbe88c39b	-0.26711735
83	0x3e519cc7	0.20469962
84	0x3ddc9723	0.107710145
85	0x3e94f0c9	0.29089954
86	0xbcb39277	-0.021920426
87	0x3ee2344c	0.44180524
88	0xbdfe81f1	-0.12427128
89	0xbd4ac88a	-0.049507655
90	0x3ec23ff9	0.37939432
91	0x3c93a461	0.018022718
92	0x3d291599	0.041280363
93	0xbd9e3401	-0.07724763
94	0xbebe1da3	-0.37131986
95	0x3e385b63	0.18003611
96	0xbf1d6f6d	-0.6149815
97	0xbf12f6f4	-0.5740807
98	0xbdeb04e3	-0.114755414
99	0x3f167b2b	0.5878169
100	0xbe8adefa	-0.27123243
101	0xbe330f2a	-0.17486253
102	0xbee18750	-0.44048548
103	0xbef81826	-0.48455924
104	0x3ea6e0b6	0.32593316
105	0x3c047802	0.008085253
106	0x3ebb4a08	0.3657992
107	0xbe506311	-0.20350291
108	0xbeee0eb0	-0.4649558
109	0x3bbc64ea	0.0057493346
110	0xbe815e1c	-0.25267112
111	0x3e79bbde	0.24388072
112	0xbe87aff8	-0.2650144
113	0xbe94f8c6	-0.2909605
114	0xbc3b46db	-0.0114304675
115	0x3e5d9755	0.2163976
116	0x3f31714f	0.6931352
117	0x3eb8a6ed	0.36064854
118	0xbe21c1b3	-0.15796547
119	0xbf04dcf1	-0.5189963
120	0xbe5b9145	-0.21442135
121	0xbdf1f7d9	-0.11814851
122	0x3e2390a8	0.1597315
123	0x3ed6dfcb	0.41967615
124	0x3b3ec4b9	0.0029108955
125	0xbeaa6f9a	-0.3328827
126	0xbe2c3b05	-0.16819389
127	0xbea276e9	-0.31731346
128	0x3e6cad17	0.23112904
129	0x3df458e0	0.11931014
130	0x3e9cae1a	0.3060158
131	0x3f069fb5	0.52587444
132	0xbe94e148	-0.29078126
133	0xbcbc3c93	-0.022978103
134	0xbf52b42c	-0.8230617
135	0xbd782116	-0.06057843
136	0x3eb1447c	0.34622562
137	0x3e2382df	0.15967892
138	0x3e988c2c	0.29794443
139	0xbe21e4cf	-0.1580994
140	0x3dd87550	0.105692506
141	0x3f07987c	0.5296705
142	0xbdb18fd6	-0.08670013
143	0xbf3f65c6	-0.7476467
144	0x3d98f8df	0.074693434
145	0xbe9f389b	-0.31097874
146	0x3d84b23e	0.064793095

gru_dp_bw.gru_cell.bias_ih f4 [21]
0	0xbe4ead8d	-0.20183392
1	0x3ec4faf9	0.38472727
2	0x3de51ac7	0.11186748
3	0x3ebfa8ce	0.37433475
4	0x3e37fead	0.17968245
5	0x3ea614c9	0.32437733
6	0xbd1a7b8e	-0.037715487
7	0x3a790ee2	0.0009500814
8	0x3ec9ba3a	0.39399892
9	0x3f052230	0.5200529
10	0x3f639c25	0.8891013
11	0xbe9ae648	-0.30253816
12	0xbcee06fa	-0.029056061
13	0xbe75bae6	-0.23997077
14	0xbe8af971	-0.27143434
15	0x3dd63c1c	0.10460684
16	0xbe3cdb54	-0.18443042
17	0xbd2cf900	-0.042229652
18	0x3eb5a21a	0.35475236
19	0x3d0ed796	0.034873568
20	0x3e2d81c3	0.16944031

gru_dp_bw.gru_cell.bias_hh f4 [21]
0	0x3e3e110f	0.18561195
1	0x3e84d775	0.2594563
2	0x3e97b887	0.2963297
3	0x3e99b346	0.30019587
4	0x3e75dd9f	0.24010323
5	0x3e8baabd	0.272787
6	0x3e61d9d8	0.22055757
7	0xbd9da025	-0.07696561
8	0x3e3f84f1	0.18703057
9	0x3d4974a9	0.04918352
10	0x3f02aeaf	0.51047796
11	0x3ce28e15	0.02765564
12	0x3e1db65a	0.15401593
13	0xbeec7114	-0.46180022
14	0x3ddea529	0.108713455
15	0xbcd31d3e	-0.02577078
16	0xbdfab05f	-0.12240671
17	0x3c8a31a6	0.016869377
18	0xbe592a4a	-0.21207538
19	0xbe097ec4	-0.13427263
20	0x3e665fb3	0.22497444

gru_dp_bw.ode_net.odeblock.odefunc.fc1.weight f4 [7, 7]
0	0xbb7f5ed2	-0.003896643
1	0x3e4d61bb	0.20056812
2	0x3e502137	0.2032517
3	0xbedfd8db	-0.43720135
4	0xbe149a9c	-0.14512104
5	0xbe032c93	-0.12809972
6	0xbcbbc3e8	-0.022920564
7	0xbd8fbc2c	-0.07018313
8	0x3d508440	0.050907373
9	0xbe229716	-0.15877947
10	0xbe7dbd64	-0.24779278
11	0x3e934556	0.28763837
12	0xbf152fb5	-0.5827592
13	0xbf106f8b	-0.564202
14	0x3d4a62f4	0.049410775
15	0xbcf4fa1e	-0.029904421
16	0x3dce4dce	0.10073434
17	0xbf117bc9	-0.56829506
18	0x3e29e60f	0.16591667
19	0xbf88e69e	-1.0695379
20	0xbdae1ab2	-0.085011855
21	0xbeb1765e	-0.3466062
22	0xbe5b41d7	-0.21411835
23	0xbed73879	-0.42035273
24	0xbe3dd6a4	-0.1853891
25	0x3e8009ed	0.25007573
26	0xbee00daf	-0.4376044
27	0x3efa6134	0.48902285
28	0xbef7c07a	-0.48389035
29	0x3da89946	0.082323596
30	0xbebab222	-0.3646403
31	0x3c497b14	0.0122974105
32	0x3e497374	0.19672948
33	0xbec203b9	-0.37893465
34	0x3d4ec01a	0.05047617
35	0xbe230f44	-0.15923792
36	0x3e466b3d	0.19376846
37	0x3e947c32	0.29001004
38	0xbeef53e8	-0.46743703
39	0xbe5c0d29	-0.21489395
40	0xbf0a55ae	-0.54036987
41	0xbe025762	-0.12728646
42	0xbf050473	-0.51959914
43	0x3c31bfce	0.010848952
44	0xbdd5d2d4	-0.10440603
45	0xbea295b5	-0.31754842
46	0xbe2dd1b5	-0.16974528
47	0xbf05c7c3	-0.5225794
48	0x3e809070	0.25110197

gru_dp_bw.ode_net.odeblock.odefunc.fc1.bias f4 [7]
0	0x3e26f966	0.16306075
1	0xbd1f5ae6	-0.038905047
2	0x3f1ceb96	0.61296976
3	0x3f3af13a	0.7302433
4	0x3f151960	0.58241844
5	0x3f419032	0.7561065
6	0x3f0ffe4e	0.56247413

gru_dp_bw.ode_net.odeblock.odefunc.fc2.weight f4 [7, 7]
0	0x3eb522d2	0.35378128
1	0x3f4222b4	0.758342
2	0x3f93d824	1.1550336
3	0x3f20b63f	0.62778085
4	0x3f4564af	0.77106756
5	0x3f49a899	0.78772885
6	0x3f4547ca	0.77062666
7	0x3e863b62	0.2621718
8	0x3ed5409e	0.41650862
9	0x3eb62797	0.3557708
10	0x3f028381	0.5098191
11	0xbd12467d	-0.035711754
12	0x3ed2142c	0.41031015
13	0x3e50f302	0.204052
14	0x3ecebf1c	0.4038018
15	0x3e2f05f3	0.17092113
16	0x3f4ef545	0.80843
17	0x3f1124ef	0.5669698
18	0x3ecc58a1	0.39911368
19	0x3f571111	0.84010416
20	0x3e8bc5e1	0.27299407
21	0x3ca30498	0.019899651
22	0x3e226cdd	0.1586184
23	0x3ecf1dd5	0.40452448
24	0x3e766d15	0.24065049
25	0x3e8dd6ab	0.2770284
26	0x3f1c91b8	0.6115985
27	0x3e3337b7	0.17501722
28	0x3f01c624	0.50692964
29	0x3e0a19a6	0.13486347
30	0x3f135506	0.5755161
31	0x3e29276d	0.16518946
32	0xbd801fd5	-0.062560715
33	0x3de91be3	0.11382272
34	0x3e0ae4c0	0.13563824
35	0x3f1ade42	0.6049539
36	0x3e55f066	0.20892486
37	0x3e642b1e	0.22282073
38	0x3f1f6070	0.62256527
39	0x3ebee274	0.37282145
40	0x3ee967bf	0.45586964
41	0x3e5a68d6	0.21329054
42	0x3c1f9a29	0.0097413445
43	0xbd9313f0	-0.07181537
44	0xbe03cf45	-0.12872036
45	0x3d38d742	0.04512716
46	0x3e31dba7	0.17368947
47	0xbe48a27d	-0.19593234
48	0x3ece9ec6	0.4035551

gru_dp_bw.ode_net.odeblock.odefunc.fc2.bias f4 [7]
0	0x3e93ca23	0.28865156
1	0x3e6dc3b1	0.23219182
2	0x3d93c452	0.072151795
3	0xbe2b0ad1	-0.16703345
4	0xbb347195	-0.002753352
5	0x3ef9a043	0.48755082
6	0x3eeb86d1	0.46001294

gru_dp_bw.ode_net.odeblock.odefunc.fc3.weight f4 [7, 7]
0	0x3f9a7d3f	1.2069472
1	0x3f272cc2	0.6530267
2	0x3f5c1805	0.8597415
3	0x3f703962	0.9383756
4	0x3f4ce1e6	0.80032194
5	0x3f3625c7	0.71151394
6	0x3f47532a	0.77861273
7	0x3f2b2fc4	0.6686976
8	0x3edcf201	0.43153384
9	0x3ef77283	0.48329553
10	0x3dc8b2f1	0.09799755
11	0x3f2139e6	0.6297897
12	0x3f13aa08	0.5768132
13	0x3d4a346f	0.04936641
14	0xbee72e95	-0.45152727
15	0xbf833fa2	-1.0253794
16	0xbf7c13ed	-0.98467904
17	0xbf1a6e01	-0.603241
18	0xbf68f5a8	-0.9099984
19	0xbf78a8e1	-0.9713269
20	0xbf6bd197	-0.92116684
21	0x3cb0f18e	0.021599557
22	0xbdca808b	-0.09887799
23	0x3dcc7f50	0.099852204
24	0x3e7bb06e	0.24579021
25	0x3ec97a0c	0.39350927
26	0x3ee2290d	0.44171944
27	0x3efe1a00	0.4962921
28	0xbf30222e	-0.68802154
29	0xbe818ba4	-0.2530185
30	0xbef5285a	-0.47882348
31	0xbf53409b	-0.82520455
32	0xbeab7b5e	-0.3349256
33	0xbf03cbe0	-0.51482964
34	0xbf34d174	-0.706321
35	0xbe67bbd2	-0.22630242
36	0x3e4172ce	0.18891451
37	0x3e5f785c	0.21823257
38	0xbdf90dc6	-0.1216083
39	0x3d94fcc2	0.07274772
40	0x3c841267	0.016122056
41	0xbdfd78d8	-0.12376565
42	0x3d73a984	0.059487835
43	0x3f00c1e2	0.5029584
44	0x3e1514d6	0.1455873
45	0x3ec0b82a	0.37640506
46	0x3edf4d93	0.43613872
47	0x3d3c5b2e	0.045985393
48	0xbd858fd0	-0.06521571

gru_dp_bw.ode_net.odeblock.odefunc.fc3.bias f4 [7]
0	0x3f44c475	0.7686227
1	0x3f21941c	0.6311662
2	0xbe8ea87d	-0.2786292
3	0xbe1533e8	-0.14570582
4	0xbf3a9427	-0.7288231
5	0x3e981f97	0.297116
6	0x3eee19b2	0.4650398

gru_cp_bw.decays f4 [6]
0	0xa0d63b78	-3.6292363e-19
1	0x00007fea	4.5887e-41
2	0xa0d63b78	-3.6292363e-19
3	0x00007fea	4.5887e-41
4	0x00000000	0.0
5	0x00000000	0.0
