trained_models/bayesian_all/final_model.pt (torch_old, 180435 bytes, 22 tensors)

embed_dp.weight_mu f4 [1292, 12]
00000000: 1e46 143c b14e 2e3e eaa8 0abe 6dc0 913e
00000010: 5eb6 413d 71b9 bdbd 222c 86be a50f 16be
00000020: 357d 13be 1c29 14be 9915 11be 37f1 083e
00000030: 908a 5eba b5f6 ecbe df1a d5bd 6e8c 1e3a
00000040: ebaf 1ebc 1bfd 293b b912 7dbe 8856 20bf
00000050: 1aaa a5ba 2866 33ba 378e 543c 1c03 203a
00000060: 5215 ebb9 b082 1e3f bec8 103a 0f2a 88ba
00000070: 68ea 33ba 2a2c 98ba 18bd a23f f96a c8ba
00000080: 6dbb 3bba 8611 af3a 58c9 653a 636e b63d
00000090: d05f 94bf 0ba5 b1ba 39ce 26ba 3833 163a
000000a0: bbee 34ba 43e1 dab9 bc77 b8b9 9a65 c339
000000b0: 3d86 333b 266d cfb9 dcc6 7dba cef1 3f3a
000000c0: 3a55 dbbd 5a0c 9fbd 1cb1 6339 f0f4 e539
000000d0: 7424 8abe e105 013b ff7f fdba 1164 2d3a
000000e0: 5c10 ddb9 b1cc c439 8263 c8ba de82 d439
000000f0: c8d6 b138 6ea7 c4b9 8380 623a ca2f 713a
00000100: 5565 bb3e 4631 64ba 34b4 0d3b 60a3 1cb9
00000110: 4483 dfba d7b3 11ba 40ff 7e3a 4614 05ba
00000120: d633 c7b9 4a65 50b9 d580 7aba dfd4 d73a
00000130: a35f d939 bd0a b0ba fd3f 89ba 687a dcb9
00000140: f39f fcb9 f1b3 663e 7554 4a3e d9a3 dbba
00000150: 663b d439 ce03 1d3a 5366 11bb f2c8 57b8
00000160: 89c4 c13f c888 75b8 c383 9f39 5032 3fb8
00000170: 09ae a0ba 5461 54ba 7eda a0b9 2e35 0abe
00000180: 5019 9539 be2d 95ba e811 be3a 5b22 433a
00000190: 6784 bdb9 4ccd e83a b4db 4eb9 4878 8839
000001a0: b0ae 2bba 6bdc 6dba 2f6e a4ba a435 f039
000001b0: 4993 2e3b c4da c73a 1816 823a acb1 3f39
000001c0: 2ac4 7a3a 30d8 383a 474a fa3f ad6a a03a
000001d0: a64a 9637 a49f 96ba 5de6 6bba 4aef e1ba
000001e0: 7223 833a c65e b53e ddf2 d3b9 4b7a 14be
000001f0: ed01 22ba d07e e4ba 8658 f0b9 7164 873a
00000200: e614 eaba c94f b83a 679e 4f3a d253 9438
00000210: 9760 0b3b a93d d1be 5ad8 4f39 ecda f33e
00000220: 4d96 fd3f 4fdd 493a 28ba bf39 f42d 06bb
00000230: 24cd 0dbb 8572 0339 907f d83a c648 e839
00000240: afe5 253e a5ec da3a 39cd e03d 482d 7539
00000250: 431e cc3e fe8b e0b9 ae59 263f d840 ba3e
00000260: cfd3 1cba dd28 c438 9f5d 25ba 63be 4f39
00000270: 0240 3aba e13b f23e 9557 85ba f440 5a3e
00000280: 6961 0f3a 75b5 7ab9 1ea9 a03a efbd 223b
00000290: e33f e5b9 b07b 5a3e 887a f3bd 4105 393b
000002a0: 54a7 01bb aa8e 9a39 57f7 fc39 d8ab 743a
000002b0: a2cc 1d3b 17ab 243b e82a 4139 0e36 29ba
000002c0: 6c41 153a e8ed 70ba 4358 243a 33eb b23a
000002d0: 45c2 023e 4f59 9b38 8af6 7d3d 235e 73be
000002e0: 4ca2 7cbc da89 5e3a 12db 01be bb2d ebba
000002f0: e634 323a a72f cbb9 39ba 633e 4252 e7ba
00000300: 3087 54b9 9455 6a3a 7098 5bba bdbc 2f3a
00000310: b051 78ba 66f7 6cba acdb 9a3a 9232 8bba
00000320: 4a29 0fb8 034a 643a 2a36 c0b9 d2a1 57ba
00000330: 904f 6bba ff83 003f 6254 673a 8900 863a
00000340: c82c 0e3b f940 80ba 57d9 033d 7127 95b9
00000350: 6016 a03e f06d df3d 7d64 e73a def0 04bb
00000360: ad3c 26b9 dd07 0cb8 721c cb3a 7dc2 5bbe
00000370: 4e20 1cba 7ce2 3bba 267b 4d3e 3d1e 4b3a
00000380: 2004 ebb9 26aa 51ba 3680 f7b8 7a32 90ba
00000390: 28b4 2938 f9a2 11bb e7d1 27b9 b420 533a
000003a0: 8a51 d1bf 7018 9539 0404 3bba ae9a 00ba
000003b0: c9d8 103b 82cd 723a d85f 6eba 205d e737
000003c0: ee84 6dba 6c2d 32b8 cad2 e9b8 66f9 1dbb
000003d0: 65d9 5cbe f08d cd3a be04 b83a 27df 4dbe
000003e0: 4d2a 9d3a 7458 9d3a eca2 0f3a 7e20 56ba
000003f0: 7e0d f839 3ddb b9bd b43f ab3e 177d 1e3e
0.00904992 0.17022206 -0.13540998 0.28467122 0.04729306 -0.09263886 -0.26205546 -0.14654405
-0.14403231 -0.14468807 -0.14168395 0.13373266 -0.00084892754 -0.46281973 -0.10405516 0.00060481473
-0.009685497 0.0025938216 -0.24714173 -0.62632036 -0.0012639195 -0.00068435306 0.01297336 0.0006103979
-0.00044838578 0.61918163 0.0005523077 -0.0010388511 -0.00068632374 -0.0011609842 1.2713957 -0.0015290669
-0.00071614125 0.0013356663 0.00087656593 0.08907773 -1.159174 -0.0013553215 -0.0006363127 0.0005729678
-0.00069020287 -0.00041748033 -0.00035184424 0.00037268997 0.0027393245 -0.0003956344 -0.00096808164 0.00073221035
-0.10709615 -0.07766028 0.00021714385 0.00043860776 -0.26980937 0.0019687342 -0.0019340514 0.00066143373
-0.00042164593 0.0003753654 -0.0015288445 0.00040533295 8.480024e-05 -0.00037508778 0.00086403656 0.00092005415
0.36600748 -0.0008704852 0.0021622302 -0.00014938181 -0.001705267 -0.0005558109 0.0009727366 -0.00050765683
-0.0003799486 -0.00019874159 -0.00095559406 0.0016466639 0.0004146072 -0.0013430935 -0.001047134 -0.0004205287
-0.00048184357 0.2252958 0.1975878 -0.0016757204 0.00040480046 0.00059896416 -0.0022186234 -5.144714e-05
1.5138103 -5.853994e-05 0.00030425013 -4.5584806e-05 -0.0012258898 -0.0008101661 -0.00030680367 -0.13496849
0.00028438354 -0.001138143 0.0014501186 0.0007443779 -0.00036147537 0.0017761379 -0.00019727537 0.00026029558
-0.0006549163 -0.00090736774 -0.0012545044 0.00045816333 0.0026638082 0.0015247692 0.0009924797 0.00018281367
0.0009565974 0.00070512574 1.9553918 0.0012238823 1.7916154e-05 -0.0011491668 -0.00089988654 -0.0017237451
0.001000507 0.3542387 -0.00040426003 -0.14499776 -0.00061800965 -0.0017432813 -0.00045842322 0.0010329616
-0.0017859011 0.0014061864 0.0007920027 7.072803e-05 0.0021267289 -0.40867355 0.00019821656 0.47627962
1.9811493 0.0007700519 0.00036569056 -0.0020474168 -0.0021637166 0.00012535795 0.0016517509 0.0004430471
0.16200899 0.0016702606 0.10976643 0.0002338189 0.39866838 -0.00042828912 0.6498059 0.36377597
-0.00059824897 9.35362e-05 -0.0006308201 0.00019811983 -0.0007104875 0.4731131 -0.0010173196 0.2131384
0.00054695323 -0.00023909456 0.0012257432 0.0024832448 -0.00043725883 0.21336246 -0.11888605 0.0028231891
-0.0019783573 0.00029479462 0.00048249468 0.0009333468 0.002407827 0.0025126392 0.00018421898 -0.0006454893
0.00056936475 -0.0009190724 0.00062692555 0.0013650417 0.1276942 7.407611e-05 0.062002696 -0.23766379
-0.015419554 0.00084891694 -0.12681225 -0.0017942706 0.00067980436 -0.0003875468 0.22239007 -0.0017648416
-0.00020268257 0.0008939144 -0.0008376902 0.00067038444 -0.00094726216 -0.0009039551 0.0011814735 -0.001061993
-3.413231e-05 0.00087085384 -0.0003666145 -0.0008225712 -0.00089763943 0.5020141 0.00088245247 0.0010223548
0.0021694172 -0.0009784988 0.032189693 -0.0002844888 0.3126707 0.10909641 0.0017653849 -0.002028517
-0.00015853597 -3.3385924e-05 0.0015496148 -0.2146091 -0.00059557415 -0.00071672327 0.20066509 0.00077483413
-0.00044825766 -0.00079980714 -0.00011801759 -0.0011001371 4.0460523e-05 -0.0022222383 -0.00016004556 0.00080538844
-1.6353009 0.00028437702 -0.0007134082 -0.00049058616 0.002210187 0.00092621904 -0.00090932613 2.758071e-05
-0.00090606406 -4.248081e-05 -0.00011149568 -0.0024104952 -0.21567304 0.001568256 0.0014039499 -0.20104657
0.0011990756 0.001200451 0.00054792943 -0.0008168294 0.000473123 -0.090750195 0.3344704 0.15477405

embed_dp.weight_rho f4 [1292, 12]
00000000: db76 0b3f 98c4 f83e 96fb fa3e b936 d33e
00000010: 7fc3 133f 4b46 033f 075f e13e 2413 013f
00000020: dc34 093f 7737 003f 29fc e33e f6e4 fb3e
00000030: a035 bec0 3ddc dcbf c1a0 79bf 56c7 bfc0
00000040: c9a6 0bc0 4ee4 bfc0 6a35 0bc0 7771 f0bf
00000050: 8e17 bfc0 6e9f bfc0 44bd 183f f529 bfc0
00000060: 5806 bfc0 93b7 4abe 8aea bdc0 f037 c0c0
00000070: 4db9 bec0 e3fe bec0 16f0 13be 2958 bfc0
00000080: dfc6 bec0 1075 bfc0 0ddd bec0 f9b7 f93e
00000090: 320e 63be 7dd5 bec0 ef67 bfc0 cd11 bec0
000000a0: 474d bec0 f905 bfc0 0fcc bfc0 2e80 bfc0
000000b0: f033 bfc0 e17c bec0 1c78 bfc0 f6b3 bec0
000000c0: 953e 88be 59fc 59bf 1937 bfc0 8c94 bdc0
000000d0: 80a6 a7bf c9e6 bec0 db6d bec0 76d5 bec0
000000e0: add9 bec0 edff bfc0 7c62 bfc0 4b93 bec0
000000f0: 2c18 c0c0 51ca bfc0 c39f bec0 efbf bec0
00000100: 4223 5abe cf68 bfc0 58bc bec0 b06e bfc0
00000110: 281c bfc0 622e bfc0 9b9d bec0 ab44 bfc0
00000120: d5d8 bfc0 98b5 bdc0 c510 bfc0 0ebb bfc0
00000130: 1ac8 bfc0 f222 c0c0 6b17 bfc0 1fbf bfc0
00000140: 19d1 bec0 2d0a 7bbe 7c65 bb3e 44ef bec0
00000150: 09c0 bec0 307e bec0 83b8 bec0 0f29 bfc0
00000160: bb16 f23d 586c bec0 3edf bdc0 704b bfc0
00000170: d715 bfc0 bff3 bfc0 64ef bec0 ac35 d33e
00000180: 7ab5 bfc0 a34d bfc0 5381 bfc0 1cf7 bec0
00000190: ab54 bfc0 a9fe bec0 385a bfc0 aff9 bec0
000001a0: a0d2 bdc0 77e2 bec0 03f5 bec0 8835 bfc0
000001b0: 5bfd bec0 11ad bfc0 57ee bec0 d0d6 bfc0
000001c0: 1f6c bfc0 5b58 bec0 bd11 42bd 5ba6 bec0
000001d0: 0a82 bfc0 8f6d bfc0 3b36 bec0 8294 bfc0
000001e0: 2c65 bec0 9227 403d 8bd0 bdc0 7bd2 ed3e
000001f0: d659 bfc0 af7f bfc0 2b80 bec0 ed0f c0c0
00000200: 7199 bfc0 7e23 bfc0 c1e1 bec0 f0fd bec0
00000210: bb1f bfc0 30b2 47be 055d bfc0 93d7 95be
00000220: e804 f0be beda bec0 2877 bfc0 1d01 bfc0
00000230: dbbb bec0 41f4 bfc0 fffe bec0 c37e bfc0
00000240: 6d63 4e3e 2164 bfc0 6a22 e43e 01a4 bfc0
00000250: 7dd2 9dbe ee8d bfc0 2063 15bf 934a 0cbc
00000260: 8759 bec0 09ae bfc0 51f9 bec0 a412 c0c0
00000270: 0bd2 bfc0 4423 90bf 0e3f c0c0 0cbf 863e
00000280: 8e39 bfc0 dd06 c0c0 1767 c0c0 9273 c0c0
00000290: bf21 c0c0 3e33 cfbf 10ef f83e 6c70 bec0
000002a0: 25ed bfc0 aea1 bfc0 9f98 bfc0 282b c0c0
000002b0: 37e2 bcc0 815d bfc0 ed8c bec0 9a1f bfc0
000002c0: b98d bec0 2b3d bfc0 ba8b bec0 2bc7 bec0
000002d0: f2ca bcbe 6781 bfc0 0391 f9bd d462 a03e
000002e0: 442e 90bf 56c8 bfc0 e672 85bf b380 bec0
000002f0: 9219 bfc0 101d c0c0 c597 ef3e 354d bfc0
00000300: 5de8 bfc0 74f9 bec0 5e32 c0c0 85e6 bec0
00000310: 080a c0c0 9ea0 bfc0 0f86 bec0 fbc4 bec0
00000320: 7fbe bec0 013f bfc0 78e8 bec0 4114 bfc0
00000330: 95f2 bfc0 2b7c 44bf 5592 bec0 de9d bfc0
00000340: 056c bfc0 5e6d bfc0 a4f0 26bf 5cd4 bdc0
00000350: c2d9 b43e d7b7 23bf 2792 bec0 cf27 bfc0
00000360: d7b1 bec0 f516 bfc0 67db bec0 ab54 c03e
00000370: ed63 bfc0 13f9 bdc0 1a6b e0be 38a3 bfc0
00000380: cafa bec0 96d2 bfc0 221f bfc0 8010 bfc0
00000390: 6251 c0c0 16bb bfc0 fb7e bfc0 ac75 bfc0
000003a0: 0e27 a1bf 6b9d bfc0 3bb6 bfc0 22c5 bec0
000003b0: 9e4d bfc0 6e42 bec0 34ea bfc0 717a bfc0
000003c0: f413 bfc0 62f3 bec0 a133 bfc0 4acc bfc0
000003d0: 0b8f 85bf 9f1e bfc0 81de bec0 fcc2 babe
000003e0: 4b7b bfc0 78a9 bfc0 87e7 bec0 a7c8 bec0
000003f0: 44fe bec0 8fbd 94bf 7cd1 65bf 0b96 513e
0.54478234 0.4858749 0.4902007 0.41252688 0.5772018 0.51279134 0.44017813 0.5041983
0.5359628 0.5008463 0.4452832 0.4919812 -5.944046 -1.7254711 -0.97510916 -5.993083
-2.1820548 -5.996619 -2.1751351 -1.8784627 -5.9716253 -5.9882116 0.59663796 -5.9738717
-5.9695244 -0.1979659 -5.9348803 -6.0068283 -5.9601197 -5.968614 -0.14447054 -5.9795117
-5.9617763 -5.98304 -5.9644837 0.48773172 -0.22173384 -5.9635606 -5.981437 -5.939673
-5.9469333 -5.969479 -5.9936595 -5.984397 -5.97509 -5.952744 -5.983412 -5.959468
-0.26610246 -0.85150677 -5.975476 -5.924383 -1.3097687 -5.965672 -5.95091 -5.9635572
-5.9640718 -5.999991 -5.980772 -5.95548 -6.0029507 -5.993447 -5.957002 -5.9609294
-0.21302512 -5.981544 -5.960491 -5.9822617 -5.972187 -5.974412 -5.956739 -5.9771323
-5.9952188 -5.928417 -5.970797 -5.991584 -5.9931765 -6.004266 -5.9716086 -5.99208
-5.9630246 -0.245156 0.36600864 -5.966707 -5.960942 -5.9529037 -5.9600234 -5.973762
0.11820742 -5.9507256 -5.9335012 -5.9779587 -5.971416 -5.998504 -5.9667225 0.41251886
-5.990903 -5.978227 -5.9845366 -5.9676647 -5.9790854 -5.9685864 -5.979763 -5.967979
-5.931961 -5.9651446 -5.9674087 -5.9752846 -5.968427 -5.9898763 -5.966594 -5.994972
-5.9819484 -5.9482856 -0.047380198 -5.957807 -5.984624 -5.982124 -5.94412 -5.9868784
-5.94985 0.046912737 -5.931707 0.46449646 -5.9797163 -5.9843364 -5.9531455 -6.001944
-5.9874806 -5.9730825 -5.965058 -5.968498 -5.9726233 -0.19501567 -5.980105 -0.29266033
-0.46878743 -5.964202 -5.9832954 -5.968886 -5.9604316 -5.998566 -5.9686275 -5.984224
0.20155115 -5.980973 0.44557506 -5.98877 -0.30824652 -5.9860754 -0.5835438 -0.008562702
-5.9484286 -5.9899945 -5.967934 -6.0022755 -5.99439 -1.1260762 -6.007697 0.26317632
-5.9757757 -6.000838 -6.012584 -6.0141077 -6.0041194 -1.6187513 0.4861989 -5.9512234
-5.9976983 -5.9884863 -5.9873805 -6.005268 -5.902614 -5.980164 -5.954703 -5.9726076
-5.9548 -5.976217 -5.9545565 -5.9618125 -0.36873585 -5.984546 -0.12185862 0.313254
-1.1264119 -5.993205 -1.0425689 -5.9532104 -5.9718714 -6.0035477 0.46795478 -5.9781747
-5.9971147 -5.967951 -6.0061483 -5.9656396 -6.0012245 -5.9883566 -5.9538646 -5.9615455
-5.960754 -5.976441 -5.9658775 -5.9712224 -5.998362 -0.76751965 -5.955363 -5.988021
-5.981936 -5.9821005 -0.6521094 -5.932173 0.35322386 -0.6395239 -5.955341 -5.9736094
-5.959209 -5.9715524 -5.9642825 0.37564597 -5.980948 -5.9366546 -0.43831712 -5.988674
-5.968114 -5.9944563 -5.9725504 -5.970764 -6.0099344 -5.9915876 -5.9842505 -5.9831142
-1.2590044 -5.987966 -5.990995 -5.961564 -5.9782248 -5.945609 -5.9973392 -5.9836965
-5.9711857 -5.96721 -5.9750524 -5.9936876 -1.0434278 -5.972488 -5.964661 -0.36476886
-5.9838004 -5.989437 -5.9657626 -5.9619937 -5.9685383 -1.1620349 -0.8977277 0.20467393

embed_cp.weight_mu f4 [620, 10]
00000000: e9b8 ee3b 8d28 843d a3b2 d8bd 7c57 a0be
00000010: 7594 2abe 7a07 da3d 298c 193e 4adf f43a
00000020: d5f8 debd e38b 1bbe f085 6e3a 8424 88ba
00000030: 5a06 3bbf 2d72 ccba 3a20 1f3f c341 143b
00000040: a498 7e39 c5ce 34bc a0b6 45b8 5489 22ba
00000050: 1656 afbd 738a acba cfb6 93be 9d92 133b
00000060: 6841 113a 92d3 833a 00a1 9a3a 8701 83bc
00000070: de4d 80ba 9aee 82b8 5dca b73a d8d0 63ba
00000080: 01ee 2c3a 0213 d2b9 f2c5 b1be 883e 55b9
00000090: dcbb 4fb9 fed2 0a3b b1d6 933b e416 acba
000000a0: 46a2 833e 01ee 5bbe c180 6e3d 8e72 4e39
000000b0: 4599 18be cc47 9e3c c66d a23e e46c 163e
000000c0: deae bf3d 1f8a a43e e4fc bbb9 c1d7 573e
000000d0: ff01 0e39 104d 763d c59a 10b9 ee9d 1bbe
000000e0: 54d3 0a3a 3acc 183a 31e6 1d3e a7fa 97be
000000f0: 0c13 873d 5075 003e e3e1 66be adf3 c8bc
00000100: e9c0 daba a526 84b9 4225 e5bd 50c1 d43a
00000110: 0c33 453e bd16 86bd fb4e 34be d4ab 4f3f
00000120: 3f36 05bf 7943 44bd a3e4 a63e 7024 1b3a
00000130: 42f7 a1ba b04a 1dba 3b88 8ebd 4e2c baba
00000140: 3b80 3f3e 1bb0 1c3b f610 3cba e67e 1438
00000150: 5b77 103a 4ba2 95bd a5b8 113a 8643 2bba
00000160: 2c53 23ba 76fa 2dbc 71e4 64bd 6cd3 01bb
00000170: 395c 973a 9592 94b9 7d35 72ba 4f81 1bbb
00000180: d5fd a33e 09ae 47bd 7e4a a5b9 4e83 1b3f
00000190: c9d6 733e 7de3 d8bf cfb6 8eb9 b3fd 2d3f
000001a0: 9382 8cbf 4383 0c3b 6ed5 d93a 9885 f83d
000001b0: 16fc febd 82ed e03a c5d2 d539 940d 1cbe
000001c0: c2b4 f938 72e8 4c39 a0cc 9837 e6be 7eba
000001d0: b19b 97b9 a471 91ba 4481 863a 6c0f fdb8
000001e0: cea8 913c 564f efba e394 a43e dce6 163a
000001f0: 30b7 99ba 592b f23d a0eb e639 ebd1 c5bd
00000200: e304 0fbe 4def e73a ee71 613e 2a88 abba
00000210: 55a4 883f 25f9 22ba ba11 a9ba bdbc a23e
00000220: e46c bf3e 2be8 883d d9dd 11b8 9acb b73a
00000230: 7c9a e339 869e d3ba 733f 3f40 3f3a cdba
00000240: baa1 f4bf 88a9 d23f fb1f 93ba 10ac 01ba
00000250: 3c0d f3b9 5d6b ec39 42b9 a53e 8c1b 4db9
00000260: a9f4 d0b8 0ed2 7e3a e2fc 3cbf 28c4 823e
00000270: b86c 913e 86a8 183e c283 b9ba a847 ea39
00000280: 0a76 643a 9374 cfba 89fb 01ba fd78 9139
00000290: 1838 e839 6fbc de39 9ec0 14ba aa0c f738
000002a0: a492 653a 40bc 7b3a 83ef c33a 896e 98bf
000002b0: de10 0e3a b04e 3db8 6cfa b939 5748 013f
000002c0: be6d 1aba c0aa ecbd c28a 06b9 12b5 543f
000002d0: 6093 a53a ea42 bfb9 11cf 4b3f 73e1 9cbd
000002e0: dfe8 22ba c3a8 d93e 0083 2537 f77c 6d3e
000002f0: 22c8 41b9 4631 6b39 f2f7 85be 7055 e1ba
00000300: 2c92 85be 309e 2fb8 760d 4a3e d11f b9bd
00000310: d403 4b3a de44 2a3e ba76 483d 4735 4abe
00000320: 80ac 4835 55e9 07bd a4d2 afbe 4766 3c3e
00000330: 406a dd39 564a cbbd 5288 24be a520 443a
00000340: 357a 1eba ceab 18bc 32aa dc38 442e e838
00000350: 05ed a03e 5fbe dbbe 9834 7d3b f7e7 63bd
00000360: b3c7 433a 6f01 adbe 1b46 7ebe 1d74 41bd
00000370: 248d a33e 4b7c 6abe 701f 533e 945b e93d
00000380: 0bef e0be 591c 273a 8d55 3fbd 4245 b539
00000390: d343 8f3d 686e 963e 6f91 02ba e988 27bf
000003a0: 946c 153f 531c 86ba 2086 55ba 33a1 0e3b
000003b0: a8c2 4c38 1d26 093e fb3a 123e 75bc 8d3e
000003c0: fa8f 61b9 30c4 bfbb 9a54 113d 0e32 a13d
000003d0: 18d4 21be 4566 883d 8dbf 4fbe e05f debd
000003e0: f303 f3bd d55e b9bd c089 dab8 b09d caba
000003f0: 8b8a aaba 61f9 1aba e629 253f 8392 90be
0.0072852266 0.06453047 -0.10580947 -0.31316745 -0.16658194 0.10645957 0.14994873 0.0018682268
-0.10887305 -0.15190081 0.0009098938 -0.0010386859 -0.73056567 -0.0015597992 0.6215855 0.0022622205
0.0002428019 -0.011035626 -4.7138543e-05 -0.0006200273 -0.085613415 -0.001316382 -0.2885041 0.0022517808
0.00055410573 0.001005756 0.0011797249 -0.01599194 -0.0009788831 -6.243326e-05 0.0014022101 -0.0008690483
0.00065967446 -0.00040068483 -0.34721333 -0.00020336558 -0.00019811041 0.002118289 0.004511677 -0.001312938
0.25709742 -0.2147751 0.058228258 0.00019688366 -0.14902218 0.019321345 0.31724375 0.14689976
0.09359525 0.32136628 -0.00035855838 0.21078397 0.00013542919 0.060132086 -0.00013790566 -0.15196964
0.00052957726 0.0005828772 0.15419842 -0.2968342 0.0659543 0.12544751 -0.22547106 -0.024530256
-0.0016689572 -0.00025205794 -0.11188747 0.0016231928 0.19257754 -0.06547306 -0.17608254 0.81121564
-0.520359 -0.04791591 0.3259631 0.00059182104 -0.0012357014 -0.0006000204 -0.06959578 -0.0014203878
0.1870126 0.0023908678 -0.0007174158 3.5404133e-05 0.00055109494 -0.073063456 0.0005558825 -0.0006533194
-0.000623035 -0.010618797 -0.05588192 -0.0019809855 0.001154787 -0.00028337972 -0.0009239538 -0.0023728197
0.32029596 -0.048749957 -0.00031526753 0.6074723 0.23812403 -1.6944424 -0.00027220554 0.6796524
-1.0977348 0.0021440543 0.0016619393 0.12134856 -0.12450425 0.0017160627 0.0004078356 -0.15239555
0.00011906914 0.00019541549 1.8215098e-05 -0.0009717777 -0.00028916963 -0.001109649 0.0010261913 -0.00012066853
0.017780688 -0.0018257897 0.32144842 0.00057564466 -0.0011727568 0.11824674 0.00044044573 -0.09659179
-0.13966708 0.0017695219 0.22016117 -0.0013086845 1.067515 -0.0006216935 -0.001289896 0.3178462
0.37387764 0.066849075 -3.4777306e-05 0.001402247 0.00043411914 -0.0016145266 2.9882476 -0.0015657617
-1.9111855 1.6457987 -0.0011224741 -0.0004946599 -0.00046358432 0.0004509342 0.32367903 -0.00019560585
-9.9637844e-05 0.00097206316 -0.7382337 0.2554028 0.28403258 0.14908037 -0.0014153647 0.00044685346
0.0008715099 -0.0015827589 -0.0004958441 0.00027746698 0.0004429228 0.00042483534 -0.0005674454 0.00011780237
0.0008757508 0.00096029416 0.0014948699 -1.1908733 0.00054193835 -4.5134395e-05 0.00035472529 0.50501007
-0.00058909866 -0.115560055 -0.00012830927 0.8308879 0.0012632422 -0.00036480214 0.79612833 -0.076601885
-0.000621451 0.42511567 9.865267e-06 0.23192202 -0.0001848047 0.00022429702 -0.2616573 -0.00171916
-0.26088083 -4.1870575e-05 0.19731697 -0.090392716 0.0007744406 0.16627833 0.04894135 -0.19746886
7.4756827e-07 -0.033181507 -0.34340394 0.1839839 0.00042231567 -0.09926288 -0.16067627 0.0007481671
-0.0006045432 -0.009318305 0.00010522119 0.0001107124 0.31430832 -0.4291868 0.0038636085 -0.05564114
0.0007468417 -0.33790156 -0.2483143 -0.047229875 0.3194362 -0.22898977 0.20617461 0.1139442
-0.43932375 0.00063747686 -0.046712447 0.0003457461 0.06995358 0.29381108 -0.0004980778 -0.65443283
0.583688 -0.001023183 -0.00081452914 0.0021763563 4.8818678e-05 0.13393445 0.14280312 0.27682844
-0.00021511308 -0.005852245 0.035481073 0.07870875 -0.15803564 0.06660131 -0.20287915 -0.108581305
-0.11865988 -0.09051291 -0.00010420708 -0.0015458371 -0.001301126 -0.0005911794 0.64517057 -0.2823678

embed_cp.weight_rho f4 [620, 10]
00000000: aa90 153f d7dc 033f 8bf5 033f 8c92 ce3e
00000010: b3a5 013f c7af fe3e b058 0e3f 2f90 063f
00000020: 0917 e43e e5ed 083f 6e33 c0c0 1c4e bfc0
00000030: cc6a c9bf e4da bec0 d98b 98bf 06fa bdc0
00000040: 1278 bfc0 8249 013f 37fc bdc0 e051 bec0
00000050: fe08 f73e 10f7 bec0 e49d d8be 98ca bec0
00000060: 864a bfc0 9395 bec0 a320 bfc0 73fa f93e
00000070: db9d bfc0 da05 bfc0 81e8 bec0 9e9d bfc0
00000080: edfa bec0 3a93 bec0 dd61 ca3e 0dc3 bec0
00000090: 3680 bfc0 d7f0 bec0 19ba 0d3f ce84 bfc0
000000a0: fe32 57be 3792 0ec0 f865 e5bf 7945 bec0
000000b0: ffd9 96bf e2a4 81bf 77dc b3be 144a e53e
000000c0: 7511 493e 0616 c1bf b35b bfc0 e908 623e
000000d0: 57ad bec0 5480 003f 288e bec0 5e57 d23e
000000e0: e1b1 bec0 c039 bfc0 7e81 fc3e 4629 2c3e
000000f0: f559 e33e 386b 89bf d8a7 81bf dc17 c23e
00000100: ebda bec0 ffad bec0 9c40 993e ee94 bfc0
00000110: 2e09 ca3e 48b9 c0be fad5 483e 5a6e 00bf
00000120: 008f 64be 126c d73e 098f 42be fc67 bfc0
00000130: 221e bec0 6a85 bfc0 2290 f33e b4f8 bec0
00000140: a99b f63e 5589 bfc0 ef3d bfc0 15e5 bec0
00000150: 74d6 bec0 eb7c 053f 6ca8 bec0 4a20 bfc0
00000160: 060d bfc0 5247 ff3e aedb 893e 78df bdc0
00000170: 721f bec0 44e9 bfc0 41f3 bec0 8a42 bfc0
00000180: 8df5 0c3c 411b 083f 3272 bfc0 ddfc 64bf
00000190: e66d 4c3e 5911 7abf ab1a bfc0 94c3 8ebd
000001a0: caa0 c1be 1c57 bec0 bb2a c0c0 f8fd fa3e
000001b0: 25e5 c83e 84ee bec0 13f0 bdc0 b8ec 163f
000001c0: 3b9a bec0 88c0 bec0 ae0c bfc0 c6a9 bfc0
000001d0: 2f43 bfc0 d829 bfc0 1e6b bec0 ffd9 bfc0
000001e0: 1338 063f 4b38 c0c0 a2c2 cbbe acf4 bec0
000001f0: 71c9 bfc0 9e69 df3d 3ef8 bec0 2c16 f43e
00000200: 7898 003f c332 bfc0 f08e b93e 68a3 bec0
00000210: 0f31 03bf afb9 bec0 363b bec0 b9d5 b7bc
00000220: 6751 953e fd9b 053f 13a9 bec0 a0e7 bfc0
00000230: 33c3 bec0 5ae5 bec0 3ee8 153e df5b bec0
00000240: 8ab1 c03e b86b ed3e ccc0 bec0 7b4c bfc0
00000250: f142 bfc0 6ec9 bdc0 add6 5f3e 9568 bfc0
00000260: 200d bfc0 87b3 bfc0 a2ac 13bf 3a7c a9be
00000270: 6f0b a33e d25a f43e 1285 bfc0 3f21 c0c0
00000280: 9b31 bfc0 39a3 bfc0 061b bec0 97dd bfc0
00000290: 583d bec0 981a bec0 405b c0c0 31de bec0
000002a0: 04fc bdc0 ab5f bfc0 968a bfc0 12fd e5bf
000002b0: 4e61 bfc0 590d bfc0 a02b bec0 5324 2dbf
000002c0: a15f bec0 cc0f c33e e69e bfc0 daad 9abf
000002d0: 747b bfc0 38c5 bec0 cf4a f7bf 27bf 5dbc
000002e0: d485 bec0 d7c9 92bf cdc4 bec0 92b5 b93e
000002f0: 1ec3 bfc0 d246 c0c0 0404 103e a9b7 bec0
00000300: c24d 7dbf e30b bec0 56db 5dbf 43de 25bf
00000310: 7030 bfc0 d52d ba3e d1a7 d73e e341 66bf
00000320: 8b77 bec0 990c 9abe d62a 9bbe 34aa bf3e
00000330: 1dbc bfc0 f2d6 b93e 744b d83e 9e56 c0c0
00000340: d531 bfc0 f494 2c3d 69db bfc0 e6ff bec0
00000350: 2462 c4bf c101 42bf 2d46 bfc0 4814 99bf
00000360: 40b8 bfc0 ec5a c53e 40fb e23c cf05 91bf
00000370: 60ff b13e a2dc 23be d910 04be 921b f13e
00000380: e70f 1ebe 0f00 bfc0 244a 063f a950 bfc0
00000390: 84bf 0a3f 0a90 0d3d 759c bfc0 be27 1cc0
000003a0: 88c4 1dc0 8335 bfc0 1ee0 bec0 7c1d bfc0
000003b0: a257 bfc0 4f41 033e 52ff e5be 70af 01c0
000003c0: d22e bfc0 97cd 1ec0 a01e 03c0 4ab3 10bf
000003d0: 017e dcbf 4b89 cdbf 9977 30bf b783 ea3e
000003e0: 14c0 be3c 4c03 e9bf 1f4c bfc0 5acf bec0
000003f0: 4e5e bfc0 52ee bec0 0404 c0be c893 03bf
0.58423865 0.5150885 0.51546544 0.4034618 0.5064346 0.49743482 0.55604076 0.52563757
0.44548824 0.53488 -6.006278 -5.978285 -1.5735717 -5.96422 -1.1917678 -5.9367704
-5.983407 0.5050279 -5.937038 -5.9474945 0.48249048 -5.967659 -0.4230796 -5.9622307
-5.977847 -5.9557586 -5.972734 0.4882389 -5.9880195 -5.9694643 -5.965882 -5.9879904
-5.9681306 -5.955472 0.3952779 -5.96131 -5.9844007 -5.9668994 0.5536209 -5.9849615
-0.21015546 -2.2276742 -1.7921743 -5.9459805 -1.1785277 -1.0128443 -0.3512914 0.4478308
0.19635566 -1.5084846 -5.9799438 0.22073711 -5.9586596 0.50195813 -5.954853 0.4108228
-5.9592137 -5.9757996 0.49317545 0.1681262 0.4440457 -1.0735846 -1.0129347 0.37908828
-5.9642234 -5.9587398 0.29932106 -5.98693 0.3946013 -0.37641358 0.19612876 -0.50168383
-0.22320175 0.4207464 -0.18999876 -5.9814434 -5.9411783 -5.985036 0.47570902 -5.9678593
0.48165634 -5.985514 -5.9763103 -5.965464 -5.9636784 0.52143735 -5.9580593 -5.9726915
-5.97034 0.498591 0.26925415 -5.933529 -5.9413385 -5.997225 -5.967194 -5.9768724
0.008603466 0.53166586 -5.98269 -0.8944834 0.19963798 -0.9768272 -5.9720054 -0.06970897
-0.37817985 -5.9481335 -6.005216 0.49021888 0.39237323 -5.9666157 -5.935556 0.58954954
-5.956327 -5.9610023 -5.970298 -5.9894743 -5.976951 -5.973858 -5.950576 -5.995361
0.5242931 -6.0068717 -0.3979693 -5.967367 -5.99334 0.10908817 -5.967803 0.47673166
0.5023265 -5.9749465 0.36241865 -5.957447 -0.5124673 -5.9601665 -5.944728 -0.022440778
0.29163668 0.52191144 -5.958139 -5.9970245 -5.961328 -5.965497 0.14639375 -5.9487147
0.37635452 0.46371245 -5.961035 -5.978086 -5.9769216 -5.9308386 0.21859236 -5.9815164
-5.970352 -5.990665 -0.5768529 -0.3310259 0.3184466 0.4772554 -5.984994 -6.0040584
-5.9748054 -5.9886746 -5.9407988 -5.9957995 -5.9449883 -5.9407463 -6.011139 -5.964623
-5.9370136 -5.980428 -5.985667 -1.7967856 -5.980628 -5.9703794 -5.9428253 -0.6763355
-5.9491735 0.3809799 -5.988147 -1.2084305 -5.98382 -5.9615746 -1.9319705 -0.013534344
-5.9538364 -1.1467847 -5.9615235 0.3627134 -5.992568 -6.008645 0.14064032 -5.9599195
-0.98946774 -5.938951 -0.86662805 -0.6479227 -5.974663 0.36363092 0.4212022 -0.89944285
-5.9520926 -0.30087736 -0.3030612 0.37434542 -5.991713 0.36296803 0.42245066 -6.0105734
-5.974833 0.04213424 -5.9955335 -5.9687376 -1.534245 -0.75783926 -5.9773164 -1.1959314
-5.9912415 0.3854593 0.027707696 -1.1329898 0.34765148 -0.16002133 -0.12897052 0.47091347
-0.15435754 -5.968757 0.5245688 -5.978596 0.5419848 0.034561194 -5.9878488 -2.4399257
-2.4651203 -5.975282 -5.964858 -5.972349 -5.9794474 0.12817882 -0.44921356 -2.0263329
-5.9744654 -2.4812982 -2.0487442 -0.56523573 -1.7225953 -1.6057523 -0.6893249 0.45803615
0.02328495 -1.8204131 -5.978042 -5.9628115 -5.980262 -5.966592 -0.37503064 -0.5139737

attention_dp.context_mu f4 [13]
00000000: 10fb 9c3a 4a0d c6bc 6f48 15bb 05d8 0ebd
00000010: 8f5f 2a3b 0ec5 6ebf 041d 05b9 6469 803a
00000020: c6a1 8739 bd78 413b 5d4a 52ba 4fed c0b9
00000030: 10e3 27bd
0.0011976678 -0.024176259 -0.002277877 -0.03487398 0.0025996899 -0.9326943 -0.00012694678 0.0009797034
0.00025869737 0.0029521429 -0.0008021945 -0.00036797902 -0.040988028

attention_dp.context_rho f4 [13]
00000000: 2854 bec0 c7eb 55c0 975e bdc0 085c e9bf
00000010: fae7 bdc0 6067 9cc0 967e b4c0 23a1 bdc0
00000020: 9906 bbc0 db2d bfc0 3025 bfc0 18a3 b8c0
00000030: 11e7 29c0
-5.947773 -3.3425157 -5.9177966 -1.8231211 -5.9345675 -4.887619 -5.6404524 -5.92592
-5.8445554 -5.9743476 -5.9732895 -5.769909 -2.6547282

attention_dp.linear_hidden.weight_mu f4 [13, 13]
00000000: c037 8eb8 1c07 543a f3aa 7aba f7d7 6dba
00000010: 4630 85b9 fae3 8e3a da7d eb39 4235 e7ba
00000020: 71a2 eeba 96fb 193b 3c01 f7b8 16bb 3139
00000030: dcb5 2cba 55d2 88ba dd09 a7b9 1d5a 3e3a
00000040: 3cfd 0fbb 8aae 38bb ba30 04ba 75e5 d63a
00000050: 5143 883e 86cc bcbd 282d f63d 1634 8a3a
00000060: 744f 80ba ce2e c63a 8034 28ba 2743 723e
00000070: 5499 2ab9 0706 a83a 5203 213b e334 8a3a
00000080: d899 13bb 3c89 10ba 3b04 8aba 23ca 63ba
00000090: a734 a13a e12f bc3a 4ff6 073b f8a9 c439
000000a0: cb16 92bc 5dda 9dba b665 66bb f41b e4b8
000000b0: b8ba 9a39 0043 3338 f2ed d539 c2a6 0fbb
000000c0: f101 c13a c4c2 92ba c9a8 d93a 1819 9d3a
000000d0: 3f46 94ba ae54 42ba 84fd babd 6f18 26b9
000000e0: 26cf beb8 0aa7 6c39 6168 823a 603e 20ba
000000f0: 287f 223a e07e 8539 4af5 abb8 ab6e 03bb
00000100: e78e 143e c78a 36be 28f2 a13f 9fa6 0f3a
00000110: 4cbf 93ba d0be bc3e 6ebc 523a 2d7a 123f
00000120: 1fc1 e83f 9319 e939 6bdf 4dbb ea0f ed39
00000130: a784 7bba 864a 9a39 ca5a 16bd 3524 4b3e
00000140: 54ee 333a 2ad0 4cbe 26b4 47ba 0df0 363a
00000150: d3ae 7abe fcb6 533a 04b6 2dba 5009 4eba
00000160: f1b1 50ba 08c3 acb8 a080 ad36 4e39 b53a
00000170: 00d2 543a cefc 833e fd47 f63a 3c45 e03d
00000180: 2662 52bd 6005 4fb9 70ca a33a a3c3 863a
00000190: 3989 38ba 3ec4 4939 d745 023b 143b 4c3a
000001a0: ae85 1839 cc84 013b 2a04 c8ba e225 cd39
000001b0: a844 ad3a 76bb 573d ebac fc3a 4650 a73d
000001c0: 80c5 543a 0332 e439 8a37 70ba a824 f039
000001d0: 5758 a4ba 3a7c 4839 db99 4539 a85a 91b9
000001e0: 442b dab9 3c51 1db9 929b bcb9 ecad c33a
000001f0: a681 e8b7 7458 d6b8 7946 c5ba f07d f2b8
00000200: 5dfd f3ba 9d47 1fbb f816 0fba 00f7 2f38
00000210: 0495 a13a c872 13b8 de2a 09bb fcf0 71ba
00000220: bb9b 39bb 4445 1a39 2091 ae3a 3974 74ba
00000230: 0d59 153a bf3e 57ba 3003 32b7 ff3a baba
00000240: b75e c9ba b9f3 a0ba 8239 c7b9 6660 88ba
00000250: f8ea d1ba 9dfd 803e fa37 3139 edb5 ca3a
00000260: 9d6e a3ba 64b3 d335 6c81 30ba 2521 d7ba
00000270: 1c45 923a 60f3 c53d b629 8c3b adb6 1cba
00000280: 0ad7 24b9 8ae1 cab9 5f3b 1f3a 59b5 a039
00000290: cdf4 4db9 718b 42ba 666e 993a f6a0 13bb
000002a0: 32b2 c03a
-6.781472e-05 0.00080882176 -0.00095622166 -0.0009073014 -0.00025403703 0.0010901683 0.0004491646 -0.0017639773
-0.001820637 0.0023495904 -0.00011778108 0.0001694973 -0.00065883785 -0.001043866 -0.0003186007 0.0007261353
-0.0021971008 -0.0028180205 -0.0005042661 0.0016395288 0.26613858 -0.09218697 0.120203316 0.0010544087
-0.0009789304 0.001512015 -0.00064165145 0.23658429 -0.00016269583 0.0012819179 0.002456863 0.0010544326
-0.0022522118 -0.00055136136 -0.0010529825 -0.00086894835 0.0012299017 0.0014357531 0.0020746177 0.0003751067
-0.017833134 -0.0012043227 -0.003515584 -0.00010877094 0.00029512285 4.2739324e-05 0.0004080381 -0.0021919464
0.001472531 -0.0011196961 0.0016606088 0.0011985628 -0.0011312439 -0.0007413131 -0.091303855 -0.00015840096
-9.0984904e-05 0.00022568941 0.000994932 -0.000611281 0.00061987573 0.00025462266 -8.199604e-05 -0.0020054977
0.14507638 -0.17826377 1.2652025 0.00054798456 -0.0011272221 0.36864328 0.00080389425 0.57217675
1.8183936 0.00044460277 -0.0031413685 0.0004521602 -0.0009594657 0.00029428693 -0.036707677 0.1983803
0.0006863822 -0.20001283 -0.0007618092 0.00069785194 -0.24480753 0.0008076278 -0.0006626549 -0.0007859664
-0.00079610856 -8.2379265e-05 5.1707757e-06 0.0013826282 0.00081184506 0.25778812 0.0018789765 0.109507054
-0.051363133 -0.0001974306 0.0012496244 0.0010281693 -0.0007039491 0.0001924196 0.0019878054 0.0007790786
0.00014545649 0.001976299 -0.001526003 0.00039128872 0.0013219314 0.05266901 0.0019277608 0.08169608
0.0008116588 0.0004352481 -0.00091635494 0.00045803678 -0.0012538534 0.00019119764 0.000188447 -0.000277241
-0.00041612436 -0.00015002949 -0.00035974063 0.0014929152 -2.7716927e-05 -0.00010220791 -0.001505091 -0.00011562917
-0.0018614937 -0.002430416 -0.00054584397 4.1953288e-05 0.0012327735 -3.515443e-05 -0.0020930092 -0.000922933
-0.0028321582 0.00014712388 0.0013318397 -0.000932518 0.00056971685 -0.0008210949 -1.0610369e-05 -0.0014208256
-0.001536331 -0.0012279666 -0.00037999084 -0.0010404706 -0.0016015461 0.25193492 0.00016900888 0.0015465595
-0.0012468878 1.5772935e-06 -0.00067331525 -0.0016413076 0.0011159512 0.09665561 0.0042774333 -0.00059781485
-0.00015720367 -0.00038696482 0.00060742156 0.00030652693 -0.00019641519 -0.0007421291 0.0011705875 -0.002252636
0.0014701544

attention_dp.linear_hidden.weight_rho f4 [13, 13]
00000000: 3e4f bec0 f776 bfc0 14c3 bfc0 1566 bec0
00000010: 7ce5 bec0 7931 c0c0 2b0d bfc0 10e4 bfc0
00000020: c70c bfc0 56df bec0 59e1 bec0 3f31 bfc0
00000030: 803f bec0 6666 bec0 4dfe bfc0 7fd7 bec0
00000040: ae43 bfc0 2130 bfc0 c575 bfc0 2a32 bfc0
00000050: d418 a9bf 554f eabc 86b4 b6bf 486b bfc0
00000060: 6978 bec0 be18 bec0 8f80 bfc0 126f e13e
00000070: 1042 bfc0 56ee bec0 427a bdc0 b614 bfc0
00000080: 98b5 bfc0 6862 bfc0 b1a7 bfc0 ea8e bec0
00000090: dec8 bfc0 9e9a bfc0 3389 bec0 3cc7 bec0
000000a0: 3caf 22c0 bb2e bfc0 f934 bec0 948d bec0
000000b0: ba5e bec0 87c5 bdc0 aee7 bec0 ca7e bfc0
000000c0: d493 c0c0 b506 bfc0 1322 bfc0 59e5 bdc0
000000d0: 21c2 bec0 b24f bfc0 1526 083f bbb4 bfc0
000000e0: 8d5f bec0 a7fc bec0 0387 bec0 54f4 bec0
000000f0: 23ff bdc0 7fe5 bfc0 9252 bfc0 da51 bec0
00000100: 7d3c d83e 3a6d 42c0 7308 2fc0 98d4 bec0
00000110: 0b9b bec0 d291 67c0 59e8 bec0 9e14 5ac0
00000120: 3b48 1bc0 bda3 bdc0 b782 bec0 3996 bdc0
00000130: e0bb bdc0 7df6 bfc0 55a8 0a3f a8ba 063f
00000140: 12c5 bec0 2841 eb3e 6ebe bfc0 000e bfc0
00000150: 6f86 b33e fe5b bfc0 69c9 bdc0 19f1 bdc0
00000160: ff77 bfc0 fce8 bec0 afa5 bec0 02e7 bfc0
00000170: fa8f bec0 3df9 e83d ebf9 bec0 fb86 f23e
00000180: 8c77 0f3f 3817 c0c0 a4f1 bdc0 5ca1 bfc0
00000190: 726e bec0 95a3 bfc0 b9c1 bec0 59e1 bec0
000001a0: 83fa bec0 b8b8 bec0 a20b bfc0 e707 c0c0
000001b0: 04ba bec0 f03e 103f 9861 bfc0 fa51 043f
000001c0: 9908 c0c0 7384 bdc0 999b bfc0 f80a c0c0
000001d0: 326b bec0 bd16 bfc0 2637 bfc0 dfd0 bdc0
000001e0: c4ba bfc0 0bab bec0 d03e bfc0 a316 bec0
000001f0: 0930 bfc0 ecb8 bec0 8f16 c0c0 3b13 bec0
00000200: bf6c bfc0 1bd6 bfc0 7fb9 bec0 1ac3 bec0
00000210: 54bd bfc0 d25c bec0 3225 bfc0 834d c0c0
00000220: b0eb bec0 6828 bfc0 484e c0c0 2759 bec0
00000230: 1c3b bfc0 c1b2 bec0 812c bfc0 43d3 bec0
00000240: 96d4 bfc0 a509 bfc0 67c0 bfc0 8634 bfc0
00000250: d87f bfc0 c8de 013f 6342 bfc0 a54a bec0
00000260: 8385 bec0 457d bfc0 4b5a bfc0 5f41 bfc0
00000270: 0fdd bdc0 84c2 b6bf 0e2a 93bf 9fd0 bfc0
00000280: fe91 bfc0 9bef bfc0 21ad bec0 4111 bfc0
00000290: f258 bfc0 ee27 bfc0 906d bec0 64c5 bec0
000002a0: c561 c0c0
-5.947173 -5.983272 -5.9925632 -5.949961 -5.965513 -6.006039 -5.9703574 -5.9965897
-5.9703097 -5.9647627 -5.9650083 -5.9747615 -5.9452515 -5.95 -5.9997926 -5.9638057
-5.9770117 -5.974625 -5.983126 -5.9748735 -1.3210702 -0.028602282 -1.4273841 -5.981846
-5.9521985 -5.9405203 -5.984443 0.44030052 -5.9768143 -5.9665937 -5.921174 -5.971278
-5.990917 -5.9807625 -5.98922 -5.9549456 -5.99327 -5.987624 -5.954248 -5.9618206
-2.5419455 -5.9744544 -5.9439664 -5.9547825 -5.9490633 -5.930362 -5.965781 -5.984227
-6.0180454 -5.9695687 -5.9729095 -5.9342465 -5.9611974 -5.9784784 0.5318311 -5.990812
-5.949164 -5.9683414 -5.953981 -5.967325 -5.9373946 -5.9967647 -5.9788294 -5.9474916
0.4223365 -3.0379167 -2.7348907 -5.9634514 -5.956426 -3.6182752 -5.9658628 -3.4075084
-2.4262836 -5.9262376 -5.9534564 -5.9245877 -5.929184 -5.998839 0.54163104 0.52628565
-5.9615564 0.45948148 -5.991996 -5.970459 0.35063502 -5.9799795 -5.930836 -5.935681
-5.983398 -5.9659405 -5.957725 -5.996949 -5.9550753 0.113756634 -5.9680076 0.47368607
0.5604179 -6.0028343 -5.935747 -5.988447 -5.950982 -5.9887185 -5.961148 -5.9650083
-5.96808 -5.9600487 -5.97017 -6.0009646 -5.960207 0.56346035 -5.9806633 0.51687586
-6.0010495 -5.922418 -5.987744 -6.001339 -5.9505854 -5.9715257 -5.975482 -5.931747
-5.9915485 -5.9583793 -5.9764175 -5.9402633 -5.9746137 -5.9600735 -6.0027537 -5.9398475
-5.9820247 -5.994886 -5.9601436 -5.961316 -5.9918613 -5.9488306 -5.9732904 -6.009462
-5.9662704 -5.9736824 -6.009556 -5.948383 -5.9759655 -5.9593205 -5.9741826 -5.963289
-5.9947004 -5.9699273 -5.9922366 -5.9751616 -5.984356 0.5073056 -5.976854 -5.946612
-5.953798 -5.9840417 -5.979772 -5.97673 -5.9332347 -1.4278111 -1.1497209 -5.9942164
-5.9865713 -5.9979987 -5.958634 -5.970856 -5.9796076 -5.973624 -5.9508743 -5.9615955
-6.0119348

attention_dp.linear_hidden.bias_mu f4 [13]
00000000: 32a6 feb8 3c8b 203a ccb1 eb37 8dba 3eba
00000010: 3b07 b4ba 3422 afbb 8102 8a3a 0e96 5bba
00000020: 5514 80ba 69fa 47bb 2496 0aba 2ac4 c5ba
00000030: 7191 1a3a
-0.0001214262 0.0006124263 2.8096976e-05 -0.0007275723 -0.0013735065 -0.0053446535 0.0010529311 -0.0008376547
-0.0009771684 -0.0030514246 -0.0005286655 -0.0015088369 0.0005896306

attention_dp.linear_hidden.bias_rho f4 [13]
00000000: 2b65 bfc0 0f73 bfc0 fa64 bec0 1865 bfc0
00000010: 4712 bfc0 e5d7 bbc0 bfce bfc0 9da2 bfc0
00000020: 7583 bec0 28be bfc0 3588 bfc0 dd74 bfc0
00000030: 7391 bfc0
-5.9810996 -5.9827952 -5.9498262 -5.9810905 -5.970981 -5.8701043 -5.9939876 -5.9886003
-5.953547 -5.9919624 -5.985377 -5.9830155 -5.986505

attention_cp.context_mu f4 [11]
00000000: ab46 29bc aa74 25bd 491a 06bd 4366 a53d
00000010: bbd9 273c d39f 3ebd 00c7 5a3a c66e 76bb
00000020: 8cb8 d03c e870 03bd cf04 b4bb
-0.01033179 -0.040394463 -0.03273991 0.080761455 0.010244782 -0.04653914 0.00083456933 -0.0037602647
0.025478624 -0.032090098 -0.0054937373

attention_cp.context_rho f4 [11]
00000000: e328 46c0 9bfd 1cc0 58b3 51c0 b78f 2bc0
00000010: b338 2ec0 7281 27c0 e47c bcc0 c4fc 39c0
00000020: bf2b 36c0 ad9b 3cc0 547f 45c0
-3.0962455 -2.4529788 -3.2765713 -2.6806467 -2.7222106 -2.6172757 -5.8902454 -2.9060526
-2.84642 -2.9470017 -3.0858965

attention_cp.linear_hidden.weight_mu f4 [11, 11]
00000000: 3b57 0cbd 2cad 66b9 63c3 0b3e beee 053e
00000010: 5538 3b3e bad0 b7ba 39ee 5abe 5d9d 143e
00000020: 80ce 833e 33ec 303b 38f6 023e f26f b43c
00000030: bd3a dbba d45e a8bb 2696 5eba 23fe a8ba
00000040: 3349 6d3d 9c51 f339 ea98 0cba 3834 893e
00000050: 62ce f338 dabe d73a 2ea2 43ba 846c bf3d
00000060: bb4a 05bb 551c fe3c c285 103c 7522 283e
00000070: 6c00 003a 6088 35b7 95ba 91ba 1157 2fba
00000080: d09b a1bd 9231 8c3b 209f b839 84ee 51ba
00000090: cce1 adba 8e96 61bd 8426 a23b 53ec 423e
000000a0: 647b c0bd 7e11 003b f35a 97bd a694 d8b9
000000b0: 45ec deb9 4c29 043e b849 b2bd 689f 3fba
000000c0: 0846 b3b9 a348 dc3d 2415 f03d 936a 733d
000000d0: 3c00 bc3a e2f3 8cba e058 0a3b 34f9 81ba
000000e0: 08fb 03ba 48ae 95ba 5b9a 4c3e 78bf 193d
000000f0: f982 9ebe 7e67 263a e244 363d b4d1 fa38
00000100: be8c b83e 5154 9c3e b5db 8aba a293 de38
00000110: 5b41 a1ba 4283 f2bd 1a33 073e fd10 a0b9
00000120: a43f e7ba 7cc3 113a 05b0 17bb 7664 83b9
00000130: 0d2d ffba f523 353a 3fcf d0bd 671f ddb8
00000140: dc7f f23d 4cba 65ba 507e 3439 a153 9c3c
00000150: 4989 843a 4700 27bb de45 443d 9632 8eba
00000160: 57cc be3d 5b2b d93a 566a f4b9 6e32 0f3e
00000170: 7ebf 37b9 3d9b 82bd 4929 3dbe 7528 2cbe
00000180: c423 97b9 dd23 91bc 1b7f e9b9 72e7 8dbe
00000190: f0af 8dbd 8182 273a ff10 f2bd 20b8 86ba
000001a0: 42f2 593e 751f 7f3e 5d4e 94bd 174d 80bd
000001b0: 0f25 4abe 6761 7b3a d3d7 7939 dfee 75bd
000001c0: 96c8 1dba b0b1 193a 085d 4e3a 1b97 3e3d
000001d0: 680b e5ba 0630 38b9 3689 8537 efb8 3bbd
000001e0: f076 1bb8
-0.034262877 -0.00021999021 0.13648753 0.13079354 0.18283208 -0.0014023997 -0.21379937 0.14513154
0.25743484 0.0026996254 0.12789237 0.022026036 -0.0016725879 -0.0051382575 -0.0008491002 -0.0012893121
0.057931136 0.00046409375 -0.0005363362 0.26797652 0.00011625585 0.0016460076 -0.00074628263 0.093468696
-0.0020338732 0.03101937 0.008820953 0.16419394 0.00048828754 -1.0820193e-05 -0.0011118228 -0.0006688694
-0.07891047 0.00427837 0.00035213772 -0.0008008259 -0.0013266145 -0.05507522 0.004948439 0.19035463
-0.09398535 0.0019541676 -0.07390394 -0.00041309482 -0.00042519174 0.12906379 -0.08705467 -0.0007309825
-0.00034193718 0.10756042 0.11722782 0.05942781 0.0014343332 -0.0010753835 0.0021110103 -0.0009916187
-0.000503466 -0.0011419738 0.19980757 0.037536114 -0.309593 0.0006347819 0.044499286 0.00011959989
0.36044878 0.30533078 -0.0010594042 0.00010613284 -0.0012302803 -0.11841442 0.13203087 -0.00030530235
-0.0017642868 0.00055604405 -0.0023145687 -0.00025061116 -0.0019468382 0.000690996 -0.10195779 -0.0001054395
0.118407935 -0.0008763417 0.00017213193 0.019082846 0.0010111715 -0.0025482343 0.047918193 -0.0010848816
0.093163185 0.0016568707 -0.00046618533 0.13984081 -0.00017523576 -0.063772656 -0.1847278 -0.16812308
-0.00028827612 -0.017717296 -0.00044535924 -0.2771564 -0.06918323 0.0006389991 -0.11819648 -0.0010278262
0.2128382 0.24914344 -0.07241509 -0.06264704 -0.19740699 0.0009589404 0.00023826891 -0.06004226
-0.00060189643 0.00058629643 0.0007872139 0.046530824 -0.0017474713 -0.00017565498 1.591873e-05 -0.045830663
-3.706565e-05

attention_cp.linear_hidden.weight_rho f4 [11, 11]
00000000: 3bbb f53e ff59 bec0 0a02 84be ec68 e13e
00000010: e4e0 a3be 4640 bec0 8a08 413e e74f cf3e
00000020: f0f0 4c3e 5819 26be 1b12 0b3f 93a6 293e
00000030: adc8 bec0 47e8 cebf f904 c0c0 30b7 bec0
00000040: 8709 78bf 2738 bfc0 e41f bfc0 ccab f5be
00000050: ce7b bfc0 7f05 bfc0 9de7 bec0 205e 20bf
00000060: 6094 bfc0 e3d5 023f fefd 2e3e f903 d53d
00000070: 3edb bec0 3f44 bfc0 6b47 bfc0 31ad bdc0
00000080: df01 0d3f 4ea8 163f cc3d bfc0 c18c bfc0
00000090: b646 bfc0 920f 85bf 1202 dcbe da22 01bd
000000a0: d5c9 2a3e 27c6 bec0 8301 84bf d05b bfc0
000000b0: 1d82 c0c0 cdd7 99bf 8674 72bf e151 bfc0
000000c0: 15bc bfc0 efaa 01bf 27f9 4a3e ec34 6f3e
000000d0: 65b7 bfc0 10ac bfc0 daef bec0 19c6 bfc0
000000e0: 75c1 bec0 fe7a bec0 1c99 46be 0876 9cbf
000000f0: d202 8ebf 91bd bec0 b6d5 5dbe c70b bfc0
00000100: a008 a0bf a0d3 073f 1c2c bfc0 a2a9 bec0
00000110: 31a6 bec0 d72f ec3e 0f31 f23e 79cb bfc0
00000120: 44a3 bec0 bb8b bfc0 9993 bfc0 d922 bfc0
00000130: 15e9 bec0 4a51 bec0 90e3 b9bf 6e63 bfc0
00000140: fe7e 753e 58f0 bdc0 7f89 bfc0 ce11 d03e
00000150: 19fb bec0 78bd bfc0 420a 3fbf 0397 bfc0
00000160: 2ce4 e73e 9b1b bfc0 ef45 c0c0 df4c aa3e
00000170: 0e09 c0c0 55d8 03bf 9fec eb3e 2a98 b03d
00000180: 1bb1 bfc0 c387 3bbf 0c54 bfc0 67b8 f93e
00000190: e075 84bf 4142 bec0 b752 ae3e 035a bfc0
000001a0: 72ba 85bd e85b cd3e 2fcf fb3e f116 a93e
000001b0: f6bc c9be 39da bfc0 1a13 bfc0 85a2 a9bf
000001c0: a3bc bec0 b99f bfc0 5ae8 bec0 5f9b b4be
000001d0: 8656 bec0 2eaf bec0 ae08 bfc0 f91e 31bf
000001e0: 3362 bec0
0.47994408 -5.948486 -0.25782806 0.44025362 -0.32007515 -5.945346 0.18850914 0.40490648
0.20013785 -0.16220605 0.543245 0.1656745 -5.9619966 -1.6164635 -6.000607 -5.9598618
-0.9688954 -5.9756045 -5.972643 -0.47982633 -5.983863 -5.969421 -5.965773 -0.62643623
-5.986862 0.51107615 0.17089078 0.10401148 -5.964263 -5.977081 -5.977468 -5.9273915
0.5508098 0.5885056 -5.9762936 -5.985932 -5.9773817 -1.0395377 -0.4297033 -0.031527378
0.16678555 -5.9616885 -1.0312961 -5.9799576 -6.015883 -1.2018982 -0.9470905 -5.978745
-5.991709 -0.5065145 0.19821607 0.23360032 -5.991137 -5.9897537 -5.9667788 -5.992932
-5.9611154 -5.9525137 -0.19394344 -1.222352 -1.1094611 -5.9606404 -0.21663556 -5.9701877
-1.2502632 0.5305729 -5.9741344 -5.958207 -5.957787 0.4613025 0.47303054 -5.993588
-5.95743 -5.985807 -5.9867673 -5.973004 -5.9659524 -5.947423 -1.4522572 -5.9808874
0.23974225 -5.935589 -5.985534 0.40638584 -5.9681516 -5.9918785 -0.7462503 -5.987184
0.4529127 -5.97212 -6.008537 0.33261773 -6.0011053 -0.5150197 0.46078965 0.08622773
-5.9903693 -0.7325403 -5.9790096 0.487735 -1.0348473 -5.9455876 0.3404748 -5.9797378
-0.06529702 0.4010918 0.49181506 0.33025315 -0.39401978 -5.9953885 -5.9710817 -1.3252722
-5.960527 -5.9882474 -5.965863 -0.3527479 -5.948062 -5.9588842 -5.9698095 -0.69187886
-5.949487

attention_cp.linear_hidden.bias_mu f4 [11]
00000000: 4eb4 f939 2ac7 7a39 a056 9b36 b53b 35ba
00000010: 90e9 d43c 8458 03ba 5e2e a43a 74aa 2a3b
00000020: 6bfc ab3a 2ecc 05ba e087 4b3a
0.00047627318 0.00023916052 4.6294444e-06 -0.0006913499 0.025990278 -0.0005010443 0.0012526026 0.002604154
0.0013121491 -0.00051039725 0.00077640824

attention_cp.linear_hidden.bias_rho f4 [11]
00000000: 24aa bec0 6dec bfc0 ac8f bec0 d330 c0c0
00000010: 8f84 3c3f f26e bfc0 6802 bfc0 7be6 bec0
00000020: bdae bec0 7b3e bec0 52ee bfc0
-5.958269 -5.9976106 -5.955038 -6.00596 0.7363977 -5.982293 -5.9690437 -5.965635
-5.9588304 -5.945127 -5.997842

fc_dp.weight_mu f4 [1, 13]
00000000: 94f7 6c3f 7a69 bebf e741 27bf 0bbf afbd
00000010: d36b 1fc0 8ed7 aaba c1f6 0fc0 988e 8bbf
00000020: 043e ddba 6388 1f40 694a 123d 4849 5e3a
00000030: c0a0 a2b9
0.92565274 -1.4875939 -0.65334934 -0.085813604 -2.490956 -0.0013034211 -2.2494357 -1.0902891
-0.0016879444 2.4926994 0.035715494 0.00084795477 -0.00031018816

fc_dp.weight_rho f4 [1, 13]
00000000: ddff 1dc0 30c0 43c0 de05 2ac0 0bdb 25c0
00000010: 4d0c 25c0 f14e 56c0 a7da 2fc0 7c12 44c0
00000020: 9bb6 bec0 b35a 2cc0 be46 49c0 83cc bec0
00000030: b585 bfc0
-2.4687417 -3.0586052 -2.656608 -2.5914943 -2.5788758 -3.3485682 -2.7477205 -3.0636282
-5.9597907 -2.6930358 -3.1449428 -5.962465 -5.9850717

fc_cp.weight_mu f4 [1, 11]
00000000: 2ff1 a4bd 3d2b 8c3f 20dd 87bf 9c34 dabd
00000010: 1981 2e3f d3f8 cabe 94ac 00be 2b18 96ba
00000020: caf3 603c 74e7 2bbf 2015 fbbf
-0.080538146 1.0950695 -1.0614357 -0.10654566 0.6816574 -0.39642963 -0.12565833 -0.0011451294
0.013729999 -0.67150044 -1.9615822

fc_cp.weight_rho f4 [1, 11]
00000000: 7d35 14c0 dfec 37c0 84ea 24c0 a5f0 0cc0
00000010: 0345 12c0 66f6 25c0 b7be 1fc0 eecd bec0
00000020: 4407 2ac0 4f40 1dc0 e551 01c0
-2.3157647 -2.8738325 -2.5768137 -2.2021878 -2.2854621 -2.593164 -2.4960153 -5.962638
-2.6566935 -2.45705 -2.0206234

fc_all.weight_mu f4 [1, 25]
00000000: 0875 8fb9 20ad dc3d 938e 2f3e 9a0a 1a3c
00000010: 8e31 b9bb 4296 7abd dee6 1abb 1d0d fd3e
00000020: 6e51 00be f08a de3d feff 723a f1be 82be
00000030: 7b4c 40bb 57eb 4abe fcc4 14bf 2620 afbd
00000040: 5c5f 2239 24f9 85bb 9982 84be 1bcd 1c3e
00000050: ecf1 4b3a 6636 0bbe 6618 03ba c837 aa3f
00000060: 95fb 363f
-0.0002736228 0.107752085 0.17144231 0.009401942 -0.0056516593 -0.061178453 -0.0023636143 0.49424067
-0.12531063 0.10866344 0.0009269713 -0.25536302 -0.002934246 -0.19816338 -0.58113074 -0.08551054
0.00015485048 -0.004088538 -0.25880888 0.15312617 0.00077798846 -0.1359497 -0.0005000889 1.3298273
0.71477634

fc_all.weight_rho f4 [1, 25]
00000000: 6cc8 dfc0 c791 92c0 ce64 9cc0 bbc5 0ac1
00000010: bf30 dfc0 62f4 64c0 6ec0 bcc0 93c0 cdbf
00000020: 8848 72c0 b19f 7cc0 eeed bfc0 d573 36c0
00000030: ecf2 bdc0 56fd 87c0 ccf5 06c0 7d0c 49c0
00000040: aa7c bdc0 7136 bfc0 c21d 39c0 95de 75c0
00000050: 8032 bec0 c96f 6cc0 ffd4 bfc0 4bd5 83c0
00000060: 7a45 83c0
-6.9932156 -4.580295 -4.8873053 -8.673274 -6.9747005 -3.577416 -5.89849 -1.6074394
-3.785677 -3.9472468 -5.997794 -2.8508198 -5.9359035 -4.249675 -2.1087523 -3.1413872
-5.921468 -5.9753957 -2.8924413 -3.8417103 -5.9436646 -3.6943228 -5.9947505 -4.1197867
-4.102231
